yono_compression/yono/data/saved_model/AudioCNN_ninapro-db2-c10_adam_multistep_nomixup.pt (torch, 115283 bytes, 26 tensors)

conv1.0.weight f4 [16, 1, 3, 3]
00000000: deca 043e ceed d6be e65e 0e3c 3300 263d
00000010: ef72 b1be 699a 0bba dc98 74bb 6c5b c43d
00000020: d9de 06ba c34d a9bc 0537 1f3e 85ed b6ba
00000030: 0c8e 113d 1843 6cbe dbe9 043b 43b1 493c
00000040: ad25 0c3c 0564 4d3a 393d 303e 4786 593e
00000050: 666c 2cbe 7e2a 26be 2c19 2abd a78f 20be
00000060: 433a 2a3c f5b7 a5bd f663 4e3e 36a2 773d
00000070: 5549 a0be ecaf 093e 7ce1 453d b726 d73e
00000080: 25c0 c13d 462f 05be 1e9d f9be 3096 4abe
00000090: b99d a23e f631 04be 5c00 be3d 51b0 96be
000000a0: a2e3 b23e 021e 24be 0315 513d efb5 073d
000000b0: 7855 9cbd f478 0e3e 5b35 03be 7eca ff3d
000000c0: 813d d1bd acd2 acbc efd9 b6be bb7c 14be
000000d0: 1023 783e f732 193d 2749 023f 0f85 0f3d
000000e0: cf7e b4bd ac09 63be 8d33 733d cbcf 133e
000000f0: 6e4c 94be 146c 663c 3e14 103e bd36 b53e
00000100: fdae 32be 5dab bbbd e930 cf3c a0a9 063d
00000110: 3708 c4bd 4f1d b9be c86e dc3d 9991 e1b9
00000120: d9f7 d23d ceae 513d 96c4 3c3e 5e5c ca3d
00000130: 0585 65bd dcf4 f53d 18d4 8bbe 1f17 003e
00000140: 7a19 a5be 9e46 96be 54d3 953d a8d1 33be
00000150: f8ef dc3d 3fbd 83be 5406 4cbe 4c97 953e
00000160: b905 02be 4353 523d 7af8 423c 8536 74be
00000170: a7e3 733d 6dad ac3d 93a6 62be 107e 4abe
00000180: 6e39 fb3d 31e3 1f3e bea3 cabd 801b eabd
00000190: 622c 983e dcee 00be a913 233e 3338 d33d
000001a0: deb4 3dbe d8a0 acbe 113f a83e 09e2 8c3c
000001b0: 896a 643e c3c0 643e 5514 9f3d 1327 693e
000001c0: d023 813e 8225 08be db35 05bb 43ac de3e
000001d0: ea1e 663d 6a15 303e 034c d6be bb46 70be
000001e0: a278 88be ef2e a43c 305c a23e 6a09 c6bc
000001f0: aa44 833d fcd6 04be ea05 febe 2de2 68bc
00000200: 3a79 053e bff6 873e b28a c8bd b16b 04be
00000210: 7e60 bf3e acff 153e 9aa5 72bb b2ba fd3d
00000220: a19d 7d3e ff6c ff3d e833 12be 3f9a 87be
00000230: e49b f5bd ce46 2bbe 8cf8 75be fb77 6d3e
0.12968013 -0.41978306 0.008689618 0.040527534 -0.34658 -0.0005325438 -0.0037322557 0.0958775
-0.0005144901 -0.020666962 0.15548332 -0.0013956284 0.035535857 -0.23072469 0.002028099 0.012310329
0.0085539045 0.00078350335 0.17210855 0.21242629 -0.16838226 -0.16227147 -0.041527912 -0.15679799
0.010389867 -0.08091728 0.2015532 0.06045743 -0.31305948 0.13446015 0.04831074 0.42021725
0.09460477 -0.13006315 -0.48752683 -0.19783854 0.31760958 -0.12909684 0.09277412 -0.29431394
0.34939295 -0.16027072 0.05104543 0.03313249 -0.07633489 0.13913327 -0.12813322 0.12489794
-0.10216809 -0.02109655 -0.35713145 -0.14500706 0.24232125 0.03740212 0.5089287 0.035039004
-0.08813249 -0.22171658 0.059375335 0.14434735 -0.2896456 0.014063854 0.14070222 0.35393324
-0.17449565 -0.09163544 0.025291877 0.03287661 -0.09571879 -0.36155173 0.10763317 -0.00043023823
0.103011794 0.051192097 0.18434367 0.09880899 -0.05603506 0.12009594 -0.27310252 0.1250882
-0.32246 -0.29350752 0.07315698 -0.17560446 0.10787958 -0.2573032 -0.19924289 0.29216993
-0.12697496 0.051348936 0.011900062 -0.23848923 0.059543278 0.08431516 -0.22133856 -0.19774652
0.12266813 0.1561401 -0.098945126 -0.114310265 0.2972136 -0.12591118 0.15925469 0.103134535
-0.18526027 -0.33716464 0.32860616 0.017197626 0.22306265 0.22339158 0.0776755 0.22768812
0.25222635 -0.13295558 -0.002032629 0.434908 0.056181826 0.17195669 -0.41854867 -0.23464482
-0.26654536 0.020041911 0.31710958 -0.02417441 0.06409581 -0.12972635 -0.49613887 -0.014214081
0.13034526 0.2655544 -0.09792079 -0.12931706 0.37378305 0.14648312 -0.0037024976 0.12389125
0.24767162 0.12471961 -0.14277613 -0.26484868 -0.119926244 -0.16726229 -0.24020594 0.231903

conv1.0.bias f4 [16]
00000000: 2992 4138 0d72 75b9 17b9 7c38 cb4c 9a37
00000010: 4c47 cfb7 8cbd d535 6302 1137 c3e2 4538
00000020: 6e90 9fb7 aa76 7438 5210 b9b6 4cab 8cb7
00000030: e493 5e35 60fa 6e35 8952 b934 80d1 8eb8
4.6150908e-05 -0.00023407508 6.025386e-05 1.839399e-05 -2.4709523e-05 1.5924902e-06 8.643229e-06 4.717965e-05
-1.9021532e-05 5.8284648e-05 -5.5153296e-06 -1.6769067e-05 8.2916654e-07 8.902625e-07 3.4518987e-07 -6.81011e-05

conv1.1.weight f4 [16]
00000000: 33d6 913f dc18 933f d76f 653f bdad 753f
00000010: 4476 773f 9bde 653f 0045 703f 6ea5 753f
00000020: aff7 783f 2b0b 783f 4911 713f 44c0 5a3f
00000030: e3ff 5b3f f0b5 693f a327 803f 4019 823f
1.1393493 1.1491961 0.8962378 0.9596823 0.96664834 0.89792794 0.93855286 0.9595555
0.97252935 0.9689204 0.94167 0.85449624 0.8593733 0.9129324 1.0012096 1.0163956

conv1.1.bias f4 [16]
00000000: 83b4 573c 8ee4 d23b b8c0 103e a751 58bb
00000010: da58 19bd 87fb 023c c914 163d 498d 7abc
00000020: 22dc bbbd fbcf a03b f5c5 f4bd 7873 673e
00000030: 4199 58bd b6eb c33c 8264 ef3d 928f a7bc
0.013165596 0.0064359372 0.14136016 -0.0033007653 -0.03743825 0.007994539 0.036640916 -0.015292474
-0.091728464 0.0049076057 -0.1195182 0.22602642 -0.05288053 0.023916107 0.11689092 -0.020454202

conv1.1.running_mean f4 [16]
00000000: f513 d438 ad8e d7b8 e7f5 4939 141f b339
00000010: fbf8 1138 17f2 3e39 8afe 0439 e45d 8839
00000020: cb8e 8f39 990a 1639 3fa2 1638 6603 64b8
00000030: 101a 26ba f1bc e036 4543 ebb9 794c d839
0.00010112665 -0.00010278574 0.0001926046 0.00034164696 3.4802575e-05 0.00018209998 0.00012683324 0.00026009895
0.00027381475 0.00014309063 3.591389e-05 -5.43626e-05 -0.0006336281 6.697716e-06 -0.00044872813 0.00041255707

conv1.1.running_var f4 [16]
00000000: db4b 9b3e 4663 9d3d 8bf9 553e 4bdc 363f
00000010: a024 833e 4baf 863e 76cb dc3e 9bbd 893e
00000020: 0da3 883e 74b7 a63e 62ab 5a3e a29d 933e
00000030: d125 dd3e e6f2 e23e 6252 0c3f e449 de3e
0.3033131 0.076849505 0.20895974 0.7142989 0.2561388 0.26305613 0.43123978 0.2690247
0.26686898 0.3256184 0.2135444 0.28831202 0.43192914 0.44325942 0.54813206 0.4341575

conv2.0.weight f4 [16, 16, 3, 3]
00000000: 1f23 babd e101 e73d b52c 823b 16ee 153c
00000010: 4f7d 313c b48a bebc cc45 fabd da74 6f3d
00000020: a80b aabc 73fd 0ebd 59a8 693d 169b 673d
00000030: c8cd 86bc e8ae c93d f64c c53d c374 2b3c
00000040: fc59 f43d 6006 80bc ef9a aebd 42aa 183d
00000050: 88f2 bf3c da49 8d3c c77e 6abd 7034 b73d
00000060: 9774 5dbd ed8d b73c 8418 f5bb e797 ddbd
00000070: 18bd 3bbd 835a efbd ae7d 16bd 3015 a7bc
00000080: 5420 0abd 2d11 18bd 4b7b b73d 2cab 0fbc
00000090: a85a 003c 6453 f43d f0bf c13d e88d a0bd
000000a0: c4d2 f33d 2b54 3bbd 580a 703d 1f6c 6e3c
000000b0: 9391 e23d 712b 9f3c b475 f6bb a580 b93c
000000c0: 698c a93d eb0f 103b 9650 2f3d ca08 0a3d
000000d0: 9789 7b3c d6f9 d23c b94a 963d 97e7 e9bc
000000e0: 54ad 873d 8dd8 62bc 661a 04be 7a83 643d
000000f0: cdf9 0dbd 0a5c 85bd 158f 2cbd 8f7e 21bd
00000100: 21bd bf3d 198b 28bd f498 c53c e43f 873d
00000110: 37ca e13d 6e70 983d 0c33 a63a dd24 2abd
00000120: 7dec fd3d b322 99bd 464b b3bc 1eb3 8c3d
00000130: 2b63 d8bd e626 ce3d 21cc fe3d 55c5 8dbd
00000140: 3e5b 4abd a33f 13bd 306f 183d 5903 f9bc
00000150: 47c7 0cbe 2417 c13c de8d 3ebc d10c 97bd
00000160: ad01 84bd 6075 0e3e bf08 383d c728 aebb
00000170: 484c 84bc 51a6 7bbb 1ad0 a2bc 1fec cdbd
00000180: 6fab d03b e77b 713d b47a 7cbd 7067 f1bc
00000190: 5d31 593d 423a 07ba 9d44 d2bd 5f01 0a3d
000001a0: 8771 3e3d 2f60 ecbd 4319 623d 898a f2bd
000001b0: aa5d 0f3c c1bb aabd ade0 75bc f294 0d3d
000001c0: 7947 babc 7f29 923d 96c3 9dbd c7ac 2abd
000001d0: 3c15 81bd 4fd5 53bc 4b00 f3bd 34e8 983d
000001e0: 5368 da3c e201 953d 61ea 4e3d 06ed 863c
000001f0: 42bd dcbc 12c8 03bb d9df 89bd 1959 ab3d
00000200: c435 923c 8c5d 06bc b3f8 aabc ec66 293d
00000210: 2772 0a3d 11c6 043d b0b8 c43c 4140 e8bd
00000220: 7aa5 82bd 17c6 79bd a2c8 16bd dec8 87bd
00000230: a19e 33bd 45c8 65bd 934a 23bd ef59 12bd
00000240: 3756 8a3d abca 953d 0cea 9bbd 52e0 2a3e
00000250: 272b ca3d 96f8 263d 0443 603d d4e7 a63d
00000260: 5c8f 73bd b66e 3f3d 9172 0a3e c128 7cbd
00000270: 84b4 723d bfd7 173e 2ef3 b73c b17f c23d
00000280: 04be a73d a1a6 5b3b 2164 d6bd 5c1f 03bd
00000290: f8f6 fe3c edba 9cbd 4097 87bb 8501 833c
000002a0: 19cc 0fbe 293c 843c 94d3 493d b4e3 5b3c
000002b0: 8bd7 583d a926 42bc ce42 67bb b7f4 333d
000002c0: 0094 87bc d597 11bd 7458 ef3d 0b75 3e3c
000002d0: 2d53 98bd 54b9 0dbe 0242 08be 2b72 50bc
000002e0: 9c01 afbd 92c1 cfbd b76c 58bd 65af f7bd
000002f0: ddde dbbd bdb2 0dbe fdbb 393c 34d2 92bc
00000300: 4583 71bd e15a 97bd 3f99 81bc 0159 263d
00000310: 4ed2 c2ba 12cf 33bd 4a8e b43c 1b8b 8e3d
00000320: 062d c03c ccc2 ebbc cade 1c3e 2421 983c
00000330: d518 253d fe33 6c3d 177c 28bc 394a 32bd
00000340: e301 be3c 491d 13bc 6ce6 96bd 7e66 3b3d
00000350: e719 133d c9c0 5cbd 667b 943c 6f62 723d
00000360: a560 6ebd 0908 3b3d fad6 073d b82c cfbb
00000370: 4ea7 40bd 6526 cebc b679 193d a526 25bd
00000380: 431d 89bc 44b1 60bd caf9 17bd ef95 21bd
00000390: db6b 1cbe 8f03 86bd 2486 b53c 69ac 4dbd
000003a0: b12e 55bd b1a6 f4bc 240f 663c 12c8 863b
000003b0: a068 6e3c 1fde 76bd 20bc 783d 9d92 22bc
000003c0: f5f5 86bd 232c ce3c 0dc4 f1bc a144 b4bd
000003d0: 3bf2 44bc 8512 afbd 21d4 ccbc 4666 46bd
000003e0: 3b48 98bc 9552 dcbd 2fc5 b63c 79b6 523d
000003f0: 3cb9 1d3d 3c66 28bc cb0a 123d f639 8a3d
-0.0908873 0.11279655 0.0039726146 0.009151002 0.010833099 -0.023259498 -0.12220344 0.058461048
-0.020757511 -0.034909677 0.057045314 0.056544386 -0.016455546 0.09847814 0.0963382 0.01046485
0.11931226 -0.01562804 -0.08525645 0.037271746 0.023431078 0.01724713 -0.05724981 0.089455485
-0.054066267 0.022406543 -0.007479729 -0.10819989 -0.04583463 -0.116871856 -0.03674095 -0.020395845
-0.033722237 -0.037125755 0.08959063 -0.008768838 0.007834114 0.11929968 0.09460437 -0.078395665
0.11905435 -0.045734566 0.058603615 0.014552145 0.11062922 0.019429894 -0.0075213555 0.02264435
0.08278734 0.0021982144 0.042801462 0.03369979 0.015352628 0.025753897 0.07338471 -0.028552813
0.066248566 -0.013845575 -0.12900695 0.05578945 -0.034662057 -0.06511696 -0.04212864 -0.039427336
0.09362245 -0.04114828 0.024120785 0.06603983 0.110248975 0.07443319 0.0012680008 -0.04153906
0.12398622 -0.074773215 -0.02188648 0.068701014 -0.1056579 0.10066013 0.12441278 -0.06922404
-0.04940342 -0.03594936 0.03721541 -0.030397104 -0.13747893 0.023570605 -0.011630503 -0.073754914
-0.06445632 0.13911963 0.044930216 -0.0053149196 -0.016149655 -0.0038398693 -0.019874621 -0.10054802
0.0063680927 0.058956053 -0.061640456 -0.029468268 0.053025592 -0.00051585224 -0.10266993 0.033692714
0.046494987 -0.11541783 0.055199873 -0.1184283 0.008750359 -0.083365925 -0.01500718 0.034565873
-0.022739159 0.07136821 -0.07703321 -0.04166868 -0.06302878 -0.012929275 -0.1186529 0.07466164
0.026661074 0.0727575 0.05051649 0.016470443 -0.026945714 -0.0020108265 -0.06732149 0.083666034
0.017847903 -0.008201014 -0.020870542 0.04135792 0.03380027 0.032415453 0.024013847 -0.113403805
-0.063792184 -0.06097993 -0.036812432 -0.06630109 -0.043852452 -0.056099195 -0.03986604 -0.0357303
0.067547254 0.073140465 -0.07613 0.16687134 0.09871512 0.040764414 0.05475141 0.081496865
-0.05946289 0.04673644 0.13520266 -0.061562303 0.059254184 0.14828394 0.022454824 0.094970115
0.081905395 0.0033516067 -0.10468317 -0.03201233 0.031123623 -0.07652841 -0.0041379035 0.015991936
-0.14042701 0.016141968 0.049274042 0.013420988 0.052939933 -0.011850038 -0.0035287621 0.04393455
-0.016550064 -0.03554519 0.11686793 0.011624585 -0.074377395 -0.13840228 -0.1330643 -0.012722532
-0.08545229 -0.101443425 -0.052838054 -0.12094001 -0.10735867 -0.13837714 0.011336324 -0.017922498
-0.05896308 -0.07390381 -0.015820144 0.040612224 -0.0014863701 -0.04389865 0.022040505 0.06960126
0.023458969 -0.02877941 0.15319362 0.01857049 0.040306885 0.05766677 -0.010283492 -0.043527815
0.023194259 -0.00897915 -0.07368168 0.04575204 0.035913374 -0.05389479 0.018125247 0.059175905
-0.058197636 0.04566196 0.033164002 -0.0063224696 -0.047034554 -0.025164792 0.03746959 -0.040320057
-0.016737586 -0.054856554 -0.03710345 -0.03944963 -0.15275519 -0.065436475 0.02215869 -0.05021325
-0.05204648 -0.02986464 0.014041696 0.0041132057 0.014551312 -0.060270425 0.060726285 -0.009922651
-0.06589881 0.02516753 -0.02951243 -0.088021524 -0.012020643 -0.08548454 -0.025003495 -0.04843738
-0.01858913 -0.10757939 0.022310821 0.05144355 0.03850673 -0.010278281 0.035654824 0.067493364

conv2.0.bias f4 [16]
00000000: 78b1 8335 2ea0 84b8 be6b ce36 d8cd 1738
00000010: eeba 6339 36be 0eb7 7b19 17b8 cf0b 5a38
00000020: 25c4 53b7 896f d438 ed7f c638 b555 6f37
00000030: a04c 30b7 341a 1337 de4a 3d37 da95 3038
9.811911e-07 -6.324086e-05 6.1518213e-06 3.6192912e-05 0.00021718044 -8.5081465e-06 -3.6024936e-05 5.1986248e-05
-1.26222485e-05 0.00010129723 9.465204e-05 1.4265465e-05 -1.0508258e-05 8.767984e-06 1.1282709e-05 4.210123e-05

conv2.1.weight f4 [16]
00000000: ae98 623f 3bdc 5d3f c95e 733f 4f96 5e3f
00000010: 6e76 643f dc86 623f cccc 6e3f 31c4 513f
00000020: 5d91 5c3f e8ff 563f e37f 6a3f 3788 5f3f
00000030: 8aa0 713f 8e40 713f f6eb 703f 523a 663f
0.8851422 0.8666417 0.95066506 0.869481 0.8924321 0.8848703 0.93281245 0.8193999
0.86159307 0.8398423 0.9160139 0.8731722 0.9438559 0.9423913 0.9411005 0.8993274

conv2.1.bias f4 [16]
00000000: 2b2c 94be cdea 70be 5e8a a3be 20f5 6cbe
00000010: 1d06 a5be e71c 9dbe 1628 a2be 3b42 75be
00000020: 7d01 4ebe 4658 86be 8d44 a3be 8177 a3be
00000030: 843b bfbe 1908 bdbe 17dd aebe 66d9 92be
-0.28939947 -0.2352707 -0.31941503 -0.23140383 -0.32231227 -0.30686113 -0.31671208 -0.23951046
-0.20117755 -0.26239222 -0.31888238 -0.31927112 -0.37350094 -0.3692024 -0.34153053 -0.28681487

conv2.1.running_mean f4 [16]
00000000: f35e 2dbb 3497 ccbd c21f 37bf 7b55 be3d
00000010: a383 aebe b718 18be c202 59be ca16 8abd
00000020: 64d7 86bd c1de e7bd 7086 cbbd f434 0dbe
00000030: 8df5 ddbe eed1 32bf 2749 d9be 78e8 65be
-0.00264543 -0.09989777 -0.71532834 0.09293648 -0.34084806 -0.14853178 -0.21192458 -0.06742628
-0.06584051 -0.11321784 -0.09937751 -0.13789731 -0.43351403 -0.6985158 -0.42438623 -0.22451961

conv2.1.running_var f4 [16]
00000000: 6902 1b3e a6e6 c03d 9819 0d3f b7f2 533e
00000010: 27c1 603e a67e f53d af6b 873e 5251 223e
00000020: 088c 823e 6f5d 3b3e cb34 d13d 5a26 d03d
00000030: 8443 bf3e c3ad 153f a1d0 8b3e 76ad 913e
0.15137638 0.09418993 0.5511718 0.20698057 0.21948682 0.11987047 0.26449344 0.15851334
0.2549746 0.18297361 0.102151476 0.10163565 0.37356198 0.58468264 0.2730761 0.28452653

conv3.0.weight f4 [32, 16, 3, 3]
00000000: 4b4b 0fbb 4c04 463c cbf6 b13c c830 073d
00000010: 22da c8bc d448 933c b067 a03c 4073 70bd
00000020: c157 19bc 0b4a c83c b4a9 99bc ead3 2abd
00000030: 4c54 33bc e2d3 c9bb 2124 21bd 3999 2d3d
00000040: 5d92 193d cd38 44bd 6f3b a1be 679d 91bd
00000050: 0975 8ebd c206 5fbe 8c76 cdba dead bdbd
00000060: 868f afbe c855 41bd 5eec ebbd 0dc1 473c
00000070: 849d 8bbd 85c3 a5bd 1d21 4ebc aaf2 3abd
00000080: 551f ffbc 320f 0f3d 2698 d5bd 53d7 9ebd
00000090: a11e 85bd 4739 e0bc 2954 15bd d048 16bd
000000a0: f179 29bc 5a0f 7abd 9c04 d4bd 52f4 ca3c
000000b0: 52e6 88bd 7158 40bc 396d 3dbc cadb 4abd
000000c0: 17e0 a8bd 93de f83c 71de 6dbd c52b 27bd
000000d0: c2bb c73c 3bfa a2bc 5478 be3a 498a 16be
000000e0: 7de3 9fbd d17d 0fbd 92fc d9bd 56aa 7abd
000000f0: dfc5 31bb 5a13 e6bd 17ad 75bc 3dcc 83bc
00000100: 2b6d dc3c d2a6 a4bd 8d14 c73c 2f60 3d3c
00000110: 3043 6cbd 1fa7 743b 75f7 063d eaea bcbd
00000120: 9ed8 58bb b443 9e3c 7356 313d d682 8e3c
00000130: 6d53 90bb 84a8 71bc 9292 b53b 8a75 13bd
00000140: 1c76 a73c 9d74 023d 995c 85bc 4216 893b
00000150: b1aa cf3c a25f ccbc 84ff c13c 7fe9 103d
00000160: a3fc b73c 93e6 3c3d 56b0 d93c f03e 7b3b
00000170: 598a aebd 81e0 01b9 ae4b 76bc a656 0bbe
00000180: 4a52 3c3c 99fb 16bb 3f0c 90bd cf29 a7b9
00000190: e801 963c 7231 a13c 588c 033c aaaa 2abd
000001a0: 490f c33c 58b6 5ebd 8412 f43b c612 153c
000001b0: 59a3 c0bd 4cbd a4bc 35ab 61bd e8ca eebd
000001c0: 61a7 ba3c 469c 6abd dcea 37be 7dc3 133c
000001d0: fc72 8dbd 253e 77be faff 2dbd 820f d1bd
000001e0: 8a19 90be 17c1 06bd cdb0 96bd ef0a 87be
000001f0: b2b1 acbc 2950 d2bd 7535 58be c93f 62bd
00000200: e68e 45bd 946b 3abe ab30 bebd be87 b33b
00000210: ef27 13be c3b3 0fbd 4038 b7bd 1bda c4bd
00000220: 3248 643c 97cb 2dbd 97b7 bbbd a012 37bc
00000230: 048b 14bd 6094 55bd 1599 393d 89ec a4bd
00000240: 14ea 06bd 738a 343d b463 f7bd 7af6 0fbd
00000250: 9298 623d 9cd9 02be 9edc e03c 1c70 dc3c
00000260: c5b9 b0bd 52c7 2b3d 8a36 f6bc 2b24 f2b8
00000270: fc07 5ebc 961d 2fb8 9308 9a3d 0e4e b2bc
00000280: 9dcb 50bd af8d f83c b701 8bbd 2fd6 fbbd
00000290: d211 933d 2b53 3cbc 9b63 abbd 3568 9f3d
000002a0: 2f3e ee3c e671 27be dbd2 98bc 085e 07be
000002b0: 9510 b2bb d1ab 05be 0f7a d6bd 0bd5 d6bc
000002c0: b51e ddbd 0913 09be 9907 193d 69e7 ca37
000002d0: e397 0f3e 40f9 7fbd 1112 8f3d 88ee f13d
000002e0: 6246 c0bc 3808 4b3d 9712 b93d 272e 9fbd
000002f0: 6d42 fa3c b5fd 453b 39e2 1fbb 81b6 bd3c
00000300: 156f 01bd 28a1 86bd 790f 80bd df71 26bc
00000310: 1204 353d 4725 78bd 4518 e3bd 4025 ce3c
00000320: 67bb 723c 1b88 11bd b5c0 6e3d 20e8 c63c
00000330: 137b 1ebd 0c67 9637 5ac3 8f3d c056 37bd
00000340: 4e0d c43c a8a2 11bd a3ef 6abd 2b0f 2fbc
00000350: bac3 413c 4d3b cdbd 7087 673c 9b55 5d3c
00000360: 433c 013d abfd c03d 902c 01be d423 a7bc
00000370: 022b 5e3d 6319 2ebe 9f34 a13b 8f03 413c
00000380: 3214 9bbd 643c 9b3d 26a3 6e3d 0b83 4bbd
00000390: 4051 5b3d c886 b93d 51f2 6abc 2b1b 99bc
000003a0: 4187 033d 5f0a 95bd e4ed 5b3d d599 b0bd
000003b0: 9837 87bc 5312 893d 29eb 0dbd 0dd8 62bd
000003c0: 63ea 133d 82c6 f43d 3286 9fbd a8d7 7b3d
000003d0: 0898 983c 2d83 de3a 52eb ce3d cd3c ff3c
000003e0: 94e5 4abd a795 813c 30ff 903c 3646 343d
000003f0: 87ff 53bd e434 b2bd 0adf 54bd c223 e9bd
-0.0021864946 0.012085985 0.021724125 0.033005506 -0.024518076 0.017979063 0.019580692 -0.05870366
-0.009359301 0.024449369 -0.018757679 -0.041706003 -0.010945391 -0.0061592916 -0.039341096 0.042382453
0.0374931 -0.047905732 -0.31490657 -0.071101 -0.069559164 -0.21779922 -0.0015675589 -0.09261678
-0.34289187 -0.047200948 -0.11519693 0.012192023 -0.06817153 -0.08093933 -0.012581137 -0.04564158
-0.03114287 0.0349266 -0.10429411 -0.077559136 -0.064999826 -0.027371062 -0.036457215 -0.036690533
-0.0103440145 -0.061049797 -0.10352442 0.024774704 -0.06684555 -0.011739836 -0.011561685 -0.049526013
-0.08245867 0.03037957 -0.058073465 -0.040813226 0.024381522 -0.01989471 0.001453171 -0.14701189
-0.07807062 -0.035032097 -0.10643877 -0.0611976 -0.0027125997 -0.1123416 -0.014994881 -0.0160886
0.026907524 -0.08039631 0.024301792 0.0115585765 -0.057681262 0.0037331057 0.032950837 -0.09224494
-0.0033088098 0.019319393 0.043295335 0.017396372 -0.0044044764 -0.01474965 0.005541154 -0.036000766
0.020442061 0.031849492 -0.016279506 0.0041835615 0.025349947 -0.024947945 0.02368141 0.03537893
0.022459334 0.04611833 0.026573341 0.0038337074 -0.085224815 -0.00012386033 -0.015032692 -0.13607273
0.011494229 -0.0023038147 -0.07033586 -0.00031883872 0.018311456 0.019676898 0.008029066 -0.041666664
0.023811 -0.054373115 0.0074484963 0.009098714 -0.09406156 -0.020109795 -0.055094916 -0.11659795
0.02278489 -0.05727794 -0.17960685 0.009018776 -0.06906697 -0.241448 -0.042480446 -0.10208036
-0.28144485 -0.03289899 -0.07357941 -0.2637553 -0.021080825 -0.102691956 -0.21114142 -0.05523661
-0.04823198 -0.182051 -0.092866264 0.005478828 -0.14370702 -0.035083544 -0.08946276 -0.09611913
0.013933228 -0.042430487 -0.09165876 -0.011173874 -0.036265388 -0.052143455 0.045312006 -0.08052928
-0.032938078 0.044077348 -0.12079564 -0.035147168 0.055321284 -0.12778324 0.027448948 0.026908927
-0.08629183 0.041938134 -0.030055303 -0.00011546196 -0.013551708 -4.1750805e-05 0.07521167 -0.021765735
-0.05097543 0.030340998 -0.067874365 -0.12296712 0.07181133 -0.011494438 -0.083686076 0.07783548
0.029082386 -0.16352043 -0.018655231 -0.13219464 -0.0054341056 -0.13053824 -0.104724996 -0.026224634
-0.107968725 -0.13386168 0.03736076 2.4188035e-05 0.14022784 -0.062493563 0.06985868 0.11813074
-0.023471061 0.049568385 0.09036749 -0.07772475 0.030549252 0.0030211036 -0.0024396314 0.023158314
-0.031600077 -0.06573707 -0.06252951 -0.010158985 0.044193335 -0.060582425 -0.110886134 0.025164247
0.014815188 -0.03553019 0.05828925 0.024280608 -0.03869159 1.7929378e-05 0.07019682 -0.044760466
0.023932125 -0.03555551 -0.05735744 -0.010684769 0.01182645 -0.10021076 0.014131412 0.013509179
0.03155161 0.09423383 -0.12614655 -0.020402826 0.054240234 -0.17001872 0.004919603 0.011780634
-0.07572211 0.07579878 0.05826106 -0.04968552 0.053544283 0.090589106 -0.014339999 -0.018689713
0.03211141 -0.07277369 0.053693667 -0.08623091 -0.016506001 0.06692948 -0.034648094 -0.055381823
0.0361122 0.11951925 -0.077892676 0.061484963 0.018627182 0.0016976349 0.101034775 0.031156922
-0.04953535 0.01581843 0.017699808 0.04401227 -0.05175736 -0.08701494 -0.05197052 -0.113837734

conv3.0.bias f4 [32]
00000000: c6bb 8636 349a b237 05b6 8cb7 6e65 5638
00000010: dcf8 8ab7 c900 9838 75f9 5eb7 862d d037
00000020: 8a80 0fb6 f94a 1637 a328 b636 040c 7eb7
00000030: 7adc 10b8 37fa 87b7 aa87 f937 113b 3837
00000040: ad55 b6b8 245d e837 16b2 9737 cc51 8137
00000050: 811c 63b7 aad0 b7b7 20da 6337 33ae 9f37
00000060: 59a4 0538 af53 09b8 7f1b bd37 40e8 2437
00000070: 8747 c337 fd83 87b6 6f6e ac37 eac6 beb6
4.015371e-06 2.129106e-05 -1.677406e-05 5.111604e-05 -1.6566766e-05 7.248071e-05 -1.3290312e-05 2.481673e-05
-2.138348e-06 8.958153e-06 5.4287534e-06 -1.5142377e-05 -3.453761e-05 -1.620977e-05 2.9746287e-05 1.0981007e-05
-8.694395e-05 2.7699927e-05 1.808353e-05 1.5416088e-05 -1.3536891e-05 -2.1912467e-05 1.3581041e-05 1.9035395e-05
3.186273e-05 -3.274128e-05 2.254336e-05 9.829237e-06 2.3279119e-05 -4.038679e-06 2.0555422e-05 -5.685598e-06

conv3.1.weight f4 [32]
00000000: 4d75 813f 3e34 5f3f 2dc9 823f 63f9 8e3f
00000010: 864c 7c3f 5fb7 8d3f 32c7 8f3f 8676 8a3f
00000020: ced5 6a3f 28f3 8e3f f6da 833f 712d 833f
00000030: 093f 853f 055f 7e3f fec4 693f 92be 743f
00000040: 3aa4 803f c6f7 783f 87e7 7e3f 6145 643f
00000050: 74d9 623f 09e6 843f bde4 673f a594 743f
00000060: 3663 813f 3fc7 5f3f cdb5 813f 4aa9 823f
00000070: 7a98 583f ade3 693f b092 823f 552d 4c3f
1.0113922 0.8718909 1.0217644 1.1169857 0.98554265 1.1071585 1.1232665 1.081742
0.9173249 1.1167955 1.0301197 1.0248243 1.0409862 0.9936374 0.9131621 0.9560329
1.0050118 0.9725307 0.9957203 0.89168364 0.8861306 1.0382701 0.905834 0.95539314
1.0108402 0.874134 1.0133606 1.0207913 0.8460766 0.9136303 1.0201015 0.7975667

conv3.1.bias f4 [32]
00000000: 74df bdbd d6d8 dabd 3c09 25bd 8803 803c
00000010: fc3c 2fbd faf7 d43c 3f52 13be 58e4 833d
00000020: 0881 88bd fc9f bbbd cc1e cdbd 0c29 cbbd
00000030: 920f 993b 8a19 7bbd 0de1 0cbe 9993 c9bd
00000040: c4bc a9bd b3ee 8cbd 4e33 1cbe 445f 6cbd
00000050: 09af 37be 801f 14be 4901 92bd 80e8 9ebd
00000060: 3766 78bd ea21 42be 5b8c 04be 9180 05bd
00000070: 9fa5 cebd a083 12be 688b 53be f952 acbd
-0.09271136 -0.106858894 -0.04029201 0.015626684 -0.04278277 0.02599715 -0.14386843 0.064400375
-0.06665236 -0.09161374 -0.1001564 -0.099199384 0.0046710456 -0.061303653 -0.13757725 -0.09842605
-0.08287957 -0.06881466 -0.15253946 -0.05770804 -0.17937864 -0.14465141 -0.071291514 -0.077591896
-0.060644355 -0.1895825 -0.12944166 -0.032593314 -0.100901835 -0.14308023 -0.20658648 -0.08414263

conv3.1.running_mean f4 [32]
00000000: 924a 02bf 221e 8bbe 32da ddbe 02c4 d3be
00000010: 953b f2be a310 d0be 35b9 f7be 7dc5 cbbe
00000020: d85e 92be 6afd 02bf a23f c7be af18 b3be
00000030: 7064 0fbf 1240 61be cad9 b4be cc84 a3be
00000040: f49c 15be 0729 9ebe a8cd c3be e3df e1be
00000050: 0747 2ebe 6ed8 e8be 872b 0dbe afe2 9dbe
00000060: 48e4 afbe c993 53be e9b8 c7be 7991 cfbe
00000070: 26fb e5bd 0651 bbbe 299a dabe 9c0e 493d
-0.50895035 -0.27171427 -0.43330532 -0.4136048 -0.47311082 -0.40637693 -0.4838349 -0.3979911
-0.28587985 -0.5116793 -0.38915735 -0.3497977 -0.5601263 -0.21997097 -0.3532241 -0.31937253
-0.14610654 -0.30890676 -0.3824284 -0.44116125 -0.17019282 -0.45477623 -0.13786136 -0.30837008
-0.34353852 -0.20661844 -0.39008263 -0.40540674 -0.112295434 -0.36585253 -0.4269574 0.0490862

conv3.1.running_var f4 [32]
00000000: 8fe9 363e 8ddf 383e 17c3 e83e 6cdd cc3e
00000010: dc92 a73e 9dc9 e23e 21d0 c43e a7f0 ab3e
00000020: c249 883e 2814 013f d204 cb3e 6664 f53e
00000030: 6a0e ce3e 59c5 203e d2ec 003e 23e8 a93e
00000040: 7d34 9c3e 9032 953e 7899 f13e 81ff 373e
00000050: e88c 6c3e bb1c c83e e020 633e 11c1 993e
00000060: d638 823e 7fa3 653e addd 873e bf10 413e
00000070: 6792 863e fc1a ee3d ef71 eb3e 2d4d 353e
0.17862533 0.18054028 0.45461342 0.4001268 0.32729232 0.44294444 0.3844004 0.3358204
0.26618773 0.5042138 0.39652115 0.4792816 0.40245372 0.15700282 0.1259034 0.3318492
0.30508795 0.2914014 0.471874 0.17968561 0.23100626 0.3908442 0.2218051 0.3003011
0.25433987 0.2242565 0.26536313 0.18854044 0.2628357 0.116262406 0.45985362 0.17705221

conv4.0.weight f4 [32, 32, 3, 3]
00000000: d20a 6dbd e5d8 933c a659 8c3d fa81 c4bc
00000010: 09d1 9abc 37cf f53c c650 c3bc 2eab 96bc
00000020: 2e7a e5bb e721 65bb 5f36 dbbc 3b8a 0dbe
00000030: b9b7 aabc c5fb 0a3a fc8b 76bd 8f5a 603d
00000040: 7ef2 1cbd 748f dcbd f548 bc3d f799 a93d
00000050: 778d 543d e229 bc3c 8a5f 4d3d 3496 393d
00000060: c06e ce3c 8609 953d 9310 c03d 3369 07bd
00000070: 6207 d9bd 1763 f73d 63ff 40bc a3ea 5cbd
00000080: 6c8f ca3d ef31 bfbc d562 22bd 2203 133e
00000090: b6cb 1d3d 6929 c53c 3cec 8a3c 6754 e3bb
000000a0: c976 4a3d 79c4 f23b 79c5 bdbd ede8 9f3d
000000b0: a8d6 d13d 7f6e 173d e02b 0b3c 2718 44bd
000000c0: 3d7c 503d 0fb4 4dbd 717b 64bc eefa 143d
000000d0: 1f8a a9bd 95c9 87bd 1287 abbc e1ad bd3d
000000e0: 633c f63d d4b6 d8bc caf4 023d 1df2 243d
000000f0: 532e 90bd 67c6 293d e100 e33d 7732 fa3c
00000100: f603 103d a37a 76bb 2082 283b a713 013d
00000110: ebfc 9cbc c32b 603d c590 b43d efd8 10bb
00000120: f3f9 e0bd 8563 c1bc 1595 863c 4b49 70bd
00000130: c800 86b8 c6a7 7a3c 9e25 04be ce1d 353c
00000140: f5e8 d23c e311 1e3d 433a aabc 86eb c83c
00000150: caef a6bc 926d 22bd 5c54 d0bc e49f a8bb
00000160: cf29 7cbd bf59 0a3d 1fff 823d c207 4ebd
00000170: f02d 1e3d 6892 04bd 192c e53a 2459 e63b
00000180: 4f29 a03d e77b bd3c df9b 8c3c 9e31 bbbd
00000190: b764 29bd e3bd 80bd 8e15 803b 7ea6 debd
000001a0: 66cd 38bd 90a4 68bd 679b bebd 8c81 2cbd
000001b0: 12e4 84bd 5a0f 1fbd 8040 f5bd e83e 11be
000001c0: 1bcb 87bd c56d 93bd 602f b1bd 90c5 7fbd
000001d0: 2a18 bcbd 735a 283c 30ea 0f3d b6cd 3c3e
000001e0: 337e 18bb 3716 1e3d e5ae c33d c1bf 083d
000001f0: 0754 ce3c f515 053e 6898 e1bc 92b7 39bb
00000200: e0fb 80bd bf50 80bd 99d5 af3c 0575 acbd
00000210: 2b76 72bb f8f1 dfbc 8d9b bbbc f2f1 e2ba
00000220: 3e59 19be b82c 2d3d 7859 3dbd ba15 98bd
00000230: 43a5 a7bb 51c1 4ebd 5a54 0fbe d50c 01bb
00000240: a882 703d 4681 60bd 07d5 8cbc a4f3 533d
00000250: 052f fcbd b475 403c b601 5b3d 5607 cabd
00000260: b108 a23c d264 91bc e695 6c3d 7ebe 843d
00000270: 59f5 5bbd b71e ef3b 6c5b 8c3d b665 89bd
00000280: e91c 873d b178 253d f151 a73d efc7 f7bc
00000290: 416a 6dbd 0588 22bd 6486 3fbd f0f4 a9bd
000002a0: ab0e 2a3b 8046 d2bc 1cb1 abbd 0c18 583d
000002b0: ad99 be3b 2856 c1bc 5bff b63c 5c29 ad3c
000002c0: 4615 17bd 5476 363d b73a eb3c 4550 3a3d
000002d0: 4d98 e43b c1c3 c9bd 1e0c f3bb 08a0 243d
000002e0: e0ef 39bc 036b 17bd 759f d3bc 248b b9bd
000002f0: 0f5f dbbc 092f 113d 1843 41bd bf45 50bd
00000300: 500e 913d f158 7dbc abae bbbd 7f48 803c
00000310: 586a 093d 25b2 a2bd dee9 76bc ef96 013d
00000320: 86e4 f8bc a2e7 b3bc d886 c73c 4d70 0c3d
00000330: 14c5 68bd 7cbf fbbc bfab 093b 2318 bdbb
00000340: b3bc 7d3c 0787 96bd c874 e43c 433b 54bc
00000350: 443b 25bc be07 6abc 2f0b ecbc ab91 d4bc
00000360: 305b 95bb d946 9cbb 316f 17be 9ff1 823c
00000370: ab0e 853c 35ab c5bd 400a 02bc 1676 0e3a
00000380: 9e71 a9bd 7e26 98bd 5c57 54bb 035a 30bc
00000390: e28a 8abd bacb a1bc e088 8dbb 823c adbd
000003a0: fe63 863d 2009 9bba 49df e9bd 5ee2 59bd
000003b0: 9225 6cbc 5362 8abd 24d7 45bd 69e8 08bd
000003c0: 509e 08bd 40f0 32bc 1bf9 28bc 80d1 ae3d
000003d0: 34c1 36bd 83f9 b5bc a8d9 c33c fb61 79bd
000003e0: 5077 90bd 01d8 443c 6aa6 35bd fb62 a63c
000003f0: aeca f8bc 3b99 d4bc 0af9 ab3c 9d9a d3bc
-0.057871647 0.01804776 0.068530366 -0.023987759 -0.018898504 0.030006034 -0.023842227 -0.018392172
-0.0070030903 -0.0034962834 -0.026759325 -0.13822262 -0.020839559 0.0005301799 -0.060192093 0.054773863
-0.038317196 -0.10769549 0.09193603 0.082813196 0.051892724 0.02296919 0.05013994 0.04530926
0.025199294 0.07277207 0.09378161 -0.03305931 -0.10597111 0.12079447 -0.011779639 -0.053934705
0.09890637 -0.02333924 -0.039645035 0.14356664 0.038524352 0.024067597 0.016958348 -0.006937552
0.04942969 0.0074086753 -0.092661805 0.07808099 0.102460206 0.03697061 0.008494347 -0.047874596
0.050899733 -0.050220545 -0.013945446 0.036372118 -0.08278298 -0.066302456 -0.02093843 0.092616804
0.120232366 -0.026454367 0.03197173 0.04026996 -0.07040086 0.041448977 0.11084152 0.030541642
0.035160027 -0.0037609718 0.0025712326 0.031512883 -0.01916357 0.054729234 0.08816675 -0.0022101959
-0.10985174 -0.023607025 0.01642851 -0.058663648 -6.3897634e-05 0.015298789 -0.12904975 0.011054469
0.025745848 0.038591277 -0.020779734 0.024526369 -0.020378012 -0.039655276 -0.02543085 -0.0051460136
-0.06156331 0.033776995 0.06396317 -0.050300367 0.03861803 -0.032366186 0.0017484456 0.0070296694
0.07820379 0.02313037 0.017164169 -0.09140323 -0.041355815 -0.06286218 0.0039088195 -0.108715996
-0.04511776 -0.056797564 -0.093069844 -0.042115733 -0.064888135 -0.038833 -0.11975193 -0.14184153
-0.06630536 -0.07198671 -0.08651614 -0.06244427 -0.091842964 0.010275471 0.035135448 0.18437847
-0.002326858 0.038595404 0.09554843 0.033385996 0.025186552 0.12996657 -0.027538493 -0.0028338176
-0.06298041 -0.06265401 0.021464156 -0.08420757 -0.0036996703 -0.02733706 -0.02290132 -0.0017314537
-0.1497545 0.042278975 -0.046227902 -0.07426019 -0.0051161363 -0.05047733 -0.13997021 -0.0019691486
0.058718354 -0.054810785 -0.017191423 0.051746026 -0.12313656 0.011746813 0.05346843 -0.098646805
0.019779535 -0.01774827 0.05776014 0.06481646 -0.05370078 0.0072973627 0.06853375 -0.06708853
0.06597311 0.040398303 0.08169926 -0.030246703 -0.05796266 -0.0396805 -0.046759024 -0.08298671
0.0025948684 -0.025668383 -0.0838339 0.052757308 0.0058166594 -0.023600653 0.02233856 0.021137886
-0.036885522 0.04454644 0.02871452 0.045486707 0.0069761635 -0.0985179 -0.007417216 0.04019168
-0.011348695 -0.03696729 -0.025832871 -0.09059742 -0.026778726 0.035445247 -0.047183126 -0.050847765
0.07082808 -0.0154631 -0.09164175 0.015659569 0.033548683 -0.079441346 -0.015070407 0.031638082
-0.030382406 -0.021961037 0.02435629 0.034286786 -0.056828573 -0.030730955 0.002100691 -0.0057706996
0.015486884 -0.07349973 0.027887717 -0.012953582 -0.010084931 -0.014284072 -0.028813927 -0.025948366
-0.0045579895 -0.004769188 -0.1478851 0.015984355 0.016242346 -0.09651796 -0.007937014 0.00054344663
-0.08273624 -0.07429217 -0.0032400703 -0.010763648 -0.06764771 -0.019750465 -0.0043192953 -0.084588066
0.06562041 -0.0011828281 -0.114195414 -0.053194396 -0.014413254 -0.06757035 -0.048300877 -0.03342477
-0.033354104 -0.010921538 -0.010313298 0.08536053 -0.044617847 -0.022213703 0.023907498 -0.060884457
-0.07054007 0.01201439 -0.044348158 0.02031087 -0.030370083 -0.025951972 0.020992775 -0.025830561

conv4.0.bias f4 [32]
00000000: b0a8 8f36 2f87 7636 c5a2 7e37 ea5c 3eb7
00000010: f43c 07b7 2a04 f8b5 52ac d336 43bc 2a37
00000020: 789c 6ab7 aa55 5337 cd6e 8c36 b77c 1138
00000030: 1afa 6c37 20d4 7c37 0837 8db5 f69d cf34
00000040: b14d cdb6 a256 2cb6 311f ca36 8615 85b6
00000050: a0f7 8737 5adc 7c35 7cdb 9d37 01a7 0ab6
00000060: f593 b5b7 e002 b637 ed06 8a35 3081 1837
00000070: 1af8 6337 7511 33b7 56ee 93b7 56b4 ceb7
4.28137e-06 3.6735544e-06 1.51774775e-05 -1.1346516e-05 -8.060819e-06 -1.8478652e-06 6.3083507e-06 1.0176623e-05
-1.3983918e-05 1.2596525e-05 4.185224e-06 3.4686844e-05 1.41249275e-05 1.506976e-05 -1.0521335e-06 3.8671686e-07
-6.1185206e-06 -2.5680424e-06 6.0237003e-06 -3.9662145e-06 1.6208563e-05 9.419797e-07 1.8818064e-05 -2.0660812e-06
-2.164578e-05 2.169743e-05 1.0283817e-06 9.089985e-06 1.358802e-05 -1.0673296e-05 -1.763475e-05 -2.464109e-05

conv4.1.weight f4 [32]
00000000: 8296 b23f 9036 923f 82cd 8f3f 2ffe a53f
00000010: decc 993f cec3 a73f 9c4a 973f 0ee3 a33f
00000020: 2744 993f 0b64 a33f 5868 8c3f 7b71 943f
00000030: 02ae 9e3f b77b 8e3f 618f 963f 2e2f 983f
00000040: 856c ab3f 824f a03f 618a 963f 06bd 973f
00000050: 1d27 9d3f fad4 a53f c7a5 a83f 0ae8 a33f
00000060: 685e 913f 4bbc 983f 7063 933f 0cf0 983f
00000070: ead5 ae3f c283 a63f 9a5a ad3f 0d38 a53f
1.3952181 1.1422901 1.1234591 1.2968196 1.2015646 1.310663 1.1819644 1.2803667
1.1973923 1.2764906 1.0969343 1.1597131 1.2396853 1.1131505 1.1762506 1.1889398
1.3392493 1.2524264 1.176098 1.185456 1.2277561 1.295562 1.3175591 1.2805188
1.1356936 1.1932462 1.1514721 1.1948256 1.3659031 1.3008959 1.3543274 1.290773

conv4.1.bias f4 [32]
00000000: 9844 2c3a 6a4e 21be 75ed 8abd eb6c 09bd
00000010: 5ad3 fcbd b1e8 31be 6ff2 efbd 7b19 34bd
00000020: a6d2 32be 4df6 23bd c00d 8dbd 8e93 a2bd
00000030: 035b 91bd 45a8 ffbd bd9e dabc 38da 17bd
00000040: d703 c2bd dabf 31bd 92e1 04be fc4a b6bd
00000050: 2d4a 9dbd 56ff 15be 3ac3 8ebc 789f 23be
00000060: bf8d 60bd 8d6f 9abd e83c acbd 36d9 8ebc
00000070: 6987 a6bb ba06 adbd b16e 14bd 8b75 52bd
0.00065715006 -0.15752569 -0.067835726 -0.033551138 -0.123449996 -0.17373921 -0.117161624 -0.043969613
-0.17463169 -0.040029813 -0.06887388 -0.079383 -0.07097437 -0.12483267 -0.02668702 -0.037073344
-0.09473389 -0.043395855 -0.12976673 -0.08901021 -0.076801635 -0.14648184 -0.017427076 -0.15978801
-0.05482268 -0.07540808 -0.084100544 -0.017437559 -0.00508206 -0.084485486 -0.036238376 -0.05138163

conv4.1.running_mean f4 [32]
00000000: 8fd2 dabe 40fb 713e 957d 78bd 1815 17be
00000010: 31c1 bc3d c03f 9cbe e53e c4ba 759a edbe
00000020: 7e4d 3cbe 8a20 1c3c bc25 b0bd f4b3 b0be
00000030: f741 80be 97bc 8c3e 2831 63be 15bc 0abe
00000040: a14f 1b3e c877 073e 2e76 e2bd ac9c 16bf
00000050: 942c 80be 4a8e 64bd 9c05 90be 3e2c 43bd
00000060: 2396 90be e4d1 84bd 0724 1bbe f571 e7be
00000070: 04d5 babe efd9 883d a2f4 afbe d799 a4be
-0.42738768 0.23631 -0.06066664 -0.1475414 0.09216536 -0.30517387 -0.0014972357 -0.46406904
-0.18388936 0.009529242 -0.08600947 -0.34512293 -0.25050327 0.27487633 -0.2218672 -0.1354831
0.15167095 0.13229287 -0.11057697 -0.5883281 -0.2503401 -0.05579976 -0.2812928 -0.047649615
-0.28239545 -0.06485346 -0.15150462 -0.4520413 -0.36490643 0.066821925 -0.34366328 -0.3214862

conv4.1.running_var f4 [32]
00000000: 129e 213e d0d7 413e 1003 e63d f662 1e3e
00000010: 28e2 0d3e 79f9 c93d 8674 f33d 1a74 f23d
00000020: 0899 173e 6e2b 2d3e a4f8 e83d 8fbd 0d3e
00000030: 9c78 e53d 96df 0d3e cc21 2b3e 9a60 f13d
00000040: 940f 483e afec ec3d be98 1d3e d69a 213e
00000050: 71e8 0f3e c873 0e3e fc70 1a3e 51c4 f33d
00000060: 74af 143e 7eb8 eb3d 17e9 ee3d be3b 083e
00000070: 1243 d53d c4a3 213e d07f ee3d e135 d53d
0.15782955 0.18929982 0.11231053 0.15467438 0.13855803 0.09862036 0.118874595 0.11838551
0.1480447 0.16911098 0.113755494 0.13841842 0.11204645 0.13854823 0.16712111 0.117860034
0.19537193 0.11568581 0.15390298 0.15781721 0.14053513 0.13911355 0.15082163 0.11902679
0.14520055 0.115097985 0.11665552 0.1330404 0.10413183 0.15785128 0.11645472 0.10410667

fc.weight f4 [10, 960]
00000000: 26c3 f6bd 29cc 3d3d c444 39be 0534 d5bd
00000010: b442 903d 3445 11be ce8c 9dbd e831 823d
00000020: a75b 9dbd 5d52 afbd 98df 9c3d 1573 c1bd
00000030: 40db a5bd de50 163d 6da8 a3bd 7656 e9bd
00000040: bb08 593d 66a2 96bd 55ab f0bd 9963 8b3d
00000050: f74b 0bbe 77e3 92bd 7f25 563d 0749 f3bd
00000060: 9b36 0cbd cb88 4a3d 613e 1bbe dee6 39bd
00000070: da6d a43d b0f4 97bd e10b 03bd 65c4 133d
00000080: ed58 2fbd 522c 31bd b7af 6a3c aaea b4bd
00000090: af73 0cbc f52e c0bb 9c0a 5bbe dd89 cbbc
000000a0: 0ce8 493d 1a19 25be 9a9e 08bd 27e9 e83c
000000b0: 9ec9 44bd d26c 013d 6b84 b63d 7633 5abd
000000c0: 1ae3 28bd f8b7 c4bb 2949 1fbe 115c febc
000000d0: 5d00 e33c 68d5 2fbe 2ee1 ca3c 576b 683c
000000e0: fc01 1cbe 93ea 14bd 58b1 1d3d 159f 54bd
000000f0: 4882 d2bc 1e07 2bbd e3d3 1eb9 0cde 54bd
00000100: 20ee 0bbe ac80 20bd 508c b9bd 27d9 68be
00000110: c694 bbbd 792c d5bd ebf6 f5bd 7458 76bd
00000120: d871 88bc c443 63bd 5acc 0cbd 0e68 47bd
00000130: c27c 03be 707a 1cbd 9949 3dbd 8ffa 0bbe
00000140: 23a7 98bd 8868 30bb bfc7 57be 4f1a 95bd
00000150: 716e 8bbc 2d8b c1bd d24f 16bd 6d55 c8bc
00000160: 95ec bdbd 5be1 69bd 1166 bfbd ffe6 29be
00000170: a232 473d 01d4 a7bd e747 5bbe f177 083d
00000180: 4168 1bbe f1da 60be 2df9 113d bf94 11be
00000190: fae8 48be a95a fe3c 581f e2bd cf84 49be
000001a0: 130f da3c 6113 10be a474 6dbe a6a7 583d
000001b0: 3083 5bbd 5402 88be 95d7 b73c d14f efbd
000001c0: 3bb6 60be 4a28 1d3d f9b8 00be dded 05be
000001d0: de5f a83c 253d ebbd 5cb2 10be fe83 dc3c
000001e0: 79bb 91bd dc84 0e3d f469 b43d 8a87 0fbd
000001f0: e9a5 15bd e502 063d 40c0 e63c 16b1 673d
00000200: 5ec5 d33c 30cb 283d 8715 733d acc8 533c
00000210: f3e3 21bc 6c95 1b3d 650b 2b3d 8e87 76bd
00000220: 2227 073d c4d6 793d d602 7fbc 67e2 9b3c
00000230: 2cce 3d3d 442b fc3b 71cf 843d 03c6 633d
00000240: 5f50 593b 59ef 643d e836 713d cb2b 4cbc
00000250: de53 503c d28d 523d 98dd a33c fcda a33c
00000260: f97a 4c3c bb3a ac3c 4890 083d 8c21 1b3c
00000270: ea30 213d 7c0d bb3c fd44 c43c b8a5 c93d
00000280: 020e 383d b46b 97bd 66c9 783d 2a81 6f3d
00000290: 28ab 61bd ba9d 513c 0d78 8a3c 7f41 12bc
000002a0: 6638 843c 2222 133d 4978 1fba e85e 7e3d
000002b0: 8fe5 143c afe4 51bc c405 793d 1ce6 813d
000002c0: 52ff 61bd 52e4 fb3b 23b6 e03d 2282 95bd
000002d0: 5753 dcbc b141 0dbe 2617 8e3b e342 373c
000002e0: 43bd 1fbe d7de 593d 9f48 61bd d9c1 d2bd
000002f0: a4b6 fb3b d814 47bd d6ed 7bbd c863 313d
00000300: 5fd1 29bc 721e d4bd cb93 3c3d ad43 b13a
00000310: e51d eebd 205b a53c 04b4 45bc b1ed 14be
00000320: 608f 1c3d e336 01bd b9f4 cabd f3f0 303d
00000330: 4c57 63bd 0064 7fbd 82fc 653d e816 74bb
00000340: 1e2c dbbd 54f7 0a3d 73e4 41be 914b b3bd
00000350: f6a8 9e3d d7d9 8dbd 799a 8abd aace 9c3d
00000360: 1c34 d0bd 9c24 24bd 3743 a53d be20 d2bd
00000370: 8ce9 cabd 8ca2 1e3d 2c02 94bd 4a9c 8ebd
00000380: c5ab 3c3d fb6c 06be 3999 32bd 467b 9b3d
00000390: 3605 e6bd 7eec bebd 497b 8b3d 371b ddbd
000003a0: 6f99 39bd cb52 a03d 3ed9 1cbe b9db d5bd
000003b0: 9898 b73d 032f 98bd ab52 b1bd 395a 983d
000003c0: 2867 36bb 48d8 3b3a b554 5e3d f44a 423d
000003d0: 36cc fbbc aeca 7b3d c3ac 133d 6eb9 103d
000003e0: b83e 5f3d b71c d93c 6dd4 ed3c 2a61 8e3d
000003f0: f7c5 a43c e6a6 813d c56a 6e3d 22ab 183d
-0.1204894 0.04633728 -0.18092638 -0.104103126 0.070439726 -0.14186555 -0.07692872 0.06357175
-0.07683497 -0.085606314 0.076598346 -0.09445778 -0.08098459 0.036698215 -0.07991109 -0.11393444
0.05298684 -0.07355194 -0.11751429 0.06806106 -0.13603197 -0.07172292 0.052281853 -0.11879163
-0.034231763 0.049446862 -0.15160514 -0.045386188 0.08028765 -0.07419717 -0.03199375 0.03607597
-0.042809416 -0.043255158 0.01432412 -0.08833821 -0.008572503 -0.0058649727 -0.21390766 -0.024846012
0.049293563 -0.16122857 -0.03335438 0.028431488 -0.04804384 0.03159792 0.089119755 -0.053271733
-0.041232206 -0.006003376 -0.15555252 -0.03104976 0.027710134 -0.17171252 0.024765577 0.014185748
-0.15235132 -0.03635652 0.038499206 -0.051909525 -0.025696889 -0.041754834 -0.00015146988 -0.051969573
-0.13665056 -0.03918521 -0.090599656 -0.22739087 -0.09159236 -0.10408873 -0.120099865 -0.06014295
-0.016655847 -0.05548455 -0.034374572 -0.04868322 -0.1284056 -0.038202703 -0.046212766 -0.136698
-0.07453754 -0.0026917774 -0.21072291 -0.072804086 -0.017020436 -0.09450374 -0.036697216 -0.024454797
-0.0927364 -0.05709968 -0.093456395 -0.16592024 0.04863227 -0.081947334 -0.21414147 0.03331751
-0.15176488 -0.2195852 0.035638023 -0.14216898 -0.19620124 0.03104909 -0.110411346 -0.19679569
0.026618516 -0.14069892 -0.23189026 0.052894257 -0.053591907 -0.26564276 0.022441665 -0.11685146
-0.21944515 0.0383685 -0.12570561 -0.13079019 0.020553526 -0.11486272 -0.14130539 0.026918408
-0.07115836 0.034794673 0.088092715 -0.03504137 -0.036535177 0.032717604 0.028167844 0.056565367
0.025850948 0.0412094 0.059346702 0.012926262 -0.0098810075 0.037984297 0.041758914 -0.06018787
0.032996304 0.060995832 -0.015564641 0.019028855 0.0463392 0.0076955874 0.06484879 0.05560876
0.0033159477 0.055892322 0.058890253 -0.012461613 0.012715308 0.05140478 0.020003125 0.02000188
0.012480491 0.021024099 0.033340722 0.009468447 0.03935329 0.022833578 0.023958677 0.098460615
0.044935234 -0.073935896 0.060738944 0.05847279 -0.055094868 0.012793953 0.016902948 -0.008926748
0.016140174 0.035921223 -0.00060832925 0.06210223 0.009087934 -0.01281087 0.060796514 0.06342718
-0.055175133 0.00768713 0.1097224 -0.073002115 -0.026895208 -0.1379459 0.0043362556 0.011185381
-0.15599541 0.053191032 -0.055000897 -0.1029088 0.0076816846 -0.048603863 -0.061506115 0.04330805
-0.010364859 -0.103573695 0.046039384 0.0013524197 -0.11626796 0.020185053 -0.012066845 -0.14543797
0.03822267 -0.031546485 -0.099099584 0.043198537 -0.055503175 -0.062351227 0.056149013 -0.0037245099
-0.10701774 0.033927277 -0.18934803 -0.087546475 0.077470705 -0.06926315 -0.067677446 0.076566055
-0.10166189 -0.040073976 0.08069461 -0.10260151 -0.09907827 0.038729236 -0.07226977 -0.069634035
0.04606225 -0.1312751 -0.043603156 0.07591872 -0.11231463 -0.09322451 0.06810624 -0.107962064
-0.04531234 0.078282915 -0.15317246 -0.104422994 0.08964652 -0.07430842 -0.08658346 0.074390836
-0.0027832482 0.00071657123 0.05428 0.047434762 -0.030737024 0.061472587 0.03605343 0.03533309
0.054503173 0.02650295 0.029031957 0.06952126 0.020113928 0.063306615 0.058207292 0.03727258

fc.bias f4 [10]
00000000: ae6e 5fbd 59ef ac3c 691f 04bc 526b d13b
00000010: 6c7d fbbb fab4 53bc 0b0c bfbc bdf1 073d
00000020: c77d 8c3c 6739 c2bc
-0.05454891 0.021110224 -0.008064129 0.0063909674 -0.0076748636 -0.012921566 -0.023321172 0.033189524
0.017149819 -0.023709012
