yono_compression/yono/data/saved_model/AudioCNN_ninapro-db3-c10_adam_multistep_nomixup.pt (torch, 115283 bytes, 26 tensors)

conv1.0.weight f4 [16, 1, 3, 3]
0	0x3e5fe81c	0.21865886
1	0xbe55640e	-0.20838949
2	0xbd8bf4f6	-0.06833832
3	0x3dcab6a9	0.09898121
4	0xbece3dba	-0.4028147
5	0x3de67b71	0.11254013
6	0xbd104c44	-0.035228983
7	0x3d07f74b	0.03319482
8	0x3d75613c	0.059907183
9	0xbd93397e	-0.071887
10	0x3e11a3ce	0.14222643
11	0x3aeaf3b0	0.0017925408
12	0x3d73b70f	0.05950075
13	0xbe0023a5	-0.12513597
14	0xbd884e80	-0.06655598
15	0xbb265dc5	-0.002538548
16	0x3dc6cfbd	0.09707592
17	0xbc00b907	-0.007856614
18	0x3e5bfafc	0.21482462
19	0x3db24ccd	0.08706055
20	0xbe4b49c0	-0.19852352
21	0xbe7e6368	-0.24842608
22	0xbd80ecb2	-0.06295146
23	0xbe0f899d	-0.14017339
24	0xbdd91f22	-0.10601641
25	0x3dbecb6f	0.09316146
26	0x3e331a0b	0.17490403
27	0x3e4082cb	0.18799894
28	0xbe50246a	-0.20326391
29	0x3e83a2d0	0.25710154
30	0x3e1c43fc	0.15260309
31	0x3e8d7702	0.27629858
32	0x3e6773d8	0.22602785
33	0xbe7c2dda	-0.24626866
34	0xbef12f49	-0.47106388
35	0xbddfa420	-0.10919976
36	0x3e9ba226	0.30397147
37	0xbd712dee	-0.058881693
38	0x3d8d6722	0.06904437
39	0xbdc8962c	-0.09794268
40	0x3e9b3ed5	0.30321375
41	0xbe17ac34	-0.14811784
42	0x3eab2cb1	0.33432534
43	0xbc00fa99	-0.007872247
44	0xbe46f366	-0.19428787
45	0x3d632c84	0.055462375
46	0xbe48728b	-0.19574945
47	0x3e67cc36	0.22636494
48	0xbcdb8c1a	-0.026800204
49	0xbca281b9	-0.019837247
50	0xbebd172d	-0.36931744
51	0xbd326e50	-0.043562233
52	0x3e40fe2b	0.18846957
53	0xbd79c644	-0.060980096
54	0x3e828106	0.25489062
55	0x3ead7719	0.33879927
56	0xbd9b0968	-0.075701535
57	0xbe65c7ac	-0.2243945
58	0x3e3fd498	0.18733442
59	0x3dbcb109	0.09213454
60	0xbe9a68bd	-0.30158034
61	0x3e5c9f5a	0.21545163
62	0x3d803939	0.06260914
63	0x3eb268b9	0.34845522
64	0xbe31e660	-0.17373037
65	0xbd61bcfb	-0.055111866
66	0x3d3e94d4	0.046528652
67	0xbcef4778	-0.029208884
68	0xbe8bd059	-0.27307394
69	0xbe39a7c7	-0.18130408
70	0x3e2db2e9	0.1696278
71	0xbd149cbf	-0.036282297
72	0x3e4e6db8	0.20159042
73	0xbdb6309a	-0.08895989
74	0x3e20fef7	0.15722261
75	0x3dd7d7f1	0.105392344
76	0x3de1e628	0.11030227
77	0x3e2e1a7d	0.17002292
78	0xbe73fed3	-0.23827676
79	0x3e47ce14	0.19512206
80	0xbe652941	-0.22379018
81	0xbe39a6f4	-0.18130094
82	0x3d9d7b36	0.07689516
83	0x3d8de2e6	0.06928043
84	0x3e6933e4	0.22773701
85	0xbd9210ed	-0.071321346
86	0xbed46fd5	-0.4149157
87	0x3d955a7e	0.07292651
88	0x3c60c5ed	0.013719064
89	0x3e8da376	0.27663773
90	0x3ded60e4	0.11590746
91	0xbea179b2	-0.3153816
92	0xbd3913e0	-0.04518497
93	0x3de72388	0.11286074
94	0xbe622a49	-0.22086443
95	0xbdeb7886	-0.114975974
96	0x3e0bbcdb	0.13646261
97	0xbcdc4e5f	-0.026892839
98	0xbdb93405	-0.09043125
99	0xbdc87fe4	-0.09790018
100	0x3ebdaf25	0.37047687
101	0xbde01ef0	-0.10943401
102	0x3dc1102f	0.09426915
103	0x3e952705	0.29131332
104	0xbe06aee6	-0.13152656
105	0xbe280ebd	-0.16411872
106	0x3ea84110	0.3286214
107	0xbd663135	-0.05619927
108	0x3e295648	0.1653682
109	0x3e07df08	0.13268673
110	0x3cd3e1bb	0.025864473
111	0x3e9259e4	0.28584206
112	0x3eb41d23	0.3517848
113	0xbe9436a0	-0.28947926
114	0x3c0c5b2e	0.008566661
115	0x3e39380e	0.1808779
116	0x3e20785f	0.15670918
117	0x3e04ed62	0.1298118
118	0xbe312d97	-0.17302547
119	0xbe78d0f3	-0.24298458
120	0xbe626c4e	-0.22111627
121	0x3dd49de1	0.103816755
122	0x3ee2b0e9	0.44275597
123	0xbd03043d	-0.031986464
124	0x3e74a17a	0.23889723
125	0xbda742d2	-0.08167042
126	0xbe9fd53b	-0.3121737
127	0xbe15506d	-0.14581461
128	0x3e6bb56b	0.23018424
129	0x3ebf07d1	0.3731065
130	0xbe3b482e	-0.18289253
131	0x3d8161a0	0.063174486
132	0x3e68585f	0.22689961
133	0x3d83937b	0.06424614
134	0x3e7f8abd	0.24955268
135	0x3e96f3e1	0.2948294
136	0x3e6085c1	0.21926023
137	0x3e13152f	0.1436355
138	0xbe0bf825	-0.13668878
139	0xbe92f3bb	-0.28701577
140	0xbe185fbf	-0.14880274
141	0x3c9ebc0b	0.019376775
142	0xbe4bb7d9	-0.19894351
143	0x3dffcc5a	0.12490149

conv1.0.bias f4 [16]
0	0xb89805bc	-7.248993e-05
1	0x383321d1	4.270842e-05
2	0x383eb751	4.5470257e-05
3	0xb787e0d7	-1.6197953e-05
4	0xb3bc1596	-8.758359e-08
5	0x37352ca0	1.0798831e-05
6	0xb81b96f5	-3.709547e-05
7	0x39a4526f	0.00031341935
8	0x3793ab8d	1.760365e-05
9	0xb7f2b60c	-2.893342e-05
10	0xb978cd07	-0.00023727502
11	0xb84c14c4	-4.865673e-05
12	0xb825d5c6	-3.9538158e-05
13	0xb72b17da	-1.0197948e-05
14	0x3727ba61	9.99737e-06
15	0x379f8abb	1.9018878e-05

conv1.1.weight f4 [16]
0	0x3f816eb3	1.0111908
1	0x3f802fe4	1.0014615
2	0x3f7bb5bb	0.98324174
3	0x3f7ba806	0.9830326
4	0x3f6c4598	0.9229369
5	0x3f762043	0.9614298
6	0x3f727f75	0.94725734
7	0x3f711ce4	0.9418471
8	0x3f830f37	1.0239018
9	0x3f78e35b	0.97221917
10	0x3f7f3190	0.99685
11	0x3f86fe44	1.0546346
12	0x3f80842c	1.0040336
13	0x3f7d0d51	0.98848444
14	0x3f7721e5	0.96536094
15	0x3f7c7e29	0.98630005

conv1.1.bias f4 [16]
0	0xbcb695d3	-0.022288239
1	0xbe85fe8f	-0.26170775
2	0x3e05c35b	0.13062803
3	0x3dbed078	0.09317106
4	0xbcf2fd26	-0.029661726
5	0xbd47e4b9	-0.04880211
6	0x3d8a0b5f	0.0674045
7	0xbe5d8c93	-0.21635656
8	0xbe445bfe	-0.19175717
9	0xbe108bb3	-0.14115791
10	0xbd4474e0	-0.047963023
11	0xbcf4bd54	-0.029875435
12	0xbd3a63cc	-0.04550533
13	0x3da762b7	0.08173125
14	0xbd611382	-0.054950245
15	0x3d80a570	0.06281555

conv1.1.running_mean f4 [16]
0	0x37acf20c	2.061671e-05
1	0x386d44bc	5.6569217e-05
2	0x38ed4a2e	0.00011314858
3	0xba1cf312	-0.0005987148
4	0xb99fefd4	-0.0003050553
5	0x38a1776e	7.699324e-05
6	0xb9d2ddf1	-0.0004021968
7	0x39481973	0.00019082967
8	0xb9b34c5f	-0.0003419844
9	0x39057913	0.00012728972
10	0xb8a27942	-7.747348e-05
11	0xb9749b97	-0.00023327615
12	0xb9aa8362	-0.00032522815
13	0x393cb63a	0.00017996962
14	0x39c891a1	0.00038255475
15	0xb9adfa96	-0.00033183832

conv1.1.running_var f4 [16]
0	0x3e3d9d48	0.1851703
1	0x3d680f71	0.05665535
2	0x3e7ab529	0.2448317
3	0x3f47c462	0.7803403
4	0x3e861568	0.26188207
5	0x3e758a0e	0.23978445
6	0x3eadef5f	0.33971688
7	0x3e59f97d	0.21286578
8	0x3e6791a3	0.2261415
9	0x3eb54122	0.35401255
10	0x3e170901	0.14749528
11	0x3e6a40d5	0.22876294
12	0x3ea44d78	0.32090354
13	0x3ed449b7	0.4146249
14	0x3ed2184f	0.4103417
15	0x3ef4f8e2	0.47846133

conv2.0.weight f4 [16, 16, 3, 3]
0	0xbd1a91a6	-0.037736557
1	0x3de1a1ce	0.1101719
2	0x3d64de8c	0.0558763
3	0x3d898ca7	0.067162804
4	0x3d372960	0.044717193
5	0x3baa3d78	0.005195316
6	0xbd047db7	-0.032346454
7	0x3dd3b040	0.103363514
8	0xbcd2697c	-0.025685064
9	0xbd87218c	-0.065981954
10	0xbc03305e	-0.008007137
11	0x3c9f7d6a	0.019468982
12	0xbd1dbdfc	-0.03851126
13	0x3ce6c790	0.02817133
14	0x3d72f4a2	0.05931533
15	0x3d57cbfc	0.05268477
16	0x3de06853	0.10957398
17	0xbc51f9e2	-0.012815924
18	0xbdc4ebc8	-0.09615284
19	0x3d0de0db	0.034638267
20	0xbdba8962	-0.09108235
21	0xbb7e54be	-0.0038807834
22	0xbdc96d7f	-0.09835338
23	0xbd051015	-0.03248604
24	0xbd5bab6c	-0.053630278
25	0x3d342f24	0.04399027
26	0xbde21da0	-0.11040807
27	0xbdd2c332	-0.10291137
28	0x3c02b326	0.007977283
29	0xbd329474	-0.043598607
30	0x3b3e300e	0.0029020342
31	0xbcb960a3	-0.022629088
32	0xbd1d0fb9	-0.038345072
33	0xbd9313e3	-0.071815275
34	0x3d678625	0.056524415
35	0xbdcf47f3	-0.10121145
36	0x3c055975	0.008139004
37	0x3dae199a	0.08500977
38	0x3d79b7ee	0.060966425
39	0xbd4d6c82	-0.05015231
40	0x3b7828f0	0.0037866198
41	0xbd0b9a1b	-0.034082513
42	0x3d4404b2	0.04785604
43	0xbcd805bc	-0.026369922
44	0x3d090a08	0.033456832
45	0x3cc50462	0.024049941
46	0xbc322fdd	-0.010875669
47	0xbbc800ff	-0.0061036344
48	0xbd3032ba	-0.043017127
49	0x3d19cf68	0.037551314
50	0x3cc3fa2a	0.023922998
51	0x3c9d6d5f	0.019217191
52	0xbcfe839b	-0.031068614
53	0x3b9dc776	0.0048150374
54	0x3bef1c6c	0.0072970893
55	0x3d69348a	0.05693487
56	0x3d1040bf	0.035217997
57	0xbd7609d6	-0.060067974
58	0xbcbb3b9b	-0.02285557
59	0x3d8def0c	0.0693036
60	0xbcf8703d	-0.030326957
61	0x3db792ed	0.08963571
62	0xbd994734	-0.07484284
63	0xbcc7a6d3	-0.02437154
64	0x3c56d257	0.013111672
65	0xbde5c005	-0.112182654
66	0xbd8a8023	-0.067627214
67	0x3d24d573	0.040242624
68	0x3d22df66	0.03976383
69	0x3da9655e	0.082712874
70	0xbbca6025	-0.006176012
71	0xbe0982e7	-0.13428842
72	0x3d340926	0.043954037
73	0xbdd4d53c	-0.10392234
74	0xbd9caa36	-0.07649653
75	0x3c60b518	0.013715051
76	0xbe108929	-0.14114822
77	0x3bc3a75a	0.0059708776
78	0x3d54b68e	0.05193191
79	0xbd9c8336	-0.07642214
80	0xbdb888d6	-0.090104744
81	0xbd1a9299	-0.037737463
82	0x3b9a8624	0.004715698
83	0xbd0352bc	-0.032061324
84	0xbdc91a6f	-0.09819495
85	0xbd311e29	-0.043241654
86	0xbd83eb4f	-0.06441366
87	0xbd6c861e	-0.05774509
88	0xbdf4cc7d	-0.119530655
89	0x3d59c57f	0.053166863
90	0x3d84e97a	0.064898446
91	0x3d2cc933	0.042184066
92	0x3c99617d	0.018723244
93	0x3c5b8430	0.013398215
94	0x3d2b4f13	0.041823458
95	0xbccac462	-0.024751846
96	0x3d100d60	0.035169005
97	0x3d764f2e	0.060134105
98	0x3c07b9b4	0.008284021
99	0xbb5d3c22	-0.0033757766
100	0x3e1f4cc7	0.15556632
101	0x3dc1ba1b	0.09459325
102	0xbd505a79	-0.05086753
103	0x3e2c4d99	0.16826476
104	0x3cd1dbf9	0.025617586
105	0xbd3b047a	-0.045658566
106	0x3e25bb94	0.16184837
107	0xbb98172c	-0.004641434
108	0x3d375370	0.044757307
109	0xbd48f68c	-0.04906325
110	0x3ca22ff5	0.019798258
111	0xbc247038	-0.010036521
112	0x3d156f91	0.03648335
113	0x3daee6f3	0.08540144
114	0xbd217345	-0.03941657
115	0x3d049cbd	0.03237604
116	0xbca2b3ef	-0.01986119
117	0xbcab3d83	-0.020903355
118	0xbdba3685	-0.0909243
119	0xba74edb1	-0.000934328
120	0xbba5c085	-0.0050583505
121	0x3d737e97	0.059446897
122	0x3d2c72ae	0.042101555
123	0x3d394b7d	0.045238007
124	0xbb1b5e5b	-0.0023707363
125	0xbc8e4fbf	-0.01737201
126	0xbdde8c78	-0.10866636
127	0x3d80166d	0.062542774
128	0xbbdad05d	-0.006677671
129	0x3a871f10	0.001030894
130	0x3cd38b26	0.025823187
131	0xbd6b4768	-0.057441145
132	0x399a5bb3	0.0002944149
133	0x3d9d436a	0.07678874
134	0x3c8a09e0	0.016850412
135	0xbdb2d97e	-0.087328896
136	0xbc007531	-0.007840441
137	0xbcc21faf	-0.023696749
138	0xbd9453d0	-0.072425485
139	0xbcd3b3c5	-0.025842557
140	0x3c9e49ef	0.019322364
141	0xbd5637e4	-0.052299395
142	0x3d2ace3e	0.041700594
143	0xbc93a08d	-0.018020893
144	0xbccf5897	-0.025310798
145	0x3c245c92	0.010031836
146	0xbde38875	-0.111100115
147	0x3d29ce27	0.041456368
148	0x3ccea1da	0.025223661
149	0x3d81174a	0.0630327
150	0xbd8e2214	-0.06940094
151	0xbcc0b1d9	-0.023522304
152	0xbdd3469a	-0.103162006
153	0x3c54317c	0.012951251
154	0x3ce721c5	0.028214345
155	0xbcafeb66	-0.021474551
156	0xbbe0f44c	-0.00686506
157	0x3da53e86	0.08068566
158	0x3d951367	0.07279091
159	0x3c93d86b	0.018047532
160	0x3cb8dd71	0.022566529
161	0x3d8ec0de	0.0697038
162	0x3cdb6409	0.026781099
163	0x3c26961c	0.010167625
164	0x3cd89839	0.026439773
165	0xbd59461d	-0.05304538
166	0xbd2adbde	-0.041713588
167	0xbcfaa3fa	-0.030595768
168	0xbd24a79a	-0.0401989
169	0x3d265e14	0.040617064
170	0x3d6c1bcc	0.057643697
171	0xbcc999a6	-0.024609398
172	0x3dc41e5c	0.09576103
173	0x3c00fb93	0.00787248
174	0xbc3e2ffa	-0.011608118
175	0xbc0c2762	-0.0085543115
176	0x3a041fa4	0.0005040115
177	0xbe0cfb01	-0.13767625
178	0xbbdcba12	-0.0067360485
179	0x3d7c45ac	0.06158988
180	0x3d7ffa4c	0.06249456
181	0xbd4d73c8	-0.050159246
182	0xbdc78d39	-0.09743733
183	0x3e0e4cf8	0.13896549
184	0x39ee6996	0.00045473565
185	0xbd2aca4c	-0.04169683
186	0xbd338a18	-0.04383287
187	0xbd3aa6fa	-0.045569398
188	0xbde30267	-0.110844426
189	0xbd9b30b2	-0.07577647
190	0xbc87c595	-0.016573707
191	0xbc10d6b1	-0.008840249
192	0x3d738272	0.059450574
193	0x3abc5c57	0.0014370781
194	0x3c9e50af	0.019325582
195	0x3d8d0e86	0.06887536
196	0x3d82dcb4	0.06389752
197	0x3cb4c8d6	0.022068422
198	0x3d1bf333	0.03807373
199	0x3cf3636c	0.029710494
200	0x3d0b6a5c	0.03403698
201	0xbdf85578	-0.12125677
202	0x3d6f3872	0.05840344
203	0xbd18b388	-0.03728059
204	0x3d61569b	0.055014234
205	0x3d38ccb0	0.04511708
206	0x3d5ceb50	0.05393535
207	0xbdeb4612	-0.11487974
208	0xbc5a4481	-0.013321997
209	0xbd28d1ef	-0.041215833
210	0x3c1438e3	0.009046766
211	0x3d03ca24	0.0321752
212	0xbd9d2e31	-0.07674826
213	0x3bce9ac6	0.0063050715
214	0xbc712438	-0.014718108
215	0xbd59ee54	-0.053205803
216	0xbd262c8e	-0.040569834
217	0x3d283786	0.041068576
218	0xbcca745e	-0.024713691
219	0x3d061a2b	0.0327398
220	0xbd9b3fcf	-0.0758053
221	0xbe24aadd	-0.16080804
222	0x3c9fd362	0.019509975
223	0xbdeaa6d4	-0.11457601
224	0xbd28ee6b	-0.041242998
225	0x3cc8c195	0.02450637
226	0x3cb111cf	0.021614937
227	0xbd53f80b	-0.051750224
228	0x3a2b2a06	0.00065293943
229	0xbcac1ae6	-0.02100892
230	0xbd1dba7e	-0.03850793
231	0x3d29291e	0.041298978
232	0x3cd47f22	0.025939528
233	0xbdd51673	-0.104046725
234	0xb9f20f7f	-0.00046169382
235	0xbc01ca96	-0.007921835
236	0x3d6d3f40	0.057921648
237	0x3cab041e	0.020875987
238	0x3d03f29b	0.03221379
239	0x3cb3025d	0.021851713
240	0xbe072434	-0.13197404
241	0x3d0b53f0	0.034015596
242	0x3ca146ca	0.019687075
243	0xbdbbc3b3	-0.09168186
244	0xbb940f8e	-0.004518456
245	0xbdd62551	-0.10456336
246	0xbddb378f	-0.10703956
247	0xbd92ce87	-0.07168298
248	0x3ccf0f88	0.02527596
249	0xbd07b406	-0.033130668
250	0xbca5c725	-0.020236561
251	0x3d8ca2f3	0.068670176
252	0x3dae7490	0.08518326
253	0x3d4156cb	0.047201913
254	0x3dc91770	0.098189235
255	0x3d43473f	0.047675367

conv2.0.bias f4 [16]
0	0x37d28ce6	2.5099562e-05
1	0xb5b98d87	-1.3824764e-06
2	0xb7dd1beb	-2.6358253e-05
3	0x384a79e6	4.827408e-05
4	0x3899abac	7.327585e-05
5	0x37b43804	2.1483756e-05
6	0xb78d8bd7	-1.6873628e-05
7	0x3622b7c9	2.4246858e-06
8	0x382021b4	3.817836e-05
9	0xb834f64f	-4.3144737e-05
10	0xb87c32ae	-6.012868e-05
11	0x3759c255	1.2979454e-05
12	0xb7a6a5b8	-1.986591e-05
13	0x372891cf	1.0047529e-05
14	0xb71aebbc	-9.2340015e-06
15	0xb6da8872	-6.5127906e-06

conv2.1.weight f4 [16]
0	0x3f84a5c2	1.0363085
1	0x3f70cc63	0.9406187
2	0x3f66b480	0.9011917
3	0x3f7a5428	0.9778466
4	0x3f747204	0.95486474
5	0x3f7e1a3a	0.9925877
6	0x3f74d0f4	0.9563134
7	0x3f72ec00	0.9489136
8	0x3f748202	0.95510876
9	0x3f67a413	0.9048473
10	0x3f83a4d7	1.028468
11	0x3f76e25b	0.9643914
12	0x3f725669	0.946631
13	0x3f6717b2	0.9027053
14	0x3f81e041	1.0146562
15	0x3f6a8d30	0.91621685

conv2.1.bias f4 [16]
0	0xbdf4a5ee	-0.11945711
1	0xbe026f62	-0.12737802
2	0xbe10e974	-0.14151555
3	0xbe452cfd	-0.19255443
4	0xbe5da234	-0.21643907
5	0xbe00ff93	-0.12597494
6	0xbe488dc5	-0.19585331
7	0xbe4606a0	-0.19338465
8	0xbe2eefd7	-0.17083679
9	0xbe42a40b	-0.1900789
10	0xbe336836	-0.17520222
11	0xbe4824c7	-0.1954528
12	0xbe4b830d	-0.1987421
13	0xbe2f1bbb	-0.17100422
14	0xbe51ed4e	-0.20500681
15	0xbe8341e4	-0.25636208

conv2.1.running_mean f4 [16]
0	0xbd6972f7	-0.056994405
1	0x3cf17d51	0.0294787
2	0xbe4e8a55	-0.20169957
3	0x3d13d466	0.03609123
4	0xbe5aed3b	-0.21379559
5	0xbc45c4fd	-0.012070891
6	0xbe05ef3e	-0.13079545
7	0x3e117d64	0.14207989
8	0x3c06ae9c	0.008220341
9	0xbdb5b50c	-0.088724226
10	0x3d012c80	0.03153658
11	0x3c55ed69	0.013057091
12	0xbe6fa4fe	-0.23402783
13	0x3e6c8fa7	0.23101674
14	0x3d50c171	0.05096573
15	0x3e0dbab2	0.1384075

conv2.1.running_var f4 [16]
0	0x3df3b0be	0.11898945
1	0x3dab6256	0.083683655
2	0x3e8f9066	0.28039855
3	0x3e102449	0.14076342
4	0x3dd15577	0.10221379
5	0x3de2bb20	0.110708475
6	0x3e29c638	0.1657952
7	0x3e497bec	0.19676179
8	0x3e119959	0.14218654
9	0x3e2ae8c2	0.16690353
10	0x3db6d5af	0.08927476
11	0x3e04b7ce	0.12960741
12	0x3e089283	0.1333714
13	0x3df48959	0.119402595
14	0x3dcae1dc	0.099063605
15	0x3e19eef2	0.15032557

conv3.0.weight f4 [32, 16, 3, 3]
0	0xbd64fc10	-0.055904448
1	0x3db0123d	0.08597229
2	0xbdca09c9	-0.098651476
3	0x3c06328a	0.00819076
4	0xbc3a2b0e	-0.011362804
5	0xbd059af5	-0.03261848
6	0xbcebbf43	-0.028777724
7	0xbb4636c8	-0.0030245055
8	0xbd5b1502	-0.05348683
9	0x3d3788a9	0.044808064
10	0x3cc40ece	0.02393284
11	0xbc9b269a	-0.018939305
12	0x3bdc728d	0.0067275227
13	0x3c73f5c2	0.014890136
14	0xbd35ea59	-0.044412944
15	0x3d6f0aba	0.05835984
16	0x3d8b5fd9	0.06805391
17	0xbd85109b	-0.06497308
18	0xbda6c2ec	-0.08142647
19	0xbcd6b3a0	-0.026208699
20	0x3c4cf315	0.012509127
21	0xbd0b7742	-0.03404928
22	0x3d31b851	0.04338867
23	0x3c24569e	0.010030417
24	0xbd2b851e	-0.041874997
25	0xbc94feb2	-0.018187854
26	0xbc5bf2fe	-0.013424633
27	0x3d8a079b	0.06739732
28	0xbd289f9e	-0.041167848
29	0xbd882fe9	-0.06649763
30	0x3d87ab01	0.06624413
31	0x3c94221a	0.018082667
32	0xbdc7b78b	-0.09751805
33	0x3dae8130	0.08520734
34	0xbd7825d9	-0.06058297
35	0xbdff7581	-0.12473584
36	0xbd582ef9	-0.05277917
37	0xbdb1d46b	-0.08683094
38	0x3dba1f9a	0.09088059
39	0x3c2dd97f	0.010610937
40	0xbd9906f9	-0.07472033
41	0xbc208686	-0.009797698
42	0xbce836ad	-0.028346384
43	0xbd05a4c4	-0.032627836
44	0xbc901394	-0.01758746
45	0xbc14b0e0	-0.009075373
46	0xbd28770c	-0.041129157
47	0xbde5d1b1	-0.11221636
48	0xbcb672cc	-0.022271536
49	0xbb7ecf36	-0.0038880832
50	0xbd2424d4	-0.040074185
51	0xbd21c51e	-0.039494626
52	0xbc2e78a3	-0.010648879
53	0xbd9bbf39	-0.07604832
54	0x3d652138	0.055939883
55	0xbdd69b14	-0.104787976
56	0x3d596758	0.053077072
57	0x3d474e63	0.04865874
58	0xbd6b9134	-0.057511523
59	0x3d4ea203	0.050447475
60	0x3da6c5f8	0.08143228
61	0xbd8f72ee	-0.07004343
62	0x3db40dc2	0.087916866
63	0xbd99e302	-0.075140014
64	0x3dbd7a5b	0.09251853
65	0xbe2cb666	-0.16866454
66	0xbd247600	-0.040151596
67	0x3d8c641b	0.06855031
68	0xbd7a6649	-0.061132703
69	0xbd8d042f	-0.068855636
70	0x3da4ce52	0.08047165
71	0xbe07e2b6	-0.13270077
72	0x3b03de76	0.002012161
73	0x3d46dd93	0.048551153
74	0xbcc490a7	-0.023994757
75	0x3da83b97	0.08214491
76	0xbc9887e2	-0.018619481
77	0xbd8a9d64	-0.06768301
78	0x3d728f5f	0.05921876
79	0x3cf84a3e	0.030308839
80	0xbaa7b32e	-0.0012794489
81	0xbd91e150	-0.07123053
82	0xbc9d7a49	-0.01922335
83	0xbcaffc7a	-0.021482695
84	0xbd5e6add	-0.05430113
85	0xbd0a53c2	-0.033771284
86	0xbc9adbe2	-0.018903676
87	0xbd3e1dc1	-0.046415094
88	0xbcf968a8	-0.030445412
89	0x3cc8f8a7	0.02453263
90	0x3d6c0a07	0.05762675
91	0x3d6a9354	0.05726941
92	0xbd905f79	-0.0704946
93	0x3d9463a6	0.07245569
94	0x3d23d9d0	0.040002644
95	0xbd319264	-0.0433525
96	0x3c9414ad	0.018076265
97	0x3d22aef1	0.03971762
98	0xbd84b1a5	-0.064791955
99	0x3d2bcd92	0.041944094
100	0x3d63f16a	0.055650152
101	0xbdad2d54	-0.08455911
102	0x3dbcf6e5	0.09226779
103	0xbd03f1fd	-0.0322132
104	0xbd156a3e	-0.036478274
105	0x3cb585b9	0.02215849
106	0x3d18650b	0.037205737
107	0xbddf0fb7	-0.10891669
108	0xbd901571	-0.070353396
109	0xbda3501a	-0.079742625
110	0x3ccaa19f	0.02473527
111	0xbda9b0eb	-0.082856975
112	0xbce2c7d8	-0.027683184
113	0x3d55c999	0.05219421
114	0xbe023b82	-0.12718013
115	0xbda1f62b	-0.07908281
116	0x3d97dffa	0.07415767
117	0x3b44a251	0.0030003975
118	0x3c5a6bb2	0.013331341
119	0xbda29aef	-0.079397075
120	0x3b99d871	0.0046949913
121	0x3cb01664	0.021495052
122	0xbcb1b70f	-0.021693734
123	0x3d18ea0d	0.037332583
124	0x3d82b280	0.063817024
125	0xbdb19c08	-0.08672339
126	0x3b2bbb59	0.0026204197
127	0x3d620e4a	0.05518941
128	0xbcd9cfb2	-0.026588295
129	0x3c48f131	0.012264536
130	0x3bbbf013	0.005735406
131	0x3d6158b8	0.05501625
132	0x3ccbc0ba	0.024872173
133	0x3cf298b1	0.029613825
134	0xbd959be5	-0.07305125
135	0xbd409809	-0.047019992
136	0x3d15cc61	0.036571864
137	0xbdacde21	-0.08440805
138	0x3b8b8d7b	0.004258809
139	0x3a45c052	0.00075436116
140	0xbd4328bb	-0.047646265
141	0x3c3a88f3	0.01138519
142	0x3d3ae2af	0.04562634
143	0xbd62b92b	-0.05535237
144	0xbdf31dba	-0.11870904
145	0x3dd66e20	0.104702234
146	0xbc8947c9	-0.016757863
147	0xbde838e0	-0.11338973
148	0x3d9dfaf0	0.07713878
149	0xbe51d1b9	-0.20490159
150	0x3c295812	0.010335939
151	0x3d7ad081	0.061234
152	0xbdbb6f4e	-0.09152089
153	0x3b074dba	0.0020645694
154	0xbd3f245f	-0.046665546
155	0xbda5b141	-0.08090449
156	0xbd213868	-0.039360434
157	0x3c7d32cf	0.015454008
158	0xbbc6706a	-0.0060558813
159	0xbd2cdd3c	-0.042203173
160	0xbbf6deea	-0.0075338976
161	0xbd671a86	-0.05642178
162	0x3baebdf1	0.0053327014
163	0x3b48f8b6	0.0030665821
164	0x3d339432	0.043842502
165	0x3ac5799d	0.0015066151
166	0x3dc65d8e	0.09685813
167	0x3d5444b5	0.051823337
168	0x3c5f70b6	0.013637712
169	0xbbed7818	-0.0072469823
170	0xba0cead8	-0.00053755706
171	0xbda4263c	-0.08015105
172	0x3ca8d377	0.020608647
173	0xbde0fcc6	-0.10985713
174	0x3adacfc4	0.0016693999
175	0xbc76da18	-0.015066646
176	0xbdab0761	-0.08351017
177	0xbd7695a7	-0.060201313
178	0x3d19acf8	0.03751847
179	0x3d9f053f	0.077646725
180	0x3d816c4f	0.06319486
181	0x3d39feca	0.045409
182	0x3d52df6c	0.051482603
183	0x3bafb75d	0.005362435
184	0x3d7a7a64	0.061151877
185	0x3d349b02	0.04409314
186	0xbccb5433	-0.024820423
187	0x3d5ab25e	0.05339276
188	0x3dae424a	0.085087374
189	0xbdaa1754	-0.08305231
190	0x3d59578c	0.053062007
191	0xbc32e784	-0.010919455
192	0xbd7190ca	-0.058975972
193	0xbdace38a	-0.08441837
194	0xbdf34558	-0.11878461
195	0xbd95f514	-0.073221356
196	0x3d430b39	0.047618125
197	0xbd83777a	-0.06419273
198	0xbd192396	-0.037387453
199	0xbd2f95f8	-0.04286763
200	0xbcafa66c	-0.02144166
201	0x3cc77b54	0.0243508
202	0xbc96580c	-0.01835253
203	0xbddec67b	-0.10877701
204	0x3b95af8f	0.0045680474
205	0xbdf78a30	-0.12086904
206	0x3bcb4e8f	0.0062044333
207	0xbd91e784	-0.07124236
208	0x3d8b5cfd	0.068048455
209	0xbda61b1a	-0.08110638
210	0xbd566f21	-0.052352075
211	0xbd056f06	-0.032576583
212	0xbd09cbb6	-0.03364154
213	0xbd8e1ea2	-0.069394365
214	0x3d5ebd51	0.054379765
215	0xbc938fa7	-0.018012835
216	0xbcad239f	-0.02113515
217	0x3d92d9dc	0.0717046
218	0xbda2151d	-0.07914183
219	0xbcf76e72	-0.030204032
220	0x3c6308d7	0.013857088
221	0xbe1af441	-0.15132238
222	0x3c68b493	0.0142032085
223	0xbcc189b4	-0.023625232
224	0xbc709b1e	-0.01468542
225	0x3d7bafc2	0.061446913
226	0xbbc31901	-0.0059539084
227	0x3c3cbd3b	0.011519725
228	0x3d36ce8d	0.044630576
229	0x3d4144ca	0.047184743
230	0x3da7af88	0.08187777
231	0xbce4ca45	-0.02792848
232	0x3c0b884a	0.008516381
233	0xbd888118	-0.06665248
234	0x3cae6590	0.021288663
235	0xbe061d54	-0.13097125
236	0x3c440069	0.011962988
237	0x3d2b65cb	0.041845124
238	0xbde5f62b	-0.112285934
239	0xbdc164e5	-0.09443072
240	0xbc1660d9	-0.009178364
241	0x3c977cbe	0.018492099
242	0xbd7faec1	-0.062422518
243	0x3d5ae0fc	0.053437218
244	0xba6b20ff	-0.00089694554
245	0x3ae51c31	0.0017479715
246	0x3c489292	0.012241976
247	0x3d35c524	0.04437746
248	0xbd336749	-0.043799672
249	0xbd50cccd	-0.050976563
250	0x3d6532a7	0.05595651
251	0x3c79b967	0.015241957
252	0x3d28e675	0.041235406
253	0x3dc66b0e	0.09688388
254	0xbcc8b929	-0.024502354
255	0xbd002567	-0.03128567

conv3.0.bias f4 [32]
0	0xb574c876	-9.118879e-07
1	0xb767ca1f	-1.3815733e-05
2	0xb76200bf	-1.3470823e-05
3	0x36f57a67	7.3158185e-06
4	0xb6e40d68	-6.79649e-06
5	0xb6c3c5fa	-5.8345004e-06
6	0x37cccd5a	2.441432e-05
7	0x37cad266	2.417825e-05
8	0x37e8ca52	2.7750768e-05
9	0x36e313d8	6.7674373e-06
10	0x36a510ac	4.919324e-06
11	0x368e6055	4.2431443e-06
12	0x36247806	2.4507767e-06
13	0xb650c0ea	-3.1106706e-06
14	0x3803a424	3.13857e-05
15	0x3745ff27	1.1801522e-05
16	0xb88dc776	-6.7605564e-05
17	0xb6b35c70	-5.345377e-06
18	0xb738057b	-1.0968531e-05
19	0xb598220b	-1.133479e-06
20	0xb74950b3	-1.1999323e-05
21	0xb78ecaa3	-1.702208e-05
22	0xb724e06d	-9.827415e-06
23	0x371d6774	9.382016e-06
24	0x36b63a95	5.4308425e-06
25	0xb6a30bdd	-4.8591596e-06
26	0x3588b511	1.0185487e-06
27	0x36e76190	6.8956942e-06
28	0x366fee13	3.5752353e-06
29	0xb784a3ec	-1.5811958e-05
30	0x370b1238	8.2892875e-06
31	0xb715f673	-8.938473e-06

conv3.1.weight f4 [32]
0	0x3f801343	1.0005878
1	0x3f78a32f	0.97124
2	0x3f8421a3	1.0322765
3	0x3f82b0d5	1.0210215
4	0x3f5dc3f6	0.8662714
5	0x3f802b61	1.0013238
6	0x3f893f67	1.0722474
7	0x3f83ec33	1.0306457
8	0x3f841027	1.0317429
9	0x3f841b78	1.0320883
10	0x3f6fae0b	0.93624943
11	0x3f8cb72d	1.0993401
12	0x3f94776a	1.1598942
13	0x3f7be623	0.98398036
14	0x3f84bd71	1.0370313
15	0x3f7927d9	0.9732643
16	0x3f79a6b3	0.9751999
17	0x3f67cc6f	0.90546316
18	0x3f70453e	0.93855655
19	0x3f76532c	0.9622066
20	0x3f5e6003	0.8686525
21	0x3f7fcf46	0.9992565
22	0x3f71a9e9	0.9439989
23	0x3f81e818	1.0148954
24	0x3f8006f9	1.0002128
25	0x3f71015c	0.941427
26	0x3f8b693b	1.0891489
27	0x3f7813f6	0.9690546
28	0x3f626aba	0.884441
29	0x3f789043	0.97095126
30	0x3f71aea8	0.9440713
31	0x3f7100ef	0.9414205

conv3.1.bias f4 [32]
0	0xbcdedbea	-0.027204473
1	0xbcee17e3	-0.029064124
2	0xbbd161e5	-0.0063898438
3	0x3b76165a	0.0037549944
4	0xbd574e17	-0.052564707
5	0xbd17f310	-0.037097037
6	0x3d4e5524	0.050374165
7	0xbb378373	-0.0028001934
8	0xbd5c4877	-0.053780045
9	0xbd7d16d3	-0.061789345
10	0xbd739bd0	-0.059474766
11	0x3d4a14d0	0.049336255
12	0x3dabf4ac	0.08396277
13	0x3c30492d	0.010759634
14	0xbd3ee31b	-0.046603303
15	0x3c8d7771	0.017268868
16	0xbb0ad85c	-0.002118609
17	0xbdb107c7	-0.086440615
18	0xbd0d8f0e	-0.034560256
19	0xbd579e67	-0.0526413
20	0xbcf4277e	-0.029803988
21	0xbd40dbe2	-0.047084697
22	0xbd82444a	-0.06360681
23	0xbdb2db41	-0.087332256
24	0x3c0e6109	0.008690127
25	0x3dd48741	0.1037736
26	0xbc7a4fb2	-0.01527779
27	0xbdc1d25c	-0.09463951
28	0xbbda236a	-0.0066570537
29	0xbd855554	-0.06510416
30	0xbdee7031	-0.116424926
31	0xbd180073	-0.037109803

conv3.1.running_mean f4 [32]
0	0xbe63780c	-0.22213763
1	0xbeae01f9	-0.3398588
2	0xbeb0df07	-0.34545156
3	0xbf2f1dca	-0.6840483
4	0x3dc19c36	0.09453623
5	0xbf0928b8	-0.53577757
6	0xbf120ef2	-0.57054055
7	0xbf195557	-0.59895843
8	0xbed6d3ec	-0.4195856
9	0xbed802d0	-0.42189646
10	0xbefad9d1	-0.48994306
11	0xbe26a8e7	-0.16275369
12	0xbf32341e	-0.69610775
13	0xbeb62f45	-0.3558294
14	0xbeb05292	-0.34437996
15	0xbeecdd1b	-0.4626244
16	0xbee208b2	-0.4414726
17	0x3dc2c54a	0.09510286
18	0xbeac571b	-0.33660206
19	0xbf081430	-0.53155804
20	0x3e906b51	0.28206876
21	0xbf0bc3f3	-0.5459587
22	0x3eff667a	0.4988287
23	0xbe9e5460	-0.30923748
24	0xbe8b23df	-0.27175805
25	0xbeb3d066	-0.35119933
26	0xbe943f45	-0.2895452
27	0xbf0013de	-0.50030315
28	0x3edcb219	0.43104628
29	0xbee601fe	-0.44923395
30	0xbe9b1e29	-0.30296448
31	0xbe93767c	-0.28801334

conv3.1.running_var f4 [32]
0	0x3ee1d4f2	0.44107777
1	0x3eff4f74	0.49865305
2	0x3ee44189	0.4458125
3	0x3f6c7d78	0.9237895
4	0x3e911c53	0.28341922
5	0x3f4d3570	0.80159664
6	0x3f2e8e06	0.6818546
7	0x3f3278a0	0.6971531
8	0x3ecf320a	0.40467864
9	0x3f17133d	0.5901373
10	0x3eb4dbdd	0.35323992
11	0x3ee37419	0.44424513
12	0x3f92234d	1.1417023
13	0x3ee9e4a5	0.45682254
14	0x3ef7bb1b	0.48384938
15	0x3ec4582a	0.38348514
16	0x3f2e444e	0.68072975
17	0x3e9f41f1	0.31104997
18	0x3edcb1f0	0.43104506
19	0x3f0b092a	0.5431086
20	0x3f09076b	0.53526944
21	0x3f467fa6	0.77538526
22	0x3f198584	0.59969354
23	0x3ee922ae	0.4553427
24	0x3f0b65a3	0.5445196
25	0x3ebc6325	0.3679439
26	0x3f0e30e1	0.55543333
27	0x3f3bed96	0.734094
28	0x3f107439	0.5642734
29	0x3ecad1a2	0.39613062
30	0x3f0e935a	0.5569359
31	0x3ee9ac6b	0.45639357

conv4.0.weight f4 [32, 32, 3, 3]
0	0x3c660a0f	0.014040484
1	0x3dd11ce2	0.10210587
2	0x3caabcc9	0.020841973
3	0xbd0cb4d2	-0.03435213
4	0x3d9a1d28	0.07525092
5	0xbc242ae6	-0.010019993
6	0xbcff0594	-0.03113059
7	0xbc164a49	-0.009172984
8	0xbd4a89b7	-0.04944774
9	0x3b93e1ba	0.0045129927
10	0xbe02ec25	-0.12785394
11	0xbdb7c1e2	-0.08972527
12	0xbd0997ca	-0.033592023
13	0xbd4aeab3	-0.049540233
14	0xbd093b2a	-0.03350369
15	0x3b9f0f0d	0.004854089
16	0xbd9d2c57	-0.07674473
17	0x3cf3d278	0.029763445
18	0x3bb5b998	0.005545806
19	0xbd3efbc7	-0.046626832
20	0xbdc2b5ef	-0.09507357
21	0xbd1f56b7	-0.038901057
22	0xbda6b721	-0.08140398
23	0x3c1fef4a	0.009761641
24	0xbbbdecaf	-0.005796037
25	0xbcc8cea2	-0.024512593
26	0x3d10e894	0.035378054
27	0xbacfe8eb	-0.0015862262
28	0xbd870fec	-0.06594834
29	0x3cc67fc1	0.02423084
30	0x3d8ed2a2	0.06973769
31	0x3d0eb7d2	0.034843273
32	0x3da177a7	0.0788415
33	0xbbaeee54	-0.0053384695
34	0x3b746d1e	0.0037296484
35	0x3d9899ec	0.07451233
36	0x3d3c22ed	0.045931745
37	0xba06c03c	-0.00051403395
38	0xbda1e909	-0.07905776
39	0x3c9f65f9	0.019457804
40	0x3d5156be	0.051108114
41	0xbc3ee342	-0.011650862
42	0xbd5fb783	-0.05461837
43	0x3d536619	0.05161104
44	0xbca66944	-0.020313866
45	0xbc99f2ef	-0.018792598
46	0x3a9a3bcc	0.0011767088
47	0xbc0068ae	-0.007837458
48	0xbc17fe2e	-0.00927691
49	0x3bfcbbf5	0.007712836
50	0x3d474073	0.048645448
51	0xbc34171f	-0.010991841
52	0xbca651bb	-0.020302644
53	0xbbd5a42f	-0.0065198164
54	0x3c2eb1c0	0.010662496
55	0x3c1c0e61	0.009524913
56	0xbbef6c31	-0.0073065986
57	0xbbcd49b0	-0.0062648878
58	0xbd417da4	-0.04723896
59	0x3b8afb03	0.0042413487
60	0xbd09f7d7	-0.033683624
61	0xbcb008a4	-0.021488495
62	0x3d3f2bd4	0.046672657
63	0xbc2f9d83	-0.010718706
64	0xbc435220	-0.011921436
65	0x3d135388	0.035968333
66	0xbdac9118	-0.08426112
67	0xbbdf0ccd	-0.006806946
68	0xbc559bbf	-0.013037621
69	0x3cced31f	0.025247155
70	0x3d34cca9	0.04414049
71	0x3d28ef33	0.041243743
72	0xbdaac203	-0.08337786
73	0x3d0d19ff	0.03444862
74	0x3c94450c	0.01809933
75	0xbd6b17a4	-0.057395592
76	0x3b80834b	0.0039219013
77	0x3cbba211	0.022904428
78	0xbe12e439	-0.14344873
79	0xbd2d61ba	-0.042329527
80	0xbd38238e	-0.044955783
81	0x3c9cc6be	0.019137736
82	0xbdac76a9	-0.0842107
83	0xbc111e04	-0.008857254
84	0x3d0d0ec9	0.03443793
85	0xbdb51f21	-0.08843828
86	0xbcf62eed	-0.030051673
87	0x3d89869b	0.06715127
88	0xbdaea805	-0.08528141
89	0xbc9b0da7	-0.018927408
90	0x3df71157	0.12063854
91	0xbd7ecf0c	-0.062209174
92	0x3d4d3b4b	0.050105374
93	0x3acb3ed5	0.0015506396
94	0xbc3e3fed	-0.011611921
95	0x3a501a2b	0.00079384696
96	0x3d28dd3c	0.04122661
97	0xbd0e3cc1	-0.03472591
98	0xbcdb3512	-0.026758704
99	0xbd8e3f3a	-0.06945653
100	0xbd417f15	-0.047240335
101	0xbdbabf4e	-0.0911852
102	0x3d4e5d74	0.050382093
103	0x3c794cba	0.015216047
104	0xbd7ba3f6	-0.061435662
105	0x3d0ee1eb	0.03488342
106	0xbb133251	-0.002246041
107	0xbd959965	-0.07304648
108	0x3d3a4504	0.045475975
109	0xbbb2c7ba	-0.005455938
110	0x3ce303f1	0.02771184
111	0xbd1cfaf0	-0.03832525
112	0x3a0d9ae0	0.00054018013
113	0x3dc068d4	0.093949944
114	0x3d2f4cef	0.04279798
115	0xbd028911	-0.031868998
116	0x3d48f5f2	0.049062677
117	0xbd1fdaab	-0.039026897
118	0xbca3d21d	-0.01999765
119	0x3c2e4a97	0.010637901
120	0xb9db04ce	-0.00041774515
121	0x3c581de9	0.013190725
122	0x3bb8306c	0.0056210067
123	0x3d75373e	0.059867136
124	0xbc30b520	-0.010785371
125	0xbc5f6a9f	-0.01363626
126	0x3d354995	0.044259626
127	0xbdc955db	-0.09830829
128	0xbd8ba91c	-0.068193644
129	0xbc5ae12a	-0.013359347
130	0xbd63b906	-0.055596374
131	0xbcaa0eb1	-0.020758959
132	0x3d6be0f5	0.057587583
133	0xbdb92ffe	-0.09042357
134	0x3c7878b9	0.015165501
135	0x3da56689	0.08076198
136	0xbc6ed777	-0.014577738
137	0xbc1b2c0a	-0.009470949
138	0xbbafe4b9	-0.005367842
139	0x3d69cbb2	0.057079025
140	0xbc96c151	-0.018402727
141	0x3c8fc0cb	0.017547986
142	0xbc6a3ac1	-0.014296235
143	0xbd010817	-0.031501856
144	0x3d5a75eb	0.05333511
145	0xba9f92b2	-0.0012174456
146	0x3d018a3f	0.031625982
147	0x3d8e587e	0.06950472
148	0xbd7023f7	-0.05862805
149	0x3d1fff4e	0.039061837
150	0x3cc957b7	0.024577959
151	0xbccde671	-0.025134297
152	0xbd0ebb43	-0.034846555
153	0x3d8d682e	0.06904636
154	0x3b6a695e	0.003576837
155	0x3d488d64	0.048962966
156	0xbcafc1c8	-0.021454707
157	0xbcc53b0c	-0.024076007
158	0x3d782661	0.060583476
159	0xbc987582	-0.01861072
160	0x3c867308	0.016412273
161	0x3d7f23a7	0.06228986
162	0xbc7f724d	-0.015591216
163	0x3c086ffc	0.00832748
164	0x3bbfee03	0.0058572306
165	0xbdb9cc29	-0.090721436
166	0x3c491714	0.012273569
167	0x3d50cb15	0.050974924
168	0xbcc28f49	-0.023749964
169	0xbb829856	-0.003985445
170	0xbb897006	-0.0041942624
171	0x3d15030f	0.03637987
172	0xbce09826	-0.0274163
173	0x3d5a4b6f	0.053294595
174	0x3d039d67	0.032132532
175	0x3d8499d0	0.0647465
176	0x3d3e446e	0.04645198
177	0x3cb2ed2f	0.021841614
178	0x3d2cd6a7	0.042196896
179	0x3dd87ab6	0.1057028
180	0x3d06ce65	0.032911677
181	0xbb489156	-0.0030604205
182	0xbd0f1c4f	-0.034939107
183	0x3d4cd295	0.050005514
184	0x3d794645	0.06085803
185	0xbd4099a3	-0.04702152
186	0xbd5be8cc	-0.05368881
187	0xbc9c73b7	-0.019098146
188	0xbd34ab0a	-0.044108428
189	0x3d4712de	0.048601978
190	0xbda52d94	-0.08065334
191	0xbb8d2de1	-0.0043084477
192	0x3db53dd5	0.08849684
193	0xbc6050b4	-0.013691116
194	0xbd141e23	-0.036161553
195	0x3d19f01c	0.0375825
196	0x3d49ace3	0.049237143
197	0x3d3ec0af	0.046570476
198	0x3d142280	0.036165714
199	0x3d21f124	0.03953661
200	0xbd3ae60a	-0.04562954
201	0xba102284	-0.00054983073
202	0x3bf9e35d	0.007625981
203	0x3d03a9c1	0.03214431
204	0xb9593cdd	-0.00020717406
205	0xbd4727d6	-0.048621975
206	0xbda654b1	-0.08121622
207	0xbe0def61	-0.13860847
208	0x3d1cf7a2	0.0383221
209	0xbc694065	-0.014236544
210	0xbd26ad5e	-0.04069268
211	0x3d39c7df	0.045356628
212	0xbb1d97ed	-0.0024046854
213	0xbd428331	-0.047488395
214	0x3dbb1535	0.09134904
215	0xbd04cbd2	-0.03242094
216	0x3b831906	0.0040007858
217	0xbc4f2977	-0.012644163
218	0xbd5dec11	-0.05418021
219	0x3cd84f2c	0.02640494
220	0x3b155d83	0.0022791333
221	0xbd498b5d	-0.049205173
222	0xbca9679e	-0.020679291
223	0xbce77f09	-0.028258817
224	0xbca35c93	-0.019941604
225	0xbd9e576e	-0.0773152
226	0x3ccc12c1	0.024911286
227	0xbb8f6119	-0.0043755886
228	0x3ce5ed7a	0.02806734
229	0xbd81368e	-0.063092336
230	0xbbd97971	-0.0066367914
231	0xbd4fa049	-0.05068997
232	0x3cdbe60a	0.02684309
233	0xbc72868c	-0.014802586
234	0xbdf27ef2	-0.11840619
235	0x3c78871d	0.015168932
236	0x3ca8a27f	0.020585297
237	0xbc6dcf0a	-0.014514694
238	0x3cce061f	0.025149403
239	0x3d9068a4	0.070512086
240	0xbd024533	-0.031804275
241	0x3c053428	0.008130111
242	0x3d81f035	0.06344644
243	0x3d3691f8	0.0445728
244	0xbd2f39ac	-0.04277961
245	0x3d36ce83	0.04463054
246	0x3d1d0d6e	0.038342886
247	0xbc88ed4b	-0.016714713
248	0xbb80957b	-0.0039240695
249	0xbca5863a	-0.020205606
250	0x3ccecae7	0.025243236
251	0x3d7c5ebb	0.06161378
252	0x3d53f0ba	0.051743247
253	0x3d9af63b	0.07566496
254	0xbb8ceff2	-0.0043010646
255	0x3cc0c308	0.023530498

conv4.0.bias f4 [32]
0	0xb72d0b1a	-1.0314188e-05
1	0x36816adc	3.8569397e-06
2	0xb6c7002a	-5.9306813e-06
3	0xb7a12aad	-1.9212568e-05
4	0xb72f93ef	-1.0465256e-05
5	0xb7016221	-7.711847e-06
6	0x360f2ee6	2.133596e-06
7	0x3513e706	5.509795e-07
8	0xb6987b31	-4.5442944e-06
9	0x36fe52f7	7.5794483e-06
10	0xb6c7c997	-5.9541303e-06
11	0x379abd05	1.844625e-05
12	0x36824a7c	3.882973e-06
13	0x364effb8	3.084524e-06
14	0xb64b2d4b	-3.0275721e-06
15	0xb7098838	-8.197552e-06
16	0x37878690	1.6155915e-05
17	0xb7e1b3d2	-2.6905826e-05
18	0x35e844a9	1.730533e-06
19	0xb624cabb	-2.455591e-06
20	0x37c7d54c	2.3821973e-05
21	0x36c7bb59	5.9524723e-06
22	0xb8235289	-3.8939095e-05
23	0x365d9698	3.3019223e-06
24	0x36d39b90	6.3064e-06
25	0x3719e034	9.171712e-06
26	0xb488d967	-2.5490155e-07
27	0x366e39e2	3.5498456e-06
28	0x362a75a2	2.5400445e-06
29	0xb7355b8f	-1.0809758e-05
30	0xb504b3bc	-4.943538e-07
31	0x36672a0e	3.4446161e-06

conv4.1.weight f4 [32]
0	0x3f953e63	1.1659664
1	0x3f8f1258	1.1177473
2	0x3f8bf8fa	1.0935357
3	0x3f889579	1.0670615
4	0x3f872091	1.0556813
5	0x3f9bf660	1.2184563
6	0x3f88c096	1.0683773
7	0x3f88e2b1	1.0694181
8	0x3f91ac5c	1.1380725
9	0x3f92606e	1.1435678
10	0x3f9fb552	1.247721
11	0x3f87b65b	1.0602525
12	0x3f98a357	1.1924847
13	0x3f87d384	1.0611424
14	0x3f9a52c5	1.2056509
15	0x3f91a642	1.1378863
16	0x3f9a28e1	1.2043725
17	0x3f911ddc	1.1337237
18	0x3f94b0b8	1.161643
19	0x3f8a7f64	1.0820127
20	0x3f8e2253	1.1104225
21	0x3f86561d	1.049503
22	0x3f8adc13	1.0848411
23	0x3f9410c4	1.1567616
24	0x3f9ba269	1.2158939
25	0x3f8fb3a3	1.1226696
26	0x3f940080	1.1562653
27	0x3fa203db	1.2657427
28	0x3f95c4f8	1.1700735
29	0x3f940cd6	1.1566417
30	0x3f90fb99	1.1326782
31	0x3f81612f	1.0107783

conv4.1.bias f4 [32]
0	0x3b95e4be	0.0045743873
1	0xbcafb99d	-0.021450812
2	0xbce6d201	-0.02817631
3	0xbd203ca3	-0.039120328
4	0xbc9d8cda	-0.019232202
5	0xbc957144	-0.018242486
6	0xbd2091da	-0.039201595
7	0xbd3329bb	-0.04374097
8	0xbd405836	-0.046959125
9	0xbce596d5	-0.028026024
10	0xbdb32883	-0.08747961
11	0xbcd0c32b	-0.025483688
12	0xbb1e8a4a	-0.0024191313
13	0xbd4b8516	-0.049687468
14	0xbd26f4de	-0.040760867
15	0xbc6ade40	-0.014335215
16	0xbbb76454	-0.005596677
17	0xbd4fe9f2	-0.050760217
18	0x3c917547	0.017756118
19	0xbd3be966	-0.045876883
20	0xbdc8d5d8	-0.098064125
21	0xbd1a1e92	-0.03762681
22	0xbd6cd432	-0.057819553
23	0xbcb78e2a	-0.022406656
24	0xbc4d8ba2	-0.012545498
25	0xbcfbf941	-0.030758502
26	0x3bb7fa50	0.0056145564
27	0xbd3ca306	-0.04605391
28	0x3c8c0f72	0.017097209
29	0xbd8cd8bf	-0.068772785
30	0xbc16de75	-0.009208311
31	0xbd388b43	-0.045054685

conv4.1.running_mean f4 [32]
0	0x3c363ae3	0.011122438
1	0xbd2af7d7	-0.041740265
2	0xbefa29b4	-0.48859942
3	0xbf78fa66	-0.9725708
4	0xbd8f7356	-0.070044205
5	0xbef3e428	-0.47635007
6	0x3e5f40ca	0.21802059
7	0x3eb53ea7	0.35399362
8	0xbdd4bc6f	-0.10387503
9	0xbe9a5242	-0.30140883
10	0xbf1c1470	-0.60968685
11	0x3d1aca6f	0.037790712
12	0xbe3123d0	-0.17298818
13	0xbd196bbe	-0.037456267
14	0xbef94bac	-0.48690546
15	0xbdc35783	-0.09538176
16	0xbe4ad20c	-0.19806689
17	0xbd293273	-0.041307878
18	0x3e75f733	0.2402008
19	0xbdd47f2e	-0.1037582
20	0xbf34d1d9	-0.706327
21	0x3eecbe58	0.4623897
22	0xbda2faff	-0.0795803
23	0xbea398c3	-0.31952485
24	0x3dd84dce	0.10561715
25	0x3ec4c9e8	0.38435292
26	0x3bbefb1e	0.0058282753
27	0xbe6c354c	-0.23067206
28	0x3ec009c2	0.37507445
29	0xbf25c965	-0.6476043
30	0xbcf2be85	-0.029631862
31	0x3ec4b8df	0.38422295

conv4.1.running_var f4 [32]
0	0x3e142991	0.14468981
1	0x3e0b686e	0.13614056
2	0x3dfb5a9a	0.1227314
3	0x3e5b8c60	0.21440268
4	0x3e20adad	0.15691252
5	0x3e1ddae3	0.1541553
6	0x3e079438	0.13240135
7	0x3e103300	0.14081955
8	0x3e1915cd	0.14949723
9	0x3dfe1683	0.124066375
10	0x3e1aca35	0.15116198
11	0x3ddb47d0	0.107070565
12	0x3e2b0faf	0.16705202
13	0x3df83b48	0.12120682
14	0x3dfe282c	0.12410006
15	0x3e140f59	0.1445898
16	0x3e331af6	0.17490754
17	0x3db18b09	0.08669097
18	0x3e911d62	0.2834273
19	0x3e15267c	0.14565462
20	0x3e0c85ca	0.13722911
21	0x3e074555	0.13210042
22	0x3df5bffb	0.11999508
23	0x3e0b2c87	0.13591205
24	0x3eac430b	0.336449
25	0x3e2c6512	0.1683543
26	0x3eb4aeeb	0.35289702
27	0x3e0bc038	0.13647544
28	0x3e830bbd	0.25594893
29	0x3dd700ee	0.10498224
30	0x3e11e8b5	0.14248927
31	0x3e25d814	0.16195709

fc.weight f4 [10, 960]
0	0x3d33db94	0.043910578
1	0x3ce0a7ba	0.027423728
2	0xba3bf717	-0.0007170303
3	0x3da9c101	0.08288766
4	0x3d2cdbe9	0.04220191
5	0x3c9bf38e	0.019037034
6	0x3d2467f4	0.0401382
7	0x3d17578c	0.036948726
8	0xbcc43b56	-0.023954075
9	0x3d4cedd3	0.050031494
10	0x3c5e6e66	0.013576126
11	0xbd5dc43d	-0.054142226
12	0xbca08ad3	-0.019597447
13	0x3d1cb8de	0.03826224
14	0xbd4cd4b0	-0.050007522
15	0x3b567c48	0.0032727886
16	0x3d2e897c	0.042611584
17	0xbd311bca	-0.043239392
18	0x3d89cb0d	0.06728182
19	0x3d3b9fc7	0.045806672
20	0x3c740169	0.014892914
21	0x3c0f837c	0.008759376
22	0xbd3e635f	-0.046481486
23	0xbc84939c	-0.016183667
24	0x3cfa31c3	0.030541306
25	0x3c5d71db	0.013515915
26	0xbd1d6311	-0.038424555
27	0x3cd6974b	0.026195189
28	0x3d639d90	0.055570185
29	0xbd7564c5	-0.059910554
30	0xbc19ee74	-0.009395231
31	0xbd3fecca	-0.04685668
32	0x3c99e667	0.018786622
33	0x3c9070ac	0.017631851
34	0x3c70a4e8	0.014687754
35	0x3cf47f34	0.029845811
36	0x3d849f47	0.06475692
37	0xbcb0cf63	-0.021583265
38	0xbd11017f	-0.035401817
39	0xbd1ec894	-0.038765505
40	0x3cb9f5d3	0.022700226
41	0x3c481f0a	0.012214432
42	0xbd164695	-0.036688406
43	0x3bedf39f	0.007261708
44	0x3d2e838e	0.04260593
45	0xbc5419c0	-0.012945592
46	0xbd15dbc1	-0.036586527
47	0x3bf4b262	0.007467554
48	0x3d0b5393	0.03401525
49	0x3c8d0783	0.017215496
50	0xbc7dd547	-0.015492744
51	0x3d80b9c7	0.06285434
52	0x3c655be9	0.013998964
53	0xbcc605f6	-0.024172764
54	0xba1b4333	-0.0005922794
55	0xbb813646	-0.0039432375
56	0xbb87fdde	-0.0041501364
57	0xbc9e8884	-0.019352205
58	0xbc9a8379	-0.01886152
59	0x3d28989a	0.041161157
60	0xbca30a20	-0.019902289
61	0xbd5d8376	-0.05408045
62	0x3d7516aa	0.059836067
63	0xbda795e5	-0.08182887
64	0xbd40a1fc	-0.04702948
65	0x3d67fad5	0.056635696
66	0x3ae32997	0.001733112
67	0xbd4d31f0	-0.050096452
68	0x3cfdf241	0.030999305
69	0xbcb16cdf	-0.02165836
70	0xbda03822	-0.078232065
71	0x3cae2928	0.02125986
72	0x3c94ffb8	0.018188342
73	0xbd3e9f4e	-0.046538644
74	0x3c44c222	0.0120091755
75	0xbd9d3587	-0.07676225
76	0xbd126cbe	-0.035748236
77	0x3d3ffe15	0.04687317
78	0xbd20c6f6	-0.039252244
79	0xbd2d1c00	-0.04226303
80	0x3d737175	0.059434373
81	0x3d253eb1	0.04034299
82	0xbcaa21f1	-0.020768138
83	0x3d78d673	0.06075139
84	0x3ce60e9f	0.028083144
85	0xbd8bff7f	-0.068358414
86	0x3d3d47ca	0.04621104
87	0xbd06483b	-0.032783728
88	0xbd6a7af6	-0.05724617
89	0x3bb021a8	0.005375106
90	0xbd12f460	-0.035877585
91	0xbcf0052a	-0.029299337
92	0x3d247cbd	0.040158022
93	0x3c1555d3	0.0091147
94	0xbdc5850e	-0.09644519
95	0x3c68fb67	0.014220095
96	0x3aef85a0	0.0018274076
97	0xbc5ac7eb	-0.013353328
98	0x3ca75be7	0.020429565
99	0xbc052c31	-0.008128212
100	0xbc79c61f	-0.01524499
101	0x3d402b57	0.046916332
102	0xbd6feb45	-0.05857398
103	0xbdb5bb9c	-0.08873674
104	0x3c7df44f	0.015500142
105	0xbd4abab1	-0.04949445
106	0xbd8e7f8d	-0.06957922
107	0x3cbae75b	0.022815397
108	0x3c0e82ec	0.008698206
109	0xbda8ae38	-0.082363546
110	0x3cf9ac01	0.030477526
111	0xbb467d41	-0.003028706
112	0xbc866183	-0.01640392
113	0x3d1b4472	0.03790707
114	0xbcf17223	-0.02947337
115	0xbc70c6f3	-0.014695871
116	0x3d4ad690	0.04952103
117	0xbd94fb2d	-0.072744705
118	0xbd09bab0	-0.033625305
119	0xbb5d52df	-0.003377132
120	0x3b49036e	0.003067221
121	0x3d0c5f3a	0.034270503
122	0x3d4f7c97	0.050655928
123	0xbc968ed9	-0.018378662
124	0xbb82e1d1	-0.0039942046
125	0xbbeef7bd	-0.0072927163
126	0xbb9c2a0a	-0.0047657536
127	0x3d10fac4	0.0353954
128	0x3c8d1b4c	0.01722493
129	0xbbed3aaf	-0.0072396616
130	0x3cbb6345	0.022874484
131	0xbc2e1174	-0.010624278
132	0xbca7103a	-0.02039348
133	0x3d92c12a	0.07165749
134	0x3cfc7c28	0.030820921
135	0x3cd96984	0.026539572
136	0x3d5652f8	0.05232522
137	0x3ce8228e	0.02833679
138	0x3bb01038	0.005373027
139	0xbc2c7ba9	-0.01052753
140	0x3cfc62ec	0.030808888
141	0x3d889ce0	0.066705465
142	0x3c98ef42	0.018668775
143	0x3c8f46f7	0.017489893
144	0x3bbb26a9	0.0057113958
145	0x3cbebbfb	0.023282995
146	0x3d2fa1ad	0.042878795
147	0x3c4384f1	0.011933551
148	0xbc6064f0	-0.01369594
149	0x3cc5b716	0.024135154
150	0x3bbf27a8	0.005833585
151	0x3d9e78cf	0.07737886
152	0xbcfb1b45	-0.030652652
153	0x3d812c14	0.06307235
154	0x3d1cf7ca	0.038322248
155	0xbd373f7f	-0.04473829
156	0x3b90176a	0.0043973224
157	0x3cf65631	0.030070396
158	0xbd36bbf7	-0.04461285
159	0x3bf53545	0.007483157
160	0x3db28a43	0.087177776
161	0xbd6d5d7a	-0.057950474
162	0xbcd48dd6	-0.025946539
163	0x3d6d93b8	0.058002204
164	0xbc85583d	-0.016277427
165	0x3c9f856f	0.019472806
166	0x3d40be8c	0.04705672
167	0xbd482bdd	-0.048869956
168	0x3d2b8e2d	0.041883636
169	0x3d2da7fa	0.042396523
170	0xbcfb1a66	-0.030652236
171	0x3acab5dd	0.0015465576
172	0x3d03bff3	0.03216548
173	0xbdaa88bf	-0.083268635
174	0xbc4893a8	-0.012242235
175	0x3d80324b	0.062595926
176	0xbd2c44aa	-0.04205767
177	0x3c4eb93b	0.012617405
178	0x3da33b81	0.07970334
179	0xbc419fe1	-0.011817903
180	0x3cbe8b04	0.023259647
181	0xbc7c36af	-0.015393897
182	0x3c3efc14	0.01165678
183	0x3b8849e3	0.0041591986
184	0xbbaf86ba	-0.005356637
185	0xbc46d7c4	-0.0121364035
186	0x3b1d4b37	0.002400113
187	0x3cb5af43	0.022178298
188	0x3d31495b	0.043282848
189	0x3d1b7b56	0.03795942
190	0x3d120fa8	0.035659462
191	0x3cd9f1ee	0.026604619
192	0x3ce76b54	0.02824942
193	0x3d3b3006	0.045700096
194	0x3bb9f983	0.005675496
195	0x3d003698	0.031302065
196	0xbcd74420	-0.026277602
197	0xbbb27f7e	-0.005447327
198	0x3c8910a4	0.016731568
199	0xbc1d654c	-0.009606671
200	0x3d041835	0.032249648
201	0x3d44d0a7	0.04805055
202	0x3a1a27b5	0.00058805506
203	0x3cb76354	0.02238623
204	0x3d327040	0.04356408
205	0xbba26dcf	-0.004956938
206	0x3c62c58e	0.013841046
207	0x3ca4e4b8	0.020128593
208	0x3c210366	0.00982747
209	0xbd37a58a	-0.044835605
210	0x3cb55f00	0.022140026
211	0xbc5b1582	-0.013371827
212	0x3d2aed0d	0.041729975
213	0xbcfe36d6	-0.031032007
214	0x3ba83d5a	0.005134267
215	0x3d61fd18	0.05517301
216	0xbd091cb7	-0.03347465
217	0xba5700e1	-0.000820173
218	0x3d2cba5e	0.04216992
219	0xbcbb20a5	-0.022842715
220	0x3cbf3a29	0.023343163
221	0x3cdc3f96	0.026885789
222	0x3cc9b318	0.024621531
223	0x3c7dd6ab	0.015493075
224	0x3cdd5fc4	0.027023204
225	0xbb3957e0	-0.0028281137
226	0x3c5475d3	0.012967545
227	0x3c8bc187	0.017060054
228	0xbd13bc63	-0.03606833
229	0xba9e70cf	-0.0012088063
230	0x3d7a03d4	0.061038807
231	0x3cac928e	0.021065976
232	0xbd16f48b	-0.036854308
233	0x3d0210ad	0.031754185
234	0x392af670	0.00016304269
235	0x3c53dbd4	0.012930829
236	0x3d0c6c70	0.0342831
237	0x3d4b98ec	0.049706385
238	0x3be15cdb	0.0068775243
239	0x3d0b05ab	0.033940952
240	0x3b9c09fa	0.0047619315
241	0xbae236b7	-0.0017258738
242	0x3cf735c5	0.030177006
243	0x3c090287	0.008362419
244	0xbc398f54	-0.011325676
245	0xba14fdc5	-0.00056835666
246	0x3c83ac55	0.016073385
247	0x3d248faa	0.04017607
248	0xbcc53d7a	-0.024077166
249	0x3c1061ac	0.008812349
250	0x3d159154	0.03651555
251	0xbb9f8900	-0.0048686266
252	0x3d448a59	0.0479835
253	0xbc6ec6cc	-0.014573764
254	0xbd10cc3a	-0.035351016
255	0x3c24ecbb	0.010066207

fc.bias f4 [10]
0	0xbcebef1e	-0.028800543
1	0xbb2f27eb	-0.0026726674
2	0xbcdb673a	-0.02678262
3	0xbcc21159	-0.023689913
4	0x3cce7547	0.025202407
5	0xbc4aaf5f	-0.012370913
6	0xbd0f46ea	-0.03497974
7	0x3c016bb1	0.007899211
8	0xbcb8c65a	-0.022555519
9	0x3d08382c	0.033256695
