yono_compression/yono/data/saved_model/AudioCNN_emotion-5-frames25_adam_multistep_nomixup.pt (torch, 311314 bytes, 26 tensors)

conv1.0.weight f4 [32, 1, 3, 3]
0.18008722 -0.14715147 -0.06491532 0.16505182 -0.33058578 0.20627335 -0.09711599 0.11690323
0.011918352 -0.09022458 0.091925405 -5.5238157e-05 0.14386636 -0.11625275 -0.03957284 -0.047037337
0.05112071 -0.0019620485 0.28900692 0.0966345 -0.14680694 -0.20211795 -0.056488812 -0.16222602
-0.07852935 0.030837858 0.21517402 0.16209601 -0.3354534 0.19758958 0.07116988 0.3019311
0.21039285 -0.32993948 -0.3320973 -0.1694314 0.2833385 -0.10940925 0.0017938397 -0.17238806
0.3019593 -0.20711868 0.2517005 -0.007986673 -0.18354283 0.18324503 -0.1675095 0.122449815
-0.13684839 -0.09680331 -0.2932026 -0.16814645 0.16124293 -0.045432806 0.2553937 0.23950122
-0.23293945 -0.28844032 0.15917146 -0.0012604154 -0.27938303 0.18829954 0.15165275 0.31313655
-0.17186274 -0.059339706 0.005551528 0.06465264 -0.262954 -0.18016098 0.23979597 -0.039084595
0.19520715 0.042563587 0.078786135 0.07545595 0.14013124 0.14625049 -0.30372426 0.1752337
-0.2301523 -0.25720003 -0.0036033622 -0.0797336 0.19784287 -0.20085546 -0.29949382 0.24815357
-0.056459114 0.16942061 0.17452227 -0.21856254 0.05859899 0.16111048 -0.13961472 -0.11743567
0.13596147 0.053184796 -0.16151877 -0.1366967 0.2789639 -0.14156356 0.09709051 0.16120905
-0.2183199 -0.30212268 0.33186883 -0.03793167 0.27355292 0.07796606 0.044526942 0.268561
0.31974787 -0.28268337 -0.00078663795 0.20832345 0.16152613 0.23101535 -0.2124091 -0.2115346
-0.19343604 0.070812516 0.36608645 -0.19288 0.19205965 -0.15168077 -0.37120596 -0.10997005
0.17639443 0.26888067 -0.23580062 0.069373846 0.22462507 0.11523144 0.11487548 0.2364193
0.20087555 0.07421732 -0.22951454 -0.29827338 -0.16397175 -0.032740224 -0.20756863 0.12667266
0.110042945 -0.015958967 0.07102586 -0.03208693 0.26489982 -0.008566995 -0.16314133 0.33692265
-0.12076502 -0.00958691 -0.30693159 -0.14858548 -0.13532382 -0.083998285 0.32209092 -0.07324652
-0.2097791 0.2107193 0.112191245 0.22355038 -0.15525481 0.07566092 -0.11819092 -0.030270083
-0.30057168 -0.21390808 -0.038549233 0.09911432 -0.01782095 0.020586934 0.38988885 0.23233329
0.2042759 -0.017923234 -0.24803297 0.25650778 -0.066353574 -0.0022792506 -0.20055363 0.013574161
-0.14330018 0.4133009 -0.28706536 -0.24391235 0.10770658 -0.15615933 0.17351566 -0.05293225
-0.19444592 0.010260744 0.23437122 -0.2727569 0.13223687 0.19234116 0.32218003 -0.26929012
0.025201343 -0.23136434 0.3000853 -0.13921382 0.16748692 -0.0135183595 -0.091353245 -0.054300092
0.006453105 0.09520794 0.07768773 0.09469801 -0.30955932 0.29186714 0.2923962 0.2603477
0.26997447 -0.24101484 -0.09620226 0.28074956 -0.2858291 0.29850993 -0.23915614 -0.2443893
0.1595152 -0.28635672 -0.05073542 0.2258406 0.076388 0.26772165 -0.18254662 -0.3014065
0.34413937 -0.077511825 -0.08493356 0.091729335 -0.23886064 0.26537642 0.22486196 -0.26152807
-0.24097304 -0.0075799627 0.14787602 0.007603693 -0.17455305 -0.029561091 -0.266768 -0.20418087
-0.21045679 0.30924416 0.31555805 -0.09463394 -0.07232707 0.10866847 0.035126757 -0.26018032
00000000: c968 383e e0ae 16be 53f2 84bd 5803 293e
00000010: 8a42 a9be 5239 533e c0e4 c6bd f66a ef3d
00000020: 3145 433c aac7 b8bd 6343 bc3d 85af 67b8
00000030: b451 133e ec15 eebd 2117 22bd 39aa 40bd
00000040: f363 513d b695 00bb b7f8 933e 4fe8 c53d
00000050: 8f54 16be 02f8 4ebe d060 67bd 941e 26be
00000060: ffd3 a0bd ad9f fc3c 9456 5c3e 7ffc 253e
00000070: 8cc0 abbe ec54 4a3e 84c1 913d b796 9a3e
00000080: 3971 573e d4ed a8be a808 aabe 6d7f 2dbe
00000090: be11 913e f511 e0bd 461f eb3a 7f86 30be
000000a0: 699a 9a3e eb16 54be e3de 803e 89da 02bc
000000b0: a7f2 3bbe 96a4 3b3e 9c87 2bbe f8c6 fa3d
000000c0: fc21 0cbe d040 c6bd a71e 96be 952e 2cbe
000000d0: de1c 253e c017 3abd f7c2 823e cf3f 753e
000000e0: ae87 6ebe 73ae 93be d8fd 223e 8634 a5ba
000000f0: 4b0b 8fbe 98d1 403e dc4a 1b3e 6f53 a03e
00000100: c9fc 2fbe 310e 73bd 98e9 b53b 9a68 843d
00000110: e8a1 86be 1f7c 38be 138d 753e 2b17 20bd
00000120: 62e4 473e 2857 2e3d a05a a13d a688 9a3d
00000130: 907e 0f3e b0c2 153e bf81 9bbe 7770 333e
00000140: 0bad 6bbe b9af 83be 6326 6cbb 5f4b a3bd
00000150: 5297 4a3e 0ead 4dbe 4157 99be f81b 7e3e
00000160: ac41 67bd 997c 2d3e f7b5 323e dcce 5fbe
00000170: 7f05 703d 25fa 243e 29f7 0ebe 1d82 f0bd
00000180: 7c39 0b3e 4dd8 593d 2d65 25be 38fa 0bbe
00000190: 5bd4 8e3e 0af6 10be 64d7 c63d fc13 253e
000001a0: 408f 5fbe d3af 9abe b6ea a93e 3d5e 1bbd
000001b0: 210f 8c3e abac 9f3d e261 363d d480 893e
000001c0: feb5 a33e e0bb 90be 6136 4eba be52 553e
000001d0: 1b67 253e 4a8f 6c3e c581 59be 879c 58be
000001e0: 1914 46be 2706 913d af6f bb3e 5682 45be
000001f0: 49ab 443e 3452 1bbe b50e bebe fa37 e1bd
00000200: bea0 343e baaa 893e b875 71be e013 8e3d
00000210: 1d04 663e 76fe eb3d d643 eb3d e717 723e
00000220: 52b2 4d3e 40ff 973d dc05 6bbe 4ab7 98be
00000230: 36e8 27be 9d1a 06bd df8c 54be 7ab6 013e
00000240: 325e e13d 61bc 82bc 0276 913d 966d 03bd
00000250: f3a0 873e 955c 0cbc 850e 27be 2081 ac3e
00000260: a753 f7bd 6a12 1dbc 2326 9dbe cb26 18be
00000270: 5492 0abe 4b07 acbd 1ae9 a43e 4502 96bd
00000280: 55d0 56be cdc6 573e 86c4 e53d 64ea 643e
00000290: 1efb 1ebe 1df4 9a3d 150e f2bd f7f8 f7bc
000002a0: 88e4 99be b80a 5bbe cde5 1dbd 73fc ca3d
000002b0: 3efd 91bc eea5 a83c 839f c73e c7e8 6d3e
000002c0: b42d 513e bfd3 92bc 5bfc 7dbe fd54 833e
000002d0: 62e4 87bd 7b5f 15bb ee5d 4dbe 2866 5e3c
000002e0: 48bd 12be 2d9c d33e 3bfa 92be 29c4 79be
000002f0: 4495 dc3d 3be8 1fbe 17ae 313e 7dcf 58bd
00000300: d51c 47be ae1c 283c 02ff 6f3e cba6 8bbe
00000310: 1a69 073e 15f5 443e c8f4 a43e 65e0 89be
00000320: 0c73 ce3c c6ea 6cbe c8a4 993e 118e 0ebe
00000330: b181 2b3e 1c7c 5dbc 6917 bbbd c669 5ebd
00000340: 9174 d33b 61fc c23d bf1a 9f3d 08f1 c13d
00000350: 8f7e 9ebe 9c6f 953e f4b4 953e 4b4c 853e
00000360: 183a 8a3e 98cc 76be b105 c5bd 68be 8f3e
00000370: 3158 92be 4bd6 983e 59e5 74be 3041 7abe
00000380: f457 233e 599d 92be f2cf 4fbd c242 673e
00000390: 5071 9c3d d012 893e 80ed 3abe f451 9abe
000003a0: 0933 b03e 85be 9ebd a5f1 adbd 97dc bb3d
000003b0: e297 74be 6bdf 873e 3742 663e 02e7 85be
000003c0: a3c1 76be 5661 f8bb d06c 173e 6628 f93b
000003d0: 09be 32be 1a2a f2bc d195 88be ca14 51be
000003e0: fc81 57be 4055 9e3e d390 a13e 70cf c1bd
000003f0: 3720 94bd 938d de3d 13e1 0f3d 5b36 85be

conv1.0.bias f4 [32]
-5.4637426e-06 6.264889e-05 1.6188156e-05 2.767592e-07 -4.7642698e-06 1.1564313e-05 2.6190968e-05 1.7266391e-05
7.165106e-07 6.466823e-05 3.4114368e-05 2.7565075e-05 4.368072e-06 1.4006748e-05 -4.862832e-07 9.788597e-06
-8.628386e-06 1.629686e-05 -2.080656e-05 3.8466537e-06 7.8698207e-07 6.468624e-07 -7.850465e-06 -2.3287511e-07
-9.754441e-06 -2.0552607e-05 1.8295545e-05 -5.6427114e-05 3.2454456e-05 1.2620385e-05 6.421391e-06 2.6975289e-05
00000000: 3155 b7b6 5e62 8338 cdcb 8737 7f95 9434
00000010: c4dc 9fb6 5904 4237 adb4 db37 4bd7 9037
00000020: 3c56 4035 7e9e 8738 0616 0f38 8c3b e737
00000030: 7491 9236 86fe 6a37 2189 02b5 b439 2437
00000040: a3c2 10b7 3eb5 8837 bf89 aeb7 8112 8136
00000050: ff40 5335 0ca4 2d35 7eb5 03b7 390c 7ab4
00000060: 01a7 23b7 6368 acb7 6279 9937 27ac 6cb8
00000070: b51f 0838 24bc 5337 5477 d736 fe48 e237

conv1.1.weight f4 [32]
1.0502923 1.0740432 0.9826923 0.9684621 0.9670962 0.9056979 0.9827858 1.0059856
0.8889201 0.99527866 1.141783 1.1146872 0.8786544 0.9219254 0.9244434 0.932079
0.86235857 0.9979766 0.964322 0.8084902 0.96412545 1.1059889 0.93511575 0.8584551
1.0634189 0.93913317 1.0656914 0.9979879 1.0409166 0.9208166 0.94661623 0.9642531
00000000: fa6f 863f 3f7a 893f b991 7b3f 22ed 773f
00000010: 9e93 773f d1db 673f da97 7b3f 23c4 803f
00000020: 4590 633f 95ca 7e3f f225 923f 12ae 8e3f
00000030: 7fef 603f 4e03 6c3f 53a8 6c3f bb9c 6e3f
00000040: 88c3 5c3f 657b 7f3f cedd 763f 37f9 4e3f
00000050: edd0 763f 0b91 8d3f bf63 6f3f b7c3 5b3f
00000060: 1c1e 883f 086b 703f 9368 883f 237c 7f3f
00000070: c13c 853f a3ba 6b3f 7155 723f 4bd9 763f

conv1.1.bias f4 [32]
-0.0018585871 -0.13625255 -0.13242376 -0.069983125 -0.18262714 -0.19848979 -0.025982058 -0.15808386
-0.20952524 -0.070435174 0.050433975 -0.029882936 -0.1197056 -0.11383814 -0.081669606 -0.16735291
-0.060002442 -0.12487163 -0.14853464 -0.09107053 -0.07929947 0.020341365 -0.09475626 -0.15145075
-0.1258727 -0.074556716 -0.109689385 -0.009752908 0.08789673 -0.13084896 -0.032580864 -0.09636847
00000000: d69b f3ba ca85 0bbe 189a 07be 5053 8fbd
00000010: 9c02 3bbe e840 4bbe 53d8 d4bc bce0 21be
00000020: c98d 56be 5140 90bd db93 4e3d 0fcd f4bc
00000030: 3628 f5bd f923 e9bd 6542 a7bd 905e 2bbe
00000040: 1fc5 75bd b2bc ffbd 7719 18be 3083 babd
00000050: c367 a2bd efa2 a63c 920f c2bd e815 1bbe
00000060: c6e4 00be 31b1 98bd d4a4 e0bd a9ca 1fbc
00000070: 3303 b43d 45fd 05be 8373 05bd d55c c5bd

conv1.1.running_mean f4 [32]
0.00022135761 2.7787008e-05 -0.00013679614 -0.001955077 0.0013663704 -0.0037676783 0.0017822996 -0.0007070838
0.0027796188 -0.002362509 -0.0005213922 0.00058182876 0.009133989 -0.00077009224 0.0020600173 -0.0026863734
0.003888333 -0.0037598424 -0.0037991216 0.0077161486 -0.0035010206 0.00065881625 0.0005775852 0.0064180437
-0.0010659918 0.00032821367 -0.0006777229 -0.003013323 0.0006325738 0.00046698534 -0.0009770355 -0.00029158188
00000000: 3b1c 6839 2518 e937 ef70 0fb9 c020 00bb
00000010: c817 b33a 27eb 76bb 0d9c e93a 975b 39ba
00000020: 442a 363b 53d4 1abb 0aae 08ba de85 183a
00000030: baa6 153c 04e0 49ba 5b01 073b de0d 30bb
00000040: 67d3 7e3b b067 76bb affa 78bb bfd7 fc3b
00000050: 6171 65bb 69b4 2c3a 1669 173a 744e d23b
00000060: c0b8 8bba 1814 ac39 37a9 31ba 2c7b 45bb
00000070: 4fd3 253a b6d5 f439 df0f 80ba 75df 98b9

conv1.1.running_var f4 [32]
0.007439998 0.00079932035 0.046698067 0.26082364 0.029320134 0.1691401 0.047655106 0.022129571
0.18165964 0.17349973 0.017167449 0.014534607 0.6033218 0.026660103 0.16168405 0.2469021
0.12279387 0.14732602 0.21852162 0.57284725 0.11852199 0.029321877 0.009548338 0.41890603
0.05490241 0.023589244 0.029268757 0.28912413 0.021625271 0.06592849 0.13328622 0.025835698
00000000: 3acb f33b 7b89 513a 7946 3f3d ad8a 853e
00000010: c730 f03c 1033 2d3e 0032 433d 1349 b53c
00000020: fc04 3a3e eaa9 313e c0a2 8c3c 8f22 6e3c
00000030: 4c73 1a3f 4a66 da3c 8190 253e e7d3 7c3e
00000040: 5a7b fb3d a2dc 163e 22c4 5f3e 1ea6 123f
00000050: a8bb f23d 6f34 f03c a270 1c3c da7a d63e
00000060: 59e1 603d 3b3e c13c 08c5 ef3c 1408 943e
00000070: 7b27 b13c 8405 873d 2f7c 083e 63a5 d33c

conv2.0.weight f4 [32, 32, 3, 3]
-0.014715927 0.037106812 0.012418943 -0.040161338 0.07168649 -0.035524514 -0.055710375 0.06508824
-0.04165899 -0.049358957 -0.044789452 -0.08737326 0.0133313425 -0.07237272 -0.103363924 0.07203658
0.00040632603 -0.026023773 -0.035723317 0.0020773138 -0.011457536 -0.052001476 -0.038789686 0.07760728
-0.04750962 -0.011085105 0.0050787823 -0.045847755 -0.06415385 -0.035441298 0.04774296 0.02931686
0.0075307623 -0.00047107364 0.08257749 0.10784892 0.01624076 -0.014592666 -0.0292518 0.047355145
-0.0050711357 -0.04094174 0.11041845 0.044497706 0.035499565 0.03236759 -0.028201142 0.0025476199
0.018324543 -0.010523611 -0.04794895 -0.000665321 -0.009510961 -0.0146241225 -0.04900776 -0.029555237
-0.07784773 0.04498291 0.026845869 -0.010698646 0.0034419443 -0.04056324 0.04665099 0.010171711
0.016734032 0.089694284 -0.0011701353 0.012566185 -0.035139285 -0.034061506 2.0712647e-05 0.026736297
-0.017195677 -0.048975497 0.030127205 0.039533906 0.08221443 0.04870326 0.090096496 0.07414982
0.0052692834 0.019242246 0.02125299 -0.042941418 0.036045168 0.017609308 0.008042747 0.0014695391
0.111101545 0.041964725 -0.060305934 0.045178592 -0.04943066 -0.039415993 0.06387652 -0.04395621
-0.03183776 0.11370843 -0.087719016 -0.06623913 -0.04741718 -0.014602096 0.010297569 0.07801246
-0.015347834 0.031561416 -0.03969026 -0.080453 0.011534418 -0.014817096 -0.028465558 0.010341766
0.020852093 0.01636739 0.033945404 -0.054041028 0.009605043 -0.0070016636 0.032252803 0.040815406
-0.05525991 0.038385056 -0.04078975 0.05849392 -0.0013392358 0.010675086 -0.002090506 0.07043579
0.01018645 -0.0517454 0.02917689 0.043155573 0.021707613 -0.02074788 0.048686408 0.082441494
0.034582783 0.015858265 0.009832487 -0.027156759 0.030717812 -0.0673877 0.06995264 0.04505203
-0.006387116 0.027871046 -0.051756468 0.02004736 0.021029772 -0.028637763 -0.021324411 -0.041648068
0.02751928 0.010758153 0.013556469 0.02061934 -0.04027993 0.03960397 0.053832147 -0.026542015
0.042724825 -0.007629016 0.039851144 0.060715042 0.09224356 -0.05854685 -0.0498759 0.057774935
-0.0054674665 0.033711784 0.042608097 -0.020950496 0.026884248 -0.06202207 0.044921797 0.05420655
0.0567039 -0.03805251 -0.05100739 0.004851157 -0.02715288 -0.03700885 -0.03739839 -0.027342077
-3.2138687e-05 -0.0089390315 -0.02062583 -0.037223928 0.06015438 -0.034392245 -0.018091206 -0.026316108
-0.11662905 0.034182686 -0.0519841 -0.09015028 -0.020175844 -0.0834978 -0.054126844 0.0037324298
-0.099962704 -0.01357399 0.051085502 -0.037846636 0.024486251 0.015572983 0.00079820136 0.01652983
-0.015553938 -0.034962736 0.00033341444 -0.004554469 -0.0021057946 -0.0037429954 -0.042644203 -0.07721962
-0.028189378 -0.02785125 -0.0502983 0.04228957 0.08029786 -0.0146728605 -0.036307693 0.03275179
0.003444917 0.018347843 -0.02333769 0.049400557 -0.027720055 0.05993201 -0.007429132 -0.06871775
0.02234734 -0.090310454 -0.055180136 0.012457841 0.06617308 -0.05861651 -0.055505056 -0.031531703
0.033492837 0.01945175 0.020946344 -0.06931889 0.01516057 0.0011440762 0.025416331 0.047160458
0.08007843 -0.005854836 0.060042266 0.0051705725 -0.08773822 -0.037915934 -0.06563155 -0.057844833
00000000: 121b 71bc 50fd 173d d378 4b3c 3780 24bd
00000010: 5ed0 923d 2782 11bd 9030 64bd fc4c 853d
00000020: 9ea2 2abd 9e2c 4abd 2575 37bd c0f0 b2bd
00000030: b46b 5a3c 2638 94bd 77b0 d3bd ea87 933d
00000040: 2808 d539 cf2f d5bc 9d52 12bd 8b23 083b
00000050: 64b8 3bbc 80ff 54bd efe1 1ebd 91f0 9e3d
00000060: 7399 42bd 4d9e 35bc ea6b a63b dbca 3bbd
00000070: 1863 83bd e52a 11bd 1f8e 433d e929 f03c
00000080: 9dc4 f63b 6ffa f6b9 631e a93d e5df dc3d
00000090: 580b 853c 1416 6fbc 79a1 efbc 78f7 413d
000000a0: c52b a6bb 87b2 27bd 1123 e23d 3a43 363d
000000b0: fe67 113d e193 043d 1506 e7bc f8f5 263b
000000c0: 5a1d 963c 396b 2cbc 1e66 44bd f068 2eba
000000d0: ddd3 1bbc 049a 6fbc 5cbc 48bd d31d f2bc
000000e0: a16e 9fbd 0040 383d deeb db3c 6049 2fbc
000000f0: 3e92 613b a425 26bd 1c15 3f3d 40a7 263c
00000100: cf15 893c a3b1 b73d 3a5f 99ba 66e2 4d3c
00000110: 36ee 0fbd 1484 0bbd 12c0 ad37 1406 db3c
00000120: f3dd 8cbc 889a 48bd 54cd f63c 4eee 213d
00000130: 0a60 a83d 127d 473d 8384 b83d dcdb 973d
00000140: f4a9 ac3b eaa1 9d3c c01a ae3c 57e3 2fbd
00000150: 19a4 133d 6541 903c bac5 033c 8d9d c03a
00000160: 3589 e33d 34e3 2b3d 5b03 77bd 300d 393d
00000170: ce77 4abd aa72 21bd b1d1 823d 6d0b 34bd
00000180: 5068 02bd f7df e83d 07a6 b3bd 62a8 87bd
00000190: 8438 42bd a13d 6fbc 23b7 283c ffc4 9f3d
000001a0: 7b75 7bbc 8b46 013d 4192 22bd 8bc4 a4bd
000001b0: dbfa 3c3c 68c3 72bc 9a30 e9bc 8370 293c
000001c0: 02d2 aa3c e814 863c 560a 0b3d 205a 5dbd
000001d0: 785e 1d3c 366e e5bb 841b 043d 0e2e 273d
000001e0: 3758 62bd a639 1d3d 2713 27bd 5297 6f3d
000001f0: 4c89 afba 8ee6 2e3c df00 09bb a440 903d
00000200: 11e5 263c fcf2 53bd 6004 ef3c e6c3 303d
00000210: 2ad4 b13c 75f7 a9bc 666b 473d 16d7 a83d
00000220: ada6 0d3d 31e9 813c 7118 213c da77 debc
00000230: eca3 fb3c 9002 8abd 5443 8f3d 7a88 383d
00000240: 034b d1bb d251 e43c 97fe 53bd 5c3a a43c
00000250: a146 ac3c be99 eabc 88b0 aebc 2a97 2abd
00000260: 1d70 e13c f742 303c f41b 5e3c e4e9 a83c
00000270: 91fc 24bd c637 223d 197f 5c3d a46e d9bc
00000280: 3a00 2f3d d3fc f9bb f43a 233d 56b0 783d
00000290: 31ea bc3d d2ce 6fbd ac4a 4cbd 69a5 6c3d
000002a0: 6f28 b3bb 5e15 0a3d d485 2e3d 60a0 abbc
000002b0: 5b3c dc3c db0a 7ebd ebff 373d b007 5e3d
000002c0: 5942 683d f3dc 1bbd 20ed 50bd 74f6 9e3b
000002d0: b76f debc 9896 17bd 0e2f 19bd 7efc dfbc
000002e0: a7cc 06b8 0475 12bc 80f7 a8bc 1e78 18bd
000002f0: 7064 763d e2de 0cbd 0234 94bc e194 d7bc
00000300: 36db eebd 2503 0c3d 48ed 54bd b6a0 b8bd
00000310: d047 a5bc e500 abbd 1cb4 5dbd c89b 743b
00000320: 3fb9 ccbd 7165 5ebc 083f 513d 1305 1bbd
00000330: 6497 c83c d325 7f3c 633e 513a 9169 873c
00000340: f2d5 7ebc 1635 0fbd 21ce ae39 a83d 95bb
00000350: 5f01 0abb 0b4d 75bb b0ab 2ebd 5225 9ebd
00000360: 69ed e6bc 4e28 e4bc 9705 4ebd d437 2d3d
00000370: 3473 a43d 7066 70bc 60b7 14bd be26 063d
00000380: 1ec4 613b 374e 963c af2e bfbc 3d58 4a3d
00000390: 2b15 e3bc 447b 753d 1370 f3bb e4bb 8cbd
000003a0: c511 b73c b0f4 b8bd 9104 62bd f91b 4c3c
000003b0: c085 873d de17 70bd 4559 63bd 6327 01bd
000003c0: c92f 093d 4759 9f3c ab97 ab3c 10f7 8dbd
000003d0: 0a64 783c d4f4 953a e935 d03c 532b 413d
000003e0: 2900 a43d edd9 bfbb e1ee 753d e86d a93b
000003f0: 19b0 b3bd bd4d 1bbd d669 86bd b4ee 6cbd

conv2.0.bias f4 [32]
5.0167932e-06 1.4078267e-05 -1.7373274e-06 6.2860445e-06 2.1585527e-06 8.055536e-07 1.1709304e-06 -1.2543591e-05
-1.6023416e-06 6.1313117e-06 1.8846155e-08 7.826966e-06 -1.1793527e-05 3.6702177e-06 -4.8418574e-06 -2.631015e-06
4.8479997e-06 1.8267118e-06 -3.520424e-06 -4.53917e-07 2.4522144e-06 -9.558349e-06 1.5763664e-05 9.12951e-06
7.85139e-06 -1.6935255e-05 2.3402324e-06 6.68572e-07 1.6030031e-05 -1.0330705e-05 -2.6107784e-06 8.286231e-09
00000000: ed55 a836 b231 6c37 1d2e e9b5 b6ec d236
00000010: a7db 1036 393d 5835 dd28 9d35 5072 52b7
00000020: 0a10 d7b5 91bb cd36 22e3 a132 9050 0337
00000030: d0dc 45b7 dc4d 7636 3d77 a2b6 7e90 30b6
00000040: 00ac a236 572d f535 6c40 6cb6 e1b1 f3b4
00000050: b990 2436 cc5c 20b7 363c 8437 f22a 1937
00000060: 77b9 0337 2f10 8eb7 e30c 1d36 eb77 3335
00000070: 3b78 8637 0a52 2db7 d534 2fb6 3b5b 0e32

conv2.1.weight f4 [32]
0.9335176 0.8902498 0.931619 0.91254026 0.9212229 0.9327748 0.9712944 0.982633
0.9542377 1.0241458 0.9726825 0.95441693 0.97954696 0.958121 1.096031 0.91739666
0.93769646 0.9530272 0.9109675 0.94678146 0.9769477 0.9852028 1.0062994 0.917946
1.0241483 1.0181121 0.8705393 0.9311264 0.9490261 0.9473146 0.9008387 0.9049816
00000000: 02fb 6e3f 69e7 633f 957e 6e3f 3d9c 693f
00000010: 44d5 6b3f 54ca 6e3f c0a6 783f d68d 7b3f
00000020: ec48 743f 3617 833f b801 793f ab54 743f
00000030: 97c3 7a3f 6b47 753f be4a 8c3f 82da 6a3f
00000040: e00c 703f 97f9 733f 2b35 693f 4560 723f
00000050: 3f19 7a3f 4036 7c3f 6bce 803f 82fe 6a3f
00000060: 4b17 833f 7f51 823f aadb 5e3f 4d5e 6e3f
00000070: 60f3 723f 3683 723f 5d9d 663f e0ac 673f

conv2.1.bias f4 [32]
-0.3127795 -0.3060399 -0.33575886 -0.3022238 -0.14650127 -0.2157138 -0.22269794 -0.24051891
-0.27862322 -0.2849619 -0.22721426 -0.23165864 -0.2664598 -0.26222217 -0.33547541 -0.17691036
-0.2170766 -0.20616509 -0.27974164 -0.19085892 -0.27429676 -0.26012936 -0.21199298 -0.2625429
-0.22554298 -0.21557237 -0.31037667 -0.24068975 -0.33034927 -0.25071272 -0.29444787 -0.32574016
00000000: a224 a0be 43b1 9cbe 96e8 abbe 14bd 9abe
00000010: 6e04 16be 14e4 5cbe ee0a 64be 974a 76be
00000020: b4a7 8ebe 87e6 91be dbaa 68be ec37 6dbe
00000030: 6b6d 88be fc41 86be 6fc3 abbe fd27 35be
00000040: 5449 5ebe f11c 53be 4c3a 8fbe 8570 43be
00000050: a070 8cbe ad2f 85be b014 59be 066c 86be
00000060: bdf4 66be 01bf 5cbe b1e9 9ebe 6077 76be
00000070: 8a23 a9be 6b5d 80be dfc1 96be 6ac7 a6be

conv2.1.running_mean f4 [32]
0.3109042 -0.13306649 0.06913413 -0.10142603 0.24718937 -1.0851128 -0.7839939 -0.6071259
0.51535285 -0.40951633 -1.5085456 0.52521 0.112439 -0.5978311 -0.017699407 1.549106
0.70334893 0.36386713 0.9267431 0.8177814 -0.4070178 0.10044638 -0.683535 0.22904402
-0.33928326 -0.3892095 0.5348165 0.35911438 -0.0051700324 0.37371233 -0.4380767 0.7572046
00000000: d62e 9f3e 9542 08be 3296 8d3d 73b8 cfbd
00000010: 361f 7d3e fae4 8abf d3b3 48bf 9a6c 1bbf
00000020: 2aee 033f 20ac d1be 0618 c1bf 2a74 063f
00000030: 6b46 e63d 750b 19bf 59fe 90bc 1b49 c63f
00000040: ad0e 343f cb4c ba3e 093f 6d3f 1f5a 513f
00000050: a364 d0be d5b6 cd3d 26fc 2ebf 848a 6a3e
00000060: 89b6 adbe 7846 c7be bce9 083f d7dd b73e
00000070: 6069 a9bb 3957 bf3e 974b e0be 29d8 413f

conv2.1.running_var f4 [32]
0.51407593 0.23240773 0.46411294 0.31673408 0.40666178 0.85974026 0.5451983 0.6567536
0.4032381 0.37673122 0.74615633 0.6753722 0.41465026 0.6594956 0.31865638 0.5689647
0.48914155 0.31078604 0.41676313 0.28309497 0.46755219 0.37007102 0.5730184 0.29667854
0.43983874 0.24437405 0.6393076 0.32883444 0.38374868 0.5611423 0.6793434 0.48732513
00000000: 7b9a 033f 4bfc 6d3e 36a0 ed3e f82a a23e
00000010: f935 d03e f017 5c3f 1e92 0b3f 0121 283f
00000020: 3975 ce3e eae2 c03e 1a04 3f3f 31e5 2c3f
00000030: 0a4d d43e b4d4 283f ee26 a33e aca7 113f
00000040: c370 fa3e 591f 9f3e fa61 d53e d3f1 903e
00000050: 0063 ef3e f379 bd3e 55b1 123f 40e6 973e
00000060: 8b32 e13e 313d 7a3e aaa9 233f fd5c a83e
00000070: b57a c43e 06a7 0f3f 73e9 2d3f ae82 f93e

conv3.0.weight f4 [64, 32, 3, 3]
0.03670328 0.013830979 0.013715469 0.013934686 0.018409409 -0.005653 0.0137593355 0.05620154
0.0054263207 0.023545537 0.05097069 0.009035437 0.010665722 -0.033983298 -0.06687015 -0.07620069
0.0017252705 0.019865302 0.06997722 0.02621451 0.026146874 0.008718313 -0.01699963 0.046400618
-0.03340982 -0.07655467 -0.004655892 0.076789916 0.0073222085 -0.007705278 -0.03984539 -0.09356798
-0.0904402 -0.05314593 -0.0243629 -0.0027246973 -0.0041401302 0.00048489412 -0.015157938 0.005265147
-0.0026365854 -0.009265038 0.063297614 0.020523483 0.012067591 0.054509297 -0.0037547578 0.034196388
0.026087465 -0.012588854 -0.005169931 -0.042838223 -0.030032735 -0.05825127 -0.010139485 -0.007532593
0.0066775344 0.0010977862 0.0042538256 0.031792928 -0.038762916 -0.024127679 0.030309174 0.062487405
0.07088339 0.10527001 -0.010935386 0.037394002 0.0013880673 0.0064945146 -0.03474765 -0.023668151
0.011120185 0.0569932 -0.028194927 0.00816405 0.07317459 0.043015357 -0.052080832 -0.053458467
-0.0061933505 -0.030491838 -0.029593235 -0.08357842 -0.11178808 -0.028261492 -0.025634177 -0.09029055
-0.05976344 -0.042676624 -0.04087733 -0.06552161 -0.09548418 -0.122381285 -0.049712062 -0.10481193
-0.034683336 -0.058363818 -0.031327326 -0.05566675 -0.06184428 -0.08918389 0.048515487 0.032306377
-0.026914975 0.036104184 -0.041380696 -0.034769062 0.015463233 0.047104828 -0.04351749 -0.00631473
0.04092145 -0.036340546 0.04314554 0.062411945 -0.06845658 -0.051923506 -0.026649065 -0.02292409
-0.03539943 0.033290487 0.06279212 0.018328046 -0.012908123 0.05301604 -0.014791058 -0.1720584
0.044400916 -0.019676697 -0.15352678 0.026098201 -0.083067454 -0.08531824 0.010905805 0.049240697
0.061534267 0.0016766277 -0.031879548 -0.035135504 0.011228466 0.02947409 0.039418757 -0.005818678
0.0023218654 0.063944876 -0.024836814 -0.05497402 0.008258111 -0.088744804 0.04464525 0.07705009
-0.056995984 -0.01022634 0.028267406 0.027335776 -0.0012008062 -0.050774563 -0.076605126 -0.0067732446
0.038779385 -0.0772548 0.08882734 0.029147381 0.0055576894 0.03972772 0.012012408 -0.03396285
-0.035845492 -0.030705709 -0.04089512 0.045909278 0.008101772 -0.008950338 -0.013026127 0.012261577
-0.0039581647 -0.0195662 0.00075943454 0.028532065 -0.05493768 -0.043251254 -0.0087395925 0.056772448
0.056835137 0.0037522963 -0.03870389 0.002995963 -0.027506292 0.013504806 0.010682543 -0.0065667606
-0.02601328 -0.009587212 0.09777291 -0.06974688 -0.026361749 0.11912026 0.017569123 -0.11242369
0.03007382 0.00029713125 -0.123634666 0.01979291 -0.11602574 -0.091733776 0.0029365206 0.036021613
-0.023828767 -0.027655113 -0.0121206585 -0.009237528 0.01998493 -0.020962685 -0.11469948 -0.011298528
-0.0015951315 -0.00057893945 -0.07530226 0.0046735224 -0.009063406 -0.07827371 0.009965423 -0.008408446
0.01384482 -0.024717752 -0.032719813 -0.081514165 -0.063029975 -0.021624096 -0.024302699 -0.16146709
-0.091719426 -0.14026368 -0.0463818 0.0150164645 -0.03643648 0.010262034 0.0047771963 -0.04325031
0.021365821 0.027618296 0.03147568 0.042912517 0.039810233 -0.0576302 -0.0728191 -0.02805053
-0.07426462 -0.031226534 -0.07837897 -0.036821965 -0.016481962 -0.051395707 -0.0095715355 -0.10330316
00000000: 2e56 163d 559b 623c d9b6 603c 4f4e 643c
00000010: 54cf 963c cd3c b9bb d66e 613c 9633 663d
00000020: 47cf b13b 92e2 c03c a4c6 503d 5f09 143c
00000030: 48bf 2e3c 1232 0bbd 38f3 88bd 1b0f 9cbd
00000040: 7922 e23a 8fbc a23c 3750 8f3d d0bf d63c
00000050: f831 d63c 41d7 0e3c cf42 8bbc 930e 3e3d
00000060: bcd8 08bd b2c8 9cbd 7490 98bb 0844 9d3d
00000070: 23ef ef3b 8f7c fcbb eb34 23bd 92a0 bfbd
00000080: b638 b9bd 8caf 59bd b494 c7bc d690 32bb
00000090: eea9 87bb 6339 fe39 0059 78bc 4187 ac3b
000000a0: 90ca 2cbb 63cc 17bc 2ea2 813d dd20 a83c
000000b0: 25b7 453c 2445 5f3d 6212 76bb 8311 0c3d
000000c0: 61b5 d53c 7b41 4ebc 8668 a9bb 2277 2fbd
000000d0: 3607 f6bc e298 6ebd 1520 26bc f8d3 f6bb
000000e0: 38cf da3b 98e3 8f3a ad63 8b3b 4d39 023d
000000f0: ddc5 1ebd 69a7 c5bc f24a f83c cbf2 7f3d
00000100: 502b 913d ce97 d73d 552a 33bc 742a 193d
00000110: cfef b53a f0cf d43b 8d53 0ebd b6e3 c1bc
00000120: 7031 363c b471 693d 0cf9 e6bc 82c2 053c
00000130: 8fdc 953d df30 303d b652 55bd 44f7 5abd
00000140: 97f1 cabb 05ca f9bc 836d f2bc 2a2b abbd
00000150: 26f1 e4bd a584 e7bc c4fe d1bc 40ea b8bd
00000160: 82ca 74bd afcd 2ebd fd6e 27bd 3230 86bd
00000170: 368d c3bd 0aa3 fabd e09e 4bbd a3a7 d6bd
00000180: 1d10 0ebd e60e 6fbd 1551 00bd d102 64bd
00000190: 6e50 7dbd 0ba6 b6bd 2db8 463d b153 043d
000001a0: cb7c dcbc fbe1 133d ce7e 29bd 016a 0ebd
000001b0: 8059 7d3c fef0 403d 653f 32bd cbeb cebb
000001c0: 409d 273d d3d9 14bd 61b9 303d aba3 7f3d
000001d0: f732 8cbd bead 54bd 244f dabc 4dcb bbbc
000001e0: fefe 10bd 9b5b 083d 2899 803d b324 963c
000001f0: 987c 53bc 5927 593d 3256 72bc 1430 30be
00000200: bcdd 353d 0631 a1bc 2036 1dbe e5cb d53c
00000210: 451f aabd 54bb aebd 43ae 323c 9db0 493d
00000220: 5b0b 7c3d 4ac2 db3a 2194 02bd 3fea 0fbd
00000230: 9af7 373c a673 f13c 9075 213d 9caa bebb
00000240: 702a 183b 88f5 823d 9376 cbbc 702c 61bd
00000250: 074d 073c d6bf b5bd f0dd 363d 70cc 9d3d
00000260: 9f74 69bd 618c 27bc 0c91 e73c 47ef df3c
00000270: 5f64 9dba fdf8 4fbd 26e3 9cbd 18f2 ddbb
00000280: 22d7 1e3d c437 9ebd 1ceb b53d 7dc6 ee3c
00000290: 471d b63b 89b9 223d b1cf 443c a11c 0bbd
000002a0: b9d2 12bd 8a8a fbbc a481 27bd 5e0b 3c3d
000002b0: 4bbd 043c 70a4 12bc 896b 55bc c8e4 483c
000002c0: 7eb3 81bb 4c49 a0bc ca14 473a 14bc e93c
000002d0: 5506 61bd 3a28 31bd 8230 0fbc 3a8a 683d
000002e0: f6cb 683d 16e9 753b f887 1ebd eb57 443b
000002f0: e054 e1bc 4343 5d3c d505 2f3c fb2d d7bb
00000300: cd19 d5bc ae13 1dbc 2a3d c83d 74d7 8ebd
00000310: 98f4 d7bc 53f5 f33d 1fed 8f3c 643e e6bd
00000320: 5f5d f63c 48c8 9b39 2c34 fdbd be24 a23c
00000330: e79e edbd ebde bbbd a472 403b 668b 133d
00000340: 8c34 c3bc fa8c e2bc ba95 46bc 0059 17bc
00000350: 70b7 a33c f0b9 abbc 90e7 eabd 761d 39bc
00000360: bb13 d1ba f8c3 17ba 1238 9abd 5924 993b
00000370: ae7e 14bc f84d a0bd 0346 233c 94c3 09bc
00000380: 62d5 623c e27c cabc 3605 06bd e6f0 a6bd
00000390: dc15 81bd 0425 b1bc 7416 c7bc a157 25be
000003a0: 65d7 bbbd 48a1 0fbe d8fa 3dbd 9e07 763c
000003b0: 6b3e 15bd 1722 283c 078a 9c3b 3d27 31bd
000003c0: 6007 af3c c43f e23c a5ec 003d 09c5 2f3d
000003d0: 0e10 233d a50d 6cbd 2e22 95bd 3aca e5bc
000003e0: 0d18 98bd cace ffbc 2785 a0bd a1d2 16bd
000003f0: 2e05 87bc 4e84 52bd eed1 1cbc 9b90 d3bd

conv3.0.bias f4 [64]
7.1297018e-06 -1.6582751e-06 1.9726097e-06 -2.1489016e-06 -8.419627e-06 -3.2019085e-07 9.121119e-06 -7.204312e-07
4.028107e-07 1.3952067e-06 -1.4757533e-06 1.4539224e-07 -1.4500627e-06 -2.4997207e-06 6.0656203e-06 1.4367967e-06
-9.595852e-08 1.7912367e-06 5.78754e-06 -6.6936072e-06 -1.9446131e-06 -4.246314e-06 -6.2142954e-06 4.6930804e-06
1.8936945e-06 -6.490028e-06 -2.699287e-07 8.193429e-06 1.8153946e-06 -1.5498399e-06 1.9212435e-05 -3.2581704e-06
5.9985086e-06 3.598517e-06 -6.9025095e-06 -8.8284656e-07 2.1730436e-06 -9.625132e-06 2.7118313e-06 4.724968e-06
7.983021e-06 2.7303875e-06 3.3439171e-06 -4.4243125e-06 4.8689117e-06 -5.2945866e-06 4.8521224e-06 2.6890883e-05
-1.5516459e-06 -1.911451e-06 -2.7740446e-06 6.1806963e-06 -5.0912877e-07 7.819086e-06 -2.2419467e-06 2.2375132e-06
1.9318693e-06 -8.157435e-07 1.8401194e-07 -3.979342e-06 7.4669993e-06 -1.1080085e-05 5.5814253e-06 -7.3611886e-06
00000000: ac3b ef36 e691 deb5 2d61 0436 d935 10b6
00000010: 0642 0db7 b2e6 abb4 e806 1937 a863 41b5
00000020: e241 d834 f042 bb35 7f12 c6b5 1d1d 1c34
00000030: c69f c2b5 e0c0 27b6 4887 cb36 f5d7 c035
00000040: c111 ceb3 6d6a f035 9732 c236 a699 e0b6
00000050: 3380 02b6 8f7b 8eb6 6484 d0b6 4179 9d36
00000060: d92a fe35 ebc4 d9b6 b8ea 90b4 8276 0937
00000070: 7ca8 f335 1804 d0b5 642a a137 f1a6 5ab6
00000080: cc46 c936 0d7e 7136 1b9c e7b6 c1fc 6cb5
00000090: 9bd4 1136 a17b 21b7 e8fc 3536 2b8b 9e36
000000a0: d0ee 0537 b33b 3736 0f68 6036 8e74 94b6
000000b0: a25f a336 27a8 b1b6 6acf a236 bb93 e137
000000c0: 2642 d0b5 7a46 00b6 b929 3ab6 c763 cf36
000000d0: 10ab 08b5 b82e 0337 5a74 16b6 2f28 1636
000000e0: 43a5 0136 77f9 5ab5 d194 4534 4a86 85b6
000000f0: 098d fa36 9ae4 39b7 1448 bb36 2100 f7b6

conv3.1.weight f4 [64]
0.999665 0.9494844 1.015882 0.9917741 0.9783858 0.9871331 0.933716 1.0453193
0.9512922 0.9604813 0.8995783 0.99846005 0.8397167 0.9461536 1.0120193 0.951225
0.9495483 0.94184494 0.93469965 0.9242238 0.96744287 0.95725524 0.9558695 0.9857965
0.9333562 1.0332842 0.9545945 0.95676327 0.9304243 0.88296235 1.0656034 1.021257
1.0639606 1.0173931 1.0137513 0.98555565 1.029885 1.0102953 0.9310425 1.020342
0.9562466 0.9132815 0.955332 0.97920847 0.9416266 1.0476412 0.89753354 0.9990328
0.8599053 0.86615545 1.0144597 0.99422646 1.0751728 0.921025 0.9677548 0.8493129
0.937081 0.976026 0.922704 0.92852557 0.98677075 0.937642 0.9903564 1.0483587
00000000: 0cea 7f3f 6911 733f 6c08 823f e8e4 7d3f
00000010: 7e77 7a3f c1b4 7c3f 0308 6f3f 06cd 853f
00000020: e387 733f 1ae2 753f c34a 663f 149b 7f3f
00000030: acf7 563f 1f37 723f d989 813f 7b83 733f
00000040: 9915 733f c01c 713f 7a48 6f3f ee99 6c3f
00000050: 56aa 773f ae0e 753f ddb3 743f 295d 7c3f
00000060: 6ff0 6e3f a842 843f 4e60 743f 70ee 743f
00000070: 4930 6e3f d209 623f b165 883f 8db8 823f
00000080: dc2f 883f f039 823f 9ac2 813f 604d 7c3f
00000090: 46d3 833f 5b51 813f cd58 6e3f 919a 823f
000000a0: 94cc 743f d1cc 693f a390 743f 68ad 7a3f
000000b0: 710e 713f 1b19 863f c2c4 653f 9dc0 7f3f
000000c0: c122 5c3f 5dbc 5d3f d1d9 813f a085 7e3f
000000d0: 439f 893f 4bc8 6b3f c7be 773f 926c 593f
000000e0: 8ae4 6f3f d7dc 793f 5436 6c3f dab3 6d3f
000000f0: 029d 7c3f 4e09 703f ff87 7d3f 9e30 863f

conv3.1.bias f4 [64]
-0.099945456 -0.19392322 -0.07937231 -0.17014246 -0.17304629 -0.17732474 -0.115372956 -0.15664284
-0.24290363 -0.102092564 -0.22297136 -0.18389511 -0.20442335 -0.17510241 -0.18861833 -0.21568568
-0.18501857 -0.15884732 -0.17306933 -0.19868101 -0.1611169 -0.16026919 -0.15255076 -0.12880358
-0.17265056 -0.10236023 -0.10383803 -0.088931106 -0.11168922 -0.20385261 -0.01384202 -0.109800324
-0.047409166 -0.13410045 -0.0634779 -0.1347181 -0.06682065 -0.095468156 -0.20102769 -0.10389082
-0.15489861 -0.11533034 -0.20755628 -0.10875911 -0.16741072 -0.11211233 -0.2008869 -0.08017114
-0.23754732 -0.19601205 -0.09553812 -0.1900137 -0.043955818 -0.127256 -0.13723868 -0.19693848
-0.16598792 -0.15346302 -0.19486879 -0.08858172 -0.018893983 -0.15844269 -0.12161291 -0.23563068
00000000: 34b0 ccbd cf93 46be f38d a2bd d339 2ebe
00000010: 0c33 31be 9e94 35be a848 ecbd fb66 20be
00000020: bbbb 78be e815 d1bd 9b52 64be 004f 3cbe
00000030: 5b54 51be 0c4e 33be 2a25 41be b5dc 5cbe
00000040: 8275 3dbe dfa8 22be 1639 31be 0973 4bbe
00000050: d4fb 24be 9b1d 24be 4436 1cbe 16e5 03be
00000060: 4fcb 30be 3ea2 d1bd 08a9 d4bd 8321 b6bd
00000070: 51bd e4bd bdbe 50be a4c9 62bc fede e0bd
00000080: 1d30 42bd a151 09be b400 82bd 8bf3 09be
00000090: 44d9 88bd cf84 c3bd 34da 4dbe b6c4 d4bd
000000a0: be9d 1ebe 5032 ecbd a289 54be 19bd debd
000000b0: b76d 2bbe 269b e5bd 4cb5 4dbe c430 a4bd
000000c0: 9b3f 73be 62b7 48be 7da9 c3bd f492 42be
000000d0: 040b 34bd 664f 02be 4c88 0cbe 3eaa 49be
000000e0: bdf8 29be 6925 1dbe af8b 47be 556a b5bd
000000f0: 8ec7 9abc cd3e 22be 3010 f9bd 2b49 71be

conv3.1.running_mean f4 [64]
-0.61275595 -0.7465968 -0.9749162 -0.1723169 -0.5843167 -0.28892305 -0.4202566 -0.6183342
-0.21264665 -0.7336852 0.5198488 -0.07008963 -0.34186405 -0.2326132 -0.67079264 -0.6521391
-0.44935665 -0.04834554 0.12597524 -0.27401695 -0.6606731 0.8181823 0.35510057 -0.5524756
0.06357032 -0.83449364 -0.40493608 -0.5774534 -0.3839135 -0.44433516 -1.0604106 -0.6590252
-1.142717 -0.65251654 -0.74881846 -0.5583821 -0.7253923 -0.31345323 0.21517907 -0.44215876
-0.4578204 -0.80559033 -0.45258477 -0.6592018 -0.5287683 -0.9594833 -0.21691611 -0.69234574
-0.17239155 0.20180103 -0.57374924 -0.37485945 -0.43124378 -0.7739478 -0.18768862 -0.21891925
-0.53622293 -0.4569892 0.20980437 -0.38296324 -0.84950155 -0.38702622 -0.9388641 -0.57581013
00000000: 93dd 1cbf f820 3fbf 1c94 79bf d773 30be
00000010: c795 15bf b9ed 93be e02b d7be 264b 1ebf
00000020: 0bc0 59be cbd2 3bbf d014 053f 278b 8fbd
00000030: ce08 afbe 2832 6ebe 11b9 2bbf 97f2 26bf
00000040: 1312 e6be f905 46bd a7ff 003e f34b 8cbe
00000050: df21 29bf 6574 513f becf b53e 0a6f 0dbf
00000060: 2831 823d 60a1 55bf c853 cfbe fcd3 13bf
00000070: 4f90 c4be e67f e3be 89bb 87bf e0b5 28bf
00000080: 8d44 92bf 530b 27bf 91b2 3fbf 21f2 0ebf
00000090: 4fb3 39bf f17c a0be e757 5c3e a262 e2be
000000a0: 6f67 eabe 2b3b 4ebf 31b9 e7be 73c1 28bf
000000b0: 5c5d 07bf b3a0 75bf 421f 5ebe 923d 31bf
000000c0: 6987 30be eea4 4e3e 3be1 12bf 94ed bfbe
000000d0: fccb dcbe 7121 46bf 7231 40be 5e2c 60be
000000e0: e845 09bf 7dfa e9be f5d6 563e c213 c4be
000000f0: ef78 59bf 4d28 c6be 6659 70bf 4b68 13bf

conv3.1.running_var f4 [64]
0.47180775 0.56969166 0.74430406 0.3885702 0.49315777 0.48575038 0.46463296 0.67489946
0.52374756 0.4453982 0.3970171 0.469046 0.3146615 0.48824736 0.4566834 0.41553402
0.44635904 0.5426149 0.47491127 0.41751173 0.68089384 0.66500574 0.63176167 0.49284047
0.47059873 0.48034588 0.412591 0.49824253 0.53552735 0.3562246 1.2312783 0.49003667
0.9816821 0.8292308 0.8261992 0.4945641 0.66400653 0.5475052 0.32704642 0.48873317
0.46775493 0.49125394 0.38725495 0.472069 0.3673028 0.61921614 0.323144 0.5693527
0.42382663 0.32138252 0.6806674 0.41709793 0.5895389 0.7348556 0.47583017 0.25183553
0.39180487 0.5075772 0.5562157 0.40215114 0.5246442 0.32307127 0.5785736 0.5623386
00000000: c990 f13e 50d7 113f b68a 3e3f acf2 c63e
00000010: 2d7f fc3e 46b4 f83e 5fe4 ed3e 36c6 2c3f
00000020: 5214 063f 3c0b e43e d345 cb3e cc26 f03e
00000030: 501b a13e 8ffb f93e 68d2 e93e e0c0 d43e
00000040: 2c89 e43e cfe8 0a3f 9227 f33e 19c4 d53e
00000050: 0f4f 2e3f d13d 2a3f 22bb 213f 9655 fc3e
00000060: 51f2 f03e e5ef f53e 213f d33e a519 ff3e
00000070: 5218 093f 1263 b63e 879a 9d3f 16e6 fa3e
00000080: 854f 7b3f 7848 543f ca81 533f 8137 fd3e
00000090: 55fc 293f 4d29 0c3f a172 a73e 3c3b fa3e
000000a0: 937d ef3e a385 fb3e 4846 c63e 07b3 f13e
000000b0: 1d0f bc3e f384 1e3f 2173 a53e 19c1 113f
000000c0: ceff d83e 408c a43e 3840 2e3f dc8d d53e
000000d0: 05ec 163f 7f1f 3c3f 03a0 f33e 96f0 803e
000000e0: a69a c83e 94f0 013f 2764 0e3f c1e6 cd3e
000000f0: 154f 063f 9969 a53e 661d 143f 6cf5 0f3f

conv4.0.weight f4 [64, 64, 3, 3]
0.029705299 0.00032460364 0.014644956 0.03191981 -0.023071924 0.011307598 -0.0969158 -0.057084184
-0.110725164 0.034109797 -0.02967464 -0.012651277 0.054929662 0.057564832 -0.010095062 0.006720656
0.042264525 -0.0011866716 0.009775166 0.026243856 0.013731783 -0.057198346 -0.011624302 -0.014960491
-0.0030994916 -0.012184158 -0.024355732 0.008477918 -0.08315244 -0.07274876 0.06776864 -0.024710564
-0.04123234 0.12581463 0.06882572 0.02393051 0.04936633 -0.032793023 -0.041443672 0.04044829
-0.004615974 -0.02445595 0.0037397542 -0.052538007 -0.09254681 0.011607166 0.0074863834 -0.02881948
0.08691959 0.024589306 0.00758257 0.04963483 0.01951459 -0.017341807 0.038682118 -0.013808124
0.0046855067 0.040152885 0.030837646 0.039995305 0.036529273 -0.02663576 -0.0041214474 0.031605076
-0.014246967 -0.012717795 -0.038881153 -0.00841319 0.016786518 -0.054983377 -0.01533135 0.063610196
0.020211894 -0.0076153805 0.025661733 0.010056242 -0.06532851 -0.015135318 0.013373825 -0.068429016
-0.05951423 -0.017574254 -0.100374624 -0.08465104 -0.009993067 -0.075135924 -0.082389094 -0.023095531
-0.019635415 -0.008345562 0.033545848 0.070482306 0.032470226 0.05660931 0.0067859297 0.057497293
-0.0025392899 0.0064082453 0.025633138 -0.035265855 -0.053010087 -0.0060070083 -0.035900228 -0.062436838
0.0018224054 -0.075856976 -0.03182647 -0.043896653 0.032581676 0.02625148 -0.011558058 0.050020978
0.0026804393 -0.013730669 0.007365121 -0.004883926 0.02164121 -0.06408429 -0.056022923 -0.017726492
-0.06447853 -0.031738378 -0.022293298 -0.05829303 -0.08247168 -0.04097702 -0.018609045 -0.014993392
-0.02966873 0.05261894 -0.0399231 0.03963003 -0.021044312 0.018872343 0.022752687 0.022586726
0.0010378261 0.020004772 0.017628511 -0.0055552837 0.022160053 0.026183045 -0.046769753 -0.03149485
-0.02104064 0.020630796 0.012228152 -0.021156823 0.01234444 -0.015145758 0.0018924734 0.042114362
0.06469939 -0.07791536 -0.057060402 0.025493914 -0.05557721 -0.0049161124 -0.008664763 -0.0054067397
-0.035597272 -0.038659554 -0.043323636 0.02076103 0.039513268 -0.010975564 0.023296295 0.045922384
-0.024678564 0.055809747 0.05259277 -0.0478083 -0.015229457 0.008618421 0.015235625 0.045956187
-0.0082665915 -0.037465055 0.03886029 0.0084157735 -0.008686787 0.029473236 0.017169477 0.006961612
0.018575134 -0.017020145 -0.104916826 -0.014234819 -0.031704873 0.056439433 0.06716016 0.045532398
0.010660195 0.040444124 0.014525308 0.021266561 0.04334848 0.05523313 0.0074516935 0.05347152
-0.0085080555 0.035771754 -0.018161109 0.028822772 0.06715619 0.044900592 0.04779803 0.045074336
0.016693112 -0.06315875 -0.0006770221 0.0001317141 -0.038943652 0.001979097 0.0006324398 -0.034235477
-0.02179456 -0.002789843 -0.02542321 -0.0041845585 0.012436132 -0.044060938 0.0039572944 -0.0023071584
-0.031832203 -0.02184833 -0.04425596 -0.014529878 -0.05381077 -0.0013984214 -0.015438322 -0.055100564
0.017360874 -0.014640569 0.0128589105 -0.034219153 -0.06335591 0.024253158 -0.041845556 -0.07128405
0.007596183 -0.016699001 -0.037440762 0.059218474 0.045761544 -0.007315631 0.0033281108 0.00042786222
0.027006576 -0.04141509 -0.034669988 -0.005277306 -0.061902054 0.039085064 0.008053121 0.022704856
00000000: 8758 f33c 902f aa39 66f1 6f3c 59be 023d
00000010: 5501 bdbc 8143 393c ca7b c6bd 1bd1 69bd
00000020: e0c3 e2bd b7b6 0b3d 3b18 f3bc 4d47 4fbc
00000030: edfd 603d 1ac9 6b3d c265 25bc f338 dc3b
00000040: 911d 2d3d 178a 9bba 0528 203c 5bfd d63c
00000050: 46fb 603c d048 6abd db73 3ebc d91c 75bc
00000060: d720 4bbb 10a0 47bc ac85 c7bc f7e6 0a3c
00000070: d44b aabd 4dfd 94bd 49ca 8a3d cf6d cabc
00000080: 3ee3 28bd 8dd5 003e 80f4 8c3d eb09 c43c
00000090: 5934 4a3d fa51 06bd d7c0 29bd 1bad 253d
000000a0: 9941 97bb d857 c8bc aa16 753b 1832 57bd
000000b0: 2f89 bdbd fc2b 3e3c 5650 f53b d516 ecbc
000000c0: e602 b23d 836f c93c 3577 f83b e44d 4b3d
000000d0: 10dd 9f3c 6810 8ebc 2471 1e3d 783b 62bc
000000e0: e188 993b 5a77 243d 3b9f fc3c 1ed2 233d
000000f0: b89f 153d 3d33 dabc 350d 87bb 5374 013d
00000100: 1c6c 69bc 4c5e 50bc d841 1fbd 7ad7 09bc
00000110: e183 893c 4036 61bd 5830 7bbc 1046 823d
00000120: 6a93 a53c 718a f9bb 8e38 d23c f0c2 243c
00000130: f4ca 85bd 20fa 77bc e31d 5b3c 8324 8cbd
00000140: 31c5 73bd e2f7 8fbc 3691 cdbd 865d adbd
00000150: f6b9 23bc dde0 99bd 9dbb a8bd d732 bdbc
00000160: 73da a0bc d3bb 08bc 5f67 093d 0759 903d
00000170: 80ff 043d 2adf 673d 815c de3b 4882 6b3d
00000180: 376a 26bb 42fc d13b 96fc d13c ee72 10bd
00000190: 1b21 59bd 70d6 c4bb 1e0c 13bd c5bd 7fbd
000001a0: c7dd ee3a e75a 9bbd 795c 02bd facc 33bd
000001b0: 5d74 053d 580d d73c 025e 3dbc cce2 4c3d
000001c0: 4faa 2f3b 9af6 60bc 1d57 f13b 5709 a0bb
000001d0: e848 b13c a03e 83bd 4b78 65bd 2637 91bc
000001e0: 520d 84bd 1a00 02bd 6fa0 b6bc acc4 6ebd
000001f0: eae6 a8bd 85d7 27bd ff71 98bc d8a6 75bc
00000200: d60b f3bc f586 573d 6886 23bd 1953 223d
00000210: 1f65 acbc 2c9a 9a3c d863 ba3c cc07 b93c
00000220: aa07 883a 0ce1 a33c ab69 903c 1909 b6bb
00000230: 0089 b53c d37d d63c a491 3fbd be00 01bd
00000240: 6c5d acbc ea01 a93c 9658 483c 1351 adbc
00000250: 5640 4a3c ea25 78bc df0c f83a 1c80 2c3d
00000260: 1d81 843d 1792 9fbd 2bb8 69bd 9dd8 d03c
00000270: eea4 63bd 5717 a1bb a6f6 0dbc 052b b1bb
00000280: 72ce 11bd 7b59 1ebd 2074 31bd 0913 aa3c
00000290: aad8 213d dad2 33bc dfd7 be3c 1c19 3c3d
000002a0: b32a cabc c398 643d 846b 573d a3d2 43bd
000002b0: f984 79bc 4734 0d3c d89e 793c 8e3c 3c3d
000002c0: 9970 07bc f574 19bd f82b 1f3d 50e2 093c
000002d0: 0753 0ebc db71 f13c 01a7 8c3c 3c1e e43b
000002e0: e12a 983c d56d 8bbc a2de d6bd 2939 69bc
000002f0: f8dc 01bd 092d 673d 448b 893d 2e80 3a3d
00000300: 19a8 2e3c bda8 253d 8ffb 6d3c 3637 ae3c
00000310: 2d8e 313d 223c 623d 562d f43b f404 5b3d
00000320: 5f65 0bbc 6785 123d 9bc6 94bc bc1d ec3c
00000330: 2f89 893d afe9 373d dec7 433d de9f 383d
00000340: febf 883c 6059 81bd 2f7a 31ba bc1c 0a39
00000350: 6183 1fbd bdb3 013b 51ca 253a 803a 0cbd
00000360: 818a b2bc ccd5 36bb 5644 d0bc 9f1e 89bb
00000370: ebc0 4b3c 3e79 34bd 31ac 813b b233 17bb
00000380: 7c62 02bd 45fb b2bc bd45 35bd ba0e 6ebc
00000390: af68 5cbd 3c4b b7ba 04f1 7cbc 21b1 61bd
000003a0: 6438 8e3c ffde 6fbc 2eae 523c 6229 0cbd
000003b0: bec0 81bd 8fae c63c 3f66 2bbd 5ffd 91bd
000003c0: 67e9 f83b 58cc 88bc 7c5b 19bd 128f 723d
000003d0: 7570 3b3d f6b7 efbb 6f1c 5a3b b252 e039
000003e0: e53c dd3c dfa2 29bd 1e02 0ebd 40ed acbb
000003f0: 028d 7dbd a917 203d 3df1 033c 89ff b93c

conv4.0.bias f4 [64]
-3.1483485e-06 1.8969272e-06 -1.7404406e-06 7.123512e-06 4.0918923e-08 5.710486e-06 6.8992e-06 -1.1143678e-07
1.7652583e-06 3.3705348e-06 1.06614e-06 2.568189e-06 -9.01886e-07 -2.9388825e-06 -3.0109966e-08 1.1576315e-05
1.900303e-07 -2.9684752e-06 3.5004016e-06 -3.902942e-07 1.8849269e-07 -3.6374581e-06 1.3940651e-05 -6.3137336e-06
7.751146e-07 -2.9032005e-06 -7.195907e-06 3.1552554e-05 -3.4955444e-06 1.2682423e-05 -1.2385971e-06 2.0218549e-08
1.5396128e-06 -2.3187563e-06 2.806498e-06 2.9799187e-06 -4.824509e-06 -6.0845687e-06 -1.2102015e-05 2.576382e-06
1.1458782e-06 -1.9245745e-06 -2.8622935e-06 1.3465544e-06 -2.3835223e-06 -1.4832527e-06 -1.1197887e-06 -1.1711296e-06
5.9032203e-07 -1.0545844e-05 -9.886403e-06 -3.6704485e-06 -1.6330426e-06 -5.3904446e-06 -1.4011458e-06 7.3021597e-06
-2.8796198e-06 -3.2104579e-06 -1.871745e-06 -2.0703947e-06 -1.6221685e-06 -7.853445e-07 2.8715979e-06 3.6994418e-06
00000000: 3748 53b6 ec99 fe35 1599 e9b5 8106 ef36
00000010: d5be 2f33 b49c bf36 ad7f e736 054f efb3
00000020: d0ed ec35 5931 6236 4b18 8f35 2759 2c36
00000030: 2219 72b5 9e39 45b6 4252 01b3 e537 4237
00000040: 220b 4c34 0436 47b6 71e8 6a36 a089 d1b4
00000050: 7a64 4a34 0e1b 74b6 a4e2 6937 8fda d3b6
00000060: 7811 5035 9bd4 42b6 5f74 f1b6 4c57 0438
00000070: ff94 6ab6 98c6 5437 df3d a6b5 0fad ad32
00000080: b1a4 ce35 ee9b 1bb6 4557 3c36 9dfa 4736
00000090: 37e2 a1b6 0c2a ccb6 c209 4bb7 e8e5 2c36
000000a0: 13cc 9935 f027 01b6 d415 40b6 42bb b435
000000b0: 9af4 1fb6 2d14 c7b5 a64b 96b5 b52f 9db5
000000c0: 9f76 1e35 0eee 30b7 c7dd 25b7 d351 76b6
000000d0: eb2e dbb5 91df b4b6 010f bcb5 1305 f536
000000e0: 7e3f 41b6 3f73 57b6 ab38 fbb5 1cf1 0ab6
000000f0: 49b9 d9b5 77d0 52b5 adb5 4036 ed43 7836

conv4.1.weight f4 [64]
1.0475265 1.093321 1.0269799 1.1415104 1.0483403 1.059019 1.0758493 1.066506
1.0965768 1.03237 1.093174 1.0842817 1.0707375 1.0711261 1.0168543 1.0024167
1.029763 1.0953153 1.0919847 1.0361193 1.0698621 0.9974662 1.0084653 1.0578095
1.0498548 1.1039734 1.0973476 1.0477886 1.039666 1.0803282 1.017605 1.0580554
1.0671588 1.0141615 1.0331695 1.1048157 1.0450305 1.055774 1.0415207 1.0875045
1.0455027 1.0318542 1.057596 1.0983652 1.0463082 1.0209686 1.028473 1.0159882
1.0555782 1.0664864 1.0899073 1.062719 1.0560421 1.0590422 1.0549419 1.1133809
1.0650305 1.1008016 1.0820153 1.1066056 1.0688329 1.0836384 1.0583955 1.042062
00000000: 5915 863f f1f1 8b3f 1474 833f 031d 923f
00000010: 0430 863f ef8d 873f 6eb5 893f 4583 883f
00000020: a15c 8c3f b324 843f 20ed 8b3f bec9 8a3f
00000030: ed0d 893f a91a 893f 4828 823f 314f 803f
00000040: 46cf 833f 4b33 8c3f 28c6 8b3f 8f9f 843f
00000050: 3ef1 883f f259 7f3f 6415 813f 4d66 873f
00000060: a461 863f 004f 8d3f e375 8c3f f01d 863f
00000070: c713 853f 3248 8a3f e140 823f 5c6e 873f
00000080: a998 883f 0bd0 813f e63e 843f 9a6a 8d3f
00000090: 8fc3 853f 9a23 873f 8d50 853f 5933 8b3f
000000a0: 08d3 853f cc13 843f 4e5f 873f 3b97 8c3f
000000b0: 6ded 853f 19af 823f 01a5 833f e70b 823f
000000c0: 301d 873f a082 883f 1582 8b3f 2d07 883f
000000d0: 632c 873f b28e 873f 5608 873f 4483 8e3f
000000e0: eb52 883f 11e7 8c3f 7a7f 8a3f 41a5 8d3f
000000f0: 84cf 883f aab4 8a3f 8179 873f 4a62 853f

conv4.1.bias f4 [64]
-0.10264005 -0.10784338 -0.10088468 -0.09813255 -0.053541437 -0.14187771 -0.07546275 -0.072024524
-0.05029953 -0.05458045 -0.16020586 -0.104601316 -0.093318574 -0.07115324 -0.12996292 -0.0740441
-0.14069925 -0.099759154 -0.10995524 -0.07908074 -0.11007697 -0.084970266 -0.12056269 -0.11967935
-0.092886545 -0.13018784 -0.10240929 -0.0896565 -0.1074229 -0.096346304 -0.12656884 -0.123815276
-0.06780851 -0.060697615 -0.10775797 -0.08734543 -0.093146674 -0.08819356 -0.098945804 -0.11488436
-0.090303965 -0.046837047 -0.09250921 -0.118369386 -0.02866557 -0.083366424 -0.097979434 -0.09176996
-0.09237152 -0.0924589 -0.09634365 -0.071620375 -0.09446292 -0.09669483 -0.045014128 -0.097378656
-0.09558495 -0.10474308 -0.07676832 -0.0684287 -0.078442566 -0.09399758 -0.07597823 -0.0936691
00000000: f234 d2bd fddc dcbd a19c cebd b8f9 c8bd
00000010: 444e 5bbd 6448 11be 378c 9abd 9881 93bd
00000020: e106 4ebd c08f 5fbd 010d 24be 3739 d6bd
00000030: cf1d bfbd cab8 91bd 0015 05be 6fa4 97bd
00000040: 7713 10be 874e ccbd 3630 e1bd 15f5 a1bd
00000050: 0970 e1bd e404 aebd 92e9 f6bd 721a f5bd
00000060: 4d3b bebd f64f 05be f6bb d1bd d49d b7bd
00000070: 8a00 dcbd 3651 c5bd 439b 01be dd92 fdbd
00000080: 30df 8abd 109e 78bd 36b0 dcbd 29e2 b2bd
00000090: afc3 bebd d39e b4bd 19a4 cabd 7e48 ebbd
000000a0: 49f1 b8bd 34d8 3fbd 7875 bdbd a66b f2bd
000000b0: 0fd4 eabc 04bc aabd 71a9 c8bd e4f1 bbbd
000000c0: 482d bdbd 175b bdbd d24f c5bd b4ad 92bd
000000d0: c775 c1bd f007 c6bd bc60 38bd 766e c7bd
000000e0: 0bc2 c3bd 8a83 d6bd b538 9dbd 5924 8cbd
000000f0: 7fa6 a0bd ce81 c0bd 799a 9bbd 96d5 bfbd

conv4.1.running_mean f4 [64]
-0.14283437 0.17906083 -0.5986967 0.40102726 -0.31805345 0.14563282 -0.22558154 0.35934094
0.8445966 -0.13422029 0.38898864 0.45547006 -0.24320357 -0.31224084 0.29506424 -0.23379177
0.35596874 -0.44536853 0.018912913 -0.121039115 -0.11583072 -0.09914539 -0.97422993 -0.62454903
0.16085783 -0.83496505 0.2241188 -1.0818063 -0.41591522 -0.14142962 0.56827235 -0.26416722
0.3094814 -0.02528926 0.7235763 0.08241866 -0.4511976 -0.5145485 0.06381979 0.19981512
0.15234683 -0.3323364 -0.39668918 -0.19856113 0.004570818 0.7672018 -0.61894387 0.45921665
0.06584407 -0.7446383 0.31451616 0.44271412 -0.8183163 0.026728105 -0.53990126 -0.48371896
0.026246827 0.30606356 0.31477374 0.35049817 -0.32172662 -0.30871263 -0.56596774 -0.09245113
00000000: 2c43 12be b95b 373e 3044 19bf 7253 cd3e
00000010: e7d7 a2be c520 153e d9fe 66be 89fb b73e
00000020: 7c37 583f 0b71 09be 8529 c73e 5f33 e93e
00000030: 5b0a 79be 08de 9fbe a912 973e 1c67 6fbe
00000040: 8941 b63e 5807 e4be 41ef 9a3c 5be3 f7bd
00000050: a838 edbd bd0c cbbd 2267 79bf 72e2 1fbf
00000060: eab7 243e 45c0 55bf 667f 653e a178 8abf
00000070: d7f2 d4be edd2 10be 4c7a 113f ed40 87be
00000080: 5974 9e3e 6c2b cfbc 4c3c 393f 1dcb a83d
00000090: 5f03 e7be 73b9 03bf f3b3 823d 569c 4c3e
000000a0: cf00 1c3e ff27 aabe d81a cbbe 9c53 4bbe
000000b0: cdc6 953b 5667 443f 1b73 1ebf 721e eb3e
000000c0: 41d9 863d 9ea0 3ebf 4308 a13e 6dab e23e
000000d0: 2d7d 51bf e6f4 da3c f836 0abf 03aa f7be
000000e0: 9603 d73c 5db4 9c3e 062a a13e 7f74 b33e
000000f0: 5ab9 a4be 950f 9ebe 43e3 10bf 0557 bdbd

conv4.1.running_var f4 [64]
0.34785235 0.28645122 0.28228188 0.2638405 0.38642782 0.26346314 0.2943222 0.36279988
0.25802508 0.33260244 0.30744508 0.31995103 0.298358 0.3421245 0.26868194 0.34199992
0.24324103 0.35311654 0.30846334 0.3637465 0.31107208 0.25516215 0.3307184 0.39405695
0.41257018 0.3436583 0.27994415 0.37861943 0.24555105 0.24794371 0.39229715 0.41367432
0.2470975 0.3401898 0.2594857 0.31395492 0.48202476 0.31007794 0.2141271 0.23049417
0.3580646 0.59096193 0.26273617 0.2529448 0.45190912 0.35339588 0.24474418 0.2792965
0.3377063 0.32909256 0.30688968 0.2413446 0.37441579 0.26424003 0.28521442 0.23725715
0.25885114 0.22933494 0.34464058 0.4476564 0.27243403 0.25874054 0.2339622 0.27681807
00000000: b419 b23e bca9 923e 4087 903e 1a16 873e
00000010: ded9 c53e a4e4 863e 66b1 963e e8c0 b93e
00000020: dd1b 843e de4a aa3e 7169 9d3e 9fd0 a33e
00000030: 61c2 983e f12a af3e ae90 893e 9d1a af3e
00000040: 2d14 793e b1cb b43e e8ee 9d3e fb3c ba3e
00000050: d744 9f3e 9da4 823e ec53 a93e d5c1 c93e
00000060: 663c d33e fbf3 af3e d754 8f3e 68da c13e
00000070: bc71 7b3e f5e4 7d3e 2cdb c83e 1fcd d33e
00000080: 2107 7d3e 5c2d ae3e 4fdb 843e b3be a03e
00000090: f3cb f63e 89c2 9e3e 2244 5b3e aa06 6c3e
000000a0: 3e54 b73e 4849 173f 5b85 863e fb81 813e
000000b0: a260 e73e 4ef0 b43e 389e 7a3e f3ff 8e3e
000000c0: d7e7 ac3e d27e a83e a520 9d3e 0a23 773e
000000d0: 6db3 bf3e 784a 873e a007 923e 8af3 723e
000000e0: 2388 843e c7d6 6a3e bb74 b03e 3833 e53e
000000f0: 797c 8b3e a479 843e c993 6f3e 19bb 8d3e
