yono_compression/yono/data/saved_model/DS-CNN-M-s33_stl10_adam_multistep_nomixup.pt (torch, 568227 bytes, 47 tensors)

model.features.init_block.conv.weight f4 [172, 3, 3, 3]
0.10515111 -0.07043731 -0.012894464 0.12031023 -0.13728522 0.15576023 0.02094713 0.15523815
0.10036802 -0.009365082 0.082635485 0.054629408 0.09287389 -0.021574406 0.042306725 0.04863269
0.11378338 0.07118918 0.14987226 0.05671947 -0.055025328 -0.1157127 -0.019983085 -0.055230785
-0.03624946 0.058417454 0.1558177 0.14642115 -0.12817344 0.15436053 0.07968986 0.19396307
0.12299593 -0.16321136 -0.20324658 -0.11931134 0.17395706 -0.015011738 0.08160615 -0.11063752
0.14753842 -0.14011371 0.116520226 -0.05430547 -0.14547141 0.06582225 -0.10363076 0.048291437
-0.09273045 -0.06388707 -0.23122491 -0.10106431 0.07224743 -0.045002002 0.26387396 0.23202606
0.028967187 -0.050416287 0.12539148 0.08786178 -0.019987103 0.18206912 0.19988987 0.23018909
-0.02791234 0.0018420237 0.038205333 0.019441584 -0.118487515 -0.085742004 0.12214278 0.00749615
0.11955983 0.02353498 0.045338042 0.040446993 0.022722417 0.07891311 -0.18033604 0.06674403
-0.12086979 -0.28222802 -0.17260544 -0.16542277 0.051962715 -0.17713273 -0.20444377 0.113429695
-0.07400901 0.043306842 0.011002696 -0.19395837 0.02268911 0.055498183 -0.109769925 -0.042501
0.1068868 0.055073444 -0.055763483 -0.110299155 0.11210004 -0.06020654 0.08475592 0.064557865
-0.11425188 -0.13885166 0.1824236 0.019249894 0.21605846 0.14133671 0.16434264 0.22506382
0.18045382 -0.055631198 0.09084216 0.18560295 0.20184095 0.08579973 -0.124301836 -0.14297298
-0.17443398 -0.08628585 0.10597918 -0.19669318 -0.016013386 -0.19099078 -0.2044307 -0.007309981
0.09076289 0.0943417 -0.18298593 -0.029478854 0.055179317 -0.00049892627 0.007995308 0.06667907
0.08046059 -0.02242522 -0.11657927 -0.15969165 -0.13872546 -0.004782194 -0.12148427 0.011614879
0.10572676 0.035637602 0.11449031 0.16633719 0.20684178 0.15910876 0.03444627 0.26188174
-0.0027897244 -0.057566766 -0.19021295 -0.16828553 -0.108854696 -0.09381456 0.07763655 -0.06389687
-0.16317049 0.006902998 0.031225553 0.101344764 -0.051746327 0.022861766 -0.079598464 -0.023799801
-0.097602926 -0.08226188 -0.023435865 0.040493947 0.022001877 0.119054124 0.14784913 0.1713405
0.18623206 -0.012401373 -0.17706363 0.1857027 -0.084096335 -0.020663552 -0.055898372 -0.10140186
-0.15248558 0.24720563 -0.2200561 -0.22259365 0.0458762 -0.18094437 0.02011644 -0.10585805
-0.1658867 -0.025196202 0.11098662 -0.22749625 0.059465572 0.07503173 0.13300703 -0.14531572
0.020997034 -0.18759081 0.14587492 -0.09681207 0.049698714 0.023486394 -0.04437854 -0.006518872
0.07975745 0.10394637 0.0365774 0.12488221 -0.15440974 0.11550632 0.26086968 0.13213056
0.2176356 -0.057582308 -0.025455358 0.22210355 -0.083200976 0.22131017 -0.13530368 -0.1254175
0.09415489 -0.079791375 0.010343246 0.1721523 0.19697967 0.19626434 -0.006503633 -0.1656998
0.13605581 -0.07874326 -0.03212156 0.08155946 -0.109975114 0.16064817 0.12904237 -0.13480613
-0.15689602 -0.048229106 0.047852542 -0.053034123 -0.118843146 -0.004058955 -0.19417961 -0.1174718
-0.12502375 0.13830797 0.17014 -0.07092879 -0.021694655 0.09514887 0.05446496 -0.09425301
00000000: 7759 d73d 7041 90bd 4d43 53bc 3665 f63d
00000010: 7f94 0cbe 9c7f 1f3e 5199 ab3c c0f6 1e3e
00000020: c08d cd3d 0070 19bc cb3c a93d 16c3 5f3d
00000030: ab34 be3d cfbc b0bc d149 2d3d 1233 473d
00000040: 4307 e93d a2cb 913d 1d78 193e ad52 683d
00000050: 3d62 61bd c8fa ecbd 91b3 a3bc ad39 62bd
00000060: 507a 14bd 2447 6f3d ad8e 1f3e 6def 153e
00000070: e63f 03be b010 1e3e 7034 a33d 419e 463e
00000080: 4ae5 fb3d e120 27be df1f 50be 8159 f4bd
00000090: cd21 323e cbf3 75bc 2021 a73d ed95 e2bd
000000a0: 5014 173e f879 0fbe 28a2 ee3d 6a6f 5ebd
000000b0: 75f6 14be d1cd 863d 5d3c d4bd 3ecd 453d
000000c0: 76e9 bdbd 39d7 82bd 39c6 6cbe cefa cebd
000000d0: 76f6 933d 0554 38bd 7d1a 873e 3d98 6d3e
000000e0: 984c ed3c 4f81 4ebd a066 003e e0f0 b33d
000000f0: febb a3bc 5470 3a3e eeaf 4c3e b0b6 6b3e
00000100: 6ba8 e4bc 0f70 f13a 327d 1c3d f543 9f3c
00000110: 95a9 f2bd 8199 afbd fe25 fa3d 44a2 f53b
00000120: c9db f43d 6ecc c03c 62b4 393d bfab 253d
00000130: 5d24 ba3c 329d a13d 03aa 38be 18b1 883d
00000140: 958a f7bd 3180 90be 7bbf 30be 9664 29be
00000150: dbd6 543d 4862 35be b559 51be d44d e83d
00000160: 0992 97bd 8462 313d a744 343c 069d 46be
00000170: 83de b93c 1052 633d 0ecf e0bd 8715 2ebd
00000180: 77e7 da3d b194 613d 4068 64bd 86e4 e1bd
00000190: b594 e53d 229b 76bd 8394 ad3d ea36 843d
000001a0: e4fc e9bd 212f 0ebe 41cd 3a3e f4b1 9d3c
000001b0: 6e3e 5d3e 92ba 103e 7049 283e 2177 663e
000001c0: e3c8 383e 8add 63bd 740b ba3d b30e 3e3e
000001d0: 65af 4e3e c5b7 af3d f691 febd 8267 12be
000001e0: d29e 32be a3b6 b0bd 9d0b d93d f069 49be
000001f0: 812e 83bc 1693 43be 4856 51be 9188 efbb
00000200: e5e1 b93d 3936 c13d aa60 3bbe a37d f1bc
00000210: b503 623d 60ca 02ba c1fe 023c 098f 883d
00000220: 86c8 a43d 18b5 b7bc 1dc1 eebd 3586 23be
00000230: 0c0e 0ebe f3b3 9cbb bfcc f8bd 554c 3e3c
00000240: 4687 d83d bcf8 113d e579 ea3d 4c54 2a3e
00000250: 55ce 533e 68ed 223e 8817 0d3d 5d15 863e
00000260: cfd3 36bb 21cb 6bbd 2fc7 42be 0b53 2cbe
00000270: 36ef debd d921 c0bd e9ff 9e3d 5ddc 82bd
00000280: 2a16 27be 8b32 e23b bbcc ff3c d88d cf3d
00000290: f5f3 53bd 9948 bb3c 8504 a3bd cdf7 c2bc
000002a0: 0be4 c7bd eb78 a8bd 92fc bfbc fbdc 253d
000002b0: 483d b43c a6d2 f33d c365 173e e273 2f3e
000002c0: 9eb3 3e3e 212f 4bbc 2b50 35be d928 3e3e
000002d0: b33a acbd 9c46 a9bc b1f5 64bd c7ab cfbd
000002e0: 2e25 1cbe 7923 7d3e 6356 61be 97ef 63be
000002f0: afe8 3b3d 7b49 39be 3bcb a43c 1bcc d8bd
00000300: 34de 29be 4468 cebc f44c e33d c7f4 68be
00000310: 2c92 733d 3caa 993d ff32 083e a5cd 14be
00000320: f901 ac3c ce17 40be 3c60 153e 6845 c6bd
00000330: e190 4b3d 8a66 c03c 46c6 35bd 439c d5bb
00000340: e057 a33d d6e1 d43d 2fd2 153d 3ec2 ff3d
00000350: 961d 1ebe 948e ec3d b690 853e 3c4d 073e
00000360: dedb 5e3e 6ddb 6bbd c187 d0bc 1d6f 633e
00000370: 4665 aabd 229f 623e 0c8d 0abe 726d 00be
00000380: 47d4 c03d a969 a3bd b876 293c b148 303e
00000390: 0ab5 493e 85f9 483e 6e1c d5bb 35ad 29be
000003a0: 3752 0b3e 2544 a1bd e691 03bd a508 a73d
000003b0: a23a e1bd f480 243e af23 043e 9e0a 0abe
000003c0: 5aa9 20be e28b 45bd 0701 443d 4f3a 59bd
000003d0: 0964 f3bd fb00 85bb 05d7 46be 0e95 f0bd
000003e0: 3a06 00be 9ba0 0d3e 2e39 2e3e 1d43 91bd
000003f0: fdb8 b1bc 69dd c23d a616 5f3d b907 c1bd

model.features.init_block.bn.weight f4 [172]
0.25326362 0.27463645 0.29478422 0.2923174 0.24943146 0.47824857 0.32115027 0.37358543
0.288012 0.44846213 0.3300895 0.30612633 0.47503027 0.50264996 0.4099381 0.4223267
0.3413867 0.19896072 0.3496625 0.30813777 0.2282362 0.48269135 0.5216596 0.43037856
0.3552163 0.35006896 0.36877665 0.337691 0.3748046 0.44064105 0.28348294 0.34372538
0.41199005 0.37171623 0.39927542 0.3739342 0.47258586 0.27187267 0.45615995 0.38472363
0.45259836 0.39022213 0.40567002 0.37406227 0.3085609 0.30467924 0.3249138 0.3397761
0.36435378 0.33299747 0.30381554 0.28250694 0.26500303 0.3652311 0.52244765 0.32721686
0.31466532 0.2944592 0.37806204 0.4111426 0.38394105 0.37686023 0.44291225 0.43482462
0.30044463 0.32777697 0.30319998 0.2523618 0.45447522 0.4903982 0.42345122 0.42531818
0.4950253 0.3985068 0.40822336 0.44358253 0.5230689 0.3451728 0.33141708 0.2281761
0.30265418 0.31678143 0.3850585 0.29822898 0.33380836 0.28900164 0.16305038 0.32534793
0.39817694 0.4395825 0.46909532 0.25458393 0.48057842 0.34023714 0.50180274 0.48966438
0.31070188 0.37907815 0.23469603 0.3833066 0.2568793 0.40688646 0.19780533 0.35547876
0.5050651 0.3863161 0.3746569 0.43024352 0.27398574 0.14605531 0.3739566 0.52850336
0.3386065 0.39967793 0.56571907 0.38351068 0.29233548 0.36813065 0.30800354 0.42670253
0.4814645 0.47552738 0.2899257 0.39347023 0.43383044 0.30485323 0.29336783 0.3916417
0.32881942 0.37997732 0.45185903 0.382703 0.431707 0.47134215 0.33626607 0.31865057
0.26777732 0.32296374 0.37994865 0.4272991 0.42826605 0.45680493 0.4952888 0.31432047
0.33795518 0.37276062 0.44283032 0.5014401 0.5242778 0.40256694 0.34615293 0.4527772
0.36022565 0.43157116 0.47508842 0.533599 0.32936868 0.28627357 0.49143314 0.38467243
0.35997894 0.42704225 0.3644321 0.5836662 0.3408434 0.3657125 0.45554018 0.36691013
0.46058723 0.6127807 0.44556114 0.39872357
00000000: c5ab 813e 269d 8c3e f5ed 963e a0aa 953e
00000010: f66a 7f3e ffdc f43e cf6d a43e 9746 bf3e
00000020: 4f76 933e d49c e53e 7e01 a93e 97bc 9c3e
00000030: 2b37 f33e abad 003f 68e3 d13e 353b d83e
00000040: 3dca ae3e 5cbc 4b3e f706 b33e 3cc4 9d3e
00000050: c0b6 693e 5223 f73e 7c8b 053f 945a dc3e
00000060: e9de b53e 3d3c b33e 4bd0 bc3e d6e5 ac3e
00000070: 63e6 bf3e b49b e13e ad24 913e c6fc af3e
00000080: 5cf0 d23e 9751 be3e d46d cc3e 4e74 bf3e
00000090: c6f6 f13e e532 8b3e cc8d e93e 7ffa c43e
000000a0: f9ba e73e 32cb c73e fbb3 cf3e 1785 bf3e
000000b0: b2fb 9d3e ebfe 9b3e 1a5b a63e 22f7 ad3e
000000c0: 948c ba3e a57e aa3e b68d 9b3e c0a4 903e
000000d0: 7aae 873e 92ff ba3e 21bf 053f f888 a73e
000000e0: d01b a13e 5bc3 963e 5991 c13e 4881 d23e
000000f0: ec93 c43e d3f3 c03e 65c5 e23e 55a1 de3e
00000100: e1d3 993e 62d2 a73e 073d 9b3e 9135 813e
00000110: fab0 e83e 7915 fb3e 99ce d83e 4ec3 d93e
00000120: f573 fd3e 1509 cc3e a702 d13e 401d e33e
00000130: d8e7 053f 7dba b03e 80af a93e ffa6 693e
00000140: 7df5 9a3e 2d31 a23e 6326 c53e 78b1 983e
00000150: eee8 aa3e 06f8 933e aef6 263e 0194 a63e
00000160: d9dd cb3e f510 e13e 432d f03e d358 823e
00000170: 600e f63e 9033 ae3e 2576 003f 4ab5 fa3e
00000180: 5114 9f3e 8816 c23e 2854 703e c340 c43e
00000190: af85 833e 6c53 d03e 7b8d 4a3e 5001 b63e
000001a0: f24b 013f 39cb c53e 07d3 bf3e e148 dc3e
000001b0: dc47 8c3e 868f 153e 3d77 bf3e ff4b 073f
000001c0: d55d ad3e 96a2 cc3e f7d2 103f 835b c43e
000001d0: ffac 953e 9f7b bc3e a4b2 9d3e c178 da3e
000001e0: 8482 f63e 5378 f33e 2471 943e ee74 c93e
000001f0: 061f de3e b915 9c3e 4f34 963e 4385 c83e
00000200: 055b a83e 638c c23e 115a e73e a6f1 c33e
00000210: b308 dd3e c253 f13e 112b ac3e 2b26 a33e
00000220: 1c1a 893e 815b a53e a188 c23e f3c6 da3e
00000230: b045 db3e 56e2 e93e 7e96 fd3e 9dee a03e
00000240: 7608 ad3e 7bda be3e a8ba e23e 615e 003f
00000250: 1237 063f 411d ce3e f53a b13e 6ad2 e73e
00000260: 7f6f b83e e5f6 dc3e ca3e f33e f299 083f
00000270: 03a3 a83e 7392 923e 209d fb3e c9f3 c43e
00000280: 294f b83e 48a5 da3e d896 ba3e 266b 153f
00000290: 0783 ae3e ab3e bb3e 903c e93e a5db bb3e
000002a0: 17d2 eb3e 32df 1c3f 9720 e43e 7f25 cc3e

model.features.init_block.bn.bias f4 [172]
0.03277799 0.15407255 0.15868677 -0.016830606 0.15662839 0.115095824 0.076689124 0.13245143
0.15813345 0.1346516 0.17161901 0.06676377 0.036734447 0.024197513 -0.0015140957 -0.013922669
0.13382332 0.12909898 0.055587947 0.06296753 -0.079125255 -0.0062234737 0.10920202 0.052600574
0.1335264 -0.07177407 -0.10415688 0.0032627967 0.004077628 0.07037614 0.09560239 0.0074329786
0.11513904 0.073531486 0.22750075 0.27667734 0.0014834838 -0.09670566 0.15812872 -0.0023679398
-0.026083816 0.23332694 -0.06470381 0.11602834 -0.027374376 0.031933654 0.17555329 0.014720051
0.12847991 -0.009439319 0.086425625 -0.015373111 0.044462092 -0.009042214 0.017118756 0.014328321
0.059548896 -0.0016428842 0.16395804 0.09203346 0.17375281 0.052276246 0.09918184 0.15301166
-0.051162977 0.17329729 -0.010135984 0.10863975 -0.009543459 -0.064240165 -0.07835929 -0.13718005
0.070391245 0.08009184 -0.0038435524 0.038640037 -0.08652567 0.03115295 0.03569717 0.16906387
-0.014287398 0.058235917 0.13190053 0.16333194 0.107213214 -0.14108104 0.29225302 0.25806898
-0.04839117 0.16012402 -0.023007238 -0.045260932 0.022027502 -0.018570075 0.064490534 -0.033128228
0.06604518 0.039597727 0.07485723 0.0055645443 0.018722424 -0.08634947 0.22276103 0.01896265
0.18159693 0.04610808 0.11829308 -0.01682624 0.2595281 0.13892882 0.16093406 0.067877375
-0.0085748965 0.16447675 -0.058534674 0.091130264 -0.04046455 0.09574284 0.17410634 0.036865726
-0.0608508 0.0922129 -0.08820953 -0.0016038988 0.08435157 0.108907916 0.041496824 -0.04139785
-0.010426089 0.011097654 0.04397675 -0.035773866 0.00132357 -0.021851743 -0.009827519 0.12002013
0.12586856 0.040492423 0.1321077 0.15052003 -0.0025530846 0.012463918 -0.073292494 0.108737275
0.24957196 0.049326714 -0.07292198 0.06400303 0.003069077 0.14144865 0.19744685 0.11023706
-0.029000184 -0.03612207 0.023242703 0.06776441 0.20612372 -0.05337611 -0.03831884 0.014707711
0.023332443 0.07913248 -0.09181532 -0.036055673 0.0091683315 -0.03582588 0.039899316 -0.007565098
0.070627734 0.13848624 0.1676469 -0.06608177
00000000: 3742 063d 32c5 1d3e c97e 223e 57e0 89bc
00000010: 3163 203e 5cb7 eb3d 300f 9d3d 59a1 073e
00000020: bced 213e 1ce2 093e e5bc 2f3e 72bb 883d
00000030: dc76 163d dd39 c63c 9f74 c6ba e81b 64bc
00000040: fb08 093e 8632 043e 30b0 633d 1ff5 803d
00000050: 6c0c a2bd 48ee cbbb 4fa5 df3d b373 573d
00000060: 25bb 083e 49fe 92bd 3450 d5bd a5d4 553b
00000070: 9f9d 853b 5e21 903d 30cb c33d 5890 f33b
00000080: 04ce eb3d ad97 963d f5f5 683e a7a8 8d3e
00000090: 7571 c23a 9e0d c6bd 7fec 213e 702f 1bbb
000000a0: baad d5bc 42ed 6e3e 6e83 84bd 44a0 ed3d
000000b0: 3a40 e0bc ddcc 023d 3ec4 333e 5e2c 713c
000000c0: 3d90 033e 60a7 1abc ebff b03d 80df 7bbc
000000d0: e21d 363d cb25 14bc a23c 8c3c 56c1 6a3c
000000e0: 8be9 733d 0c56 d7ba 9ee4 273e 0a7c bc3d
000000f0: 42ec 313e 9e1f 563d d91f cb3d 17af 1c3e
00000100: 4590 51bd d874 313e 6611 26bc 847e de3d
00000110: 2b5c 1cbc 5990 83bd d67a a0bd ed78 0cbe
00000120: 4929 903d 3107 a43d 1ce4 7bbb 0445 1e3d
00000130: 5f34 b1bd 7934 ff3c 3237 123d 141f 2d3e
00000140: b115 6abc c988 6e3d ef10 073e 7d40 273e
00000150: 9a92 db3d 8c77 10be 30a2 953e 9e21 843e
00000160: d235 46bd 8df7 233e ad79 bcbc 8763 39bd
00000170: 0573 b43c 4520 98bc 9d13 843d 77b1 07bd
00000180: b242 873d 3a31 223d bf4e 993d c856 b63b
00000190: c55f 993c fed7 b0bd 781b 643e 8f57 9b3c
000001a0: 8cf4 393e d3db 3c3d a443 f23d 2fd7 89bc
000001b0: dee0 843e 5b43 0e3e e6cb 243e 4b03 8b3d
000001c0: b97d 0cbc 986c 283e 0ec2 6fbd 81a2 ba3d
000001d0: 28be 25bd d214 c43d ef48 323e 8400 173d
000001e0: b03e 79bd 1eda bc3d 33a7 b4bd ea39 d2ba
000001f0: 84c0 ac3d 1d0b df3d 93f8 293d cb90 29bd
00000200: 30d2 2abc efd2 353c f720 343d 9e87 12bd
00000210: a47b ad3a 6d02 b3bc 9a03 21bc 1dcd f53d
00000220: b0e3 003e 62db 253d 3e47 073e ec21 1a3e
00000230: a751 27bb 7635 4c3c 601a 96bd a6b1 de3d
00000240: cb8f 7f3e cf0a 4a3d 1e58 95bd 0514 833d
00000250: 9122 493b ead7 103e 822f 4a3e f8c3 e13d
00000260: cb91 edbc bcf4 13bd 7b67 be3c 11c8 8a3d
00000270: 1912 533e e8a0 5abd 37f4 1cbd 9cf8 703c
00000280: ae23 bf3c 3610 a23d ac09 bcbd 1daf 13bd
00000290: c536 163c 28be 12bd 776d 233d a4e4 f7bb
000002a0: 46a5 903d 56cf 0d3e a1ab 2b3e e155 87bd

model.features.init_block.bn.running_mean f4 [172]
-0.12272086 0.049079128 -0.15458462 0.11443217 -0.057797227 0.011150202 0.008273804 -0.025267605
-0.08146293 -0.036712702 0.081121415 0.1427343 0.01014256 -0.029266661 -0.027243089 0.10821089
-0.17733726 -0.04380662 0.04627535 0.024784986 0.104517944 -0.1663986 -0.086061195 -0.18388933
0.13592438 0.1449574 -0.0046929168 0.0028103194 0.22742835 0.0013100627 -0.107105225 0.09813626
0.09358329 -0.011821233 -0.21563102 -0.030231802 0.021924827 0.05664533 0.04683282 0.06947159
0.01801431 -0.052151907 0.09119303 -0.009674439 -0.13950266 -0.038529288 -0.06440956 0.07189042
0.11061162 0.104069434 -0.13766123 0.114449866 0.016911726 -0.09123024 0.21307656 0.02660446
-0.1642971 0.040383402 -0.094539456 -0.040004656 -0.0013996513 -0.0011464445 -0.01191448 -0.136779
0.11006959 -0.020129355 -0.046058618 0.03345475 0.0010410426 0.12387985 0.008986646 0.155049
-0.010655402 -0.16824938 -0.008214078 0.086490735 -0.011828979 -0.01795702 0.029284742 -0.050045367
0.07291377 0.01215455 0.007299594 -0.01935221 0.13012852 0.013649067 -0.020714987 -0.10803892
0.06299572 -0.015741147 0.06770464 0.12150756 0.08277758 0.047819387 0.025187753 0.01311535
-0.06522741 0.039953694 -0.10811687 -0.025012545 -0.13998008 -0.0126296235 -0.012707155 -0.013010854
0.015237715 0.11532875 -0.019103456 0.030473953 -0.00013951551 0.23467861 0.14427827 -0.0027014043
0.1258982 -0.04648472 0.02987099 0.03846602 -0.12459885 0.08326637 -0.05860138 0.014476595
0.045603067 2.384757e-06 0.12538531 0.15695426 0.029056964 -0.03699348 0.015421339 -0.0045748414
0.09670633 0.060293272 -0.009577269 0.019047882 0.07279971 0.029371101 -0.04479093 -0.0116796205
-0.011124301 -0.09827552 0.121757604 -0.0024754046 0.18659818 0.06647833 0.0779569 -0.002159584
-0.07118217 0.03505036 0.030812519 0.14386149 0.1399379 -0.035598274 -0.05779361 -0.12336251
-0.08437863 0.10314592 -0.010145732 0.040985204 -0.012872431 0.09720097 0.055736758 -0.003253876
0.18509418 -0.04531333 -0.15153864 0.10974004 0.03389243 0.18005985 0.0022449153 0.12833953
-0.14116727 0.012400282 0.0023849593 -0.087335765
00000000: 1355 fbbd 3207 493d 6e4b 1ebe 6a5b ea3d
00000010: c9bc 6cbd 56af 363c d98e 073c 02fe cebc
00000020: 09d6 a6bd 0f60 16bd fc22 a63d f128 123e
00000030: fb2c 263c a3c0 efbc e62c dfbc ac9d dd3d
00000040: e697 35be 926e 33bd 398b 3d3d e209 cb3c
00000050: 810d d63d 6564 2abe da40 b0bd 7c4d 3cbe
00000060: c32f 0b3e b66f 143e 0ac7 99bb 562d 383b
00000070: fae2 683e 69b6 ab3a fc59 dbbd aafb c83d
00000080: 99a8 bf3d d8ad 41bc 61ce 5cbe afa8 f7bc
00000090: b29b b33c ef04 683d c5d3 3f3d 1f47 8e3d
000000a0: bf92 933c 3d9d 55bd 69c3 ba3d 8a81 1ebc
000000b0: c9d9 0ebe e3d0 1dbd 29e9 83bd 493b 933d
000000c0: 5888 e23d 5b22 d53d 11f7 0cbe b164 ea3d
000000d0: 768a 8a3c ecd6 babd be30 5a3e 99f1 d93c
000000e0: 803d 28be 1169 253d e79d c1bd ecdb 23bd
000000f0: 8174 b7ba 4b44 96ba f334 43bc cb0f 0cbe
00000100: 2a6c e13d 51e6 a4bc f6a7 3cbd d907 093d
00000110: 9873 883a b8b4 fd3d ba3c 133c 2ac5 1e3e
00000120: ff93 2ebc 9149 2cbe 5794 06bc 0e22 b13d
00000130: 55ce 41bc 9a1a 93bc 8ee6 ef3c 5ffc 4cbd
00000140: d153 953d e123 473c 6f31 ef3b 8788 9ebc
00000150: 6940 053e 56a0 5f3c 7ab2 a9bc 8243 ddbd
00000160: e603 813d 94f3 80bc bba8 8a3d f5d8 f83d
00000170: 4b87 a93d 43de 433d 8c56 ce3c c4e1 563c
00000180: f395 85bd 7ca6 233d 616c ddbd 1ce7 ccbc
00000190: f056 0fbe 7bec 4ebc ac31 50bc 7a2b 55bc
000001a0: 9ca7 793c 7b31 ec3d da7e 9cbc 83a4 f93c
000001b0: e94a 12b9 974f 703e afbd 133e 0b0a 31bb
000001c0: 75eb 003e c366 3ebd 02b4 f43c 8c8e 1d3d
000001d0: af2d ffbd 8f87 aa3d 0008 70bd 3e2f 6d3c
000001e0: 48ca 3a3d d009 2036 0265 003e 9eb8 203e
000001f0: df08 ee3c 7a86 17bd c9a9 7c3c 8de8 95bb
00000200: f80d c63d 14f6 763d fae9 1cbc 4e0a 9c3c
00000210: 0418 953d aa9b f03c b276 37bd e15b 3fbc
00000220: b342 36bc ad44 c9bd 0d5c f93d 663a 22bb
00000230: 9813 3f3e ca25 883d dea7 9f3d cf87 0dbb
00000240: f5c7 91bd f790 0f3d 896a fc3c 6d50 133e
00000250: e14b 0f3e 7fcf 11bd feb8 6cbd 7ca5 fcbd
00000260: b4ce acbd 2b3e d33d 493a 26bc 1ae0 273d
00000270: e4e6 52bc 4d11 c73d 3a4c 643d fb3e 55bb
00000280: 5489 3d3e 789a 39bd f22c 1bbe 63bf e03d
00000290: cad2 0a3d 9c61 383e 6e1f 133b 706b 033e
000002a0: 278e 10be 8d2a 4b3c fa4c 1c3b 18dd b2bd

model.features.init_block.bn.running_var f4 [172]
1.3435779 0.3064383 2.2494447 1.3524646 0.5246868 0.13630347 0.20937265 0.29168516
0.6357822 0.22729582 0.6650827 1.902491 0.4127197 0.23613214 0.44355217 1.2725683
3.1819894 0.27786526 0.43182796 0.3423553 1.1155002 2.4932432 0.64052486 3.0108242
1.6654255 1.7562783 0.2203141 0.37531903 4.149645 0.46143496 0.9915862 1.0470457
1.0747275 0.28764346 4.580018 0.31621552 0.12180645 0.43978894 0.45996556 0.7412964
0.28583485 0.3865908 1.3277018 0.12843053 1.6732731 0.26706818 0.36787567 0.62296426
1.1750823 0.93583804 1.7971066 1.3226054 0.47819135 0.8101177 3.7610543 0.19424455
2.2885377 0.2626681 1.3073227 0.27709824 0.09117843 0.06561344 0.47661474 1.9536657
0.9648717 0.2648996 0.46060154 0.25658226 0.19780216 1.4397924 0.114635274 2.124243
0.1596949 2.5451164 0.0711251 0.7790586 0.11409466 0.12338608 0.22341114 0.6199116
0.66198933 0.21564932 0.10443546 0.18615367 1.6385645 0.075651556 0.14637634 0.8183018
0.6652061 0.28488553 0.53762233 1.7621509 0.8999447 0.36961663 0.17322439 0.32371682
0.5609643 0.35006803 1.4618326 0.30009168 1.5532942 0.100892104 0.1269568 0.13921742
0.10139533 1.2098272 0.40470222 0.21101001 0.09862283 4.552964 1.8758292 0.14406416
1.3309629 0.52678406 0.2868811 0.35313272 1.4832984 0.74095315 0.47935992 0.058438644
0.32099158 0.32236463 1.3703345 2.4110928 0.30283174 0.29744023 0.12558517 0.30857962
1.1118786 0.48107076 0.27291286 0.11191467 0.7972181 0.2713048 0.42676678 0.17338386
0.4004329 1.2683697 1.1000512 0.2506512 3.369206 0.6616526 0.87785375 0.3673831
0.75372076 0.13559948 0.25338063 1.5624619 2.162871 0.40992966 0.34145996 1.3837378
0.866659 0.9972276 0.34653535 0.6691141 0.20061477 0.9856674 0.43168086 0.10859672
3.6452906 0.47204295 2.0335643 0.93503153 0.21415108 2.8023171 0.2866533 1.9452534
2.0701213 0.3421133 0.37759537 1.1385968
00000000: 5cfa ab3f 7be5 9c3e e7f6 0f40 8f1d ad3f
00000010: e051 063f 2393 0b3e c965 563e c257 953e
00000020: 9fc2 223f 3cc0 683e dc42 2a3f d384 f33f
00000030: ff4f d33e a0cc 713e 4519 e33e 85e3 a23f
00000040: b7a5 4b40 5b44 8e3e 8e18 dd3e 3249 af3e
00000050: b6c8 8e3f 4c91 1f40 70f9 233f 58b1 4040
00000060: aa2c d53f bacd e03f 059a 613e d129 c03e
00000070: e4c9 8440 3441 ec3e 98d8 7d3f 9805 863f
00000080: ac90 893f 0146 933e 828f 9240 00e7 a13e
00000090: a975 f93d 042c e13e 9b80 eb3e 9ac5 3d3f
000000a0: f258 923e 3bef c53e 22f2 a93f 4b83 033e
000000b0: d02d d63f 29bd 883e 335a bc3e 967a 1f3f
000000c0: 1969 963f 1593 6f3f 9707 e63f 224b a93f
000000d0: 7fd5 f43e e063 4f3f 1db5 7040 0be8 463e
000000e0: 6777 1240 6f7c 863e 5a56 a73f d2df 8d3e
000000f0: c2bb ba3d 5760 863d d906 f43e b811 fa3f
00000100: d501 773f eca0 873e f7d3 eb3e c05e 833e
00000110: a68c 4a3e 1e4b b83f e6c5 ea3d 99f3 0740
00000120: 0f87 233e 30e3 2240 09aa 913d 6270 473f
00000130: 76aa e93d d7b1 fc3d e4c5 643e 87b2 1e3f
00000140: 2278 293f 2dd3 5c3e 42e2 d53d 119f 3e3e
00000150: 7bbc d13f 34ef 9a3d aee3 153e 3a7c 513f
00000160: f24a 2a3f 84dc 913e 9ea1 093f 298e e13f
00000170: c762 663f 643e bd3e bc61 313e 36be a53e
00000180: 5b9b 0f3f 1e3c b33e 551d bb3f 9ea5 993e
00000190: 58d2 c63f 85a0 ce3d f700 023e 038f 0e3e
000001a0: 5ba8 cf3d 9edb 9a3f 2135 cf3e 0213 583e
000001b0: c4fa c93d e2b1 9140 2c1b f03f 8e85 133e
000001c0: fe5c aa3f 52db 063f 14e2 923e d0cd b43e
000001d0: b9dc bd3f 1baf 3d3f aa6e f53e 5c5d 6f3d
000001e0: 0259 a43e fa0c a53e 1f67 af3f 584f 1a40
000001f0: c30c 9b3e 164a 983e 6699 003e 26fe 9d3e
00000200: 0a52 8e3f e84e f63e 3cbb 8b3e 8533 e53d
00000210: 7c16 4c3f 76e8 8a3e 2d81 da3e 8a8b 313e
00000220: 8b05 cd3e f059 a23f 7ace 8c3f 5b55 803e
00000230: 12a1 5740 1162 293f 06bb 603f a319 bc3e
00000240: d8f3 403f 97da 0a3e 1bbb 813e c0fe c73f
00000250: 7a6c 0a40 4de2 d13e d7d3 ae3e 521e b13f
00000260: 5ddd 5d3f 4f4a 7f3f 156d b13e 104b 2b3f
00000270: f56d 4d3e b354 7c3f 4605 dd3e f567 de3d
00000280: 714c 6940 9daf f13e eb25 0240 3a5e 6f3f
00000290: 6c4a 5b3e 2a59 3340 39c4 923e 10fe f83f
000002a0: de7c 0440 7929 af3e 2e54 c13e 8abd 913f

model.features.stage1.unit1.dw_conv.conv.weight f4 [172, 1, 3, 3]
-0.64293224 0.05284109 0.4301056 -0.4685996 0.45546448 -0.2037115 0.47760266 0.6299346
0.77481335 -0.78445154 -0.47860813 -0.6827498 0.16186297 -0.096379094 0.80945367 0.6377887
-0.1828471 0.18090987 -0.50563514 -0.22286269 -1.0052425 0.4965285 0.3736399 0.41991726
-0.36564907 -0.21357936 0.4772281 0.60208833 0.38514653 0.43980044 0.6383391 0.45183998
-0.25242338 -0.5052982 -0.4144344 0.13032666 0.10134705 0.19070677 -0.3668737 0.58808786
0.18390438 -0.5122161 0.43912226 -0.48322573 -0.25414184 0.13248347 -0.44923905 -0.4453994
0.582499 0.28503382 0.078703634 0.5953133 0.44525397 0.3670597 -0.5052645 0.081536256
-0.038852464 0.10484326 -0.076016575 0.06945828 -0.5659833 0.38229504 0.44415766 0.47059584
-0.13676155 0.12706457 0.45250928 -0.5551334 0.587301 0.38951188 -0.17882085 -0.49091843
0.09578521 0.5783512 0.057355296 -0.118774965 0.10934904 -0.98207265 0.01440248 0.12701894
0.62268376 0.14613354 0.39285207 0.2624679 0.023176996 0.46932054 -0.7256877 -0.007176092
-0.22228044 -0.37432668 -0.0628503 -0.62739635 0.022466054 0.37230572 -0.72822756 0.57090884
-0.43092737 0.089995585 1.2503982 0.32876983 0.28389785 -0.4952779 -0.49638957 0.29359755
-0.816524 0.90966314 0.026013592 0.2405085 -0.059417322 -0.34246728 -0.6532739 0.029207526
-0.011669429 0.104125276 0.48009783 0.18154357 0.22949605 -0.53920454 -0.46963108 0.22504222
-0.4344631 0.19569646 -0.73981446 -0.22255713 -0.01974334 0.4023362 0.4585994 0.6108024
0.027605556 -0.50143206 0.09627047 0.6772301 0.76285625 0.19908142 -0.6612157 -0.11518153
0.86433303 0.51750463 0.29054093 0.45438784 -0.1383885 -0.89006746 -0.2915084 -0.75119656
1.0811615 0.44507894 -0.8322029 0.47357005 -0.0941715 -1.107854 -0.11250057 -0.47480726
0.4686245 -0.82392085 0.2311521 -1.148515 0.32452208 0.5597145 0.76565576 -0.40065518
-0.43790486 0.6447182 -0.13203445 0.3661014 0.1479751 0.5044809 -0.2848225 -0.63037014
-0.40389174 0.1576681 0.20365693 -0.13451415 -0.37038812 -0.42319915 0.30892208 0.1203782
0.61520135 -0.97080284 0.6166347 0.18106744 0.3742049 -0.22964223 -0.17498788 -0.077189736
0.33029708 0.015273722 -0.21399485 0.6804132 -0.45791245 -0.49999025 0.47485667 0.45417568
0.098367035 -0.8361469 0.3925176 0.11586505 0.040755857 -0.56360734 -0.236892 -0.1784791
-0.1763901 -0.8838961 -0.28618103 0.065751456 0.8186311 0.18513262 0.67220116 0.0850281
0.075537756 0.15846546 0.304907 -0.27381763 0.19561993 0.6703435 -0.4255995 -0.75227255
0.6906564 0.327855 -0.23334967 0.29684496 -0.8886924 0.0015258263 -0.10282532 -0.24426933
0.023638465 -0.015912218 -0.3414335 -0.6596898 0.3078758 -0.22869465 0.28844795 0.35344765
0.15437229 -0.50592256 -0.22334711 -0.14716342 -0.1828048 -0.21725367 -0.42544314 -0.4149067
-0.6219903 0.13235115 -0.35689196 -0.37987918 -0.30784225 0.38366708 -0.223651 -0.23877381
0.3857589 -0.4293861 -0.17346913 0.040978134 -0.07405064 0.098199174 -1.1031791 0.636924
00000000: 3597 24bf e66f 583d cd36 dc3e 49ec efbe
00000010: a432 e93e bf99 50be 5688 f43e 6543 213f
00000020: 2b5a 463f d1d1 48bf 200c f5be b1c8 2ebf
00000030: 68bf 253e 6762 c5bd 5b38 4f3f 1f46 233f
00000040: 453c 3bbe 7040 393e 4e71 01bf 1e36 64be
00000050: c9ab 80bf fc38 fe3e bb4d bf3e 65ff d63e
00000060: 5b36 bbbe 8cb4 5abe 3e57 f43e 7622 1a3f
00000070: ed31 c53e 862d e13e 316a 233f 9257 e73e
00000080: a33d 81be 395b 01bf bf30 d4be 5a74 053e
00000090: 0b8f cf3d a348 433e dfd6 bbbe ed8c 163f
000000a0: 6e51 3c3e 9820 03bf a2d4 e03e 5d69 f7be
000000b0: e11e 82be bfa9 073e a902 e6be 640b e4be
000000c0: a81e 153f f4ef 913e 5f2f a13d 7466 183f
000000d0: 54f8 e33e 40ef bb3e 0459 01bf 7bfc a63d
000000e0: c323 1fbd 10b8 d63d 94ae 9bbd 2540 8e3d
000000f0: 48e4 10bf 2dbc c33e a268 e33e f0f1 f03e
00000100: 380b 0cbe 371d 023e 4caf e73e 391d 0ebf
00000110: 5c59 163f 1a6e c73e d01c 37be a959 fbbe
00000120: 092b c43d d30e 143f 63ed 6a3d 4a40 f3bd
00000130: 64f2 df3d 1d69 7bbf 61f8 6b3c 4111 023e
00000140: 3468 1f3f 08a4 153e e823 c93e 3162 863e
00000150: afdd bd3c c84a f03e abc6 39bf 6c25 ebbb
00000160: 7c9d 63be bfa7 bfbe a8b7 80bd 0c9d 20bf
00000170: bb0a b83c db9e be3e 1f6d 3abf 1527 123f
00000180: 83a2 dcbe 9b4f b83d 0c0d a03f 8554 a83e
00000190: 0f5b 913e 1195 fdbe c626 febe 6b52 963e
000001a0: b807 51bf afdf 683f 751a d53c dc47 763e
000001b0: 945f 73bd df57 afbe f53c 27bf 9f44 ef3c
000001c0: 2231 3fbc a23f d53d 62cf f53e 8fe6 393e
000001d0: 0301 6b3e 4f09 0abf 7c73 f0be 7871 663e
000001e0: f371 debe a764 483e 7b64 3dbf 04e6 63be
000001f0: c9bc a1bc 03ff cd3e 8acd ea3e 8c5d 1c3f
00000200: 0c25 e23c da5d 00bf 7429 c53d f45e 2d3f
00000210: 8c4a 433f 00dc 4b3e 6f45 29bf 4be4 ebbd
00000220: ee44 5d3f 2f7b 043f c8c1 943e 86a5 e83e
00000230: b7b5 0dbe 76db 63bf 9740 95be 6b4e 40bf
00000240: 8063 8a3f 63e1 e33e 400b 55bf c677 f23e
00000250: fddc c0bd 29ce 8dbf b366 e6bd f019 f3be
00000260: 8def ef3e 7aec 52bf 23b3 6c3e 8a02 93bf
00000270: c227 a63e 7349 0f3f 0402 443f ad22 cdbe
00000280: 1135 e0be 410c 253f 0a34 07be a571 bb3e
00000290: c986 173e a925 013f 41d4 91be f05f 21bf
000002a0: e6ca cebe bf73 213e 718b 503e 14be 09be
000002b0: 83a3 bdbe 8fad d8be 092b 9e3e d988 f63d
000002c0: d67d 1d3f 8986 78bf c6db 1d3f be69 393e
000002d0: c997 bf3e 5527 6bbe 0630 33be a715 9ebd
000002e0: b31c a93e a23e 7a3c 7721 5bbe 8f2f 2e3f
000002f0: 8073 eabe b9fe ffbe 6a20 f33e b789 e83e
00000300: a874 c93d b90d 56bf 11f8 c83e a84a ed3d
00000310: 9def 263d 9248 10bf d193 72be 3ac3 36be
00000320: 9b9f 34be 0447 62bf 5286 92be b3a8 863d
00000330: cf91 513f 6893 3d3e 6015 2c3f 3623 ae3d
00000340: 8ab3 9a3d c544 223e c51c 9c3e d331 8cbe
00000350: 9750 483e a29b 2b3f 2de8 d9be ef94 40bf
00000360: dcce 303f 9cdc a73e 37f3 6ebe 10fc 973e
00000370: 5881 63bf 3cfe c73a 1596 d2bd bd21 7abe
00000380: 74a5 c13c 575a 82bc 5fd0 aebe 6ee1 28bf
00000390: e6a1 9d3e ee2e 6abe 73af 933e 17f7 b43e
000003a0: c513 1e3e 2484 01bf 1bb5 64be 02b2 16be
000003b0: 2e31 3bbe bf77 5ebe afd3 d9be a76e d4be
000003c0: c23a 1fbf 0f87 073e 8bba b6be 867f c2be
000003d0: 809d 9dbe 0370 c43e c504 65be 1f81 74be
000003e0: 3182 c53e 7fd8 dbbe e4a1 31be b0d8 273d
000003f0: dda7 97bd a61c c93d f934 8dbf 740d 233f

model.features.stage1.unit1.dw_conv.bn.weight f4 [172]
0.9176269 0.9750813 0.91752917 0.8699709 1.1432737 1.1907775 0.9140272 0.8225643
0.77220374 0.8417464 0.852603 0.943096 1.2089266 0.8939309 0.9178503 1.0131717
1.0937951 0.90501606 1.0325857 0.89179265 0.9320131 0.88027793 1.2401325 0.9433251
0.91350037 0.7934817 0.9821555 0.7944774 0.9644168 1.0095849 0.74836355 0.8955545
0.94415456 1.08728 1.1044396 1.1891972 0.93968415 0.9341316 1.0544889 0.847073
0.96817875 1.0022799 0.9759873 1.0419428 0.78119797 0.84692055 1.0214704 0.7349211
0.88272715 0.95833445 0.9661543 0.8681651 1.0096769 0.8262484 1.0246221 0.79256254
0.9493046 0.8725966 0.859676 0.9955679 1.0400801 1.0058634 1.1687503 0.8789396
0.91775006 0.85910434 0.8648195 1.0286326 1.0551049 1.0777239 0.89810866 0.92752093
0.93224156 0.8959162 0.86138254 0.9321786 0.930039 0.8791415 0.90174013 0.93610114
0.93412507 0.9501912 0.9512002 0.7857019 1.0165377 0.871208 1.3879554 0.94992995
0.7513288 0.943621 0.8819355 0.8290785 0.8020233 0.84706056 0.85076064 0.86493176
0.8169999 0.8944734 0.77627385 0.8223024 0.7257622 1.0064765 1.0207505 0.8838532
1.1605722 1.0130383 0.8577782 0.7719625 0.9411026 1.029138 1.0341048 1.1474644
0.9573825 1.00292 1.2788436 1.0081841 0.796594 0.8748057 0.8957336 1.1773021
0.81410784 1.0362966 0.86851877 0.88440114 1.1060215 0.8441448 0.9714277 0.8233385
0.82148516 0.95295876 1.0291101 0.8727896 0.803517 0.97168666 0.7991308 0.9127874
1.0182053 1.026661 0.8442209 1.0248752 1.0774626 0.8181269 0.7959604 1.0025488
0.79135334 1.021099 0.8789574 0.9086708 1.0570595 0.99514174 0.86887884 0.8008111
0.74779737 0.83767176 0.97641766 1.1311064 1.0894959 0.887924 0.7780301 0.88900113
1.0637288 0.9334322 0.7939306 0.8416446 0.80623364 0.8635265 0.90632373 0.8070702
1.0492597 1.0567735 1.1410927 0.77287567
00000000: 99e9 6a3f ee9e 793f 31e3 6a3f 6ab6 5e3f
00000010: cb56 923f 666b 983f b0fd 693f 9393 523f
00000020: 25af 453f b17c 573f 3144 5a3f bd6e 713f
00000030: 1bbe 9a3f a8d8 643f 3df8 6a3f 9caf 813f
00000040: 7a01 8c3f 22af 673f c52b 843f 864c 643f
00000050: 6998 6e3f e559 613f a9bc 9e3f c17d 713f
00000060: 29db 693f 9e21 4b3f 8b6e 7b3f df62 4b3f
00000070: 05e4 763f 143a 813f c194 3f3f 0f43 653f
00000080: 1db4 713f fe2b 8b3f 475e 8d3f 9d37 983f
00000090: 248f 703f 4023 6f3f 7ef9 863f c7d9 583f
000000a0: 90da 773f b54a 803f 4eda 793f 625e 853f
000000b0: 97fc 473f c9cf 583f 8bbf 823f ca23 3c3f
000000c0: 68fa 613f 6855 753f e355 773f 1140 5e3f
000000d0: 183d 813f 0485 533f d126 833f 61e5 4a3f
000000e0: a005 733f 7e62 5f3f ba13 5c3f 8add 7e3f
000000f0: 5821 853f 22c0 803f 9c99 953f 3002 613f
00000100: abf1 6a3f 43ee 5b3f d064 5d3f 3caa 833f
00000110: ad0d 873f dbf2 893f 73ea 653f 0372 6d3f
00000120: 62a7 6e3f c45a 653f 9183 5c3f 42a3 6e3f
00000130: 0917 6e3f 6b0f 613f 71d8 663f 53a4 6f3f
00000140: d222 6f3f bb3f 733f db81 733f c223 493f
00000150: e81d 823f 7d07 5f3f 86a8 b13f 9c2e 733f
00000160: 1657 403f 2591 713f 86c6 613f 7d3e 543f
00000170: 6651 4d3f f6d8 583f 73cb 593f 2b6c 5d3f
00000180: e826 513f 35fc 643f e2b9 463f 6982 523f
00000190: 8dcb 393f 39d4 803f f4a7 823f 3444 623f
000001a0: a18d 943f 3dab 813f 5a97 5b3f 569f 453f
000001b0: 1aec 703f cbba 833f 8c5d 843f 1de0 923f
000001c0: 0517 753f af5f 803f 26b1 a33f 2d0c 813f
000001d0: 96ed 4b3f 44f3 5f3f cc4e 653f d6b1 963f
000001e0: 5f69 503f 5ea5 843f 3f57 5e3f 1d68 623f
000001f0: 1d92 8d3f e019 583f 7caf 783f 50c6 523f
00000200: da4c 523f 1bf5 733f e1b9 833f 246f 5f3f
00000210: 4ab3 4d3f 75c0 783f d693 4c3f 6fac 693f
00000220: 8d54 823f a169 833f dc1e 583f 1c2f 833f
00000230: 4bea 893f c470 513f 10c4 4b3f 8553 803f
00000240: 2296 4a3f 5fb3 823f 5a03 613f a69e 683f
00000250: ba4d 873f 9cc1 7e3f d86e 5e3f f501 4d3f
00000260: a66f 3f3f a871 563f 82f6 793f 18c8 903f
00000270: 9a74 8b3f fd4e 633f fb2c 473f 9495 633f
00000280: 4428 883f 6af5 6e3f 093f 4b3f 0576 573f
00000290: 5465 4e3f 1310 5d3f d504 683f 279c 4e3f
000002a0: 244e 863f 5b44 873f 530f 923f 2edb 453f

model.features.stage1.unit1.dw_conv.bn.bias f4 [172]
-0.021337872 0.028874023 -0.08444714 -0.046971053 0.0033321907 0.34409755 -0.009351857 -0.12154231
-0.087362945 -0.08564199 -0.055737294 0.02413803 0.24188137 -0.0021658582 -0.019703416 0.08920615
0.04572886 0.04011638 -0.12800299 0.050045814 -0.08256086 -0.013996252 0.23216972 0.10495105
0.018484749 -0.10708888 0.11013539 -0.11702019 0.14193718 0.11544299 -0.15999034 -0.081329755
-0.059665494 0.1597556 0.05186227 -0.032092452 -0.033147104 -0.047597483 0.04181257 0.12380338
0.17035338 0.024414508 -0.030346638 0.059155144 -0.11415086 -0.04957875 -0.018408425 -0.16442001
-0.032221165 -0.07471659 0.057598196 -0.118149124 0.084226824 -0.08992056 0.19242874 -0.112302944
-0.059478585 0.03869426 -0.029310392 0.10160929 -0.08795538 -0.12161841 0.18065336 0.052450895
-0.0057838783 -0.003871965 -0.06928215 0.039436437 0.1450479 0.20089413 0.1450691 -0.05076837
0.055969242 -0.03128566 0.07200708 -0.006606289 -0.048800055 -0.023719156 -0.0481687 0.035519354
-0.01522046 -0.0573444 -0.051463004 -0.107439935 0.006259762 0.03761838 0.14798392 0.11046625
-0.19167042 -0.09369994 -0.13515475 -0.172699 -0.047465555 -0.05063552 -0.12574749 -0.008686862
-0.10191462 0.024387442 -0.1271214 -0.07916544 -0.16460048 -0.031837348 0.011976197 -0.14005159
0.18419428 -0.03421718 -0.062063456 -0.1221538 -0.096253686 0.07152337 0.14218678 0.34139287
-0.032262508 0.02479286 0.20801546 0.0032875207 -0.16961224 -0.05204988 0.027158462 0.008782492
-0.11907905 0.0833898 -0.09759513 -0.03081749 0.072722435 -0.08636859 0.10401901 -0.05342193
-0.122153215 -0.029309139 0.1106104 -0.060819082 0.012968261 0.049495354 -0.09236488 -0.08010065
-0.05285403 0.056039307 -0.043591555 -0.024062714 -0.011444696 -0.07652917 -0.12214688 0.12044883
-0.06017562 0.02025222 -0.06136439 0.08553259 0.0017178106 -0.0319672 0.010826394 -0.084948964
-0.13579981 -0.09698062 0.046034444 0.1525934 -0.057014834 -0.11377176 -0.11602517 -0.06517184
0.11503424 -0.023775725 -0.08502837 -0.060483478 -0.09128172 -0.082477935 0.019268714 -0.08999266
0.03256568 0.096316 -0.01473539 -0.12131765
00000000: c3cc aebc 3789 ec3c 9ff2 acbd b864 40bd
00000010: e260 5a3b 8e2d b03e 8838 19bc 2deb f8bd
00000020: 58eb b2bd 1165 afbd ca4c 64bd 1ebd c53c
00000030: c0af 773e 12f1 0dbb 0f69 a1bc b7b1 b63d
00000040: 2f4e 3b3d 1351 243d 3713 03be d7fc 4c3d
00000050: ab15 a9bd 8950 65bc e6bd 6d3e 93f0 d63d
00000060: 546d 973c 6a51 dbbd aa8e e13d 48a8 efbd
00000070: fb57 113e 606d ec3d 82d4 23be 3790 a6bd
00000080: ce63 74bd f996 233e 886d 543d 6073 03bd
00000090: 42c5 07bd 94f5 42bd a843 2b3d a08c fd3d
000000a0: 1e71 2e3e ef00 c83c 8399 f8bc aa4c 723d
000000b0: edc7 e9bd 1613 4bbd 44cd 96bc b85d 28be
000000c0: 57fa 03bd 0305 99bd 16ec 6b3d 2bf8 f1bd
000000d0: 1d7f ac3d 4528 b8bd 0a0c 453e 16ff e5bd
000000e0: d19f 73bd df7d 1e3d 591c f0bc 8818 d03d
000000f0: f321 b4bd 1313 f9bd 32fd 383e c0d6 563d
00000100: b086 bdbb cbc0 7dbb cde3 8dbd 1a88 213d
00000110: 7087 143e 31b7 4d3e ff8c 143e 7ff2 4fbd
00000120: 0140 653d 6425 00bd 7378 933d 9279 d8bb
00000130: 91e2 47bd ad4e c2bc 8b4c 45bd be7c 113d
00000140: 3c5f 79bc f6e1 6abd dfca 52bd 7809 dcbd
00000150: b11e cd3b bb15 1a3d 1989 173e 213c e23d
00000160: 4045 44be c1e5 bfbd 0266 0abe 02d8 30be
00000170: 3e6b 42bd 3167 4fbd f3c3 00be 5753 0ebc
00000180: 9db8 d0bd 2cc8 c73c 1d2c 02be 7d21 a2bd
00000190: 078d 28be e167 02bd d037 443c af69 0fbe
000001a0: 6d9d 3c3e 5027 0cbd 4036 7ebd c62b fabd
000001b0: a720 c5bd d87a 923d 6999 113e 0ccb ae3e
000001c0: b125 04bd 651a cb3c 0102 553e 7273 573b
000001d0: d5ae 2dbe 4132 55bd 6c7b de3c 71e4 0f3c
000001e0: b8df f3bd 45c8 aa3d f5df c7bd f674 fcbc
000001f0: 80ef 943d 04e2 b0bd eb07 d53d f4d0 5abd
00000200: 772b fabd b819 f0bc b587 e23d 6e1d 79bd
00000210: d478 543c a4bb 4a3d cc29 bdbd cf0b a4bd
00000220: 787d 58bd 7989 653d 0f8d 32bd 2b1f c5bc
00000230: 8982 3bbc 53bb 9cbd 2528 fabd e0ad f63d
00000240: b67a 76bd fce7 a53c 3a59 7bbd b62b af3d
00000250: 2928 e13a 0af0 02bd 3061 313c b9f9 adbd
00000260: 1b0f 0bbe c69d c6bd 9d8e 3c3d 7241 1c3e
00000270: 6388 69bd 2b01 e9bd 9b9e edbd d078 85bd
00000280: 1297 eb3d 4fc5 c2bc 5b23 aebd 86bd 77bd
00000290: e9f1 babd 31ea a8bd 6cd9 9d3c 124e b8bd
000002a0: 9763 053d 5341 c53d b56c 71bc 6375 f8bd

model.features.stage1.unit1.dw_conv.bn.running_mean f4 [172]
0.18448077 -0.04253251 -0.093641125 0.13886434 -0.030142305 0.32956597 -0.0038397885 0.12572414
0.09954197 -0.018855505 0.14010876 0.03367693 -0.0016800602 -0.27382386 0.24817272 -0.035435133
-0.052360773 -0.026023326 -0.024337858 0.018537667 0.014810509 -0.06428709 0.005127217 -0.0038996532
-0.054936916 -0.068524025 -0.18766513 -0.10041379 0.051972143 -0.16259967 0.21804748 0.087875456
0.008790788 0.057866294 -0.008578265 -0.025086727 -0.001327866 0.08646504 -0.0077128834 -0.032233436
0.07989484 -0.0666894 0.006491361 0.0144467475 -0.18733633 -0.20642312 -0.020784544 -0.14111015
0.021457084 -0.009495533 0.010077753 0.16179001 0.2639788 -0.08047924 0.022229092 0.34775844
-0.011677622 0.02039298 0.23416445 -0.17716035 -0.042804625 -0.02294294 -0.3894764 -0.016589962
-0.001108369 -0.0037651237 -0.14581311 -0.0010538958 0.24321388 -0.004257121 0.19329202 0.11895704
0.032103986 -0.0037356874 0.02482999 0.0818245 -0.41793752 -0.22265925 -0.24536234 0.056313246
0.039775774 0.019598074 -0.0024984062 -0.046807792 0.012792394 0.050573118 0.017644493 -0.0036466802
-0.04831275 -0.03822008 0.06656108 0.076795585 -0.087597825 -0.21532531 -0.385512 0.10003999
0.05760344 0.15077186 0.097308375 -0.14247935 -0.118455105 -0.006110349 -0.0034168437 -0.099611975
-0.7214039 -0.003441253 -0.029368322 -0.038832236 -0.015528572 0.021702971 0.041530207 0.18754123
0.024874177 -0.089532614 -0.4141042 -0.0026183429 -0.09290783 0.1684902 -0.052617013 0.006245104
-0.22396058 -0.3499232 0.0651641 -0.036461513 0.01888096 -0.05290433 0.30470586 -0.11959556
0.15078571 0.13033068 -0.039178398 -0.34840074 -0.05263121 0.20790899 -0.058563184 -0.0067529324
0.0030553814 -0.004062074 0.16386333 -0.042378247 -0.04975394 -0.23916446 -0.17079835 0.02551883
0.48705465 0.020143857 -0.14449918 0.014847572 0.009323332 0.010527337 0.23826882 -0.020630911
-0.17256068 -0.23065381 -0.2697041 -0.02252638 -0.0080868965 0.16325492 -0.13588886 -0.3766578
0.037728768 0.005762992 -0.20186107 -0.072375484 -0.07962389 -0.06679164 0.07755853 -0.12796499
0.014009519 -0.5308806 0.011753065 -0.07451719
00000000: 87e8 3c3e 9236 2ebd ebc6 bfbd 7432 0e3e
00000010: ffec f6bc dfbc a83e f6a4 7bbb d4bd 003e
00000020: a9dc cb3d dc76 9abc ac78 0f3e d2f0 093d
00000030: 7735 dcba a432 8cbe fd20 7e3e 6e24 11bd
00000040: 4078 56bd df2e d5bc 3060 c7bc 4edc 973c
00000050: c7a7 723c f3a8 83bd 3702 a83b 5391 7fbb
00000060: 8805 61bd 5356 8cbd 4a2b 40be bfa5 cdbd
00000070: bee0 543d 8780 26be d747 5f3e 0cf8 b33d
00000080: 3d07 103c 3505 6d3d da8b 0cbc ae82 cdbc
00000090: ca0b aeba 9514 b13d 5bbc fcbb 3507 04bd
000000a0: e89f a33d 7494 88bd 7cb5 d43b 0db2 6c3c
000000b0: 18d5 3fbe 9560 53be 5944 aabc 2e7f 10be
000000c0: c4c6 af3c 2793 1bbc 291d 253c 48ac 253e
000000d0: 3b28 873e 4dd2 a4bd c919 b63c 650d b23e
000000e0: 7f53 3fbc 2e0f a73c cec8 6f3e 8669 35be
000000f0: e753 2fbd d5f2 bbbc 7369 c7be ace7 87bc
00000100: b146 91ba 4bc0 76bb 0850 15be e022 8aba
00000110: 0f0d 793e 527f 8bbb 58ee 453e c09f f33d
00000120: 787f 033d 6fd2 74bb 4368 cb3c 9a93 a73d
00000130: e8fb d5be c900 64be 4440 7bbe b8a8 663d
00000140: eceb 223d 248c a03c 4dbc 23bb 87b9 3fbd
00000150: 3097 513c c225 4f3d 2f8b 903c 24fd 6ebb
00000160: 97e3 45bd a98c 1cbd 2d51 883d 0147 9d3d
00000170: 7d66 b3bd 3d7e 5cbe d461 c5be c4e1 cc3d
00000180: 96f1 6b3d f063 1a3e 9d49 c73d 1be6 11be
00000190: 9798 f2bd 5339 c8bb 20ed 5fbb 5d01 ccbd
000001a0: edad 38bf a586 61bb d695 f0bc 8d0e 1fbd
000001b0: 8d6b 7ebc 6eca b13c 941b 2a3d cf0a 403e
000001c0: eec4 cb3c e05c b7bd 7705 d4be 8198 2bbb
000001d0: 7646 bebd b288 2c3e f084 57bd bba3 cc3b
000001e0: ec55 65be 2229 b3be c174 853d ab58 15bd
000001f0: 3eac 9a3c 36b2 58bd 6802 9c3e 84ee f4bd
00000200: 9267 1a3e 6875 053e 8779 20bd 9561 b2be
00000210: d393 57bd 18e6 543e f3df 6fbd b447 ddbb
00000220: cb3c 483b 251b 85bb cacb 273e d094 2dbd
00000230: caca 4bbd 87e7 74be c3e5 2ebe de0c d13c
00000240: 3a5f f93e bb04 a53c 98f7 13be 3b43 733c
00000250: e4c0 183c da7a 2c3c befc 733e 2802 a9bc
00000260: bfb3 30be 8330 6cbe a816 8abe 3e89 b8bc
00000270: e77e 04bc 4c2c 273e 7326 0bbe 4bd9 c0be
00000280: 7b89 1a3d 7bd7 bc3b abb4 4ebe 9939 94bd
00000290: da11 a3bd 0eca 88bd 02d7 9e3d 4109 03be
000002a0: 2e88 653c cae7 07bf ed8f 403c 789c 98bd

model.features.stage1.unit1.dw_conv.bn.running_var f4 [172]
0.076288335 0.086042784 0.04645184 0.053356923 0.021658577 0.3750696 0.033277974 0.057258993
0.03147532 0.060254052 0.07806927 0.024142047 0.040426113 0.19983368 0.17314692 0.09990906
0.07944869 0.074615575 0.026215835 0.031524096 0.00455311 0.03323768 0.108443715 0.031616703
0.030792369 0.018766634 0.15019496 0.038552772 0.046222158 0.1578667 0.06572027 0.016149035
0.057568185 0.042219162 0.03976771 0.15805018 0.023036014 0.018552504 0.10492464 0.017229648
0.106062144 0.23642027 0.017117726 0.06755279 0.07661842 0.08556927 0.035843305 0.039873738
0.017305596 0.030150732 0.00601907 0.038000163 0.1049529 0.031291265 0.059211053 0.15436208
0.015415939 0.0212962 0.10713386 0.1030939 0.13334385 0.052814018 0.3618247 0.079910696
0.010695626 0.025648233 0.058837187 0.11381921 0.19861922 0.011096419 0.112493485 0.05452686
0.16155143 0.023097515 0.09236396 0.034021 0.29543027 0.11889449 0.09325209 0.02459528
0.012781244 0.017019244 0.09331704 0.031073403 0.031434298 0.025552986 0.068262234 0.01960489
0.034588456 0.27921334 0.034224197 0.017408352 0.032777272 0.07812411 0.22168395 0.1225415
0.03482592 0.028450137 0.018562023 0.09802224 0.03964722 0.055555765 0.044899877 0.15447722
0.69132876 0.012795273 0.09838984 0.02908378 0.028280115 0.01396879 0.043827984 0.1398627
0.029050417 0.12487347 0.41093725 0.07529682 0.029551987 0.040534236 0.030427089 0.11257043
0.08969966 0.24617407 0.014818334 0.019383708 0.18437196 0.04621417 0.13264139 0.11063633
0.033322424 0.051714487 0.06795982 0.20364515 0.038609684 0.10105182 0.014879781 0.03470991
0.0068788663 0.0063642464 0.08277708 0.12305128 0.05608973 0.07615435 0.05644497 0.02860624
0.23321468 0.07511645 0.0748292 0.03573534 0.0265424 0.03329321 0.084672146 0.0331436
0.08181689 0.101531625 0.14983045 0.062557995 0.2028036 0.057493046 0.06566972 0.20344888
0.024528395 0.048545048 0.11566715 0.032529417 0.07064169 0.01931619 0.11689749 0.027501801
0.049496714 0.5118469 0.1832305 0.02040043
00000000: 0f3d 9c3d 3337 b03d 4944 3e3d ca8c 5a3d
00000010: 546d b13c 1f09 c03e 7c4e 083d 6888 6a3d
00000020: 44ec 003d f4cc 763d c8e2 9f3d 8bc5 c53c
00000030: da95 253d 33a1 4c3e 6d4d 313e 1f9d cc3d
00000040: ffb5 a23d 0dd0 983d 97c2 d63c 691f 013d
00000050: 4132 953b 3c24 083d bd17 de3d 8480 013d
00000060: 4740 fc3c 7cbc 993c b5cc 193e 83e9 1d3d
00000070: 7253 3d3d cfa7 213e 5998 863d fb4a 843c
00000080: 9ecc 6b3d 00ee 2c3d 77e3 223d e8d7 213e
00000090: 06b6 bc3c 6cfb 973c bbe2 d63d 3125 8d3c
000000a0: 1c37 d93d 2818 723e 793a 8c3c 1e59 8a3d
000000b0: 1eea 9c3d f13e af3d 6ed0 123d a552 233d
000000c0: 77c4 8d3c abfe f63c 9e3b c53b 0fa6 1b3d
000000d0: 8cf1 d63d 452b 003d 4a87 723d 1811 1e3e
000000e0: 2293 7c3c 5e75 ae3c ff68 db3d e522 d33d
000000f0: 4a8b 083e 8353 583d 1641 b93e 38a8 a33d
00000100: b53c 2f3c 3e1c d23c 43ff 703d 0c1a e93d
00000110: d662 4b3e c1cd 353c fc62 e63d 8f57 5f3d
00000120: bd6d 253e 0037 bd3c 5129 bd3d 9b59 0b3d
00000130: a342 973e f47e f33d f4fa be3d 0a7c c93c
00000140: 6c68 513c f16b 8b3c 011d bf3d a68d fe3c
00000150: 40c1 003d 7f54 d13c 12cd 8b3d 6f9a a03c
00000160: a0ac 0d3d 0df5 8e3e ac2e 0c3d f69b 8e3c
00000170: 7641 063d 89ff 9f3d 1e01 633e 0af7 fa3d
00000180: a0a5 0e3d 4310 e93c 620f 983c e2bf c83d
00000190: 2065 223d 718e 633d efe8 373d 472f 1e3e
000001a0: ecfa 303f 44a3 513c 9d80 c93d 1b41 ee3c
000001b0: b3ab e73c 5add 643c f984 333d 2b38 0f3e
000001c0: 24fb ed3c a9bd ff3d 5e66 d23e 3835 9a3d
000001d0: 0217 f23c 3a07 263d 3b42 f93c 538b e63d
000001e0: 75b4 b73d 0e15 7c3e 99c8 723c 95ca 9e3c
000001f0: 01cc 3c3e 124b 3d3d 25d3 073e 4d95 e23d
00000200: 187d 083d 92d2 533d 852e 8b3d 5b88 503e
00000210: 3025 1e3d 42f4 ce3d 53ca 733c fb2b 0e3d
00000220: 1d68 e13b 2b8b d03b 0887 a93d 4f02 fc3d
00000230: 58be 653d d0f6 9b3d d732 673d a257 ea3c
00000240: d4cf 6e3e a7d6 993d 0d40 993d 385f 123d
00000250: 726f d93c 765e 083d 9768 ad3d 95c1 073d
00000260: 9d8f a73d d0ef cf3d 276d 193e 681e 803d
00000270: bfab 4f3e d47d 6b3d d97d 863d e754 503e
00000280: c6ef c83c 2cd7 463d e6e2 ec3d 913d 053d
00000290: 97ac 903d fd3c 9e3c f467 ef3d 754b e13c
000002a0: 11bd 4a3d 6608 033f c7a0 3b3e cd1e a73c
