yono_compression/yono/data/saved_model/DS-CNN-M_fashion-mnist_adam_multistep_nomixup.pt (torch, 555815 bytes, 47 tensors)

model.features.init_block.conv.weight f4 [172, 1, 3, 3]
0.068087384 0.02281836 -0.11843655 0.23913059 -0.43068376 0.25258824 -0.20887463 0.2548535
-0.050744805 -9.95e-43 7.4922e-41 -4.9365e-41 1.46228e-40 -1.35414e-40 1.1414e-40 2.9343e-41
-8.687e-41 8.7754e-41 0.33326277 0.1532403 -0.17090434 -0.16532257 -0.27699396 -0.16592602
-0.13684191 0.07232247 0.35738683 0.07981569 -0.20328455 0.07723607 0.15653607 0.6490457
0.16862492 -0.24885032 -0.42353994 -0.24916427 0.15023877 0.07331223 0.013292868 0.12046956
0.067307964 -0.1842192 0.1708857 0.062816635 -0.1500047 1.764e-42 -9.3e-41 5.3451e-41
-8.425e-42 1.49401e-40 1.53913e-40 1.037e-40 7.7837e-41 -8.326e-41 0.2870552 0.096052885
0.1806175 0.1021858 0.17684232 0.07754994 0.005271441 0.09978251 0.13056363 0.1314652
-0.10830862 -0.09014124 0.18654943 -0.13658397 -0.445287 0.061216697 -0.01496287 -0.08787293
1.2813e-41 -5.413e-41 -6.6042e-41 -5.186e-42 -3.1295e-41 6.2422e-41 -2.0102e-41 6.2628e-41
2.8483e-41 -0.16273344 0.10699416 0.063757755 -0.02832914 -0.29245228 -0.46619815 0.21002631
0.13943128 0.40741014 0.034268916 -0.18868347 -0.1557531 0.1509602 -0.17764369 -0.5388003
0.027891057 0.1993373 -0.20841648 -0.15531358 0.085239016 -0.012584113 -0.19472449 0.34540108
-0.08086263 -0.071689285 0.28692713 -0.19451019 0.16577876 0.17152663 -0.04377312 0.19117756
0.13586634 0.044116784 0.010988671 0.13401993 0.07585797 -0.09172143 -0.21449308 -0.15109463
-0.28055325 0.11366035 0.2781415 -0.16989434 0.103266515 -0.07075467 0.011642725 -0.03348502
-0.09092054 -0.0018703506 -0.042383734 -0.06801491 -0.022432884 -0.04374197 -0.07073357 0.06327099
0.004138231 0.09473302 -0.22374167 -0.14571182 -0.039063387 -0.15251966 -0.365046 -0.055744812
7.3635e-41 -2.6328e-41 -8.9997e-41 7.0218e-41 2.3253e-41 4.4528e-41 4.518e-42 -9.6593e-41
1.569e-41 0.08550298 -0.4863962 -0.104683444 -0.07850308 -0.45057598 0.06396771 -0.039465223
-0.30014494 0.039021533 0.0021968107 0.011340155 -0.033677816 -0.015010254 -0.3077654 -0.17070033
-0.015734207 -0.39392573 -0.15609516 0.04748644 0.12068794 0.17354551 0.21840124 0.2573081
0.18524759 0.19177347 0.021216555 0.07594026 -1.64992e-40 1.36205e-40 1.25461e-40 -1.2933e-41
-1.67298e-40 -1.66966e-40 2.1601e-41 7.1765e-41 7.2306e-41 -0.13613746 -0.0976341 0.1305969
-0.3681236 -0.10705765 0.3501966 -0.19219583 0.22575727 0.22072017 -5.6313e-41 3.454e-42
3.9969e-41 2.595e-41 -1.012e-42 -4.7622e-41 4.998e-41 1.1311e-41 4.8593e-41 0.21553522
0.10521301 0.096165136 0.18393323 0.30769137 0.06077731 0.057624094 0.041758444 0.10993958
0.1619899 -0.22525446 0.04220433 0.20128608 -0.40757227 0.24721415 -0.06540131 -0.1835601
0.23133008 -1.6864455e-23 -1.3869837e-22 3.856367e-22 2.8866918e-25 2.2088946e-25 -6.145484e-24 -8.767591e-25
5.1019066e-24 -2.5894868e-24 -0.05174384 -0.014829876 0.043215886 0.24330401 0.14220527 -0.35423467
-0.28220075 -0.08422929 0.33129203 -0.0726099 -0.19480835 -0.054973982 -0.14837147 -0.44715792
-0.1176746 0.10417675 0.11141752 0.033313606 -1.3215e-40 -1.69121e-40 -8.8541e-41 -1.68283e-40
00000000: 6671 8b3d 92ed ba3c dd8e f2bd a6de 743e
00000010: 9582 dcbe 3f53 813e 3be3 55be 287c 823e
00000020: c9d9 4fbd c602 0080 dad0 0000 9c89 0080
00000030: a097 0100 7b79 0180 2d3e 0100 cc51 0000
00000040: 29f2 0080 9ff4 0000 6ba1 aa3e 06eb 1c3e
00000050: 8c01 2fbe 524a 29be 27d2 8dbe 83e8 29be
00000060: 4920 0cbe ce1d 943d 68fb b63e 6976 a33d
00000070: d329 50be f22d 9e3d fe4a 203e dc27 263f
00000080: 03ac 2c3e 9ed2 7ebe 3ada d8be eb24 7fbe
00000090: 31d8 193e b924 963d 54ca 593c bfb8 f63d
000000a0: c2d8 893d f5a3 3cbe a9fc 2e3e 02a6 803d
000000b0: d59a 19be eb04 0000 3f03 0180 0095 0000
000000c0: 7c17 0080 78a0 0100 0cad 0100 1321 0100
000000d0: fad8 0000 18e8 0080 e6f8 923e 60b7 c43d
000000e0: cbf3 383e ca46 d13d 2716 353e 81d2 9e3d
000000f0: 0dbc ac3b c65a cc3d 79b2 053e d09e 063e
00000100: e9d0 ddbd f89b b8bd d006 3f3e abdc 0bbe
00000110: a8fc e3be 5cbe 7a3d d326 75bc b9f6 b3bd
00000120: b823 0000 e496 0080 19b8 0080 750e 0080
00000130: 3d57 0080 02ae 0000 0938 0080 95ae 0000
00000140: 664f 0000 98a3 26be c11f db3d 6d93 823d
00000150: 8312 e8bc 4ebc 95be 86b1 eebe 2311 573e
00000160: 13c7 0e3e 1098 d03e 905d 0c3d 3d36 41be
00000170: be7d 1fbe 5095 1a3e 3ae8 35be d1ee 09bf
00000180: c97b e43c 141f 4c3e 216b 55be 860a 1fbe
00000190: cb91 ae3d 982d 4ebc db65 47be 69d8 b03e
000001a0: 4e9b a5bd d5d1 92bd 1de8 923e ae2d 47be
000001b0: e8c1 293e ada4 2f3e 714b 33bd 0dc4 433e
000001c0: 8c20 0b3e cdb3 343d d409 343c 853c 093e
000001d0: 6c5b 9b3d 72d8 bbbd 13a4 5bbe 8db8 1abe
000001e0: ada4 8fbe c2c6 e83d 9068 8e3e c8f8 2dbe
000001f0: 657d d33d d3e7 90bd 21c1 3e3c 9727 09bd
00000200: 8c34 babd 8d26 f5ba 919a 2dbd 674b 8bbd
00000210: 2bc5 b7bc c82a 33bd c3dc 90bd 3994 813d
00000220: ff99 873b 6303 c23d 891c 65be 7b35 15be
00000230: ee00 20bd 1d2e 1cbe 4fe7 babe ac54 64bd
00000240: 44cd 0000 6449 0080 e0fa 0080 bdc3 0000
00000250: d240 0000 207c 0000 980c 0000 430d 0180
00000260: bd2b 0000 301c af3d ec08 f9be 4664 d6bd
00000270: 39c6 a0bd e5b1 e6be 8101 833d 49a6 21bd
00000280: 99ac 99be 0bd5 1f3d 5ef8 0f3b 0fcc 393c
00000290: c0f1 09bd 92ed 75bc 6d93 9dbe 11cc 2ebe
000002a0: 06e5 80bc a2b0 c9be 69d7 1fbe 2481 423d
000002b0: 3d2b f73d eab5 313e 93a4 5f3e e3bd 833e
000002c0: 8bb1 3d3e 4460 443e 57ce ad3c 9186 9b3d
000002d0: eecb 0180 af7b 0100 bc5d 0100 0d24 0080
000002e0: 5cd2 0180 6fd1 0180 373c 0000 0dc8 0000
000002f0: 8fc9 0000 9e67 0bbe 63f4 c7bd 32bb 053e
00000300: b27a bcbe 0b41 dbbd f84c b33e fcce 44be
00000310: ea2c 673e 7804 623e fa9c 0080 a109 0000
00000320: 6b6f 0000 5748 0000 d202 0080 c084 0080
00000330: 538b 0000 881f 0000 7587 0000 44b5 5c3e
00000340: eb79 d73d 3af2 c43d fe58 3c3e b989 9d3e
00000350: a1f1 783d 3e07 6c3d e70a 2b3d 0128 e13d
00000360: aee0 253e 1ba9 66be 73de 2c3d f01d 4e3e
00000370: 50ad d0be b525 7d3e 1ff1 85bd 2ef7 3bbe
00000380: cbe1 6c3e 5e1a a399 11ad 279b 641a e91b
00000390: 75ad b216 55b9 8816 edbd ed98 02ac 8797
000003a0: d65e c518 125a 4898 59f1 53bd 02f9 72bc
000003b0: 2403 313d b024 793e 429e 113e 3f5e b5be
000003c0: 9e7c 90be 6880 acbd 1c9f a93e 80b4 94bd
000003d0: d77b 47be 662c 61bd b1ee 17be e2f1 e4be
000003e0: 61ff f0bd 9f5a d53d de2e e43d d973 083d
000003f0: 6170 0180 71d7 0180 d1f6 0080 1bd5 0180

model.features.init_block.bn.weight f4 [172]
0.19655488 1.79726e-40 0.25027102 0.4594001 0.1242688 -3.1962e-41 0.21676983 0.17890926
1.2372631e-30 0.36362535 0.37196234 0.15131305 0.18804936 0.22652112 -0.0011478154 0.30317593
7.637e-41 0.32153413 0.34082797 0.20372824 4.5084e-41 0.30899438 -5.8709e-41 0.24116814
0.19089739 7.652746e-13 0.17863156 0.29954845 -1.86713e-40 0.23097898 -5.1957e-41 0.22265436
0.24812311 0.26874104 3.84e-42 0.12052241 1.9673e-41 0.28280815 -1.0927e-40 0.10045553
0.2822922 0.11025314 0.26500037 0.1753481 0.026743438 0.21518268 -1.6061489e-20 0.21183965
0.1493866 0.3161686 3.9417e-41 0.1370886 0.16814283 0.19331369 0.1531095 0.41030872
-1.26662e-40 0.17590593 0.2615053 0.3662459 0.39513096 0.21345386 0.38707057 0.437687
5.72878e-12 9.1777e-41 8.7476e-41 0.34006146 0.19830835 0.09571931 0.25958905 -1.6923821e-05
0.21522978 -6.624e-41 -1.0415e-40 0.21042228 0.010467648 5.2364e-41 0.094396986 0.17846642
0.2709293 -4.3068e-41 0.12892938 -5.691e-41 0.3018395 0.32092223 0.30386668 -6.8148e-41
0.19283365 3.4979e-41 0.18750513 0.060711987 0.11970405 0.31291232 -8.4197e-41 0.43477646
0.23923796 0.26229772 1.9777033e-17 0.2809457 7.5076e-41 0.10103405 0.31409198 0.16585633
-1.14963e-40 0.21548119 0.19535881 0.12804735 -1.08666e-40 0.20766057 0.18845692 7.6315e-41
4.6497145e-14 7.8628e-41 0.28175256 0.037272092 0.16260615 0.17663524 0.4018067 0.21860811
0.10185147 0.18226388 0.1281473 0.005827138 0.17555623 0.29633325 0.15181485 9.5953e-41
0.24522424 0.25963232 0.2509358 0.07767138 3.8775e-41 0.18862973 0.16069803 0.13226494
0.14649738 -6.467e-42 0.19430757 0.112010196 0.23466125 0.26615685 0.22897445 0.08335741
0.20451838 6.7177e-41 0.20737189 0.19943589 -1.51821e-40 0.37354144 4.1378e-41 0.25874814
0.18992662 0.017967254 0.29001433 0.15220146 0.21627909 0.10210007 0.115993455 -4.88e-41
0.16485882 0.17419688 0.23438925 1.04052e-40 0.20650527 0.22520146 -7.7678e-41 0.18726805
-4.6215e-41 0.16434462 0.23634653 0.11062122
00000000: af45 493e 01f5 0100 8623 803e 7d36 eb3e
00000010: a480 fe3d 1959 0080 e9f8 5d3e fd33 373e
00000020: e6c1 c80d 1a2d ba3e d971 be3e cff1 1a3e
00000030: 0390 403e 27f5 673e 4b72 96ba e039 9b3e
00000040: e3d4 0000 1fa0 a43e 0181 ae3e 239e 503e
00000050: ad7d 0000 8334 9e3e a8a3 0080 c8f4 763e
00000060: 9b7a 433e d967 572b 31eb 363e 6a5e 993e
00000070: 7b08 0280 c185 6c3e d690 0080 81ff 633e
00000080: fc13 7e3e 6d98 893e b40a 0000 74d4 f63d
00000090: d736 0000 3bcc 903e 9a30 0180 a1bb cd3d
000000a0: 9a88 903e 66cc e13d 21ae 873e 748e 333e
000000b0: 0e15 db3c d958 5c3e 4cb2 979e 7eec 583e
000000c0: cdf8 183e dae0 a13e e16d 0000 f460 0c3e
000000d0: a22d 2c3e 06f4 453e bdc8 1c3e fc13 d23e
000000e0: 1561 0180 af20 343e 06e4 853e 9584 bb3e
000000f0: 9b4e ca3e a693 5a3e 1d2e c63e 8318 e03e
00000100: 4390 c92c d6ff 0000 d9f3 0000 891c ae3e
00000110: 5811 4b3e 7c08 c43d dbe8 843e a1f7 8db7
00000120: 3265 5c3e a6b8 0080 5422 0180 f078 573e
00000130: 7f80 2b3c f891 0000 3553 c13d e7bf 363e
00000140: 3fb7 8a3e 0e78 0080 1006 043e a49e 0080
00000150: b58a 9a3e eb4f a43e 6a94 9b3e f8bd 0080
00000160: 2f76 453e 8261 0000 5801 403e 22ad 783d
00000170: 6627 f53d 0b36 a03e b5ea 0080 059b de3e
00000180: ccfa 743e e34b 863e 3369 b623 1dd8 8f3e
00000190: 48d1 0000 f1ea ce3d aad0 a03e 3ed6 293e
000001a0: 7840 0180 1aa7 5c3e 240c 483e d81e 033e
000001b0: eb2e 0180 f9a4 543e dafa 403e bcd4 0000
000001c0: 8f67 5129 2fdb 0000 df41 903e 9faa 183d
000001d0: 3a82 263e dedf 343e 9cb9 cd3e ceda 5f3e
000001e0: 8197 d03d 62a3 3a3e 0c39 033e 94f1 be3b
000001f0: 03c5 333e feb8 973e 5a75 1b3e 7a0b 0100
00000200: 101c 7b3e 87ee 843e a87a 803e 2c12 9f3d
00000210: 176c 0000 2728 413e 068e 243e 7670 073e
00000220: 6903 163e 0712 0080 90f8 463e 9a65 e53d
00000230: 0a4b 703e b645 883e 4778 6a3e 4ab7 aa3d
00000240: 446d 513e 43bb 0000 4c59 543e ec38 4c3e
00000250: 37a7 0180 d340 bf3e 5873 0000 a37a 843e
00000260: 207c 423e 1030 933c c27c 943e b3da 1b3e
00000270: 4478 5d3e d719 d13d fa8d ed3d 0988 0080
00000280: c0d0 283e ab60 323e bc03 703e 0e22 0100
00000290: 1e76 533e 369b 663e 89d8 0080 32c3 3f3e
000002a0: d480 0080 f549 283e d304 723e 618d e23d

model.features.init_block.bn.bias f4 [172]
-0.123938136 3.4839e-41 -0.030331576 -0.020143477 -0.035898533 -1.1145e-41 0.12834622 -0.100319825
-4.333902e-39 0.01779252 -0.21249115 0.15752426 0.13203993 -0.07118979 0.23079355 -0.1694463
3.9243e-41 -0.218952 -0.2285694 0.19967324 1.61233e-40 0.012967119 -5.9911e-41 -0.15718387
-0.0043706945 -4.9267184e-15 -0.068055816 -0.108509205 8.1791e-41 0.13418686 -1.04802e-40 0.16747242
-0.09853184 -0.09546869 2.569e-42 0.17150256 5.565e-42 -0.10532149 1.60457e-40 0.14431758
-0.0984246 -0.06617502 -0.027595712 0.101776786 -0.020832865 -0.10710023 -1.374007e-16 -0.07123544
0.091887765 0.06207204 -5.2928e-41 -0.18379217 -0.26724696 0.058860276 -0.04872351 -0.32565948
-7.3277e-41 0.101768024 -0.109446414 0.007976727 -0.29839227 0.088683635 -0.2466908 -0.30292165
-1.6058237e-10 8.3117e-41 7.0327e-41 0.09532228 -0.0063823857 0.12775736 -0.0317019 9.406114e-13
0.0006096432 4.4465e-41 -1.10696e-40 -0.04390133 -0.0138132125 9.2874e-41 0.16278571 -0.050495278
-0.024163112 8.0272e-41 0.080833934 -8.1868e-41 -0.095366515 -0.20094842 -0.12548675 -1.9202e-41
-0.012722879 -6.835e-41 -0.006770118 -0.07875296 0.1575791 -0.19637954 7.8352e-41 -0.31490535
-0.048474472 -0.095532715 1.084912e-39 0.12740307 -6.412e-41 0.18531455 -0.027896585 -0.123563655
1.6622e-41 0.036796257 -0.22859168 0.009638295 -7.4483e-41 0.15692776 0.06381279 -3.45e-42
-1.9877528e-11 6.7356e-41 -0.18334188 -0.08112417 -0.19404267 0.09020653 -0.30266976 -0.041072454
0.09239111 0.15729067 0.10733386 0.004551579 -0.0056531243 0.17921457 0.0865252 -1.00929e-40
-0.10004328 -0.0524201 0.001402344 -0.0016635845 -1.6764e-40 0.068423435 -0.06500934 0.18878041
0.1459593 -1.17944e-40 -0.11576901 0.14183128 0.058149815 -0.16171817 -0.012517136 0.2158093
0.05117454 4.7559e-41 -0.091320634 0.007893096 -1.61114e-40 -0.22265233 6.1926e-41 0.08520856
-0.13418385 -0.10920411 0.14627431 -0.0373939 -0.051229734 -0.11200722 -0.1201786 -8.178e-42
0.12048626 0.0909496 -0.11194669 7.7705e-41 -0.005396316 0.012110362 -9.6599e-41 0.1940255
-1.64724e-40 0.052776568 -0.16138422 -0.008432118
00000000: 47d3 fdbd 1e61 0000 ed79 f8bc ef03 a5bc
00000010: 570a 13bd 111f 0080 316d 033e 7b74 cdbd
00000020: 2831 2f80 9ec1 913c 4897 59be 0a4e 213e
00000030: 7a35 073e f4cb 91bd 2555 6c3e 5583 2dbe
00000040: 656d 0000 f434 60be 190e 6abe 2477 4c3e
00000050: 74c1 0100 0a74 543c 02a7 0080 cff4 20be
00000060: 0b38 8fbb f580 b1a7 d960 8bbd 133a debd
00000070: 00e4 0000 4868 093e 2524 0180 e47d 2b3e
00000080: 10cb c9bd 1785 c3bd 2907 0000 5e9e 2f3e
00000090: 830f 0000 cbb2 d7bd 4abf 0100 fdc7 133e
000000a0: d692 c9bd c586 87bd 6710 e2bc 5970 d03d
000000b0: afa9 aabc 5e57 dbbd 8769 1ea5 e3e3 91bd
000000c0: a72f bc3d 403f 7e3d 8b93 0080 0434 3cbe
000000d0: 98d4 88be 7917 713d 4e92 47bd d7bc a6be
000000e0: 44cc 0080 c16b d03d 7125 e0bd d1b0 023c
000000f0: dfc6 98be c49f b53d 839c 7cbe 8c18 9bbe
00000100: eb8f 30af b2e7 0000 0bc4 0000 5438 c33d
00000110: 5523 d1bb d3d2 023e dad9 01bd 1961 842b
00000120: 76d0 1f3a f37b 0000 9334 0180 e2d1 33bd
00000130: d050 62bc e502 0100 4cb1 263e 23d4 4ebd
00000140: b8f1 c5bc c4df 0000 438c a53d 37e4 0080
00000150: 854f c3bd 6cc5 4dbe 997f 00be 8735 0080
00000160: 9f73 50bc 88be 0080 ded7 ddbb 3b49 a1bd
00000170: 6a5c 213e b817 49be 6ada 0000 463b a1be
00000180: 2b8d 46bd a8a6 c3bd 4bd0 0b00 f375 023e
00000190: beb2 0080 19c3 3d3e 6187 e4bc f10e fdbd
000001a0: 562e 0000 acb7 163d f013 6abe f0e9 1d3c
000001b0: a1cf 0080 acb1 203e 48b0 823d 9e09 0080
000001c0: 37d8 aead c3bb 0000 f9bd 3bbe 6e24 a6bd
000001d0: 1fb3 46be 34be b83d 88f7 9abe 973b 28bd
000001e0: 8d37 bd3d ce10 213e dbd1 db3d 6925 953b
000001f0: d83d b9bb 0684 373e 2034 b13d 5919 0180
00000200: 7ee3 ccbd 75b6 56bd dbce b73a a20c daba
00000210: 50d3 0180 9621 8c3d 9e23 85bd a74f 413e
00000220: 5b76 153e c848 0180 4d18 edbd 383c 113e
00000230: 802e 6e3d 7399 25be ac14 4dbc 1dfd 5c3e
00000240: 659c 513d 9384 0000 5006 bbbd 0b52 013c
00000250: 1fc1 0180 f9fe 63be a0ac 0000 d381 ae3d
00000260: 7e67 09be 68a6 dfbd efc8 153e 592a 19bd
00000270: 45d6 51bd 0b64 e5bd 3320 f6bd cc16 0080
00000280: 80c1 f63d c943 ba3d 4e44 e5bd 9cd8 0000
00000290: 94d3 b0bb 8a6a 463c 470d 0180 9fae 463e
000002a0: 2fcb 0180 3e2c 583d e841 25be de26 0abc

model.features.init_block.bn.running_mean f4 [172]
0.014310513 4.1207e-41 0.0022197205 0.00050485285 0.15058836 1.17593e-40 0.53733885 -0.23330003
-1.1893e-41 -0.010629536 -0.39841223 -0.00322272 0.40994835 -0.22693618 -0.16826916 -0.37726557
-3.5178e-41 -0.58367234 -0.4969212 0.5996697 -2.7206e-41 0.012649821 2.5543e-41 0.54669404
0.008454792 1.227934e-22 -0.013483308 -0.36263567 -3.6344e-41 0.015438439 -5.5441e-41 0.023508588
-0.1080263 -0.44351444 6.38e-42 0.033060428 1.452e-42 -0.35097745 1.4673e-41 0.18303171
-0.23331115 -0.013893049 0.023244692 0.073555976 -0.003520144 -0.1782895 5.4326175e-17 0.028721893
0.019931559 0.0032006686 5.6142e-41 0.042295158 0.5497786 0.009203358 -0.015360294 -0.3627208
-7.3251e-41 -0.23537867 -0.36442608 0.0069304304 -0.24257095 -0.016514527 -0.4083314 -0.7406733
-1.1130375e-12 1.228e-42 3.0471e-41 -0.0071944334 0.30673164 0.25108162 -0.44861472 -8.8205655e-07
-0.35559943 3.3966e-41 -6.324e-42 -0.08069149 0.00014970067 1.21781e-40 0.32439744 0.04015266
0.54281116 4.2992e-41 0.018295102 -3.19e-42 -0.14240846 -0.61959463 -0.46695048 4.053e-42
0.420454 -2.0366e-41 0.36249137 -0.15654734 0.003664589 -0.14349641 -1.5278e-41 -0.45828715
-0.015415601 -0.322869 -5.5300446e-19 0.01794643 -7.4486e-41 0.23225334 0.016543414 0.25277606
-4.2078e-41 0.024915515 -0.2151326 0.12532082 8.085e-42 0.04417329 0.012488983 -8.775e-42
-6.7948126e-11 4.2569e-41 -0.27925488 -0.026151406 0.1309122 0.008265846 -0.6240246 -0.36185244
0.017935354 -0.016346097 0.006077692 0.00033652072 0.02293887 0.0014108892 0.013803315 -1.3862e-41
-0.24963589 -0.06741272 -0.26752567 0.07665035 5.164e-41 0.021230374 -0.119235545 0.016308336
-0.015566065 -2.2502e-41 -0.20580119 0.036012836 0.03783734 -0.25513265 0.03537167 0.26017323
0.022406252 -2.6556e-41 -0.13171874 -0.23092064 -2.2456e-41 -0.6894091 -1.2613e-41 0.38043773
0.3605461 0.015699629 -0.001299006 -0.15526049 -0.21478108 -0.04695919 0.294468 3.5076e-41
-0.008883533 0.0035496238 -0.46867108 7.7398e-41 -0.218777 0.045685392 1.1607e-41 -0.0088770185
-2.4928e-41 0.0009284602 -0.09433727 -0.13125065
00000000: a476 6a3c de72 0000 bb78 113b 1a58 043a
00000010: d633 1a3e cd47 0100 0a8f 093f 34e6 6ebe
00000020: 2721 0080 8127 2ebc b0fc cbbe 4534 53bb
00000030: c0e4 d13e f561 68be c04e 2cbe f428 c1be
00000040: 1062 0080 8d6b 15bf 756c febe f483 193f
00000050: d74b 0080 3241 4f3c 3447 0000 24f4 0b3f
00000060: f885 0a3c b772 141b 18e9 5cbc 62ab b9be
00000070: 5065 0080 82f1 7c3c 8c9a 0080 1595 c03c
00000080: e53c ddbd 5314 e3be c911 0000 5f6a 073d
00000090: 0c04 0000 51b3 b3be e728 0000 aa6c 3b3e
000000a0: 1ee9 6ebe ac9f 63bc a76b be3c 84a4 963d
000000b0: 37b2 66bb 8691 36be 0789 7a24 2d4a eb3c
000000c0: 8247 a33c 4fc2 513b 809c 0000 b03d 2d3d
000000d0: 4abe 0c3f aec9 163c bea9 7bbc 8ab6 b9be
000000e0: 32cc 0080 1b07 71be 0e96 babe aa18 e33b
000000f0: 8564 78be 7949 87bc d010 d1be c49c 3dbf
00000100: 67a5 9cab 6c03 0000 f154 0000 48bf ebbb
00000110: ee0b 9d3e c58d 803e d4b0 e5be 77c6 6cb5
00000120: 2111 b6be af5e 0000 a111 0080 9441 a5bd
00000130: f8f8 1c39 7a53 0100 6c17 a63e 1e77 243d
00000140: acf5 0a3f d877 0000 9cdf 953c e408 0080
00000150: 86d3 11be c19d 1ebf 2214 efbe 4c0b 0000
00000160: bf45 d73e c638 0080 7898 b93e f24d 20be
00000170: 9a29 703b b9f0 12be 972a 0080 9da4 eabe
00000180: b891 7cbc 164f a5be d637 23a1 6404 933c
00000190: a3cf 0080 d2d3 6d3e 0e86 873c dd6b 813e
000001a0: 4c75 0080 9f1b cc3c b84b 5cbe 1a54 003e
000001b0: 8a16 0000 0def 343d 979e 4c3c 7618 0080
000001c0: 656b 95ae aa76 0000 7ffa 8ebe 793b d6bc
000001d0: d90d 063e 796d 073c 14c0 1fbf b944 b9be
000001e0: 2aed 923c 40e8 85bc 6027 c73b 0c6f b039
000001f0: 4cea bb3c 96ed b83a 4d27 623c a426 0080
00000200: 8da0 7fbe ae0f 8abd 20f9 88be dcfa 9c3d
00000210: f48f 0000 52eb ad3c c431 f4bd 0f99 853c
00000220: cf08 7fbc ba3e 0080 8cbd 52be 3282 133d
00000230: 54fb 1a3d bfa0 82be e2e1 103d 6d35 853e
00000240: 518d b73c 074a 0080 47e1 06be 7676 6cbe
00000250: 993e 0080 1d7d 30bf 2923 0080 bcc8 c23e
00000260: 8099 b83e 829c 803c 6943 aaba 9bfc 1ebe
00000270: 92ef 5bbe 4858 40bd 82c4 963e c761 0000
00000280: 3d8c 11bc cea0 683b a8f5 efbe c1d7 0000
00000290: 1407 60be 9b20 3b3d 5b20 0000 ea70 11bc
000002a0: 7d45 0080 e963 733a e633 c1bd 9266 06be

model.features.init_block.bn.running_var f4 [172]
0.021593222 6e-45 0.06670069 0.16759954 0.19893672 6e-45 1.3502018 0.4366935
6e-45 0.11617619 0.961354 0.08617058 0.83273435 0.29889727 0.13975094 0.8132431
6e-45 1.8622072 1.3219374 1.7179807 6e-45 0.3157216 6e-45 1.4409344
0.11425837 1.12e-43 0.02781053 0.7368524 6e-45 0.21300705 6e-45 0.12949787
0.18577413 1.03504 6e-45 0.11042908 6e-45 0.68413126 6e-45 0.18210271
0.41406643 0.08375167 0.16949329 0.08273153 6.881574e-05 0.24827299 1.5046441e-32 0.08963289
0.0752322 0.38500696 6e-45 0.03959335 1.6058856 0.20966685 0.031227523 0.79885304
6e-45 0.2739537 0.81596243 0.28434473 0.3546658 0.12996203 0.9516902 2.9422333
6.653085e-24 6e-45 6e-45 0.49888036 0.44483358 0.31805426 1.1037868 4.157604e-12
0.6517923 6e-45 6e-45 0.1656456 1.0666369e-07 6e-45 0.5320046 0.163391
1.4657085 6e-45 0.040221434 6e-45 0.26223156 2.2378767 1.1856928 6e-45
0.80056584 6e-45 0.7130723 0.1215837 0.02813708 0.16280662 6e-45 1.1147991
0.24556205 0.5922069 1.7207585e-36 0.2035728 6e-45 0.29405317 0.15302418 0.29075938
6e-45 0.24607122 0.27738068 0.15109812 6e-45 0.17990613 0.24047194 6e-45
2.7382573e-20 6e-45 0.5060828 0.004092078 0.18893197 0.050217446 2.0399058 0.7451517
0.06832345 0.13791731 0.06275031 9.341099e-07 0.072157644 0.18262768 0.17262262 6e-45
0.29034224 0.27398586 0.45409548 0.04537444 6e-45 0.1006076 0.11881018 0.05893254
0.105115466 6e-45 0.28504014 0.05681233 0.16509885 0.39853457 0.09528348 0.36232343
0.14392821 6e-45 0.1680742 0.33214188 6e-45 2.5955532 6e-45 0.7584055
0.66644096 0.010139332 0.16525774 0.13324583 0.3016466 0.050005645 0.49508035 6e-45
0.09422933 0.09506139 1.1708298 6e-45 0.32556614 0.14415415 6e-45 0.10438611
6e-45 0.09863548 0.09048787 0.11414118
00000000: 45e4 b03c 0400 0000 5f9a 883d 379f 2b3e
00000010: 11b6 4b3e 0400 0000 6ad3 ac3f 4a96 df3e
00000020: 0400 0000 c8ed ed3d 4c1b 763f 337a b03d
00000030: 142e 553f 1009 993e df1a 0f3e b330 503f
00000040: 0400 0000 ce5c ee3f 3f35 a93f cbe6 db3f
00000050: 0400 0000 43a6 a13e 0400 0000 8a70 b83f
00000060: 4b00 ea3d 5000 0000 e9d2 e33c 5ca2 3c3f
00000070: 0400 0000 851e 5a3e 0400 0000 179b 043e
00000080: 933b 3e3e 317c 843f 0400 0000 a428 e23d
00000090: 0400 0000 3a23 2f3f 0400 0000 2279 3a3e
000000a0: 8400 d43e ff85 ab3d a68f 2d3e 266f a93d
000000b0: 2b51 9038 463b 7e3e 4d40 9c0a 7391 b73d
000000c0: 5713 9a3d a21f c53e 0400 0000 a32c 223d
000000d0: a98d cd3f e8b2 563e ddd0 ff3c a281 4c3f
000000e0: 0400 0000 a943 8c3e eae2 503f a295 913e
000000f0: c196 b53e c414 053e f8a1 733f 8d4d 3c40
00000100: 7bb0 0019 0400 0000 0400 0000 3f6d ff3e
00000110: 3ac1 e33e 02d8 a23e e348 8d3f 5e48 922c
00000120: dcdb 263f 0400 0000 0400 0000 009f 293e
00000130: fc0e e533 0400 0000 7431 083f f84f 273e
00000140: 569c bb3f 0400 0000 3bbf 243d 0400 0000
00000150: 3743 863e 5f39 0f40 c8c4 973f 0400 0000
00000160: e2f1 4c3f 0400 0000 e88b 363f e000 f93d
00000170: bc7f e63c c7b6 263e 0400 0000 bdb1 8e3f
00000180: 9e74 7b3e df9a 173f cd62 1204 6375 503e
00000190: 0400 0000 238e 963e 5fb2 1c3e 6ade 943e
000001a0: 0400 0000 18fa 7b3e d704 8e3e 77b9 1a3e
000001b0: 0400 0000 5039 383e 473e 763e 0400 0000
000001c0: 804f 011f 0400 0000 a48e 013f d716 863b
000001d0: 6277 413e cfb0 4d3d d18d 0240 43c2 3e3f
000001e0: 2aed 8b3d 323a 0d3e 3c83 803d 8bbf 7a35
000001f0: 63c7 933d c002 3b3e fcc3 303e 0400 0000
00000200: bda7 943e e047 8c3e 347f e83e 8cda 393d
00000210: 0400 0000 5b0b ce3d c052 f33d 3f63 713d
00000220: c746 d73d 0400 0000 c8f0 913e 0cb4 683d
00000230: ac0f 293e b90c cc3e fc23 c33d 7582 b93e
00000240: eb61 133e 0400 0000 a51b 2c3e 800e aa3e
00000250: 0400 0000 8b1d 2640 0400 0000 dd26 423f
00000260: e09b 2a3f 711f 263c 5339 293e 9871 083e
00000270: 6c71 9a3e b8d2 4c3d 2c7b fd3e 0400 0000
00000280: 4ffb c03d 8caf c23d c0dd 953f 0400 0000
00000290: 9bb0 a63e 259d 133e 0400 0000 63c8 d53d
000002a0: 0400 0000 6601 ca3d b451 b93d dac2 e93d

model.features.stage1.unit1.dw_conv.conv.weight f4 [172, 1, 3, 3]
0.123655155 0.18175942 0.061075695 0.2506886 0.25899264 0.1660277 0.08756664 0.18729658
0.11617871 -1.6469e-40 1.11807e-40 -1.15985e-40 4.417e-42 1.11835e-40 -1.82146e-40 -1.77232e-40
-7.9727e-41 9.573e-41 -0.010936995 0.099832796 0.08373316 -0.019100193 0.22383301 0.27758333
0.113726795 0.263426 0.15428597 0.0849423 0.34824324 0.30019215 0.10562711 0.5306138
0.37098375 0.16872813 0.28506026 0.08224313 0.076548174 0.16079175 0.09087328 0.054900263
0.07585263 -0.08391689 -0.0367207 0.055991124 -0.25586244 -5.7989e-41 1.53138e-40 1.75091e-40
6.0668e-41 -1.25853e-40 1.10298e-40 -7.1049e-41 1.13808e-40 -1.59398e-40 0.2916639 0.6165861
0.103987165 0.017933398 -0.13105302 0.079648525 -0.323419 -0.27831024 -0.29886082 -0.07209974
0.18581651 0.024612546 0.12241923 0.15146787 0.3421123 -0.07813545 -0.44115365 -0.31663948
4.586e-41 6.6213e-41 5.6624e-41 6.4795e-41 6.6231e-41 2.9558e-41 3.7905e-41 5.5438e-41
5.3317e-41 -0.0961848 -0.17986329 -0.11100473 -0.20966448 -0.20676504 -0.14100507 -0.08076096
-0.18234052 -0.025271805 0.33590552 0.23248008 -0.47761083 0.11286457 0.19525385 0.21875526
-0.24104913 -0.16603577 0.21308428 -0.20131893 0.4500075 -0.27404281 0.333119 -0.21130459
-0.13140006 -0.014420594 -0.264586 0.24522756 -0.27065182 -0.18014728 -0.4702741 0.052513134
0.059970774 -0.01764659 0.46592394 0.06749541 0.14713976 -0.2452829 -0.20661454 0.08558936
0.18139265 0.14380832 0.07155527 0.09718119 0.0294853 -0.19583952 -0.18653286 0.057362672
-0.020031128 -0.16129626 0.05716718 0.073874734 -0.16335948 0.047582272 0.071997344 -0.21480624
-0.0020529234 0.28339988 -0.08451226 -0.112507254 0.22281513 0.3426424 -0.084899 -0.34718233
8.7326e-41 -9.6209e-41 -6.213e-42 3.514e-41 5.6945e-41 -2.9876e-41 9.324e-42 -3.838e-42
7.2018e-41 -0.24332802 -0.11416455 0.1315763 -0.14374736 0.20829853 0.14792286 0.17963387
0.4211186 0.33773655 0.24497329 0.51098406 0.104077324 0.0050586984 -0.22086011 0.042264964
-0.27109405 -0.26003057 -0.19869244 0.101045564 0.38715023 -0.26889572 0.42662907 0.227694
-0.5706352 0.3322538 -0.28216484 -0.4080496 -1.05549e-40 1.44021e-40 -1.75394e-40 -1.61823e-40
-7.9417e-41 -1.518e-40 -1.74614e-40 -9.5989e-41 1.21505e-40 -0.07545553 0.32292318 0.20684856
0.33954468 0.35256115 -0.10107919 -0.2603833 -0.5922604 -0.2915176 -6.4186e-41 -4.3834e-41
-6.2176e-41 -4.8143e-41 -2.5581e-41 3.9885e-41 -3.8044e-41 -4.9396e-41 2.5223e-41 -0.2121407
-0.024462705 -0.52416134 0.67715734 -0.088447295 -0.026409771 0.5484998 -0.10979551 -0.05216253
-0.016915029 -0.1942909 -0.15503944 -0.15778455 -0.09795939 -0.19116628 0.09424742 0.09124143
0.18794933 -5.444e-41 -2.36e-42 2.7296519e-31 -8.349e-42 1.087e-41 8.056e-42 7.1560983e-31
1.9906698e-30 9.4116844e-29 -0.11427448 -0.16824794 0.022360925 0.07334887 -0.021721346 -0.08090453
0.21484676 0.2585932 0.14305721 -0.119461685 0.1645737 0.23450625 -0.26392794 0.107573725
0.31598642 -0.15833431 -0.26939228 -0.19665031 -3.614e-41 1.56783e-40 1.71792e-40 -1.15614e-40
00000000: ea3e fd3d 241f 3a3e 822a 7a3d 425a 803e
00000010: af9a 843e 2a03 2a3e 2356 b33d adca 3f3e
00000020: 1aef ed3d 17cb 0180 ac37 0100 5243 0180
00000030: 500c 0000 c037 0100 c0fb 0180 0dee 0180
00000040: 3fde 0080 db0a 0100 1531 33bc 2375 cc3d
00000050: 4a7c ab3d 0278 9cbc 7b34 653e 671f 8e3e
00000060: 98e9 e83d c6df 863e 24fd 1d3e 3bf6 ad3d
00000070: f04c b23e c9b2 993e 0753 d83d 4ed6 073f
00000080: 95f1 bd3e 11c7 2c3e 6bf3 913e 166f a83d
00000090: 4ac5 9c3d 98a6 243e c51b ba3d 19df 603d
000000a0: a058 9b3d 9edc abbd 7268 16bd f356 653d
000000b0: 6700 83be a6a1 0080 e3aa 0100 15e8 0100
000000c0: 1ea9 0000 d45e 0180 7733 0100 0ec6 0080
000000d0: 403d 0100 56bc 0180 f854 953e 96d8 1d3f
000000e0: 39f7 d43d 10e9 923c c332 06be c41e a33d
000000f0: 2d97 a5be ae7e 8ebe 4904 99be 07a9 93bd
00000100: af46 3e3e 40a0 c93c efb6 fa3d 651a 1b3e
00000110: 5829 af3e 7b05 a0bd e4de e1be 921e a2be
00000120: d77f 0000 93b8 0000 d89d 0000 9fb4 0000
00000130: a0b8 0000 6552 0000 aa69 0000 8a9a 0000
00000140: a094 0000 89fc c4bd 152e 38be 7356 e3bd
00000150: 49b2 56be 37ba 53be a263 10be 0166 a5bd
00000160: 79b7 3abe d106 cfbc cffb ab3e 420f 6e3e
00000170: 6889 f4be 8a25 e73d a0f0 473e 6101 603e
00000180: 95d5 76be 4805 2abe c432 5a3e 8d26 4ebe
00000190: 6267 e63e 574f 8cbe 938e aa3e 3b60 58be
000001a0: bd8d 06be 5b44 6cbc d177 87be ef1c 7b3e
000001b0: e092 8abe 8778 38be c4c7 f0be 0318 573d
000001c0: eaa3 753d 958f 90bc 958d ee3e 093b 8a3d
000001d0: ceab 163e 712b 7bbe c392 53be 7949 af3d
000001e0: ffbe 393e 7d42 133e 928b 923d ef06 c73d
000001f0: 288b f13c 288a 48be 7802 3fbe 1ff5 6a3d
00000200: 5218 a4bc d92a 25be 2228 6a3d a34b 973d
00000210: b547 27be a1e5 423d 5873 933d 2bf6 5bbe
00000220: 578a 06bb ca19 913e c414 adbd 346a e6bd
00000230: a629 643e d36e af3e 87df adbd e2c1 b1be
00000240: 6ef3 0000 310c 0180 5211 0080 f561 0000
00000250: bd9e 0000 4853 0080 fe19 0000 b30a 0080
00000260: c2c8 0000 fb2a 79be 1bcf e9bd f0bb 063e
00000270: 8232 13be 364c 553e 1779 173e f1f1 373e
00000280: db9c d73e ceeb ac3e 47da 7a3e dacf 023f
00000290: 7e26 d53d 70c3 a53b 2729 62be 071e 2d3d
000002a0: d7cc 8abe ba22 85be 0876 4bbe faf0 ce3d
000002b0: 8e38 c63e b3ac 89be 206f da3e 9e28 693e
000002c0: 2615 12bf 2c1d aa3e e977 90be e1eb d0be
000002d0: 3a26 0180 7991 0100 ede8 0180 19c3 0180
000002e0: 62dd 0080 28a7 0180 c1e6 0180 940b 0180
000002f0: b552 0100 6e88 9abd 3056 a53e 1cd0 533e
00000300: cdd8 ad3e e582 b43e 9b02 cfbd f650 85be
00000310: 619e 17bf cb41 95be edb2 0080 317a 0080
00000320: 52ad 0080 3486 0080 4f47 0080 2f6f 0000
00000330: 0d6a 0080 b289 0080 5046 0000 693b 59be
00000340: 0366 c8bc 702f 06bf 2f5a 2d3f db23 b5bd
00000350: 4e59 d8bc 7c6a 0c3f 78dc e0bd 61a8 55bd
00000360: 6391 8abc 32f4 46be a9c2 1ebe 4692 21be
00000370: ef9e c8bd 18c1 43be cb04 c13d c9dc ba3d
00000380: ca75 403e c297 0080 9406 0080 1f2a b10c
00000390: 4617 0080 4d1e 0000 7516 0000 8a3a 680d
000003a0: 9880 210e 539d ee10 bd08 eabd 3049 2cbe
000003b0: 422e b73c ef37 963d f7f0 b1bc 46b1 a5bd
000003c0: ca00 5c3e 5466 843e 977d 123e 54a8 f4bd
000003d0: 0286 283e 6822 703e 9021 87be 9d4f dc3d
000003e0: f9c8 a13e 6422 22be c9ed 89be b35e 49be
000003f0: be64 0080 0cb5 0100 e3de 0100 4942 0180

model.features.stage1.unit1.dw_conv.bn.weight f4 [172]
0.33418828 1.15922e-40 0.32236344 0.7146458 0.20902032 7.5932e-41 0.7198696 0.38521162
4.357746e-22 0.71667004 0.59755725 0.5372057 0.45514432 0.27950713 0.4329356 0.37152016
-6.7149e-41 0.79698724 0.6867064 0.72932684 1.34243e-40 0.680196 6.918e-42 0.4390799
0.3003668 3.5304893e-33 0.3078152 0.50338167 -3.202e-42 0.93800217 4.8419e-41 0.7264698
0.35904583 0.41221687 -1.06324e-40 0.38358578 2.214e-42 0.40005708 -1.16697e-40 0.1500207
0.30355585 0.17142573 0.50267327 0.45939323 0.0133738145 0.27494973 1.204379e-12 0.33076006
0.4164307 0.72977585 -2.5257e-41 0.25280285 0.43473598 0.477819 0.3152917 0.39901313
-7.4915e-41 0.20186913 0.44746664 0.93075126 0.29888615 0.47793627 0.66811436 0.82523453
5.661639e-07 7.7688e-41 -1.1214e-40 1.1226169 0.4576064 0.366666 0.5679187 0.0028911317
0.36422837 3.3722e-41 -2.407e-42 0.37257704 0.0005603564 -4.6197e-41 0.24244574 0.3057364
0.6682772 3.3529e-41 0.33927196 1.8067e-41 0.28760114 0.7486108 0.44967398 -1.21047e-40
0.36462688 -3.308e-42 0.36876842 0.12765747 0.44342422 0.3720255 1.34082e-40 0.51192576
0.5150173 0.26266232 2.732746e-07 0.7810897 6.632e-42 0.22000958 0.47181344 0.24482119
-1.68578e-40 0.42143878 0.21973869 0.24135222 8.0252e-41 0.67001027 0.39255843 -1.18271e-40
7.251416e-05 1.14188e-40 0.47184682 0.029760415 0.37586272 0.37886912 0.64915377 0.50133246
0.21442105 0.5419394 0.22676589 0.016659211 0.30506146 0.8532384 0.31874582 -1.29886e-40
0.28389272 0.47197068 0.5205138 0.091298975 1.5326e-41 0.40188584 0.2585681 0.54016536
0.25013867 -2.8617e-41 0.2940522 0.28507808 0.6178391 0.32115558 0.4677328 0.32135123
0.2971723 4.469151e-12 0.26195928 0.37399083 -3.239e-41 0.6971268 2.957711e-32 0.45561257
0.4306511 0.11853107 0.7810545 0.119334444 0.318839 0.12952465 0.22651888 -5.1984e-41
0.59355444 0.42505947 0.4986277 -3.9278e-41 0.40175405 0.48463428 2.6992e-41 0.7687943
-5.1393e-41 0.48003706 0.32139218 0.122924134
00000000: ba1a ab3e 2543 0100 d20c a53e 07f3 363f
00000010: 6c09 563e abd3 0000 6049 383f 753a c53e
00000020: 6db4 031c b077 373f 83f9 183f 5086 093f
00000030: ad08 e93e 8f1b 8f3e bca9 dd3e e437 be3e
00000040: 2fbb 0080 5b07 4c3f fecb 2f3f 2ab5 3a3f
00000050: 3776 0100 5321 2e3f 4913 0000 15cf e03e
00000060: adc9 993e 9aa6 9209 f499 9d3e 9fdd 003f
00000070: ed08 0080 e920 703f f986 0000 edf9 393f
00000080: dbd4 b73e 170e d33e 6328 0180 5b65 c43e
00000090: 2c06 0000 48d4 cc3e 4e45 0180 079f 193e
000000a0: ac6b 9b3e 3a8a 2f3e 32af 003f 9735 eb3e
000000b0: d81d 5b3c 36c6 8c3e 5480 a92b 6259 a93e
000000c0: 6836 d53e 97d2 3a3f 6846 0080 606f 813e
000000d0: b795 de3e b1a4 f43e ea6d a13e 734b cc3e
000000e0: d5d0 0080 c8b6 4e3e 591a e53e b745 6e3f
000000f0: 9b07 993e 10b4 f43e 8b09 2b3f 9242 533f
00000100: 7dfa 1735 90d8 0000 9a38 0180 e9b1 8f3f
00000110: 634b ea3e a5bb bb3e 1f63 113f 2479 3d3b
00000120: 247c ba3e 015e 0000 b606 0080 6bc2 be3e
00000130: e2e4 123a c780 0080 b243 783e 7b89 9c3e
00000140: 3714 2b3f 775d 0000 0eb5 ad3e 5d32 0000
00000150: 7540 933e f5a4 3f3f ab3b e63e 6e51 0180
00000160: 60b0 ba3e 3909 0080 37cf bc3e a4b8 023e
00000170: 8008 e33e 207a be3e c475 0100 910d 033f
00000180: 2cd8 033f ad7b 863e 93b6 9234 7ff5 473f
00000190: 7d12 0000 314a 613e 8891 f13e 68b2 7a3e
000001a0: edd5 0180 d3c6 d73e 2e03 613e 0925 773e
000001b0: b6df 0000 cb85 2b3f 6bfd c83e b149 0180
000001c0: be12 9838 4f3e 0100 e895 f13e 1dcc f33c
000001d0: 1471 c03e 22fb c13e f12e 263f 5357 003f
000001e0: 3191 5b3e 8abc 0a3f 5135 683e e678 883c
000001f0: 0431 9c3e d56d 5a3f a732 a33e 126a 0180
00000200: 635a 913e 24a6 f13e 6440 053f f5fa ba3d
00000210: b92a 0000 fbc3 cd3e 0a63 843e 4748 0a3f
00000220: 2d12 803e c64f 0080 038e 963e c1f5 913e
00000230: b42a 1e3f 816e a43e ac7a ef3e 2688 a43e
00000240: f826 983e 893e 9d2c 871f 863e ba7b bf3e
00000250: 4a5a 0080 e776 323f b992 190b 0d46 e93e
00000260: 4d7e dc3e 6bc0 f23d 30f3 473f 9e65 f43d
00000270: de3e a33e 1ca2 043e 91f4 673e e990 0080
00000280: 2ff3 173f 65a1 d93e 214c ff3e 7e6d 0080
00000290: b5b2 cd3e fc21 f83e 3e4b 0000 b4cf 443f
000002a0: 438f 0080 6bc7 f53e 848d a43e a6bf fb3d

model.features.stage1.unit1.dw_conv.bn.bias f4 [172]
0.17032734 1.495919e-38 0.2302746 0.35040376 -0.06736127 -2.930776e-38 0.2424612 -0.14271851
-4.4205e-41 0.3329542 0.09347293 -0.018168138 0.24251327 -0.04679505 0.119547665 -0.11216862
5.105091e-39 0.36390302 0.02998354 0.4136293 1.8026584e-38 -0.027532093 -2.87792e-40 0.027147433
0.04763057 2.1248045e-33 0.04763935 -0.1527839 1.996365e-38 -2.2235608e-05 1.5092438e-38 -0.02657389
0.1569429 -0.11342453 9.835704e-39 -0.025904344 7.935902e-39 0.15837881 -3.8594624e-38 0.021985495
0.13555941 -0.029049406 0.14582022 0.004898284 -0.00938723 -0.0035007072 -3.847997e-22 0.14699009
0.000654026 0.2561377 8.001339e-39 -0.025687167 -0.033866465 0.049529966 -0.068272315 0.12462286
-6.322454e-39 -0.04814174 -0.011258623 0.26519802 0.112609945 -0.035202906 0.39297318 0.4744081
-1.0711613e-09 1.461563e-39 -1.774283e-39 0.38543707 0.11877514 -0.18553148 0.24195842 -0.0008518668
0.01880171 -2.207757e-39 -2.2420073e-38 0.066037014 -4.760642e-05 -1.4101114e-38 0.0891939 0.0545293
0.110654585 -6.8032e-41 -0.008494105 1.147865e-38 0.14764147 0.15570119 0.14300133 -1.0228257e-38
-0.04022553 -1.4233039e-38 -0.025395384 -0.04531399 -0.019233253 0.20654517 8.086113e-39 0.2661038
-0.015692636 0.009847018 -6.1143334e-12 0.0030551546 -5.23067e-40 0.08216461 0.30028567 -0.117812276
-2.03939e-38 0.09318127 0.102872476 -0.059294533 -2.1352644e-38 -0.07887737 0.11144801 3.655881e-38
-2.8791382e-07 -3.9231158e-38 -0.056873415 -0.0019415368 0.04664363 -0.01163305 0.26825947 -0.24344695
0.0044558994 -0.055300724 0.0269774 -0.020961575 -0.073855214 0.03826709 0.0041399985 1.0377827e-38
-0.043495312 0.13877837 -0.21076207 -0.11305252 -5.553657e-39 -0.007221036 -0.066471934 -0.017048614
0.029125566 2.573537e-38 -0.04451322 -0.034565836 0.010593602 0.09218755 -0.03943343 0.08778017
0.034551468 -2.0900645e-24 -0.18060425 0.01813635 2.051959e-38 0.1379554 2.897578e-39 0.19445288
-0.23529708 -0.030866975 -0.00072084914 -0.08873482 -0.11922898 0.03711561 -0.09843635 -4.3012e-40
0.07729741 -0.014093916 0.020790756 -8.982131e-39 -0.0021472184 0.012885218 -2.1900566e-38 0.0014788427
2.375643e-38 -0.031998757 0.01153266 -0.08354322
00000000: 4a6a 2e3e 23e4 a200 1bcd 6b3e 1f68 b33e
00000010: b5f4 89bd 0e91 1f81 c047 783e cd24 12be
00000020: 3a7b 0080 f978 aa3e bc6e bf3d 59d5 94bc
00000030: 6655 783e 2bac 3fbd 68d5 f43d a9b8 e5bd
00000040: eb96 3700 7f51 ba3e 0aa0 f53c 38c7 d33e
00000050: c84a c400 fc8a e1bc 3f22 0380 4b64 de3c
00000060: 4618 433d 9885 3009 7b21 433d 6273 1cbe
00000070: 8962 d900 9b86 bab7 9457 a400 7db1 d9bc
00000080: a4b5 203e 1f4b e8bd f119 6b00 5935 d4bc
00000090: 116a 5600 0e2e 223e 0e21 5281 ed1a b43c
000000a0: 16d0 0a3e 05f9 edbc e551 153e c981 a03b
000000b0: e5cc 19bc 1f6c 65bb df98 e89b 9284 163e
000000c0: f172 2b3a 7b24 833e 7a20 5700 e56d d2bc
000000d0: 90b7 0abd efdf 4a3d 5bd2 8bbd 453a ff3d
000000e0: 6ed8 4480 4630 45bd 1676 38bc 09c8 873e
000000f0: 0ba0 e63d ec30 10bd c833 c93e 9ee5 f23e
00000100: 2338 93b0 3eea 0f00 fb51 1380 0258 c53e
00000110: 6140 f33d f7fb 3dbe f3c3 773e d04f 5fba
00000120: 0b06 9a3c 540a 1880 0b22 f480 6a3e 873d
00000130: 01ad 47b8 2b8c 9980 4bab b63d 1e5a 5f3d
00000140: df9e e23d a5bd 0080 dc2a 0bbc cefd 7c00
00000150: 532f 173e 2270 1f3e f16e 123e 3860 6f80
00000160: 86c3 24bd ecfb 9a80 fb09 d0bc 2a9b 39bd
00000170: 0e8f 9dbc 9480 533e cb0c 5800 c23e 883e
00000180: d88d 80bc 6355 213c 0521 d7ac fd38 483b
00000190: 19b2 0580 eb45 a83d 0bbf 993e 9047 f1bd
000001a0: e511 de80 d2d5 be3d ceae d23d d3de 72bd
000001b0: 7c82 e880 758a a1bd db3e e43d 8b0b 4701
000001c0: 9392 9ab4 4198 5581 19f4 68bd 2a7b feba
000001d0: 640d 3f3d 8c98 3ebc 4e59 893e 284a 79be
000001e0: cb02 923b 0383 62bd b5ff dc3c 9cb7 abbc
000001f0: 6741 97bd f4bd 1c3d d3a8 873b 2901 7100
00000200: 2428 32bd eb1b 0e3e 03d2 57be 1488 e7bd
00000210: 5679 3c80 719e ecbb 7022 88bd 89a9 8bbc
00000220: bd98 ee3c df1d 0c01 7f53 36bd e894 0dbd
00000230: ca90 2d3c d4cc bc3d f384 21bd 17c6 b33d
00000240: d785 0d3d feb5 2198 52f0 38be af92 943c
00000250: 4570 df00 2e44 0d3e 458d 1f00 a81e 473e
00000260: b8f1 70be bddc fcbc 5ef7 3cba 9aba b5bd
00000270: 532e f4bd 8a06 183d ff98 c9bd 00af 0480
00000280: 1b4e 9e3d 2bea 66bc 6051 aa3c 87ce 6180
00000290: 59b8 0cbb 851c 533c de79 ee80 bad5 c13a
000002a0: a157 0101 2111 03bd 7bf3 3c3c b518 abbd

model.features.stage1.unit1.dw_conv.bn.running_mean f4 [172]
0.03692967 6e-45 0.061223723 0.18979296 0.0039929445 6e-45 -0.00069486955 -0.0029718713
6e-45 -0.112431474 0.016156824 -0.0120456265 -0.011661201 -0.001866371 -0.03874505 -0.00018566522
-6e-45 0.021251323 -0.0055370596 -0.02018523 -6e-45 -0.012554367 6e-45 0.01142636
-0.017909152 6e-45 0.008723103 -0.013825576 -6e-45 -0.00020241732 6e-45 -0.007705529
-0.023026627 -0.001828318 -6e-45 0.0065105697 6e-45 -0.0038892783 -6e-45 -0.012702697
0.05173789 0.0013558053 0.023136754 0.0067289933 6.5552524e-07 -0.0007244709 6e-45 0.03772025
-0.0036588404 -0.1101153 -6e-45 -5.7369463e-05 0.0025207545 0.008658151 0.0014090688 0.009625307
6e-45 -0.062022872 0.0074535445 -0.103730954 0.013502402 -0.008399723 0.04001288 0.016443865
6e-45 6e-45 6e-45 -0.24039422 -0.05258681 0.09066023 0.057152484 -3.0931285e-14
-0.022952449 6e-45 6e-45 0.005847801 -6e-45 6e-45 -0.00065374054 -0.011656281
0.03083626 -6e-45 0.0022133712 6e-45 -0.012589944 0.0036943834 0.008099537 6e-45
-0.00026663975 -6e-45 0.016513009 1.0851562e-07 0.004734673 0.029222053 -6e-45 0.02776424
0.00068178447 0.0106504755 6e-45 0.01527056 -6e-45 -0.011558445 0.11823497 -0.004694449
-6e-45 0.014685114 -2.5385574e-05 0.0031400376 6e-45 -0.017229479 -0.06410825 6e-45
6e-45 6e-45 0.005347587 1.5520711e-10 0.004935304 -0.003462852 0.0036957967 0.0007448862
-0.0053242724 -0.012691442 -0.007709094 1.1121059e-06 -0.009836065 0.0043132063 0.0035538422 6e-45
0.0068006287 0.03458573 -0.018098593 0.0008442118 6e-45 0.0008796081 -0.0012039494 0.003238483
-0.01441318 6e-45 0.0045032906 0.0028375357 -0.00040182818 -0.00864068 -0.003486301 -0.0015031494
0.00402014 6e-45 -0.001902181 -0.042932425 6e-45 0.011754839 -6e-45 0.008594506
0.027075313 4.822272e-10 -0.0019109781 -0.0047304584 -0.0053888364 -0.0018232913 0.005252188 6e-45
0.015974417 -0.0026024822 0.005514623 6e-45 -0.018812284 0.0010999818 -6e-45 -0.0058063604
-6e-45 -0.011573573 0.0016937418 -0.003806264
00000000: 9143 173d 0400 0000 bac5 7a3d 1659 423e
00000010: 3fd7 823b 0400 0000 e827 36ba bac3 42bb
00000020: 0400 0000 7942 e6bd 515b 843c 055b 45bc
00000030: 9f0e 3fbc 05a1 f4ba 21b3 1ebd 21af 42b9
00000040: 0400 0080 4117 ae3c 3970 b5bb 7f5b a5bc
00000050: 0400 0080 d5b0 4dbc 0400 0000 a135 3b3c
00000060: 37b6 92bc 0400 0000 59eb 0e3c ab84 62bc
00000070: 0400 0080 fc3f 54b9 0400 0000 aa7e fcbb
00000080: 56a2 bcbc 2ca4 efba 0400 0080 9e56 d53b
00000090: 0400 0000 43e3 7ebb 0400 0080 f91e 50bc
000000a0: 1ceb 533d 47b5 b13a 4a89 bd3c e37e dc3b
000000b0: 5af7 2f35 6bea 3dba 0400 0000 8d80 1a3d
000000c0: 28c9 6fbb 2184 e1bd 0400 0080 fe9f 70b8
000000d0: 3e33 253b ebda 0d3c 81b0 b83a 77b3 1d3c
000000e0: 0400 0000 b20b 7ebd dd3c f43b e570 d4bd
000000f0: 2e39 5d3c fe9e 09bc 8ce4 233d 49b5 863c
00000100: 0400 0000 0400 0000 0400 0000 e729 76be
00000110: 4465 57bd 12ac b93d b918 6a3d 584d 0ba9
00000120: c606 bcbc 0400 0000 0400 0000 e99e bf3b
00000130: 0400 0080 0400 0000 c95f 2bba fcf9 3ebc
00000140: 539c fc3c 0400 0080 350e 113b 0400 0000
00000150: 0d46 4ebc 781d 723b ecb3 043c 0400 0000
00000160: c8cb 8bb9 0400 0080 4a46 873c 1809 e933
00000170: 5125 9b3b 1663 ef3c 0400 0080 d571 e33c
00000180: c8b9 323a 557f 2e3c 0400 0000 5f31 7a3c
00000190: 0400 0080 a25f 3dbc 2d25 f23d e4d3 99bb
000001a0: 0400 0080 d599 703c 1bf3 d4b7 17c9 4d3b
000001b0: 0400 0000 d624 8dbc 304b 83bd 0400 0000
000001c0: 0400 0000 0400 0000 d03a af3b eba6 2a2f
000001d0: 55b8 a13b 04f1 62bb 2e35 723b 7744 433a
000001e0: 3c77 aebb c4ef 4fbc 919c fcbb ab43 9535
000001f0: 7227 21bc cc55 8d3b 94e7 683b 0400 0000
00000200: cfd7 de3b c4a9 0d3d 8043 94bc 184e 5d3a
00000210: 0400 0000 8095 663a d7cd 9dba bb3c 543b
00000220: 4225 6cbc 0400 0000 5790 933b f3f5 393b
00000230: 77ac d2b9 a491 0dbc 6d7a 64bb 5305 c5ba
00000240: 61bb 833b 0400 0000 9a52 f9ba e9d9 2fbd
00000250: 0400 0000 5e97 403c 0400 0080 f9cf 0c3c
00000260: 0ccd dd3c b98d 0430 c979 faba f601 9bbb
00000270: d694 b0bb 81fb eeba 8c1a ac3b 0400 0000
00000280: c8dc 823c 688e 2abb 03b4 b43b 0400 0000
00000290: 381c 9abc 442d 903a 0400 0080 4843 bebb
000002a0: 0400 0080 159f 3dbc 8b00 de3a 8372 79bb

model.features.stage1.unit1.dw_conv.bn.running_var f4 [172]
0.004271151 6e-45 0.010145837 0.1695863 0.00049316644 6e-45 0.019414445 0.00028099722
6e-45 0.025469217 0.0012498718 0.0070258714 0.012325601 0.0003721998 0.0009629894 0.00010079839
6e-45 0.00048080354 0.00039198287 0.0146803865 6e-45 0.024453012 6e-45 0.004537624
0.001738965 6e-45 0.0023385698 0.0016883219 6e-45 0.04897357 6e-45 0.030538123
0.0034704464 0.000235049 6e-45 0.0030740846 6e-45 0.0004056127 6e-45 0.0016752892
0.0025953916 0.0003223201 0.017432924 0.017461421 1.0821714e-11 0.00057934545 6e-45 0.0064079375
0.0023135676 0.032689966 6e-45 0.0004931852 0.00012228204 0.0073181083 0.0025394063 0.00064074836
6e-45 0.0024209695 0.00038058936 0.04373042 0.00056690787 0.008732993 0.0013176367 0.00042096936
6e-45 6e-45 6e-45 0.07201919 0.0053719794 0.004462885 0.0030383498 2.3036445e-27
0.001993985 6e-45 6e-45 0.0030231795 6e-45 6e-45 0.0012747941 0.001464
0.023923244 6e-45 0.0020439946 6e-45 0.0021104189 0.00021018775 0.0005562943 6e-45
0.0027519513 6e-45 0.004198137 9.1989477e-10 0.0054711816 0.0020515318 6e-45 0.0010880958
0.008792952 0.00040674792 6e-45 0.052218508 6e-45 0.0027935086 0.036729842 0.00085347495
6e-45 0.008460101 3.2294543e-06 0.0006747526 6e-45 0.021907879 0.005626156 6e-45
6e-45 6e-45 0.00056350476 2.9902692e-13 0.00074596517 0.0025232038 0.000114866874 0.0006072829
0.0006423079 0.01109278 0.0022922265 2.3283505e-11 0.0027219672 0.04120562 0.0025601143 6e-45
0.0001954336 0.008357082 0.0030927982 0.00013103658 6e-45 0.009105662 0.00024261895 0.007937616
0.0035368172 6e-45 0.00020405679 0.0022240733 0.027934259 0.00044729118 0.014745556 0.002373165
0.0046162405 6e-45 0.00028212476 0.0025311287 6e-45 0.0005197322 6e-45 0.022189692
0.0023937663 7.7148856e-13 0.08133786 4.927621e-05 0.00061249454 6.0008548e-05 0.00024752313 6e-45
0.0094957175 0.0039934064 0.0005971718 6e-45 0.0021444634 0.014419037 6e-45 0.021323245
6e-45 0.008768535 0.001389659 6.656623e-05
00000000: 03f5 8b3b 0400 0000 ba3a 263c 08a8 2d3e
00000010: d747 013a 0400 0000 0b0b 9f3c cf52 9339
00000020: 0400 0000 d2a4 d03c bdd2 a33a 4839 e63b
00000030: 51f1 493c d023 c339 2071 7c3a b963 d338
00000040: 0400 0000 5c14 fc39 0d83 cd39 0186 703c
00000050: 0400 0000 af51 c83c 0400 0000 59b0 943b
00000060: fced e33a 0400 0000 b142 193b af4a dd3a
00000070: 0400 0000 8398 483d 0400 0000 162b fa3c
00000080: 6e70 633b 7c77 7639 0400 0000 9576 493b
00000090: 0400 0000 6aa8 d439 0400 0000 6195 db3a
000000a0: 7217 2a3b 12fd a839 7ecf 8e3c 410b 8f3c
000000b0: ab60 3e2d 37df 173a 0400 0000 adf9 d13b
000000c0: 399f 173b eae5 053d 0400 0000 1949 013a
000000d0: d638 0039 becc ef3b 2b6c 263b e5f7 273a
000000e0: 0400 0000 21a9 1e3b d789 c739 ab1e 333d
000000f0: 8b9c 143a d414 0f3c 8db4 ac3a 8db5 dc39
00000100: 0400 0000 0400 0000 0400 0000 cc7e 933d
00000110: 6e07 b03b 653d 923b 0d1f 473b 7683 3613
00000120: 84ad 023b 0400 0000 0400 0000 8920 463b
00000130: 0400 0000 0400 0000 fe16 a73a b0e3 bf3a
00000140: aefa c33c 0400 0000 8af4 053b 0400 0000
00000150: f44e 0a3b d865 5c39 47d4 113a 0400 0000
00000160: 155a 343b 0400 0000 8790 893b d7db 7c30
00000170: 9947 b33b fe72 063b 0400 0000 709e 8e3a
00000180: 5010 103c c840 d539 0400 0000 13e3 553d
00000190: 0400 0000 4c13 373b 0872 163d bcbb 5f3a
000001a0: 0400 0000 3c9c 0a3c 9ab9 5836 e1e1 303a
000001b0: 0400 0000 2778 b33c 9e5b b83b 0400 0000
000001c0: 0400 0000 0400 0000 2ab8 133a 5256 a82a
000001d0: e08c 433a 565c 253b afe4 f038 1132 1f3a
000001e0: 8e60 283a 7ebe 353c 2e39 163b cbcd cc2d
000001f0: 0863 323b 39c7 283d 97c7 273b 0400 0000
00000200: 4fed 4c39 24ec 083c 8bb0 4a3b dd66 0939
00000210: 0400 0000 ea2f 153c 8767 7e39 c60c 023c
00000220: f2c9 673b 0400 0000 14f8 5539 c2c1 113b
00000230: 63d6 e43c 6882 ea39 5897 713c 1a87 1b3b
00000240: d543 973b 0400 0000 25ea 9339 4be1 253b
00000250: 0400 0000 a33e 083a 0400 0000 28c7 b53c
00000260: bce0 1c3b 9c27 592b 7794 a63d edad 4e38
00000270: d08f 203a b0b1 7b38 fec5 8139 0400 0000
00000280: ed93 1b3c 1fdb 823b 858b 1c3a 0400 0000
00000290: 208a 0c3b d33d 6c3c 0400 0000 16ae ae3c
000002a0: 0400 0000 e7a9 0f3c 3825 b63a 7999 8b38
