yono_compression/yono/data/saved_model/DS-CNN-M-s33_urbansound8k-LMCST-long-randfold_adam_multistep_nomixup.pt (torch, 555811 bytes, 47 tensors)

model.features.init_block.conv.weight f4 [172, 1, 3, 3]
0	0x3e60c994	0.21951896
1	0xbe13a5d3	-0.14418726
2	0xbd22e118	-0.039765447
3	0x3e4dd193	0.20099477
4	0xbe988f82	-0.29796988
5	0x3e54617d	0.20740314
6	0xbbd49676	-0.006487663
7	0x3e2dc11e	0.169682
8	0x3d9306da	0.07179041
9	0x3d8fc112	0.07019247
10	0xb924ef44	-0.00015729392
11	0xbb033f59	-0.0020026772
12	0x3e3d14a0	0.18464899
13	0xbe157e3c	-0.14598936
14	0xbd741ddd	-0.059598792
15	0x3da8435c	0.08215973
16	0x3d05f627	0.032705452
17	0xbb6dfc14	-0.003631358
18	0x3ea32801	0.31866458
19	0x3df6f04a	0.1205755
20	0xbe04c7e6	-0.1296688
21	0xbe4b8b59	-0.19877376
22	0xbd3d88c7	-0.04627302
23	0xbe119121	-0.14215519
24	0xbddaae1f	-0.10677742
25	0x3c9c4728	0.019076899
26	0x3e48ad07	0.19597255
27	0x3e234339	0.15943612
28	0xbe97a726	-0.29619712
29	0x3e23fc16	0.16014132
30	0x3df5bbd6	0.119987175
31	0x3ebbcf05	0.3668138
32	0x3e7c8f87	0.24664126
33	0xbe9920f2	-0.29907948
34	0xbe9e3e1e	-0.30906767
35	0xbe429080	-0.19000435
36	0x3e82198d	0.2541012
37	0xbd7d7d53	-0.061887097
38	0x3d70b140	0.05876279
39	0xbdacade3	-0.08431604
40	0x3e973379	0.29531458
41	0xbe2a2779	-0.1661662
42	0x3e707ce0	0.23485136
43	0x3bb50b11	0.005525001
44	0xbe5f8b10	-0.21830392
45	0x3e141bde	0.14463755
46	0xbe15bac8	-0.14622033
47	0x3e024f42	0.12725547
48	0xbe313907	-0.1730691
49	0x3c17b0e9	0.009258487
50	0xbe48c68b	-0.19606988
51	0xbe9ec197	-0.31007072
52	0x3e088f8c	0.13336009
53	0xbcd6e2cf	-0.026231198
54	0x3e87a98a	0.26496536
55	0x3dfead90	0.12435448
56	0x3d577f17	0.052611437
57	0xbe708e61	-0.23491813
58	0x3dcb15d1	0.099162705
59	0x3d6d3cd7	0.05791935
60	0xbe67ff40	-0.22655964
61	0x3e36bd36	0.17845616
62	0x3e88f377	0.2674825
63	0x3ea73dd5	0.32664362
64	0xbe2f5a69	-0.17124332
65	0xbde62000	-0.11236572
66	0x3d09b91c	0.0336238
67	0x3d4841ad	0.04889076
68	0xbe80f920	-0.25190067
69	0xbe1e56fd	-0.15462871
70	0x3e4bf0b8	0.19916046
71	0xbdcea099	-0.10089225
72	0x3dfa64d8	0.12226266
73	0x3dddfafc	0.10838887
74	0x3deff419	0.1171648
75	0x3d4a8c25	0.04945006
76	0x3dcadb36	0.099050924
77	0x3e27d73e	0.16390702
78	0xbe8c5bf2	-0.274139
79	0x3e8b1881	0.27167132
80	0xbe27b0a7	-0.16375981
81	0xbe5f5e75	-0.21813376
82	0x3d515bde	0.051113002
83	0xbda30fbd	-0.07961986
84	0x3e5e676d	0.21719141
85	0xbe036836	-0.12832722
86	0xbe84d9e6	-0.25947493
87	0x3e913551	0.2836099
88	0xbd34fc0c	-0.044185683
89	0x3e30539c	0.17219394
90	0x3e252ec1	0.16131116
91	0xbe6adc9c	-0.22935718
92	0x3cd6da04	0.026227005
93	0x3dcb2752	0.09919609
94	0xbe3f2554	-0.18666583
95	0xbdef2e44	-0.11678746
96	0x3e076b46	0.13224515
97	0x3d26addf	0.04069316
98	0xbe531c2f	-0.2061622
99	0xbdc1eb72	-0.09468736
100	0x3ebd83f1	0.37014726
101	0xbdba996a	-0.09111293
102	0x3e011f14	0.12609512
103	0x3e1c2250	0.15247464
104	0xbe2050c4	-0.1565581
105	0xbe59a84c	-0.21255606
106	0x3eb13f4f	0.34618613
107	0xbd3cbd52	-0.046078987
108	0x3e64327e	0.22284886
109	0xbb8da858	-0.0043230467
110	0xbca9ac03	-0.020711904
111	0x3e68715b	0.22699492
112	0x3e1900c5	0.149417
113	0xbe21fcac	-0.15819043
114	0x3d50bbbb	0.050960284
115	0x3e647803	0.22311406
116	0x3e817519	0.2528465
117	0x3e303f2a	0.17211595
118	0xbe5113c5	-0.20417698
119	0xbe804809	-0.25054958
120	0xbe48f70b	-0.1962549
121	0x3d4a8c1f	0.049450036
122	0x3eb87994	0.36030257
123	0xbe4ea788	-0.20181096
124	0x3e078e2d	0.1323783
125	0xbe2f86eb	-0.17141311
126	0xbe7bd900	-0.24594498
127	0xbd67732f	-0.056506332
128	0x3e262cdc	0.1622805
129	0x3e7452c8	0.23859704
130	0xbe174c78	-0.14775264
131	0x3dc871e1	0.09787346
132	0x3e4de227	0.20105802
133	0x3e0affd8	0.13574159
134	0x3e3849f2	0.17996958
135	0x3e569361	0.20954658
136	0x3e05dbe8	0.13072169
137	0x3e058e8a	0.13042656
138	0xbe4627f0	-0.19351172
139	0xbea1610a	-0.31519347
140	0xbddc2507	-0.1074925
141	0xbd2143b4	-0.039371207
142	0xbea3fda4	-0.3202945
143	0x3da9997d	0.08281229
144	0x3d8a6f84	0.06759551
145	0xbc959c6c	-0.018263064
146	0x3d9c23bd	0.07624004
147	0x3e11f23d	0.14252563
148	0x3e64db21	0.22349216
149	0x3e539b60	0.2066474
150	0xbde366fa	-0.111036256
151	0x3e4085e0	0.1880107
152	0xbe043d58	-0.12914026
153	0xbde51d00	-0.11187172
154	0xbe96aba0	-0.29427814
155	0xbe637057	-0.22210823
156	0xbe40cbb5	-0.18827708
157	0xbdebc95e	-0.11513017
158	0x3e3a6a1e	0.18204543
159	0xbd2a8918	-0.04163465
160	0xbe01641c	-0.12635845
161	0x3e11be16	0.14232668
162	0x3daf3e3b	0.085567914
163	0x3e4f3faf	0.20239137
164	0xbe0e3dd5	-0.13890775
165	0x3d013289	0.031542335
166	0xbe0e037a	-0.13868514
167	0xbe048597	-0.12941585
168	0xbe61574b	-0.22005956
169	0xbe5ecafc	-0.2175712
170	0xbde253ec	-0.11051163
171	0x3e2b1636	0.16707692
172	0x3dd1bcf9	0.10241122
173	0x3da4992a	0.08037026
174	0x3e8368c9	0.25665882
175	0x3e541450	0.20710874
176	0x3df17645	0.11790136
177	0x3d220671	0.039556924
178	0xbdf6869c	-0.120373935
179	0x3e569da4	0.20958573
180	0xbe7a8ea1	-0.24468471
181	0x3d667ea3	0.056273114
182	0xbe6521d5	-0.22376187
183	0xbe28a8d6	-0.16470656
184	0xbe30ede7	-0.17278253
185	0x3e3e6df2	0.18596628
186	0xbe853bdc	-0.26022232
187	0xbe7799a4	-0.24179703
188	0x3bb2d6fc	0.005457757
189	0xbe2c40db	-0.16821615
190	0x3e09090e	0.1338236
191	0xbd9eecf0	-0.07760036
192	0xbddd19c6	-0.107959315
193	0x3d2d1910	0.04226023
194	0x3e939327	0.28823206
195	0xbe335ee3	-0.17516665
196	0x3e181432	0.14851454
197	0x3e8e4482	0.27786642
198	0x3ea62194	0.32447493
199	0xbe55c7ca	-0.20876995
200	0x3d12d56a	0.03584806
201	0xbddfcaa9	-0.10927326
202	0x3eafe817	0.34356758
203	0xbda4f7cb	-0.08055075
204	0x3e21711b	0.15765803
205	0xbce17cd8	-0.02752535
206	0xbbef136c	-0.0072960164
207	0x3cfb859c	0.030703358
208	0x3c6a9973	0.014318812
209	0x3de07db3	0.10961475
210	0x3c931b51	0.017957361
211	0x3d8ea0ba	0.0696425
212	0xbe8b8662	-0.27250963
213	0x3e87160c	0.26384008
214	0x3e81cec3	0.2535306
215	0x3e8d6c30	0.27621603
216	0x3e5f7966	0.21823654
217	0xbe711f13	-0.2354701
218	0xbdf95a9f	-0.12175488
219	0x3e847c2c	0.25875986
220	0xbe84f264	-0.2596618
221	0x3ea30425	0.318391
222	0xbe8bd6ac	-0.2731222
223	0xbe6c04a8	-0.23048651
224	0x3e06a6fd	0.13149638
225	0xbe50c7fa	-0.20388785
226	0x3c38f835	0.011289646
227	0x3e0fe53f	0.14052294
228	0x3e82b97e	0.25532144
229	0x3e8b699f	0.2722902
230	0xbe07fd8f	-0.13280319
231	0xbe81c131	-0.25342706
232	0x3eb055b3	0.34440383
233	0xbe01207d	-0.1261005
234	0xbdc47c6d	-0.09594045
235	0x3da59ff6	0.08087151
236	0xbe95fb1f	-0.29293153
237	0x3e26fc84	0.16307265
238	0x3e634bdb	0.22196905
239	0xbebbd67e	-0.36687082
240	0xbe59b812	-0.21261624
241	0x3d4cbcc7	0.04998472
242	0x3ad27edf	0.0016059539
243	0xbd817d61	-0.06322742
244	0xbdfd8abd	-0.12379978
245	0xbe132834	-0.14370805
246	0xbe803fa3	-0.2504855
247	0xbdb82a33	-0.08992424
248	0xbe847345	-0.25869194
249	0x3e700c91	0.23442294
250	0x3e9f8a63	0.31160268
251	0xbe45b21f	-0.19306229
252	0x3d0e9336	0.03480836
253	0x3d894b9c	0.067038745
254	0xbcdf14d3	-0.02723161
255	0xbd185e09	-0.037199054

model.features.init_block.bn.weight f4 [172]
0	0x3ea8c083	0.32959375
1	0x3eb2c0c5	0.34912696
2	0x3e91bcc3	0.28464326
3	0x3ecc9bd8	0.3996265
4	0x3e5a54ca	0.21321407
5	0x3e75b6be	0.23995492
6	0x3e2499dc	0.16074318
7	0x3e69fa8a	0.2284948
8	0x3e45a963	0.19302897
9	0x3ebf69d1	0.3738542
10	0x3e745f62	0.2386451
11	0x3e9a3b2f	0.30123278
12	0x3ead7b18	0.33882976
13	0x3ec247eb	0.37945494
14	0x3e65e6f3	0.22451381
15	0x3e8625c5	0.2620069
16	0x3e92f5f2	0.28703266
17	0x3e7a24ea	0.24428144
18	0x3ea634af	0.3246207
19	0x3e76a07d	0.24084659
20	0x3e98f153	0.29871616
21	0x3eaeea8d	0.34163323
22	0x3e68f10b	0.227482
23	0x3ee58869	0.44830635
24	0x3e735386	0.2376233
25	0x3eb83266	0.3597595
26	0x3edafda4	0.42771637
27	0x3ea9293b	0.3303927
28	0x3e9591e1	0.2921286
29	0x3e701a25	0.23447473
30	0x3e3bdd4d	0.18346138
31	0x3e1b9e82	0.15197185
32	0x3e826071	0.25464204
33	0x3f08f080	0.53491974
34	0x3e7915f2	0.24324778
35	0x3eb1641f	0.346467
36	0x3e85b109	0.2611163
37	0x3ec5e218	0.38649058
38	0x3e933d2e	0.28757614
39	0x3e8d2000	0.27563477
40	0x3e543114	0.20721847
41	0x3ebb05e0	0.3652792
42	0x3e84afdd	0.25915423
43	0x3e469311	0.19392039
44	0x3e7482c3	0.23878007
45	0x3e4f56b0	0.20247912
46	0x3ecc57f0	0.3991084
47	0x3e42d8c9	0.1902801
48	0x3ed7ab15	0.42122713
49	0x3ecf2ebf	0.40465352
50	0x3e741f6c	0.23840111
51	0x3e866006	0.26245135
52	0x3e47b71b	0.19503443
53	0x3ea916c0	0.3302517
54	0x3ee1d8e6	0.44110793
55	0x3e7cc6b1	0.2468517
56	0x3e4c215f	0.19934605
57	0x3e722561	0.23647071
58	0x3ec2da44	0.38057148
59	0x3e87e0df	0.2653875
60	0x3e66f627	0.22554837
61	0x3ebd4a0d	0.3697056
62	0x3e5fbe71	0.21849991
63	0x3e7d5bdb	0.24742071
64	0x3e5e1931	0.21689297
65	0x3e40ef75	0.18841346
66	0x3ec77452	0.38955933
67	0x3ec2033c	0.37893093
68	0x3e40ec51	0.18840148
69	0x3e69545c	0.22786087
70	0x3e68cc45	0.22734173
71	0x3e0103e4	0.1259914
72	0x3e9e70ae	0.30945343
73	0x3e2cb045	0.16864116
74	0x3e4d16e6	0.20028266
75	0x3ea1fa41	0.3163624
76	0x3e65e208	0.22449505
77	0x3e5dc9dd	0.21659036
78	0x3e6f03d5	0.23341306
79	0x3ed968f3	0.42462882
80	0x3e50f518	0.20405996
81	0x3e3c0299	0.18360366
82	0x3ea34030	0.3188491
83	0x3e88f56d	0.26749745
84	0x3e9da2c2	0.30788237
85	0x3e94b9da	0.29048043
86	0x3ebdee68	0.37095952
87	0x3e90a3e0	0.28250027
88	0x3ea69074	0.32532084
89	0x3e52647d	0.20546146
90	0x3eb73b01	0.35787204
91	0x3e781d73	0.24229984
92	0x3e79c501	0.24391557
93	0x3e83e005	0.2575685
94	0x3e84d08f	0.25940368
95	0x3e9f3175	0.3109242
96	0x3ee9164e	0.4552483
97	0x3eef7f89	0.4677699
98	0x3e43424d	0.1906826
99	0x3e7e0b64	0.24809033
100	0x3e86da3f	0.26338384
101	0x3e65b156	0.2243093
102	0x3ee56202	0.44801337
103	0x3ee8647d	0.45389166
104	0x3e59b42f	0.21260141
105	0x3e47b558	0.19502771
106	0x3e582eb1	0.21111561
107	0x3e42d391	0.19026019
108	0x3e89abe0	0.26888943
109	0x3ea81ce5	0.32834545
110	0x3e11656c	0.14198846
111	0x3ec92c99	0.39291838
112	0x3e368b56	0.1782659
113	0x3e97e6ed	0.2966837
114	0x3edd6eb4	0.43248522
115	0x3ea18c34	0.3155228
116	0x3e7ae22e	0.24500343
117	0x3e59145a	0.2119917
118	0x3e5194ef	0.2046697
119	0x3e77fa4f	0.24216579
120	0x3e807e74	0.25096476
121	0x3e95f7e2	0.29290682
122	0x3e7c1ea6	0.24621066
123	0x3eac4258	0.33644366
124	0x3e516951	0.20450331
125	0x3e6416ac	0.22274274
126	0x3ea45eed	0.32103673
127	0x3e67c61a	0.22634163
128	0x3efdf2f5	0.49599424
129	0x3e61589b	0.22006457
130	0x3eabc3c1	0.33547786
131	0x3eaed29f	0.34145066
132	0x3e8e25e5	0.27763286
133	0x3e9c3e54	0.30516303
134	0x3e709674	0.23494893
135	0x3e8f2873	0.27960548
136	0x3e77be33	0.24193649
137	0x3ec2c1ae	0.3803839
138	0x3e285b68	0.16441119
139	0x3e816775	0.25274244
140	0x3e92a9d4	0.28645194
141	0x3e8d0cf1	0.27548936
142	0x3e6e441f	0.23268174
143	0x3e7df8b6	0.24801907
144	0x3e4b4915	0.19852097
145	0x3e78a547	0.24281798
146	0x3e8ed8a7	0.27899668
147	0x3e9984c4	0.29984105
148	0x3e7db37d	0.247755
149	0x3e92b089	0.2865031
150	0x3e874f5d	0.26427737
151	0x3eb0219e	0.34400648
152	0x3e38a668	0.18032229
153	0x3e251aab	0.16123454
154	0x3eeaa1d5	0.45826593
155	0x3ebe6bf6	0.37191743
156	0x3e72cbc0	0.23710537
157	0x3ebe0579	0.3711355
158	0x3e3b97c6	0.18319616
159	0x3ea78792	0.3272062
160	0x3e768155	0.24072774
161	0x3e8047a7	0.25054666
162	0x3e9dfbf3	0.30856284
163	0x3e899275	0.2686955
164	0x3e84de6b	0.2595094
165	0x3e6fdf34	0.23424989
166	0x3e6a4ff4	0.22882062
167	0x3e9e585d	0.3092679
168	0x3e7fb206	0.24970254
169	0x3e1f3506	0.1554757
170	0x3e89a8d2	0.26886612
171	0x3e35b23c	0.17743772

model.features.init_block.bn.bias f4 [172]
0	0xbd4750f9	-0.048661206
1	0x3cebbdaf	0.028776972
2	0xbb6da74f	-0.0036263054
3	0xbdc5cde6	-0.09658413
4	0x3d3308a3	0.04370941
5	0xbd55301e	-0.05204784
6	0x3b5e4328	0.003391454
7	0xbc0a5bcd	-0.008444739
8	0xbc041e19	-0.008063816
9	0xbd96f78f	-0.07371437
10	0xbc11fc5b	-0.008910264
11	0x3d1db0a4	0.038498536
12	0x3c6fb61c	0.014630821
13	0x3d1c2ada	0.038126804
14	0x3a5ea6be	0.00084934745
15	0x3cd96373	0.026536679
16	0xbc32e8ac	-0.010919731
17	0xbbbae740	-0.0057038367
18	0x3d4a6843	0.049415838
19	0xbc9a483c	-0.018833272
20	0xbba7d06f	-0.005121283
21	0x3d91497b	0.070940934
22	0xbc838ec2	-0.016059283
23	0x3d297ebb	0.041380625
24	0xbc06ba2d	-0.008223099
25	0xbd2fea1c	-0.042947873
26	0x3d9d50f4	0.07681456
27	0x3ccac280	0.024750948
28	0xbd256093	-0.040375303
29	0x3cb5c5ef	0.022189109
30	0x3d37f53a	0.0449116
31	0x3ae21c01	0.0017250777
32	0x3baea9d9	0.005330306
33	0xbcf1a63c	-0.029498212
34	0x3d2a9667	0.04164734
35	0xbd36b0ca	-0.044602193
36	0x3ced7002	0.028984074
37	0x3d291e27	0.04128852
38	0x3c55b559	0.013043725
39	0xbbaadb1d	-0.0052141086
40	0xbc29fe5e	-0.010375587
41	0xbd1d600e	-0.038421683
42	0xbcaf59c3	-0.021405106
43	0xbd4654c9	-0.0484207
44	0xbc214944	-0.009844128
45	0xbb664dfb	-0.0035141695
46	0x3dd83795	0.105574764
47	0x3c953e14	0.018218078
48	0x3e117440	0.14204502
49	0x3d795c99	0.060879324
50	0x3a0c66e5	0.00053559087
51	0xbb27c247	-0.0025597976
52	0xbc85cdd1	-0.016333492
53	0x3d23c607	0.039983775
54	0x3d248078	0.04016158
55	0x3cd13176	0.02553628
56	0xb919c469	-0.00014664386
57	0x3c582f53	0.013194877
58	0x3d699793	0.057029318
59	0x3bcc9891	0.0062437733
60	0xbc6df7b5	-0.01452439
61	0x3d01f977	0.03173205
62	0xbca99b68	-0.020703986
63	0xbd33c3d9	-0.043887947
64	0xbccdf6c7	-0.025142087
65	0xbb5ed79d	-0.0034003027
66	0x3d505f0a	0.050871886
67	0x3d7c863b	0.06165145
68	0xbc172b02	-0.009226562
69	0xbd8ed4dd	-0.06974194
70	0x3c21f77d	0.009885666
71	0x3d60156c	0.05470793
72	0x3ba5a4b8	0.0050550364
73	0xbd06cda5	-0.03291096
74	0xbc8c5a57	-0.017132921
75	0xb9f3475f	-0.00046401747
76	0x3c6e8a6f	0.014559372
77	0xbc2d1bad	-0.01056568
78	0x3ab9dc64	0.0014180061
79	0x3da1ab8d	0.07894049
80	0x3c76c85d	0.015062419
81	0x3b955f84	0.0045585055
82	0xbc5e3fe1	-0.013565035
83	0x3cad486d	0.0211527
84	0x3c9b0279	0.018922077
85	0xbb7bf36a	-0.0038444647
86	0xbcc9e6be	-0.02464616
87	0xbb82f70b	-0.003996735
88	0x3c408ebe	0.011752782
89	0xbd5e5229	-0.054277573
90	0x3cf86eb7	0.03032623
91	0x3bbd8144	0.005783232
92	0xbb9056fa	-0.0044048997
93	0x3cefbe2a	0.029265482
94	0x3c046aef	0.008082136
95	0xbccba5b6	-0.02485929
96	0x3d9caeae	0.07650505
97	0xbd9fba41	-0.07799197
98	0x3aab237c	0.001305684
99	0x3d2fd2d1	0.04292566
100	0x3ba1883d	0.004929571
101	0xbbb21225	-0.005434292
102	0xbd3528c1	-0.04422832
103	0xbde892d2	-0.11356129
104	0xba98e726	-0.0011665567
105	0x3bc14d49	0.0058991057
106	0xbd322eae	-0.04350155
107	0xbb187908	-0.00232655
108	0xbd21289c	-0.03934537
109	0x3dfc8167	0.12329369
110	0x3d598dee	0.05311387
111	0x3d486fe2	0.048934825
112	0x3b3c5c12	0.0028741402
113	0x3cef1d21	0.029188694
114	0x3d85823c	0.06518981
115	0xbcc44c1a	-0.02396207
116	0x3cf04205	0.029328356
117	0x3be40959	0.006959122
118	0x3d332405	0.043735523
119	0x3c189a8c	0.009314191
120	0xbc909a8c	-0.017651819
121	0x3d149073	0.03627057
122	0x3d761060	0.06007421
123	0xbd8506cc	-0.06495437
124	0xbb254c8b	-0.0025222625
125	0xbc61108a	-0.013736853
126	0xbd81d826	-0.06340055
127	0xbcabbcf3	-0.020964121
128	0x3d9f57ab	0.07780393
129	0xbc5e89c4	-0.013582651
130	0xbc4007ce	-0.011720611
131	0xbd339233	-0.0438406
132	0x3bf6d925	0.00753321
133	0x3bfe9226	0.007768887
134	0x3c59ee1d	0.0133014
135	0xbc18bd5a	-0.009322489
136	0xbd278982	-0.040902622
137	0xbdbdd86e	-0.09269796
138	0xbcff9841	-0.03120053
139	0x3b6e1b69	0.0036332256
140	0x3bbcebd5	0.005765418
141	0xbbaba2db	-0.0052379197
142	0xbd1aa563	-0.03775538
143	0xbd0c5b62	-0.034266837
144	0x3b4b316d	0.0031004802
145	0x3c9032c6	0.017602336
146	0x3d8e92f5	0.069616236
147	0x3cc1a335	0.023637393
148	0x3db12da9	0.08651287
149	0x3d3a1d17	0.0454379
150	0xbbafae77	-0.005361374
151	0xbde05211	-0.10953153
152	0x3d4fc307	0.050723102
153	0xbd117b66	-0.035518073
154	0x3e0f8023	0.14013724
155	0xbc419178	-0.011814468
156	0x3c9654af	0.018350927
157	0xbd658840	-0.05603814
158	0xbd087815	-0.033317644
159	0xbcdddea6	-0.027083706
160	0x3d263c03	0.040584575
161	0xbad29fb5	-0.0016069325
162	0x3d386d18	0.045025915
163	0x3b886080	0.0041618943
164	0x3c6a6edd	0.014308658
165	0xbd34c66e	-0.04413455
166	0x3c13d043	0.009021821
167	0x3cd877ad	0.026424253
168	0xbd04566a	-0.032308973
169	0x3d113b39	0.03545687
170	0x3d234ddf	0.039869186
171	0xbcbef081	-0.02330804

model.features.init_block.bn.running_mean f4 [172]
0	0xbe3584a4	-0.1772638
1	0xbd97da73	-0.07414713
2	0xbbed2a7b	-0.00723773
3	0x3c3473d8	0.011013947
4	0xbe06bee1	-0.13158752
5	0x3e478cb8	0.19487274
6	0xbe72de3a	-0.23717585
7	0x3da76663	0.081738256
8	0xbe4a01b5	-0.19727214
9	0xbbb4cd72	-0.005517655
10	0x3ddd3956	0.108019516
11	0xbe11eb79	-0.14249982
12	0xbece03f8	-0.40237403
13	0x3e08bc93	0.13353185
14	0xbe812e4c	-0.25230634
15	0x3e3267d7	0.17422424
16	0xbe8a458d	-0.27006188
17	0x3ea30b3f	0.31844518
18	0x3e8d32ed	0.27577916
19	0xbeea5438	-0.4576738
20	0x3ee7cd00	0.4527359
21	0xbe1663af	-0.14686464
22	0xbe3d06e8	-0.18459666
23	0xbea5e0ec	-0.32398164
24	0x3d738894	0.059456423
25	0xbdea7a0c	-0.1144906
26	0x3e52f685	0.20601852
27	0x3e8183cf	0.25295874
28	0xbe5c90af	-0.21539567
29	0xbe34221c	-0.17591137
30	0x3e0cdde8	0.13756526
31	0xbe00d892	-0.12582615
32	0x3e760046	0.24023542
33	0x3ea097d3	0.31365833
34	0x3cb3c484	0.021944292
35	0x3d7f8c47	0.06238964
36	0xbd03f7fd	-0.032218922
37	0x3ea53106	0.32263964
38	0x3ed9a318	0.42507243
39	0xbea79f1c	-0.32738578
40	0x3e4fcc05	0.20292671
41	0xbb9867e1	-0.004651055
42	0x3d524474	0.051334813
43	0xbe75d9fb	-0.24008934
44	0xbe87f94a	-0.2655738
45	0x3e6e72d8	0.23285997
46	0x38d91df4	0.000103529455
47	0xbc1eb32b	-0.009686272
48	0x3ca3a211	0.01997474
49	0x3d3ed86f	0.046593126
50	0xbdfbc062	-0.122925535
51	0x3d1c0f40	0.03810048
52	0xbdde8542	-0.10865261
53	0xbd5ef5f9	-0.054433797
54	0xbeb2180a	-0.34783965
55	0x3e8c0a17	0.27351448
56	0x3e5cbc1e	0.21556136
57	0x3e860a34	0.2617966
58	0x3ea1d18c	0.31605184
59	0xbd5e2cec	-0.05424206
60	0x3e21c96d	0.15799494
61	0xbd9ffa9a	-0.0781147
62	0x3e9ba942	0.3040257
63	0x3ec268b3	0.37970504
64	0xbe78f134	-0.24310762
65	0xbe464f6e	-0.19366238
66	0xbeee4d0e	-0.46543163
67	0xbd8b2bdb	-0.06795474
68	0xbe9659c5	-0.29365364
69	0xbe91df17	-0.28490517
70	0x3dfb0e14	0.122585446
71	0xbe8de29f	-0.2771196
72	0x3f179959	0.59218365
73	0xbca7c42e	-0.020479288
74	0x3e94d684	0.29069912
75	0x3cfbaaca	0.030721087
76	0x3e09c102	0.13452533
77	0x3e588265	0.21143492
78	0xbea6c6b2	-0.32573467
79	0x3df93789	0.121687956
80	0xbe87dc2c	-0.26535165
81	0xbe2c7b90	-0.1684401
82	0x3d60cf75	0.054885346
83	0xbec4fd18	-0.38474345
84	0x3e25bfbf	0.16186427
85	0x3e1143c5	0.14186008
86	0x3e898a32	0.26863247
87	0x3e85b617	0.26115486
88	0xbe3afb93	-0.1826003
89	0xbe18bd2b	-0.14915912
90	0xbe94c264	-0.29054558
91	0xbd133845	-0.035942335
92	0xbd9ab2f5	-0.075536646
93	0x3ea7f1e8	0.32801747
94	0x3e86398f	0.2621579
95	0x3dfacbab	0.12245878
96	0xbc033787	-0.008008844
97	0x3eb875d2	0.3602739
98	0xbe921747	-0.28533384
99	0xbd69c0f6	-0.057068788
100	0x3ea0205f	0.31274697
101	0xbecab66f	-0.3959231
102	0x3c9e73e9	0.01934238
103	0xbe857076	-0.26062363
104	0xbe27183c	-0.16317838
105	0xbd265607	-0.040609386
106	0x3e17e80b	0.14834611
107	0xbea312fb	-0.31850418
108	0x3e0f516d	0.13995905
109	0xbc008185	-0.00784338
110	0xbc5f1353	-0.013615447
111	0x3e79c24b	0.24390523
112	0xbe296aad	-0.165446
113	0x3ebe1063	0.37121877
114	0x3deb26b1	0.11481989
115	0x3df2b505	0.11850933
116	0xbe80dbd7	-0.25167724
117	0xbd8d958e	-0.06913291
118	0x3e94e558	0.29081225
119	0x3ddf1494	0.10892597
120	0xbe4f2779	-0.20229901
121	0x3e3dae4d	0.18523522
122	0xbd9a6d56	-0.075403854
123	0xbe9e4f26	-0.3091976
124	0xbddab185	-0.106783904
125	0xbd1fad44	-0.0389836
126	0xbea589e8	-0.32331777
127	0x3ea8c034	0.3295914
128	0x3ed3f76f	0.41399714
129	0x3dee6440	0.11640215
130	0xbdf11295	-0.11771122
131	0xbeb945d1	-0.36186078
132	0xbeefd122	-0.46839243
133	0xbe7c53ea	-0.24641386
134	0x3e595402	0.21223453
135	0xbdb7194f	-0.08940374
136	0xbdb03964	-0.086046964
137	0x3eb041be	0.34425157
138	0x3da4af25	0.08041219
139	0xbe4966e1	-0.19668151
140	0xbdcc6549	-0.09980256
141	0x3e766ab0	0.24064136
142	0xbea517b6	-0.32244653
143	0xbe551f39	-0.20812692
144	0xbbd87c25	-0.006606596
145	0xbdaa303f	-0.083099835
146	0x3e9c8ef6	0.3057782
147	0x3e568380	0.20948601
148	0x3da93b24	0.08263233
149	0x3e738c19	0.23783912
150	0x3c034e73	0.008014309
151	0xbef13129	-0.4710782
152	0xbe6f598e	-0.23374006
153	0xbde2e559	-0.11078901
154	0x3d665da0	0.05624163
155	0x3eba221f	0.36354157
156	0x3e4971c7	0.19672309
157	0x3e88a387	0.2668726
158	0xbeb7b54c	-0.35880506
159	0xbd92818b	-0.071536146
160	0x3df610f7	0.120149545
161	0xbda3e13a	-0.08001943
162	0x3debee17	0.115200214
163	0x3e0a5bb1	0.1351154
164	0x3eb0f027	0.34558222
165	0x3c98a457	0.01863305
166	0x3e943ad3	0.2895113
167	0xbe37dbd3	-0.1795495
168	0xbe346b93	-0.17619161
169	0xbe3c145b	-0.1836714
170	0x3c056079	0.008140677
171	0x3e2f87af	0.17141603

model.features.init_block.bn.running_var f4 [172]
0	0x3ce738ff	0.02822542
1	0x3c07bc86	0.008284694
2	0x3b45c4a9	0.0030177033
3	0x3bf45b40	0.007457167
4	0x3ceeea71	0.029164525
5	0x3d1d6f42	0.03843618
6	0x3da6cb02	0.081441894
7	0x3c57eaa3	0.0131785
8	0x3d7291a7	0.059220936
9	0x3beedd36	0.007289554
10	0x3d03e4ad	0.032200504
11	0x3d5bb06d	0.05363505
12	0x3e35ae07	0.17742167
13	0x3ca66369	0.020311074
14	0x3d7b1484	0.061298862
15	0x3d522039	0.05130026
16	0x3db465cd	0.088084795
17	0x3e03f1bf	0.12885188
18	0x3da87502	0.082254425
19	0x3e597206	0.21234903
20	0x3e64b681	0.22335245
21	0x3d4bcd1b	0.04975615
22	0x3d1d529c	0.03840886
23	0x3df1b0e3	0.118013166
24	0x3cbef959	0.023312258
25	0x3d0c1e0e	0.03420835
26	0x3d1bf13a	0.03807185
27	0x3d8604c4	0.06543878
28	0x3d589497	0.05287608
29	0x3cf8537a	0.030313242
30	0x3cd5e894	0.026111878
31	0x3c6a89ee	0.014315112
32	0x3d7e9b76	0.062159978
33	0x3e04661e	0.1292958
34	0x3c1744d1	0.009232716
35	0x3bc51076	0.006013925
36	0x3c48d11e	0.012256889
37	0x3df0d3a6	0.11759119
38	0x3e3fc4f9	0.18727483
39	0x3df747b4	0.12074223
40	0x3d79bb6b	0.06096975
41	0x3c3083dc	0.010773625
42	0x3c1b9be3	0.0094976155
43	0x3d9bc768	0.07606393
44	0x3d82556e	0.06363951
45	0x3d867368	0.06564981
46	0x3bd9e730	0.006649874
47	0x3bd2e31c	0.006435765
48	0x3bc32c0c	0.0059561785
49	0x3ceed4e4	0.029154249
50	0x3ce5748f	0.028009681
51	0x3c625807	0.013814933
52	0x3cbdb791	0.02315882
53	0x3c7b27ae	0.015329285
54	0x3e0faa42	0.14029792
55	0x3d9218a0	0.07133603
56	0x3d246891	0.040138785
57	0x3d9e7d85	0.07738785
58	0x3de46433	0.11151924
59	0x3c1bbb9c	0.009505179
60	0x3d00bc86	0.03142979
61	0x3cb78dba	0.022406448
62	0x3dc7c0c4	0.09753564
63	0x3e0e8e31	0.13921429
64	0x3d99898e	0.074969396
65	0x3d376c68	0.04478112
66	0x3e777a97	0.24167858
67	0x3cddbda5	0.027067969
68	0x3dc50e7a	0.09621902
69	0x3dc07f17	0.093992405
70	0x3d1575bd	0.036489237
71	0x3d9d770d	0.07688723
72	0x3ec28098	0.37988734
73	0x3c83ff48	0.016112939
74	0x3db64375	0.08899585
75	0x3d18c9c8	0.03730181
76	0x3ce482ec	0.02789446
77	0x3da6e6fb	0.08149525
78	0x3e106037	0.14099203
79	0x3c5a050a	0.0133068655
80	0x3da19168	0.07889062
81	0x3d1be03b	0.03805564
82	0x3c82b02f	0.015953152
83	0x3e1d1a89	0.15342154
84	0x3d608075	0.054810006
85	0x3d17c0d8	0.037049145
86	0x3dc4a2c0	0.096013546
87	0x3dd300ff	0.10302924
88	0x3d224b6a	0.0396227
89	0x3d001292	0.03126771
90	0x3dbd386c	0.09239277
91	0x3c9dd82c	0.019268118
92	0x3c089863	0.008337113
93	0x3ddb4def	0.10708224
94	0x3d9f763e	0.07786225
95	0x3d1a48a7	0.037666943
96	0x3cd2ad34	0.025717355
97	0x3dfdff5c	0.124022216
98	0x3deb1c19	0.114799686
99	0x3c9ffeaa	0.019530613
100	0x3db8d646	0.090252444
101	0x3e34ab5f	0.17643498
102	0x3c66740a	0.014065752
103	0x3d8153b9	0.06314797
104	0x3cb71d1b	0.022352746
105	0x3c8899b3	0.016674852
106	0x3ce291e8	0.027657464
107	0x3e0a1312	0.13483837
108	0x3cb8c1f3	0.02255342
109	0x3c34c1b4	0.011032511
110	0x3c5016f4	0.012700785
111	0x3d8b2cc4	0.06795648
112	0x3ccacf51	0.02475706
113	0x3e0b4fd4	0.13604671
114	0x3d0dd014	0.034622267
115	0x3cda6b6d	0.026662553
116	0x3d7effd2	0.062255688
117	0x3c0f282f	0.008737608
118	0x3dab5949	0.08366639
119	0x3d0b9f50	0.03408748
120	0x3d49237c	0.049106106
121	0x3d5b3c46	0.053524278
122	0x3c3a8058	0.011383139
123	0x3dfd2c00	0.12361908
124	0x3c91e9a1	0.017811598
125	0x3c35e884	0.011102799
126	0x3e0149ba	0.1262578
127	0x3df660d7	0.120301895
128	0x3e28c58c	0.16481608
129	0x3cd5162c	0.026011549
130	0x3c87b5c8	0.016566172
131	0x3e0b78b3	0.13620262
132	0x3e6f3a85	0.23362167
133	0x3d901cd5	0.07036749
134	0x3d617ba8	0.05504957
135	0x3c2bbcf5	0.010482063
136	0x3c4ceabb	0.012507136
137	0x3de4a647	0.111645274
138	0x3c9dc94b	0.019261023
139	0x3d84b38c	0.06479558
140	0x3cef4597	0.029207988
141	0x3d8670bd	0.06564472
142	0x3dd07dcf	0.10180246
143	0x3d198826	0.037483357
144	0x3c5565d5	0.013024767
145	0x3c6df781	0.014524342
146	0x3dbece80	0.093167305
147	0x3d86a2ba	0.065740064
148	0x3c2c2df7	0.010509006
149	0x3d94570b	0.07243165
150	0x3bd19dca	0.0063969838
151	0x3e85f27e	0.2616157
152	0x3d782120	0.060578465
153	0x3ca9233c	0.020646684
154	0x3c4190c7	0.011814303
155	0x3e185770	0.14877105
156	0x3d5a5852	0.053306885
157	0x3d9ec6ee	0.077527866
158	0x3e0b2dae	0.13591644
159	0x3cb15ae7	0.02164979
160	0x3cbcc67e	0.023043867
161	0x3c2822e5	0.010262226
162	0x3cb38d0b	0.02191784
163	0x3c931dd6	0.017958563
164	0x3e3a8a47	0.18216811
165	0x3bbc5273	0.0057471334
166	0x3dafb02c	0.08578524
167	0x3d697f4e	0.057006173
168	0x3d464978	0.04840991
169	0x3d277bdc	0.040889606
170	0x3b57e4a0	0.0032942668
171	0x3d17f1d0	0.037095845

model.features.stage1.unit1.dw_conv.conv.weight f4 [172, 1, 3, 3]
0	0x3f0ece97	0.5578398
1	0x3ecfd13e	0.40589327
2	0x3e78ddfb	0.24303429
3	0xbd6e51e8	-0.05818358
4	0x3eaa3c29	0.33249024
5	0x3ce26dfd	0.027640337
6	0xbe1f6aa4	-0.15568024
7	0x3f1f6a55	0.62271625
8	0xbeb8295f	-0.35969064
9	0xbebbf313	-0.36708888
10	0x3f040834	0.51575017
11	0x3e51733f	0.20454119
12	0xbf387a2c	-0.7206142
13	0xbe88aeb7	-0.26695797
14	0x3d2c05fa	0.041997887
15	0x3e50d33b	0.20393078
16	0x3e243340	0.16035175
17	0x3e1ea9b3	0.15494423
18	0xbe3c30b7	-0.18377958
19	0x3d5c751d	0.053822625
20	0x3dfdd47b	0.12394043
21	0xbe77063d	-0.24123473
22	0xbe85f700	-0.2616501
23	0x3d925fd6	0.071471855
24	0xbe2d5f52	-0.16930893
25	0x3ebf3228	0.37342954
26	0x3e099cb7	0.13438688
27	0x3eea1723	0.45720777
28	0x3e26a25d	0.16272874
29	0x3f3707c4	0.71496224
30	0x3e26f952	0.16306046
31	0x3f41a14f	0.7563676
32	0x3f133f8e	0.5751885
33	0x3f1d7ee4	0.61521745
34	0x3e770451	0.2412274
35	0xbe9e14bf	-0.30875203
36	0x3e60545b	0.21907179
37	0x3f1034e0	0.5633068
38	0x3e453c22	0.1926122
39	0x3d8d7c8d	0.06908522
40	0xbdf73963	-0.120714925
41	0x3e9539a4	0.2914554
42	0xbdb18901	-0.086687095
43	0x3eba8dfd	0.36436453
44	0xbdfc86cb	-0.12330397
45	0x3e73fa7e	0.23826024
46	0x3f1350c2	0.575451
47	0xbee2180d	-0.44158974
48	0x3f1e4aab	0.61832684
49	0x3e84c77a	0.2593344
50	0xbe962c27	-0.2933056
51	0xbe33aa03	-0.17545323
52	0x3d05ede0	0.03269756
53	0x3e6e9e29	0.23302521
54	0x3e939f1f	0.28832337
55	0x3f34c1ac	0.7060802
56	0xbdae2070	-0.08502281
57	0x3e856b0e	0.2605824
58	0xbb7b97ae	-0.0038389969
59	0x3e4611b1	0.19342686
60	0xbe2ae867	-0.16690217
61	0xbcf64458	-0.030061886
62	0xbe7976b6	-0.24361691
63	0xbe8724c7	-0.26395246
64	0x3ea7f994	0.328076
65	0xbda39ac1	-0.07988501
66	0x3e83fc25	0.2577831
67	0x3e0ff97d	0.14060016
68	0x3f10a068	0.5649476
69	0x3d7c9ec6	0.061674856
70	0xbf0b7d67	-0.54488224
71	0xbeec9a78	-0.462116
72	0xbd5b3cb0	-0.053524673
73	0x3e4535c6	0.19258794
74	0x3f04ff74	0.5195229
75	0xbe3cf976	-0.18454537
76	0x3eddc8da	0.433173
77	0x3da049c9	0.078265734
78	0xbe91df32	-0.28490597
79	0x3e2f758b	0.17134683
80	0x3e5e7be1	0.21726944
81	0xbace0e6b	-0.001572085
82	0xbef0edc4	-0.470564
83	0xbe2a4658	-0.16628397
84	0xbee98152	-0.45606476
85	0x3db8a012	0.09014906
86	0x3dd5befe	0.104368195
87	0xbe35df14	-0.17760879
88	0xbd14114b	-0.036149304
89	0xbe021ce5	-0.12706335
90	0x3f3b28dd	0.7310923
91	0x3eaa2931	0.33234552
92	0xbf0264aa	-0.5093485
93	0xbe3928a1	-0.18081905
94	0x3e2aca39	0.16678704
95	0xbbc93a05	-0.0061409497
96	0x3e09cce5	0.13457067
97	0xbe967c06	-0.29391497
98	0x3f0c8b59	0.5490013
99	0xbe718dab	-0.23589198
100	0x3f4cedf6	0.800506
101	0xbed3eab3	-0.4139
102	0x3e593b89	0.21214117
103	0xbeeb6b13	-0.4598013
104	0x3c9c85cb	0.019106766
105	0xbda8ed02	-0.08248331
106	0xbe9c6f21	-0.30553535
107	0x3e77446e	0.24147198
108	0xbe2ea536	-0.1705521
109	0xbe409ce6	-0.18809852
110	0xbf21aead	-0.6315716
111	0x3e0c8655	0.13723119
112	0x3dbbc297	0.091679744
113	0x3c509caa	0.012732664
114	0x3edfbfce	0.43701023
115	0xbdf17803	-0.117904685
116	0x3e11ffe9	0.14257778
117	0xbf133c9f	-0.57514375
118	0xbedb5d6c	-0.42844713
119	0xbe0082e7	-0.12549935
120	0xbb0b44bf	-0.0021250693
121	0x3f75eb2c	0.9606197
122	0xbe535d06	-0.20640954
123	0x3e9b629e	0.30348676
124	0xbdb89a66	-0.09013824
125	0xbdc559c6	-0.096362635
126	0xbecc4460	-0.39895916
127	0xbd012393	-0.031528067
128	0xbf04e35e	-0.51909435
129	0xbd9438de	-0.07237409
130	0x3ec1361d	0.37736598
131	0xbe94864d	-0.29008713
132	0xbe14c9a6	-0.14530048
133	0xbe060c9b	-0.13090746
134	0xbd410adf	-0.047129508
135	0xbd874dfb	-0.066066705
136	0xbe438ec5	-0.19097431
137	0x3f421472	0.7581245
138	0xbbaac825	-0.0052118474
139	0xbe946bea	-0.28988582
140	0x3e9fe0e0	0.31226254
141	0x3ed7b0b3	0.42126998
142	0xbea39316	-0.31948155
143	0xbd4b0925	-0.049569268
144	0x3ea47afd	0.32125083
145	0x3e249575	0.16072638
146	0x3ec7746a	0.38956004
147	0xbed843fe	-0.42239374
148	0xbf61a195	-0.8813718
149	0x3edf8768	0.43657994
150	0x3db9aa84	0.090657264
151	0x3d87883e	0.06617783
152	0xbecb597e	-0.39716715
153	0xbf1092f1	-0.56474215
154	0xbedcdf38	-0.43139052
155	0x3e8c5ba6	0.27413672
156	0xbeeaea19	-0.45881727
157	0x3f13bba2	0.5770818
158	0xbe713c0c	-0.23558062
159	0x3f228b23	0.63493556
160	0x3e226061	0.15857078
161	0x3f039d2a	0.5141169
162	0x3e763042	0.24041846
163	0x3f5aa49b	0.8540742
164	0xbe1fb025	-0.15594538
165	0x3bc1a1c5	0.005909177
166	0xbf267ad9	-0.650312
167	0x3a3488fb	0.0006886867
168	0xbe5aa582	-0.21352199
169	0xbdbe3279	-0.09286971
170	0xbd42900d	-0.04750066
171	0x3dec0fdb	0.11526462
172	0x3f110688	0.5665059
173	0xbe807b4c	-0.25094068
174	0x3e8c2fbf	0.27380177
175	0x3e5faf0c	0.21844119
176	0xbf231d41	-0.6371651
177	0x3e9418cc	0.2892517
178	0xbec97065	-0.39343563
179	0xbecee799	-0.4041107
180	0xbe47735f	-0.19477604
181	0x3eb07484	0.34463894
182	0x3f4d61db	0.8022744
183	0xbe8f531b	-0.27993092
184	0xbe8593d8	-0.26089358
185	0x3e9160c9	0.28394154
186	0xbf10cf1c	-0.56566024
187	0x3e82ebf6	0.2557065
188	0xbe2ca18d	-0.16858502
189	0x3c0636b1	0.00819175
190	0x3f23a792	0.63927567
191	0xbdf38d7b	-0.1189222
192	0x3e8d1abd	0.27559462
193	0x3f2d664a	0.67734206
194	0xbf06445b	-0.5244805
195	0xbed39a04	-0.41328442
196	0xbf3caa95	-0.7369779
197	0xbf034288	-0.51273394
198	0x3e1b9204	0.1519242
199	0xbf9959bc	-1.198051
200	0x3e9012b9	0.28139284
201	0x3eb69c73	0.35666236
202	0x3eca2d27	0.39487574
203	0x3f7b9c8c	0.98285747
204	0x3d7fd9b7	0.06246349
205	0xbf179479	-0.59210926
206	0x3c559a89	0.013037332
207	0xbed0002c	-0.4062513
208	0xbba383d8	-0.0049900822
209	0xbf0b2474	-0.543525
210	0x3f3e15fa	0.74252284
211	0xbe889601	-0.26676944
212	0x3e234fce	0.15948412
213	0x3f2f1907	0.68397564
214	0xbe9bf5db	-0.3046101
215	0x3db35f96	0.08758466
216	0xbf089041	-0.53345114
217	0xbe8cddb1	-0.27512887
218	0x3dad8517	0.084726505
219	0xbf19f9b4	-0.6014664
220	0xbe45797d	-0.19284625
221	0xbf17479e	-0.59093654
222	0x3f2188d5	0.63099414
223	0xbe876d09	-0.26450375
224	0x3f08fb3d	0.5350836
225	0xbedafb10	-0.4276967
226	0xbda60004	-0.08105472
227	0x3ee0339b	0.43789372
228	0xbe824e59	-0.254504
229	0xbf0561d4	-0.521024
230	0x3ce012ba	0.02735268
231	0xbd8f6476	-0.07001583
232	0x3e886521	0.26639655
233	0x3e3ad604	0.18245703
234	0xbec4eb38	-0.38460708
235	0xbeb196a8	-0.34685254
236	0x3e143748	0.14474213
237	0xbdcfbb0f	-0.101431005
238	0xbf07cd18	-0.53047323
239	0x3e77600c	0.24157733
240	0x3e973637	0.2953355
241	0x3ea15ebb	0.31517586
242	0x3e876900	0.26447296
243	0xbe4e15d7	-0.20125519
244	0x3da1a2eb	0.07892402
245	0x3ec2654b	0.37967905
246	0xbef37f74	-0.47558177
247	0x3e808421	0.25100806
248	0x3eccab0a	0.39974242
249	0xbd7be06b	-0.06149332
250	0xbf1107a0	-0.5665226
251	0xbe233373	-0.15937595
252	0xbe1ab0fc	-0.15106577
253	0x3e32710c	0.17425936
254	0xbcbcfc2c	-0.023069464
255	0x3ce7fcc7	0.028318776

model.features.stage1.unit1.dw_conv.bn.weight f4 [172]
0	0x3f710120	0.9414234
1	0x3f59b324	0.8503897
2	0x3f577879	0.841682
3	0x3f66be06	0.901337
4	0x3f56d43b	0.8391759
5	0x3f501fda	0.812986
6	0x3f4ab04a	0.79175246
7	0x3f6376dc	0.8885324
8	0x3f5385bb	0.8262593
9	0x3f55f211	0.8357249
10	0x3f69d98d	0.9134758
11	0x3f69c379	0.9131389
12	0x3f71ba1e	0.9442462
13	0x3f53984d	0.8265427
14	0x3f4a6289	0.790566
15	0x3f6dcd10	0.92891026
16	0x3f56ab8e	0.8385552
17	0x3f629f27	0.885241
18	0x3f620d99	0.88302
19	0x3f67d633	0.9056122
20	0x3f8b23b9	1.0870277
21	0x3f5b9a7f	0.8578262
22	0x3f696cab	0.9118144
23	0x3f6a1199	0.914331
24	0x3f55239f	0.8325748
25	0x3f5563df	0.83355516
26	0x3f6cf5d3	0.925626
27	0x3f6a86e1	0.9161206
28	0x3f3c7c98	0.73627615
29	0x3f609c6a	0.8773867
30	0x3f555f3b	0.83348435
31	0x3f42b9af	0.7606458
32	0x3f7e3bf5	0.9931024
33	0x3f8d40c9	1.1035396
34	0x3f4cd8a8	0.8001809
35	0x3f5ac3b4	0.8545487
36	0x3f678867	0.9044251
37	0x3f568a94	0.83805203
38	0x3f616f11	0.880601
39	0x3f59237b	0.84819764
40	0x3f6aef90	0.91771793
41	0x3f8583e3	1.0430874
42	0x3f7f148d	0.99640733
43	0x3f5bdbc3	0.85882205
44	0x3f72e163	0.9487516
45	0x3f738729	0.95128113
46	0x3f6368dd	0.88831884
47	0x3f6bd450	0.9212084
48	0x3f7b10d9	0.9807258
49	0x3f7e2eb5	0.9929002
50	0x3f4e5bf0	0.80609035
51	0x3f70aef8	0.9401698
52	0x3f614e95	0.8801053
53	0x3f76cfb3	0.96410674
54	0x3f6c9956	0.9242147
55	0x3f54bdee	0.8310231
56	0x3f530382	0.8242723
57	0x3f4776d2	0.7791568
58	0x3f5d2379	0.8638225
59	0x3f7e99c4	0.9945338
60	0x3f5d2807	0.863892
61	0x3f82980e	1.0202653
62	0x3f6cd5ed	0.92513925
63	0x3f621519	0.8831344
64	0x3f4f2d15	0.80928165
65	0x3f42b7ec	0.7606189
66	0x3f740e5c	0.9533441
67	0x3f78c141	0.9716988
68	0x3f4606cd	0.7735413
69	0x3f575418	0.8411269
70	0x3f6bfc21	0.92181593
71	0x3f4535f8	0.77035475
72	0x3f713e71	0.94235903
73	0x3f59f1eb	0.8513476
74	0x3f67b3d9	0.905088
75	0x3f851458	1.0396833
76	0x3f55e655	0.83554584
77	0x3f672b79	0.9030071
78	0x3f77683f	0.9664344
79	0x3f64e179	0.89406544
80	0x3f461a83	0.77384204
81	0x3f4ecb86	0.807793
82	0x3f685084	0.9074786
83	0x3f5ceeec	0.86302066
84	0x3f76840b	0.9629523
85	0x3f72b383	0.94805163
86	0x3f6b4cb6	0.91913927
87	0x3f4fd31e	0.81181514
88	0x3f5cd24d	0.86258394
89	0x3f57f991	0.84365183
90	0x3f660d7c	0.89864326
91	0x3f53ffe0	0.8281231
92	0x3f668847	0.9005169
93	0x3f6a465b	0.91513604
94	0x3f57c6a1	0.8428746
95	0x3f69a248	0.91263247
96	0x3f76888c	0.96302104
97	0x3f74c080	0.9560623
98	0x3f51a5ea	0.8189379
99	0x3f72336b	0.9460971
100	0x3f574074	0.8408272
101	0x3f618b3b	0.88103074
102	0x3f857dd5	1.0429026
103	0x3f55d69a	0.8353058
104	0x3f52110b	0.82057256
105	0x3f6873a9	0.90801483
106	0x3f463fa7	0.77440876
107	0x3f467c1b	0.7753312
108	0x3f6d2203	0.9263002
109	0x3f652aba	0.8951832
110	0x3f678aef	0.9044637
111	0x3f6c7788	0.9236989
112	0x3f408e19	0.75216824
113	0x3f65d7be	0.8978232
114	0x3f6bbfee	0.92089736
115	0x3f61a74a	0.8814589
116	0x3f5bcf7f	0.8586349
117	0x3f671ad5	0.9027532
118	0x3f4ce24e	0.80032814
119	0x3f586be4	0.8453963
120	0x3f62caee	0.88590896
121	0x3f68ad82	0.9088975
122	0x3f452e5a	0.7702385
123	0x3f53b0d2	0.8269168
124	0x3f54d142	0.831318
125	0x3f78adbb	0.9714009
126	0x3f6df2ce	0.92948616
127	0x3f5b5c34	0.85687566
128	0x3f73c368	0.9522004
129	0x3f6fedd1	0.93722254
130	0x3f67700d	0.9040535
131	0x3f806939	1.0032111
132	0x3f5e1ab8	0.8675952
133	0x3f5dd27c	0.866493
134	0x3f65d69a	0.8978058
135	0x3f4c6761	0.79845244
136	0x3f559716	0.83433664
137	0x3f63d51e	0.88997066
138	0x3f5ccbad	0.86248285
139	0x3f5f2f82	0.87181866
140	0x3f727c1e	0.9472064
141	0x3f588811	0.8458262
142	0x3f685c94	0.90766263
143	0x3f60729d	0.87674886
144	0x3f68a714	0.9087994
145	0x3f63076a	0.8868319
146	0x3f5fe4f0	0.87458706
147	0x3f654187	0.8955311
148	0x3f623a96	0.88370645
149	0x3f4ea7b7	0.8072466
150	0x3f5eb1a2	0.86989796
151	0x3f5d9820	0.8656025
152	0x3f4533be	0.7703208
153	0x3f527bcf	0.82220167
154	0x3f80cfff	1.0063475
155	0x3f787bcf	0.97063917
156	0x3f5b1403	0.8557741
157	0x3f4b1f16	0.7934431
158	0x3f4ff47f	0.81232446
159	0x3f51ed29	0.820025
160	0x3f649c96	0.8930143
161	0x3f671880	0.9027176
162	0x3f6475b3	0.89242095
163	0x3f47e51e	0.7808398
164	0x3f8070da	1.003444
165	0x3f6b934c	0.9202163
166	0x3f4dfc3e	0.80463016
167	0x3f809687	1.0045937
168	0x3f5d8490	0.865304
169	0x3f4619e7	0.77383274
170	0x3f565eba	0.8373829
171	0x3f49ae15	0.78781253

model.features.stage1.unit1.dw_conv.bn.bias f4 [172]
0	0xbc632b64	-0.013865326
1	0x3c8d424e	0.01724353
2	0xbdf7da8b	-0.12102231
3	0x3dc2fc86	0.09520821
4	0xbd636c02	-0.055522926
5	0xbdb4bf43	-0.08825543
6	0xbddda48f	-0.10822403
7	0xbcdd39eb	-0.027005157
8	0xbd642ee7	-0.055708792
9	0xbd47aea3	-0.04875053
10	0xbd732804	-0.059364334
11	0xbd95397a	-0.072863534
12	0x3d908617	0.070568256
13	0x3c936ce1	0.017996253
14	0xbdcad905	-0.099046744
15	0xbd58a90a	-0.052895583
16	0xbc444de1	-0.011981458
17	0xbcc14a3d	-0.02359497
18	0x3d0a17be	0.03371405
19	0xbd8f13b1	-0.06986178
20	0x3d5f02cf	0.054446038
21	0xbd8010e5	-0.062532224
22	0x3d660738	0.056159228
23	0xbc097139	-0.008388811
24	0xbb80783f	-0.0039205845
25	0x3cdd18dc	0.026989393
26	0x3deacd0a	0.11464889
27	0x3bfb6f75	0.007673199
28	0xbd3d52d3	-0.046221565
29	0x3c9d6fe2	0.019218389
30	0xbd64fa5e	-0.05590283
31	0xbe38d5b6	-0.18050274
32	0xb988e3e2	-0.00026109727
33	0x3cbb0daa	0.022833664
34	0x3cbd84ad	0.023134554
35	0xbe0ea448	-0.13929856
36	0x3cad4160	0.021149337
37	0xbd9b92ba	-0.07596345
38	0x3d9ae134	0.07562485
39	0xbdb95950	-0.09050238
40	0xbd4b6e2f	-0.049665626
41	0x3dfcd606	0.12345509
42	0x3e1d79c0	0.15378475
43	0xbcec670d	-0.028857732
44	0x3d281a71	0.04104084
45	0x3e1dc37a	0.154066
46	0x3e19d3b2	0.15022162
47	0x3d9f08dc	0.07765362
48	0x3de0dcc1	0.109796055
49	0x3e066352	0.13123825
50	0xbd856ac2	-0.06514503
51	0xbdf39a89	-0.118947096
52	0xbd3752aa	-0.04475657
53	0x3d8c7bbc	0.06859538
54	0x3d8d29b2	0.068927184
55	0xbd97d69f	-0.074139826
56	0xbdb145cb	-0.0865589
57	0xbda67c85	-0.08129219
58	0xbcdcc485	-0.026949177
59	0x3d51ab06	0.05118849
60	0xbdb2419e	-0.08703922
61	0x3dbac60f	0.09119808
62	0xbd220752	-0.039557762
63	0xbd4f43e1	-0.050601844
64	0xbd8139b5	-0.06309835
65	0xbdcd301f	-0.10018944
66	0x3c74cc86	0.01494134
67	0x3d7251e8	0.059160143
68	0xbdc0acdf	-0.094079725
69	0xbdd461e4	-0.10370234
70	0xbcd89b98	-0.02644138
71	0xbd980158	-0.07422131
72	0x3d177b3f	0.03698277
73	0x3a504e9e	0.0007946285
74	0xbd92cd54	-0.071680695
75	0x3dd1efd1	0.102508195
76	0xbd83c788	-0.06434542
77	0xbbfaedee	-0.007657758
78	0x3d6e3d66	0.058164023
79	0xbc4e1984	-0.012579326
80	0xbe05cdf8	-0.13066852
81	0xbd91e216	-0.071232006
82	0xbc4d7864	-0.01254091
83	0xbb93f656	-0.0045154495
84	0xbc077297	-0.008267066
85	0x3d5a7999	0.05333862
86	0xbd14238f	-0.036166724
87	0xbd46333b	-0.0483887
88	0xbd36d7e3	-0.04463948
89	0xbce01a3f	-0.027356265
90	0xbcc298e0	-0.023754537
91	0x3c1babc4	0.009501401
92	0xbd1f3848	-0.038872033
93	0x3d869cc0	0.065728664
94	0xbd1ea93f	-0.038735624
95	0xbd98cecf	-0.074613206
96	0x3dbac7c4	0.091201335
97	0x3c1b66a8	0.009484924
98	0xbd9aa362	-0.07550694
99	0x3c53a520	0.012917787
100	0xbdcb3afc	-0.0992336
101	0xbde4c950	-0.1117121
102	0x3dafda6d	0.08586583
103	0x3cccc9cf	0.024998574
104	0xbd4a03f6	-0.049320184
105	0x3d9ef747	0.07762008
106	0xbda4f15e	-0.0805385
107	0xbda2f977	-0.07957738
108	0xbd52452a	-0.05133549
109	0xbb19876d	-0.0023426667
110	0x3d2f5fd8	0.042816013
111	0x3dcd7b9c	0.10033342
112	0xbd942eea	-0.07235511
113	0xbd1d7fd6	-0.038451992
114	0x3c43fe1b	0.011962439
115	0x3cd39532	0.025827978
116	0xbd5adffc	-0.053436264
117	0x3ce34955	0.027744928
118	0xbdc6f40b	-0.09714516
119	0xbdabaa0a	-0.08382042
120	0xbd0da170	-0.034577787
121	0x3d3ace94	0.045607165
122	0xbd02a906	-0.031899475
123	0x3b58f494	0.0033104764
124	0x3d81b57a	0.06333442
125	0x3e273cfd	0.16331859
126	0xbd11558d	-0.03548198
127	0xbd86882e	-0.06568943
128	0x3d7fde46	0.062467836
129	0x3d8460b7	0.064637594
130	0xbce62722	-0.028094832
131	0x3d8262ec	0.06366524
132	0x3dcc520e	0.09976588
133	0xbbbc7d06	-0.0057522086
134	0x3bb8a799	0.0056352136
135	0xbd593dda	-0.053037502
136	0xbd2c626e	-0.042086057
137	0xbba97407	-0.0051713022
138	0xbda2c3d5	-0.07947508
139	0xbd332b54	-0.043742493
140	0x3e143219	0.14472236
141	0xbd9210df	-0.07132124
142	0xbbfbccc8	-0.007684324
143	0xbd6a47a0	-0.057197213
144	0x3b9e0427	0.0048222723
145	0xbcdda733	-0.027057266
146	0xbd94d19c	-0.07266542
147	0xbd48c6f4	-0.04901786
148	0x3caa7313	0.020806825
149	0xbc184db3	-0.009295869
150	0x3c23e52d	0.01000337
151	0xbd71d6dd	-0.0590428
152	0xbd69d748	-0.057090074
153	0xbd39bc86	-0.045345806
154	0x3d951b29	0.07280571
155	0x3db01517	0.085977726
156	0x3d292f55	0.041304905
157	0xbdca28ec	-0.098710865
158	0xbd21c74d	-0.03949671
159	0xbc5bb95d	-0.013410893
160	0xbc14aad2	-0.00907393
161	0x3d0ff31c	0.035143957
162	0xbda64719	-0.081190296
163	0xbd971378	-0.0737676
164	0x3d6ea065	0.058258433
165	0x3ab8761b	0.0014073284
166	0xbdc109d3	-0.09425702
167	0xbd0895cc	-0.033345982
168	0xbcc76104	-0.024338253
169	0xbd8f4cb4	-0.06997052
170	0x3d9d889f	0.07692074
171	0xbd7e0099	-0.06201229

model.features.stage1.unit1.dw_conv.bn.running_mean f4 [172]
0	0x3e3ef798	0.18649137
1	0xbc18e6ff	-0.0093324175
2	0xbc87ffba	-0.016601432
3	0x3e869b48	0.26290345
4	0x3e15e8a8	0.14639533
5	0x3da5726c	0.08078465
6	0x3d8c3fdd	0.068481185
7	0x3b942fbf	0.0045222933
8	0x3dba60a3	0.09100463
9	0xbda03bec	-0.07823929
10	0x3da0aa00	0.07844925
11	0xbca9340d	-0.020654703
12	0xbd284895	-0.041084845
13	0xbd36d6cd	-0.044638444
14	0xbde5b7ef	-0.11216723
15	0x3d90c959	0.07069654
16	0xbd41892b	-0.047249954
17	0x3d385769	0.045005236
18	0xbc91df96	-0.01780681
19	0xbc8428a3	-0.016132658
20	0x3ccad7d0	0.02476111
21	0xbd236e57	-0.03990015
22	0x3cb9330d	0.02260735
23	0x3c60b673	0.013715374
24	0xbdcee66d	-0.10102544
25	0xbd8baf05	-0.06820492
26	0xbc6e8628	-0.0145583525
27	0xbd58d277	-0.05293509
28	0xbd51e619	-0.05124483
29	0xbd53bfb7	-0.051696505
30	0xbce912f9	-0.02845143
31	0x3d57709f	0.05259764
32	0xbd9f1f52	-0.07769646
33	0x3d1f41ba	0.03888104
34	0xbd3e415b	-0.046449047
35	0xbc368eb3	-0.011142421
36	0x3d62740c	0.055286452
37	0xbe373a2a	-0.17893282
38	0xbcf4e3a8	-0.029893711
39	0xbc9f9df9	-0.019484507
40	0x3df78d8e	0.12087546
41	0xbc37ba61	-0.01121387
42	0x3e0c5a85	0.13706405
43	0x3cc80d02	0.024420265
44	0xbc1a792a	-0.009428302
45	0x3c0703b4	0.008240629
46	0x3e017844	0.12643534
47	0x3dc9ab1d	0.098470904
48	0xbe76d64f	-0.2410519
49	0xbe54c7dc	-0.20779365
50	0xbd90ce95	-0.070706524
51	0x3d08f1a3	0.033433568
52	0x3dc370d5	0.095430054
53	0x3cb8b615	0.022547761
54	0xbc61766e	-0.013761146
55	0x3e40d2c7	0.18830405
56	0x3d9e4852	0.07728638
57	0xbdfbf014	-0.12301651
58	0xbd0565b1	-0.032567684
59	0xbe08bf9a	-0.1335434
60	0x3dc977ee	0.09837328
61	0xbda2ed17	-0.079553775
62	0x3d84c212	0.064823285
63	0x3cac68a4	0.02104599
64	0xbd6c00c9	-0.057617936
65	0xbd651164	-0.055924788
66	0xbd727858	-0.0591968
67	0xbe2ec8f5	-0.17068847
68	0xbd9ee523	-0.07758548
69	0x3d166228	0.036714703
70	0x3de1b03a	0.11019941
71	0x3df2140f	0.11820232
72	0xbd060bcc	-0.032726094
73	0x3da99ab4	0.082814604
74	0x3da26a78	0.079304636
75	0x3d4786b6	0.048712455
76	0x3e015fd0	0.12634206
77	0x3d51b1f0	0.051195085
78	0xbd165fef	-0.036712583
79	0xbe47fb99	-0.1952957
80	0x3d86b0bb	0.065766774
81	0x3ddfdf2f	0.10931241
82	0x3d3ba520	0.045811772
83	0xbd60aca7	-0.054852154
84	0xbdc9e0e2	-0.09857346
85	0xba2b0803	-0.0006524326
86	0x3d47dbb0	0.048793495
87	0xbdaa0bae	-0.08303009
88	0xbd0740d6	-0.033020817
89	0xbd8c7462	-0.06858136
90	0xbbfdba4d	-0.007743156
91	0xbd7fa4cb	-0.06241302
92	0x3d021541	0.03175855
93	0x3d88ce3a	0.066799596
94	0xbda6fc80	-0.08153629
95	0x3e6f3776	0.23361
96	0xbce4dd71	-0.027937623
97	0xbd857585	-0.06516556
98	0x3d9b5889	0.07585246
99	0xbd13b571	-0.036061708
100	0xbdc75848	-0.09733635
101	0x3c2bde0c	0.010489952
102	0x3dccf7c5	0.10008196
103	0xbdb243ae	-0.08704315
104	0xbddaf492	-0.10691179
105	0x3dc64ca6	0.09682588
106	0xbd9d6469	-0.07685167
107	0xbd596037	-0.053070273
108	0x3d7bc55c	0.061467513
109	0xbda35ff7	-0.07977288
110	0xbb4d4aa5	-0.003132501
111	0x3cd5c13f	0.026093123
112	0x3e021d00	0.12706375
113	0x3e0143fd	0.12623592
114	0x3e023a56	0.12717566
115	0xbd776055	-0.060394604
116	0x3dbaaf79	0.091155
117	0xbe031eaf	-0.12804674
118	0x3dcdb9c7	0.100452
119	0x3cf66a7e	0.030080076
120	0x3da78bf9	0.081809945
121	0x3c86e7f5	0.016468028
122	0x3b36adb2	0.0027874527
123	0xbd904134	-0.070436865
124	0xbd994c1e	-0.07485221
125	0x3c5e4bfe	0.013567923
126	0x3d327c1a	0.043575384
127	0xbda77e17	-0.081783466
128	0xbd1b6d92	-0.03794629
129	0x3dc7981d	0.0974581
130	0xbd83173b	-0.06400915
131	0xbced1556	-0.028940838
132	0xbc000963	-0.007814738
133	0xbd02822e	-0.03186243
134	0xbd4f97d0	-0.05068189
135	0xbdc50a89	-0.0962115
136	0x3d8267b3	0.06367435
137	0x3d8d2a16	0.06892793
138	0x3d243e01	0.040098194
139	0x3d92f3eb	0.0717543
140	0xbca83841	-0.020534636
141	0xbdb4228f	-0.08795654
142	0xb9aa463c	-0.00032477255
143	0x3d456144	0.048188463
144	0x3d2c628b	0.042086165
145	0xbe0098d6	-0.12558302
146	0x3c943651	0.018092306
147	0xbe2044ae	-0.15651199
148	0x3e58fc62	0.21190026
149	0xbda65080	-0.08120823
150	0xbdcf2787	-0.10114961
151	0x3d49ab03	0.049235355
152	0x3dd2e64f	0.10297834
153	0x3d9ca9e8	0.076495945
154	0x3e3c2744	0.18374354
155	0xbda8659f	-0.08222508
156	0xbd8857a2	-0.0665734
157	0xbdd0e9d9	-0.10200853
158	0x3d13a930	0.03605002
159	0xbdac77ce	-0.084212884
160	0x3dedca71	0.11610878
161	0xbc42224f	-0.011849
162	0x3d1d099c	0.038339242
163	0xbccf47f6	-0.025302868
164	0xbc1c8c0a	-0.009554872
165	0x3cc683f9	0.024232851
166	0xbdbdea92	-0.09273256
167	0xbc3fe0fb	-0.011711354
168	0xbe009000	-0.12554932
169	0x3d0eef04	0.03489591
170	0x3d74a93b	0.059731703
171	0xbd66dcca	-0.056362905

model.features.stage1.unit1.dw_conv.bn.running_var f4 [172]
0	0x3d674fe5	0.056472678
1	0x3cabf9b0	0.020993084
2	0x3c5bd923	0.013418469
3	0x3e178f61	0.14800788
4	0x3ce855fb	0.028361311
5	0x3c4b2a63	0.0124002425
6	0x3bec0e9b	0.0072038895
7	0x3b713d6b	0.003681029
8	0x3c887140	0.016655564
9	0x3c9b1703	0.018931871
10	0x3c028593	0.007966417
11	0x3b843dd1	0.0040356894
12	0x3c2d2e88	0.010570176
13	0x3c823670	0.015895098
14	0x3cac3ae4	0.021024175
15	0x3c02c478	0.007981412
16	0x3c1504f6	0.009095421
17	0x3c210132	0.009826945
18	0x3bfbdc2c	0.0076861586
19	0x3c8b3e33	0.016997432
20	0x3c826514	0.015917338
21	0x3d33a248	0.043855935
22	0x3ca60f46	0.020270955
23	0x3ceb4c71	0.028722974
24	0x3c90c99f	0.017674265
25	0x3ca0148d	0.01954105
26	0x3c9a2113	0.0188146
27	0x3c79be6d	0.015243155
28	0x3bbf2540	0.005833298
29	0x3c9c9fc0	0.019119143
30	0x3bd40ce3	0.006471263
31	0x3be68483	0.0070348396
32	0x3c8e399e	0.017361458
33	0x3c85af96	0.016319077
34	0x3c7abe38	0.015304141
35	0x3c8fec63	0.017568773
36	0x3ce35015	0.027748147
37	0x3d40e1ab	0.047090214
38	0x3c2a30d6	0.01038762
39	0x3ae15e56	0.0017194252
40	0x3c9a5ae1	0.018842163
41	0x3d3f5dbf	0.046720263
42	0x3d7b03c1	0.061282877
43	0x3b290c91	0.0025794844
44	0x3d0b81ed	0.034059454
45	0x3bfd1514	0.00772346
46	0x3dfe6ad1	0.12422717
47	0x3cab0ff4	0.02088163
48	0x3daff188	0.0859099
49	0x3da7b763	0.08189275
50	0x3c1bb706	0.009504085
51	0x3c8b6ddb	0.017020157
52	0x3c89af86	0.016807329
53	0x3ced9c9b	0.02900534
54	0x3d513728	0.05107799
55	0x3d2d7e21	0.042356614
56	0x3c1305b6	0.00897353
57	0x3c9c85d3	0.019106781
58	0x3bd8cbb3	0.0066160797
59	0x3cb0613d	0.021530742
60	0x3c729de0	0.014808148
61	0x3d890047	0.06689506
62	0x3c2c29fb	0.010508056
63	0x3b1f2692	0.0024284464
64	0x3bdb9488	0.006701056
65	0x3bbb0a74	0.005708033
66	0x3c7d4797	0.015458963
67	0x3d8860fb	0.066591226
68	0x3c2940a6	0.010330355
69	0x3b56ac31	0.0032756443
70	0x3c658542	0.014008822
71	0x3c69e133	0.014274883
72	0x3ba0b7a3	0.0049047037
73	0x3ca342da	0.019929338
74	0x3c3340a8	0.010940708
75	0x3cd61c1f	0.026136456
76	0x3c96b48a	0.018396635
77	0x3bd24039	0.0064163473
78	0x3c5170d6	0.01278325
79	0x3d447e82	0.04797221
80	0x3c18f20f	0.009335055
81	0x3c9b8583	0.018984562
82	0x3c5314da	0.012883389
83	0x3bc2168a	0.005923097
84	0x3ce80e7f	0.028327225
85	0x3b899369	0.004198481
86	0x3c6e09f4	0.01452874
87	0x3c22df21	0.009940893
88	0x3c9753bc	0.018472545
89	0x3c318607	0.010835177
90	0x3c2231b2	0.009899544
91	0x3c445371	0.011982785
92	0x3c8b240f	0.016984968
93	0x3d120fcf	0.035659607
94	0x3c31e343	0.010857406
95	0x3d919b2d	0.071096756
96	0x3dee35c6	0.1163135
97	0x3cd737e1	0.026271762
98	0x3c3e6286	0.0116201695
99	0x3ce297f8	0.027660355
100	0x3c9042d5	0.017609993
101	0x3bebb136	0.007192756
102	0x3d11087c	0.035408482
103	0x3d9bde47	0.076107554
104	0x3c8166a8	0.01579602
105	0x3cafe4bf	0.02147138
106	0x3c0705b0	0.008241102
107	0x3babb94a	0.005240594
108	0x3c8d8023	0.017273014
109	0x3d1f1465	0.03883781
110	0x3c4607fe	0.012086866
111	0x3c406756	0.011743387
112	0x3cd541bf	0.026032327
113	0x3d11017b	0.035401803
114	0x3cda4554	0.026644386
115	0x3ca4347d	0.02004456
116	0x3c6e6178	0.014549606
117	0x3cb2f9ec	0.021847688
118	0x3c58af36	0.013225367
119	0x3be04fa7	0.006845433
120	0x3c7c939a	0.01541605
121	0x3c69e95c	0.014276829
122	0x3cca7343	0.024713164
123	0x3c952a11	0.018208535
124	0x3ca436db	0.020045688
125	0x3c26670d	0.010156405
126	0x3cec6076	0.02885459
127	0x3c50b327	0.012738026
128	0x3cb03592	0.02150992
129	0x3cb7785e	0.022396263
130	0x3c80f479	0.015741574
131	0x3c8b8ff2	0.017036412
132	0x3b643a65	0.0034824845
133	0x3c57c8ce	0.013170434
134	0x3bf9cd95	0.0076233842
135	0x3c9f3ce6	0.019438218
136	0x3c7071d3	0.014675575
137	0x3cd9a79e	0.026569184
138	0x3bb66279	0.005565938
139	0x3c35e4d6	0.011101922
140	0x3d0ca3d5	0.03433593
141	0x3c46da94	0.012137074
142	0x3ac6934a	0.0015150097
143	0x3c13ee93	0.0090290485
144	0x3ca013eb	0.019540748
145	0x3cb28063	0.021789735
146	0x3aaf5078	0.0013375422
147	0x3d57e423	0.052707803
148	0x3d11adda	0.03556619
149	0x3cb37135	0.021904567
150	0x3ce31ef4	0.02772472
151	0x3c025923	0.007955822
152	0x3c82ebf1	0.015981646
153	0x3c06a803	0.008218768
154	0x3df5bf41	0.119993694
155	0x3c9336a8	0.017970398
156	0x3c130e06	0.008975511
157	0x3c82cf86	0.015968096
158	0x3c14ebfc	0.009089466
159	0x3c489b98	0.012244128
160	0x3cc5c948	0.02414383
161	0x3bad6e33	0.005292678
162	0x3cab80ce	0.020935442
163	0x3b45b5b9	0.003016813
164	0x3b9f3741	0.0048588817
165	0x3c9d8417	0.019228024
166	0x3c784873	0.015153992
167	0x3c99ec58	0.018789455
168	0x3cb9acc7	0.022665394
169	0x3bb04fd4	0.00538061
170	0x3caf7316	0.021417182
171	0x3bb14db7	0.0054108757
