yono_compression/yono/data/saved_model/MicroNet-AD-I-ch168_svhn_adam_multistep_nomixup.pt (torch, 837699 bytes, 57 tensors)

model.features.init_block.conv.weight f4 [168, 3, 3, 3]
0	0x3e4f9507	0.20271693
1	0x3bf4536f	0.007456235
2	0xbe47a688	-0.1949712
3	0x3d886732	0.06660308
4	0x3e1b0cc0	0.15141582
5	0xbd9d3e5f	-0.07677912
6	0xbe540757	-0.20705925
7	0x3e0316f5	0.12801726
8	0xbbd98ee6	-0.0066393493
9	0x3e397294	0.18110114
10	0x3dfafac3	0.1225486
11	0xbdaa42cb	-0.08313521
12	0x3dae84a2	0.085213915
13	0x3e8319b3	0.25605544
14	0xbc7538d0	-0.014967158
15	0xbe44978b	-0.19198434
16	0x3e272988	0.16324437
17	0x3d5a7b2b	0.05334012
18	0x3ddabc5b	0.10680457
19	0x3b7c99bf	0.0038543788
20	0xbe1d97b7	-0.15389906
21	0xbd1fb962	-0.038995154
22	0x3da3d88d	0.08000288
23	0xbdbc4963	-0.09193685
24	0xbe38d708	-0.18050778
25	0x3dadb495	0.08481709
26	0x3d8683d2	0.065681115
27	0x3e92932d	0.2862791
28	0xbd6cabc0	-0.05778098
29	0xbd7c6c77	-0.061626878
30	0x3e3cc45c	0.1843428
31	0x3de751d1	0.11294902
32	0xbe019161	-0.12653114
33	0xbd50d97c	-0.05098866
34	0xbe677cc0	-0.22606182
35	0xbeafb102	-0.34314734
36	0x3ed88ae6	0.4229347
37	0x3e093b0d	0.13401432
38	0xbc7290da	-0.014805043
39	0x3e256920	0.16153383
40	0x3e446f8a	0.19183174
41	0xbe59a372	-0.21253756
42	0x3e7b0e58	0.2451719
43	0xbd02ac77	-0.031902757
44	0xbe95cfc9	-0.2926009
45	0x3e89d221	0.26918128
46	0xbc29dee1	-0.01036808
47	0xbde4a0a1	-0.1116345
48	0x3dd25882	0.10270788
49	0xbcafda79	-0.02146648
50	0xbeae7acb	-0.3407806
51	0x3bd09530	0.006365441
52	0xbc2bdcaf	-0.010489627
53	0xbe99d15f	-0.3004255
54	0x0001d223	1.67218e-40
55	0x0001298a	1.06737e-40
56	0x8001ae7f	-1.54433e-40
57	0x00020114	1.84058e-40
58	0x8001a295	-1.50159e-40
59	0x8000791a	-4.3443e-41
60	0x0001c281	1.6161e-40
61	0x00003d99	2.2097e-41
62	0x8001d0a4	-1.66682e-40
63	0x00009660	5.3944e-41
64	0x00021daa	1.94312e-40
65	0x00019ab8	1.47338e-40
66	0x0001f846	1.80899e-40
67	0x8000f6c8	-8.8528e-41
68	0x8001cf63	-1.66232e-40
69	0x00008cbf	5.049e-41
70	0x0000cb60	7.2957e-41
71	0x80022bb4	-1.99349e-40
72	0x8001aa74	-1.52983e-40
73	0x0001a22c	1.50012e-40
74	0x8001a6c5	-1.51661e-40
75	0x0001ef19	1.77608e-40
76	0x80020075	-1.83835e-40
77	0x00019bb3	1.4769e-40
78	0x00022ba1	1.99322e-40
79	0x00008b55	4.9983e-41
80	0x0000c5b2	7.092e-41
81	0x0001a436	1.50743e-40
82	0x000050b9	2.8958e-41
83	0x0001a28c	1.50146e-40
84	0x00009073	5.1819e-41
85	0x0000cbee	7.3156e-41
86	0x8001c5ee	-1.62839e-40
87	0x0001c732	1.63293e-40
88	0x80002e82	-1.6684e-41
89	0x8000ca41	-7.2555e-41
90	0x8001c6ef	-1.632e-40
91	0x8000dd8f	-7.948e-41
92	0x0001e000	1.72192e-40
93	0x00002ad6	1.5367e-41
94	0x800092ea	-5.2703e-41
95	0x8000963b	-5.3893e-41
96	0x80020161	-1.84166e-40
97	0x8001724a	-1.32835e-40
98	0x80020ede	-1.89004e-40
99	0x00010c39	9.622e-41
100	0x8000ec49	-8.4763e-41
101	0x00014cfe	1.19455e-40
102	0x8000951f	-5.3495e-41
103	0x00022403	1.9659e-40
104	0x8000bd2f	-6.7866e-41
105	0x80012c7a	-1.0779e-40
106	0x800089e3	-4.9464e-41
107	0x0001b705	1.5749e-40
108	0x000231f2	2.01588e-40
109	0x0001b1c3	1.55604e-40
110	0x80022f7e	-2.00708e-40
111	0x8001fdd3	-1.8289e-40
112	0x0001f68c	1.8028e-40
113	0x0001c018	1.60746e-40
114	0x80019757	-1.46126e-40
115	0x00019e12	1.4854e-40
116	0x8000c844	-7.1842e-41
117	0x00012df7	1.08325e-40
118	0x000217dd	1.92232e-40
119	0x0000be04	6.8165e-41
120	0x0001dcbf	1.71024e-40
121	0x8000d733	-7.7199e-41
122	0x0001f47b	1.79539e-40
123	0x0001f0ad	1.78174e-40
124	0x8001b5e8	-1.57091e-40
125	0x8001ea0f	-1.758e-40
126	0x000057f7	3.1556e-41
127	0x00002e94	1.6709e-41
128	0x00015bdd	1.2479e-40
129	0x0001e722	1.7475e-40
130	0x800192c3	-1.44484e-40
131	0x80014f7e	-1.20352e-40
132	0x800094b5	-5.3346e-41
133	0x8001b780	-1.57663e-40
134	0x0001c73c	1.63307e-40
135	0x3e52d972	0.20590761
136	0x3da31dfc	0.079647034
137	0x3cea4f91	0.028602393
138	0x3d2a01e4	0.04150571
139	0xbd08310d	-0.033249903
140	0xbce36702	-0.027759079
141	0xbcfdd9af	-0.030987589
142	0xbdb86b50	-0.09004843
143	0xbcfbbd56	-0.03072993
144	0x3e04a364	0.12952954
145	0xbcd5d3d5	-0.026101986
146	0xbd95e046	-0.073181674
147	0xbc47b5a4	-0.012189303
148	0xbde59f40	-0.11212015
149	0xbdd5914e	-0.10428105
150	0xbdc087de	-0.094009146
151	0xbde7ecd5	-0.11324469
152	0xbda0e903	-0.078569435
153	0x3d9037f4	0.07041922
154	0xbd39f3df	-0.04539859
155	0xbdcf9e4a	-0.10137613
156	0xbd0d28bf	-0.034462687
157	0xbdb140a7	-0.086549096
158	0xbdb80c25	-0.089866914
159	0xbdab5ab9	-0.08366913
160	0xbe0b3216	-0.13593325
161	0xbda76f80	-0.08175564
162	0x8001d7ff	-1.6932e-40
163	0x00001376	6.981e-42
164	0x000037e6	2.0053e-41
165	0x0001a8d9	1.52407e-40
166	0x8000c8f3	-7.2087e-41
167	0x00010df3	9.684e-41
168	0x8000b1b6	-6.375e-41
169	0x8001af43	-1.54708e-40
170	0x8001b903	-1.58205e-40
171	0x00012b7d	1.07436e-40
172	0x0001c427	1.62202e-40
173	0x0001aa46	1.52918e-40
174	0x0002020b	1.84404e-40
175	0x0001b2c0	1.55959e-40
176	0x800207c4	-1.86457e-40
177	0x0001edfa	1.77205e-40
178	0x0001fdac	1.82836e-40
179	0x8001c68f	-1.63065e-40
180	0x8000c677	-7.1196e-41
181	0x800085f5	-4.8055e-41
182	0x8000e24b	-8.1179e-41
183	0x8001d2ef	-1.67504e-40
184	0x00006ec9	3.9742e-41
185	0x80022c91	-1.99658e-40
186	0x8001ee88	-1.77404e-40
187	0x0001cc9b	1.65234e-40
188	0x8000ae8d	-6.2617e-41
189	0x80019a93	-1.47286e-40
190	0x8000ab2c	-6.1405e-41
191	0x000016fc	8.245e-42
192	0x000219a5	1.9287e-40
193	0x8002007f	-1.83849e-40
194	0x8001a935	-1.52536e-40
195	0x00013025	1.09106e-40
196	0x8001f0e6	-1.78254e-40
197	0x0001ec40	1.76586e-40
198	0x8001b368	-1.56194e-40
199	0x8001fe71	-1.83112e-40
200	0x00000845	2.967e-42
201	0x00018bf3	1.4204e-40
202	0x8001a2f4	-1.50292e-40
203	0x80008e52	-5.1055e-41
204	0x0001a106	1.496e-40
205	0x000003f1	1.414e-42
206	0x8001ea17	-1.75811e-40
207	0x8000e946	-8.3683e-41
208	0x0000026e	8.72e-43
209	0x0001cf41	1.66184e-40
210	0x80020500	-1.85465e-40
211	0x0000bc6d	6.7594e-41
212	0x8000e36b	-8.1582e-41
213	0x0000a579	5.936e-41
214	0x00008d61	5.0717e-41
215	0x000043f4	2.4377e-41
216	0x80000f74	-5.544e-42
217	0x00014227	1.15566e-40
218	0x800147ad	-1.17548e-40
219	0x0000e896	8.3436e-41
220	0x800165fa	-1.28418e-40
221	0x00018047	1.37853e-40
222	0x800163ca	-1.27633e-40
223	0x000198f1	1.467e-40
224	0x0001e7f8	1.7505e-40
225	0x0001c18e	1.6127e-40
226	0x000124ce	1.05039e-40
227	0x8000b3b7	-6.447e-41
228	0x8001b689	-1.57317e-40
229	0x00011a04	1.01168e-40
230	0x0001b868	1.57988e-40
231	0x0000ab29	6.14e-41
232	0x8001fb36	-1.81953e-40
233	0x8001e005	-1.72199e-40
234	0x0001acd5	1.53836e-40
235	0x0000e27d	8.1249e-41
236	0x80009e42	-5.6772e-41
237	0x8000f1fd	-8.6809e-41
238	0x0000bcf8	6.7789e-41
239	0x8000d604	-7.6774e-41
240	0x0001f96c	1.81311e-40
241	0x8001e7af	-1.74948e-40
242	0x800208f3	-1.86881e-40
243	0x8001eb03	-1.76142e-40
244	0x8000fd26	-9.0813e-41
245	0x00003701	1.9732e-41
246	0x8000a0c9	-5.7679e-41
247	0x800000ac	-2.41e-43
248	0x80019d5f	-1.4829e-40
249	0x0000b66d	6.5442e-41
250	0x80015f8d	-1.26113e-40
251	0x0000cc8f	7.3382e-41
252	0x0001c93c	1.64025e-40
253	0x80018902	-1.40985e-40
254	0x80011725	-1.00138e-40
255	0x80018f5b	-1.43262e-40

model.features.init_block.bn.weight f4 [168]
0	0x3e2220c2	0.15832809
1	0x3e8ddefe	0.27709192
2	0x80002523	-1.3322e-41
3	0x000157ec	1.23376e-40
4	0x0001afb2	1.54863e-40
5	0x3e3e434d	0.1858036
6	0x80001786	-8.439e-42
7	0x80010a68	-9.5569e-41
8	0x00010363	9.305e-41
9	0x00010abc	9.5686e-41
10	0x3ef023db	0.46902356
11	0x80007a58	-4.3889e-41
12	0x3e0d33b6	0.13789257
13	0x3e988584	0.29789364
14	0x800229bb	-1.98641e-40
15	0x00001411	7.198e-42
16	0x80003a65	-2.0948e-41
17	0x8001d15c	-1.6694e-40
18	0x80008346	-4.7092e-41
19	0x3e74fa19	0.2392353
20	0x3e31fcfa	0.17381659
21	0x8001f2b3	-1.789e-40
22	0x3d84e589	0.06489093
23	0x000167e2	1.29102e-40
24	0x3e094147	0.13403808
25	0x0000856c	4.7863e-41
26	0x3e140453	0.14454775
27	0x3efe97e8	0.4972527
28	0x3c482333	0.012215423
29	0x3ed9e945	0.42560783
30	0x800119d7	-1.01105e-40
31	0x000065d7	3.6533e-41
32	0x2668ae62	8.07275e-16
33	0x0bef4532	9.2163565e-32
34	0x8000169b	-8.11e-42
35	0x3e25116e	0.1611993
36	0x3e63c392	0.22242573
37	0x3e58743f	0.21138094
38	0x39a20b1f	0.00030907334
39	0x8001bc5c	-1.59406e-40
40	0x3e6590c0	0.22418499
41	0x3e4c6ae2	0.19962648
42	0x80010486	-9.3458e-41
43	0x0002263f	1.97391e-40
44	0x3e67acc5	0.226245
45	0x3e84c811	0.2593389
46	0x8000b05b	-6.3264e-41
47	0x3da4d946	0.08049254
48	0x00009e7e	5.6856e-41
49	0x3e50db30	0.20396113
50	0x3e592a35	0.21207507
51	0x3e6600f8	0.22461307
52	0x3e168fb4	0.14703256
53	0x3e629757	0.22128044
54	0x3dced099	0.100983806
55	0x3e33b470	0.175493
56	0x3de17dec	0.11010346
57	0x3e841a94	0.25801528
58	0x800032ef	-1.8272e-41
59	0x3e22f0ef	0.15912221
60	0x39dcd25e	0.00042118406
61	0x8001cab5	-1.64553e-40
62	0x000212f8	1.90476e-40
63	0x3dd926f1	0.106031306
64	0x3eb9c4f3	0.36283073
65	0x000197c1	1.46275e-40
66	0x3e4732a0	0.19452906
67	0x3e39b24e	0.18134424
68	0x8001bf0f	-1.60374e-40
69	0x80011b8c	-1.01717e-40
70	0x3e378ada	0.17924061
71	0x0001eb36	1.76213e-40
72	0x3df4cb50	0.11952841
73	0x3e61a4c9	0.22035517
74	0x3ded6ab5	0.115926184
75	0x0002360f	2.03064e-40
76	0x0000aacd	6.1272e-41
77	0x3dfcd937	0.12346118
78	0x3e388840	0.18020725
79	0x3e06a5b2	0.13149145
80	0x3e802fb1	0.25036386
81	0x00019b43	1.47533e-40
82	0x3ebac2e4	0.36476815
83	0x0000503f	2.8787e-41
84	0x36ce784d	6.1532833e-06
85	0x8002199b	-1.92857e-40
86	0x3e023db0	0.12718844
87	0x3e211497	0.1573051
88	0x3e3b95b1	0.18318821
89	0x3ebeb285	0.37245575
90	0x0000c908	7.2116e-41
91	0x8000a07c	-5.7571e-41
92	0x0000e01a	8.0392e-41
93	0x3e2c3dba	0.16820422
94	0x3e73d7b5	0.23812754
95	0x3ef5afb6	0.4798562
96	0x3e6a9693	0.22909002
97	0x3e4ebcbe	0.20189187
98	0x3e6e33a7	0.23261891
99	0x3e9c6f6f	0.30553767
100	0x3e761d54	0.24034625
101	0x0001c743	1.63317e-40
102	0x13621268	2.8534285e-27
103	0x3e49be50	0.19701505
104	0x80001644	-7.987e-42
105	0x80000d84	-4.848e-42
106	0x0001c61e	1.62907e-40
107	0x0000be8b	6.8354e-41
108	0x8001a075	-1.49397e-40
109	0x0001bf81	1.60534e-40
110	0x3e0add67	0.13561021
111	0x3e1a5ad5	0.15073712
112	0x3c9f934e	0.01947942
113	0x3f109daa	0.56490576
114	0x3e84caa4	0.25935853
115	0x0001b995	1.5841e-40
116	0x0001b3ec	1.5638e-40
117	0x3e7e4f07	0.24834834
118	0x3e4b220a	0.19837204
119	0x3e2e54b1	0.17024495
120	0x3e066f59	0.13128413
121	0x3e218313	0.15772657
122	0x00017528	1.33863e-40
123	0x3e39f0f1	0.18158318
124	0x8001411f	-1.15197e-40
125	0x3e307fce	0.17236254
126	0x3e7b9f54	0.24572498
127	0x000230c0	2.01159e-40
128	0x1828ebd2	2.183255e-24
129	0x80007b90	-4.4326e-41
130	0x3e224a89	0.15848745
131	0x3dd5f274	0.10446635
132	0x3e41f27c	0.18940157
133	0x3e6036cd	0.21895905
134	0x3e339c4e	0.17540094
135	0x3ebfd825	0.37469593
136	0x00023516	2.02715e-40
137	0x3d7087c8	0.05872324
138	0x0001b72d	1.57547e-40
139	0x3dd4966e	0.10380255
140	0x00010309	9.2924e-41
141	0x8001f48f	-1.79567e-40
142	0x3d5c6b9e	0.05381357
143	0x3e1ea18b	0.15491311
144	0x800016f6	-8.237e-42
145	0x0001f92f	1.81226e-40
146	0x000087ab	4.8668e-41
147	0x0000a587	5.938e-41
148	0x8001a383	-1.50492e-40
149	0x3e58e7cf	0.21182178
150	0x00021ad4	1.93295e-40
151	0x800218d1	-1.92573e-40
152	0x000176bc	1.3443e-40
153	0x8001f2b9	-1.78908e-40
154	0x3e343bcf	0.1760094
155	0x00008263	4.6774e-41
156	0x8000b235	-6.3929e-41
157	0x3e57e983	0.21085171
158	0x80002ae3	-1.5385e-41
159	0x8001241f	-1.04793e-40
160	0x80007d09	-4.4854e-41
161	0x8001d13d	-1.66896e-40
162	0xbb4dba38	-0.0031391513
163	0x3dded463	0.10880353
164	0x3e14e2ad	0.14539595
165	0x3e63f506	0.22261438
166	0x3e9ceb01	0.30648044
167	0x3e2a7e43	0.16649728

model.features.init_block.bn.bias f4 [168]
0	0x3e60c90b	0.21951692
1	0x3dd5c532	0.10438003
2	0x0001ab20	1.53224e-40
3	0x8000837e	-4.717e-41
4	0x8001c25e	-1.61561e-40
5	0xbd5016fd	-0.050803173
6	0x8001e151	-1.72664e-40
7	0x0001a914	1.52489e-40
8	0x8001b2a6	-1.55922e-40
9	0x00018221	1.38517e-40
10	0x3db656f5	0.089033045
11	0x8000bdf5	-6.8144e-41
12	0x3e63029c	0.22168964
13	0x3e2447d2	0.16043022
14	0x0001ce11	1.65758e-40
15	0x000058dc	3.1877e-41
16	0x80009711	-5.4192e-41
17	0x00006fbb	4.0081e-41
18	0x8000afbb	-6.304e-41
19	0x3e341727	0.17586957
20	0x3e04f422	0.12983754
21	0x0001edb6	1.7711e-40
22	0x3e00b1ca	0.12567821
23	0x80020d45	-1.88431e-40
24	0x3e656c7a	0.22404662
25	0x0001f000	1.77931e-40
26	0x3e23530c	0.15949649
27	0x3e0432e7	0.12910043
28	0xbd28d06c	-0.04121439
29	0x3e4c5f1a	0.19958153
30	0x8000f5f3	-8.823e-41
31	0x8001cf2b	-1.66153e-40
32	0x34efbb0b	4.465331e-07
33	0x0cc7e0ef	3.0796182e-31
34	0x800215d7	-1.91506e-40
35	0xbd8003da	-0.062507346
36	0x3d5b055b	0.053471904
37	0xbea4ed62	-0.3221236
38	0x2dbb7552	2.131154e-11
39	0x80022c71	-1.99614e-40
40	0x3ea73413	0.32656917
41	0x3e4f15cb	0.20223157
42	0x80001bc3	-9.959e-42
43	0x80019d97	-1.48368e-40
44	0x3e17b14e	0.1481373
45	0x3dd90838	0.10597271
46	0x80022c20	-1.995e-40
47	0x3db4dc9e	0.08831142
48	0x800048dd	-2.6138e-41
49	0x3d77c99e	0.06049501
50	0x3e34cc3e	0.17656037
51	0x3db7dc84	0.08977607
52	0x3dade5fb	0.08491131
53	0x3e31210d	0.17297764
54	0x3e591136	0.21197972
55	0x3e2febcd	0.17179795
56	0x3e2d2821	0.16909839
57	0x3e4b11ce	0.1983101
58	0x0001bd88	1.59826e-40
59	0x3d97766a	0.073956326
60	0x3c21d22c	0.009876769
61	0x0001fa43	1.81612e-40
62	0x00014a94	1.18589e-40
63	0xbb92b533	-0.004477167
64	0x3df94df9	0.12173075
65	0x0001a911	1.52485e-40
66	0x3e8bd71f	0.27312562
67	0x3dc98f45	0.098417796
68	0x0000dedd	7.9948e-41
69	0x800073a3	-4.1483e-41
70	0x3de200a2	0.11035277
71	0x8000a468	-5.8978e-41
72	0x3e2f44ea	0.17116132
73	0x3e122c82	0.14274791
74	0x3e2e4ee0	0.17022276
75	0x8001baa2	-1.58787e-40
76	0x00002405	1.2921e-41
77	0x3e210840	0.15725803
78	0xbd5255f4	-0.051351503
79	0x3e0b96bc	0.1363172
80	0x3dda31b6	0.10654013
81	0x000123f3	1.04732e-40
82	0x3dfb9338	0.12283939
83	0x00006615	3.662e-41
84	0xb4afc959	-3.274279e-07
85	0x0001c0e5	1.61033e-40
86	0xbd83a0ab	-0.06427129
87	0x3e3924a6	0.18080387
88	0x3e51ac00	0.20475769
89	0x3cd0239f	0.02540761
90	0x0001ade5	1.54217e-40
91	0x80008335	-4.7068e-41
92	0x0001c228	1.61486e-40
93	0x3d850876	0.064957544
94	0x3e3574db	0.17720358
95	0x3d61ac07	0.0550957
96	0x3e0adc8b	0.13560693
97	0x3d2e2b49	0.04252175
98	0x3e416227	0.18885098
99	0x3e0435df	0.12911175
100	0x3dddf565	0.10837821
101	0x00022dd0	2.00105e-40
102	0x8f1bbcb8	-7.678436e-30
103	0x3e7639e7	0.24045525
104	0x8001dab5	-1.70293e-40
105	0x8001e26d	-1.73062e-40
106	0x8001b411	-1.56431e-40
107	0x80005d47	-3.3462e-41
108	0x80014ed7	-1.20118e-40
109	0x0001f140	1.7838e-40
110	0x3df5ebbc	0.120078534
111	0x3dc4803e	0.09594773
112	0x3b95a107	0.004566315
113	0x3dc053d5	0.0939099
114	0x3cd74543	0.026278144
115	0x00018aa6	1.41573e-40
116	0x80018013	-1.3778e-40
117	0x3eb55ef3	0.35424003
118	0x3e4511a5	0.19245012
119	0x3daf93c7	0.08573108
120	0xbd05cc65	-0.03266563
121	0xbd758487	-0.05994084
122	0x800169a9	-1.29739e-40
123	0x3dda6c53	0.106651925
124	0x00001c0a	1.0059e-41
125	0x3da8dd87	0.08245378
126	0x3e159b67	0.14610063
127	0x8001d53f	-1.68334e-40
128	0x039242c6	8.596439e-37
129	0x00017cfc	1.36671e-40
130	0xbb3be84f	-0.0028672402
131	0x3e0bf9f3	0.13669567
132	0xbe5ffa00	-0.21872711
133	0xbcd233c2	-0.025659446
134	0x3e232ac8	0.15934289
135	0x3e0ddffd	0.13854976
136	0x0000cfaa	7.4496e-41
137	0x3e083d2d	0.13304587
138	0x00000cf3	4.645e-42
139	0x3e60a921	0.21939518
140	0x000070c7	4.0457e-41
141	0x0001f14f	1.78401e-40
142	0xbe032f9c	-0.1281113
143	0x3dade2a2	0.084904924
144	0x0001c2e0	1.61743e-40
145	0x80000220	-7.62e-43
146	0x8000dad2	-7.8498e-41
147	0x0000742a	4.1672e-41
148	0x0001a171	1.4975e-40
149	0x3e734b90	0.23759294
150	0x0002277d	1.97837e-40
151	0x80005f2f	-3.4145e-41
152	0x8000a3da	-5.8779e-41
153	0x0002343c	2.02409e-40
154	0x3e120146	0.14258298
155	0x000123b0	1.04638e-40
156	0x0000207f	1.1657e-41
157	0xbe531368	-0.20612872
158	0x80002dbe	-1.6409e-41
159	0x8000857e	-4.7888e-41
160	0x800047a1	-2.5696e-41
161	0x0001d684	1.68789e-40
162	0x3e396cdc	0.18107933
163	0x3d1926da	0.037390567
164	0x3dd57ee4	0.10424593
165	0xbe5eeace	-0.21769258
166	0x3e1d9f51	0.15392806
167	0xbda70750	-0.081556916

model.features.init_block.bn.running_mean f4 [168]
0	0xbe9f84ff	-0.31156155
1	0xbd8b9542	-0.06815578
2	0x00001d67	1.0548e-41
3	0x00014dca	1.19741e-40
4	0x80014dca	-1.19741e-40
5	0x3e83e895	0.25763384
6	0x000053a0	2.9999e-41
7	0x00009ba8	5.5839e-41
8	0x0000b3e6	6.4535e-41
9	0x80015a07	-1.24131e-40
10	0x3cc4b271	0.024010869
11	0x000020a8	1.1715e-41
12	0x3f28553d	0.65755063
13	0xbdc03a97	-0.09386175
14	0x00000706	2.52e-42
15	0x000092d7	5.2676e-41
16	0x8000f6f8	-8.8596e-41
17	0x0000b179	6.3665e-41
18	0x0000a56d	5.9344e-41
19	0x3f21b0d6	0.63160455
20	0x3d9134d4	0.07090154
21	0x80004469	-2.4541e-41
22	0xbeb918d0	-0.36151743
23	0x80003899	-2.0303e-41
24	0xbe4c8b46	-0.19975004
25	0x8000b4ed	-6.4904e-41
26	0xbd8ff0e4	-0.07028368
27	0x3dd1c9a0	0.10243535
28	0xba461f3b	-0.0007557754
29	0xbbfdd703	-0.0077465787
30	0x80002c2b	-1.5844e-41
31	0x0000e965	8.3726e-41
32	0x23e52d74	2.484748e-17
33	0x80004d62	-2.776e-41
34	0x00002a21	1.5113e-41
35	0x3de64136	0.11242907
36	0x3b5a61fa	0.0033322559
37	0x3e30f5fb	0.17281334
38	0xade165a2	-2.5624673e-11
39	0x00004d90	2.7824e-41
40	0xbf364f87	-0.712151
41	0x3e5ec15e	0.21753451
42	0x8001363c	-1.11291e-40
43	0x0000828a	4.6829e-41
44	0xbe84e469	-0.25955513
45	0xbe194568	-0.14967883
46	0x00009715	5.4198e-41
47	0xbe9ad735	-0.30242315
48	0x00003c50	2.1636e-41
49	0x3f1711cd	0.59011537
50	0x3d9d4d92	0.07680811
51	0xbe5775e6	-0.21041068
52	0x3ee92b1e	0.45540708
53	0x3da05e2e	0.07830463
54	0xbde05129	-0.1095298
55	0xb7c69cbc	-2.3676424e-05
56	0x3dc5a559	0.09650678
57	0xbd26e70f	-0.0407477
58	0x80001c10	-1.0067e-41
59	0x3bfcb14b	0.0077115647
60	0xb9be4d81	-0.0003629737
61	0x0000a2d8	5.8417e-41
62	0x80000a24	-3.638e-42
63	0xbe1cea89	-0.15323843
64	0x3ea5f6e2	0.3241492
65	0x0001620b	1.27007e-40
66	0xbf4333e0	-0.7625103
67	0x3da31a0b	0.07963952
68	0x8001471c	-1.17345e-40
69	0x0000472a	2.5529e-41
70	0xbe732c1c	-0.23747295
71	0x000085b8	4.7969e-41
72	0xbcb81209	-0.022469537
73	0xbd96fd18	-0.073724926
74	0x3dfdef0a	0.12399109
75	0x0000e43a	8.1872e-41
76	0x0000396f	2.0603e-41
77	0x3d1dd723	0.03853525
78	0x3e2620d5	0.16223462
79	0xbd2f3c84	-0.04278232
80	0x3ee37205	0.44422927
81	0x00009154	5.2134e-41
82	0xbe0a49f3	-0.13504772
83	0x0000c166	6.9378e-41
84	0x914f0283	-1.6330195e-28
85	0x8000a3e9	-5.88e-41
86	0x3e8786af	0.26469943
87	0xbe0e19f5	-0.1387709
88	0x3d6622de	0.056185596
89	0xbd22a76a	-0.03971044
90	0x80008739	-4.8509e-41
91	0x8000e0db	-8.0663e-41
92	0x00001309	6.829e-42
93	0xbdb1b89e	-0.08677791
94	0xbe43a0da	-0.19104329
95	0xbcc7a706	-0.024371635
96	0xbd95b310	-0.07309544
97	0x3d637694	0.055533007
98	0xbe80a6e7	-0.25127336
99	0xbe16c16d	-0.14722224
100	0xbe893fd0	-0.26806498
101	0x000178c0	1.35152e-40
102	0x8000907d	-5.1833e-41
103	0x3e230a1d	0.15921827
104	0x00007c05	4.449e-41
105	0x800041ef	-2.3653e-41
106	0x000101f5	9.2538e-41
107	0x00006abe	3.8292e-41
108	0x0000e80d	8.3244e-41
109	0x8000da26	-7.8257e-41
110	0x3ef261d0	0.4734025
111	0x3e738a8e	0.23783323
112	0xb8e9f536	-0.0001115598
113	0x3c67a8d3	0.014139372
114	0x3ea26a9c	0.31721961
115	0x8000441f	-2.4437e-41
116	0x000030ba	1.748e-41
117	0xbf546403	-0.82965106
118	0xbe579b29	-0.21055283
119	0xbdab7951	-0.08372749
120	0x3e1395c4	0.144126
121	0x3edac3d7	0.4272754
122	0x8000a484	-5.9017e-41
123	0x3efd5cb9	0.49484804
124	0x8000d034	-7.4689e-41
125	0x3e59ac1b	0.2125706
126	0xbd966cc2	-0.07344963
127	0x000040bd	2.3224e-41
128	0x0000d5cb	7.6694e-41
129	0x0000a73b	5.9991e-41
130	0xbc472b8e	-0.01215638
131	0xbe357e3e	-0.17723939
132	0x3e1d90cb	0.15387265
133	0xbca478b1	-0.020077081
134	0xbaee2c2e	-0.0018171126
135	0xbe2b7485	-0.16743667
136	0x8001249a	-1.04966e-40
137	0x3c884713	0.016635453
138	0x80006c19	-3.8778e-41
139	0xbf196efd	-0.5993498
140	0x8000ae10	-6.2442e-41
141	0x0000a31d	5.8514e-41
142	0x3d045a46	0.032312654
143	0x3f0f85a3	0.5606329
144	0x0000754f	4.2082e-41
145	0x8000a51d	-5.9231e-41
146	0x00002a44	1.5162e-41
147	0x800056d8	-3.1154e-41
148	0x0000381a	2.0125e-41
149	0xbf6395ed	-0.88900644
150	0x8000f6e4	-8.8568e-41
151	0x80002d2f	-1.6209e-41
152	0x80001660	-8.027e-42
153	0x00002d1e	1.6185e-41
154	0xbd8f3bb6	-0.06993811
155	0x00000e72	5.182e-42
156	0x8000c5b6	-7.0925e-41
157	0x3ea2bc20	0.31784153
158	0x80007993	-4.3613e-41
159	0x00001a47	9.427e-42
160	0x0000789a	4.3264e-41
161	0x8000ba73	-6.6885e-41
162	0xbca536c0	-0.020167708
163	0x3eb2fc2b	0.34958014
164	0xbb9d27b4	-0.0047959927
165	0x3e259045	0.16168316
166	0x3db017c8	0.08598286
167	0x3ddeef30	0.10885465

model.features.init_block.bn.running_var f4 [168]
0	0x3f19312d	0.5984066
1	0x400a245d	2.1584694
2	0x00000004	6e-45
3	0x00000004	6e-45
4	0x00000004	6e-45
5	0x3fb04ad6	1.3772838
6	0x00000004	6e-45
7	0x00000004	6e-45
8	0x00000004	6e-45
9	0x00000004	6e-45
10	0x4001f93d	2.0308373
11	0x00000004	6e-45
12	0x3fff488d	1.9944016
13	0x3f81f046	1.0151451
14	0x00000004	6e-45
15	0x00000004	6e-45
16	0x00000004	6e-45
17	0x00000004	6e-45
18	0x00000004	6e-45
19	0x3f8a97f7	1.0827626
20	0x3f2d0148	0.6758008
21	0x00000004	6e-45
22	0x3f5b80b7	0.8574328
23	0x00000004	6e-45
24	0x3ea4f243	0.3221608
25	0x00000004	6e-45
26	0x3eaaa840	0.3333149
27	0x402aa084	2.666047
28	0x37934889	1.7557542e-05
29	0x40171878	2.3608685
30	0x00000004	6e-45
31	0x00000004	6e-45
32	0x09cd649a	4.944656e-33
33	0x00000004	6e-45
34	0x00000004	6e-45
35	0x3f11ad5e	0.5690516
36	0x3ede0ab6	0.43367547
37	0x3f504801	0.8135987
38	0x1de7beb4	6.1342373e-21
39	0x00000004	6e-45
40	0x4090de1b	4.5271125
41	0x3fa6bece	1.3026979
42	0x00000004	6e-45
43	0x00000004	6e-45
44	0x3f1e6269	0.6186891
45	0x3f8421fe	1.0322874
46	0x00000004	6e-45
47	0x3f1e0d67	0.617392
48	0x00000004	6e-45
49	0x40106ec3	2.2567604
50	0x3f598e3c	0.8498266
51	0x3f117d87	0.56832165
52	0x3eb9a11a	0.36255723
53	0x3f07aa95	0.5299466
54	0x3e620fda	0.2207636
55	0x3f111e25	0.5668662
56	0x3e2c6ca2	0.16838315
57	0x3f955dee	1.166929
58	0x00000004	6e-45
59	0x3ea716c3	0.32634553
60	0x36ffed0a	7.627187e-06
61	0x00000004	6e-45
62	0x00000004	6e-45
63	0x3e014c6b	0.12626807
64	0x3fe4aace	1.7864625
65	0x00000004	6e-45
66	0x3ff62ce6	1.9232452
67	0x3ecf18cd	0.4044861
68	0x00000004	6e-45
69	0x00000004	6e-45
70	0x3f43a21f	0.7641925
71	0x00000004	6e-45
72	0x3f2411e4	0.640898
73	0x3ff71016	1.9301784
74	0x3df9fc74	0.12206355
75	0x00000004	6e-45
76	0x00000004	6e-45
77	0x3e890060	0.267581
78	0x3f8efce6	1.1170928
79	0x3f009291	0.5022364
80	0x4013f979	2.3121016
81	0x00000004	6e-45
82	0x3fce5f40	1.6122818
83	0x00000004	6e-45
84	0x00000004	6e-45
85	0x00000004	6e-45
86	0x3f921a20	1.1414223
87	0x3f1b23d4	0.60601544
88	0x3fbb7151	1.4643956
89	0x40146674	2.3187532
90	0x00000004	6e-45
91	0x00000004	6e-45
92	0x00000004	6e-45
93	0x3e82d52f	0.2555327
94	0x3fbe5caf	1.4872035
95	0x40158f0e	2.3368564
96	0x3f9473c1	1.1597825
97	0x3f2977f7	0.66198677
98	0x3f0eb636	0.5574678
99	0x3fa7e1bb	1.3115762
100	0x3f3d8d44	0.7404368
101	0x00000004	6e-45
102	0x00000004	6e-45
103	0x3fa82aea	1.3138096
104	0x00000004	6e-45
105	0x00000004	6e-45
106	0x00000004	6e-45
107	0x00000004	6e-45
108	0x00000004	6e-45
109	0x00000004	6e-45
110	0x3f455cf8	0.77094984
111	0x3e311648	0.17293656
112	0x385b30bd	5.225906e-05
113	0x404a7399	3.1633055
114	0x3fac4f5a	1.3461716
115	0x00000004	6e-45
116	0x00000004	6e-45
117	0x4052352c	3.2844954
118	0x3f5ceadb	0.8629586
119	0x3ebf57e7	0.37371752
120	0x3e540818	0.20706213
121	0x3f801846	1.0007408
122	0x00000004	6e-45
123	0x3f8022ad	1.0010582
124	0x00000004	6e-45
125	0x3f16154f	0.58626264
126	0x3f3e8397	0.7441954
127	0x00000004	6e-45
128	0x00000004	6e-45
129	0x00000004	6e-45
130	0x3ef5e846	0.48028773
131	0x3e9782ab	0.2959188
132	0x3f03ff01	0.5156098
133	0x3f3d483d	0.7393835
134	0x3f40f1d5	0.75369006
135	0x3fd431f7	1.6577748
136	0x00000004	6e-45
137	0x3f076453	0.5288746
138	0x00000004	6e-45
139	0x3f13195f	0.5746059
140	0x00000004	6e-45
141	0x00000004	6e-45
142	0x3bab790d	0.0052329362
143	0x3ef81006	0.48449725
144	0x00000004	6e-45
145	0x00000004	6e-45
146	0x00000004	6e-45
147	0x00000004	6e-45
148	0x00000004	6e-45
149	0x40476573	3.115567
150	0x00000004	6e-45
151	0x00000004	6e-45
152	0x00000004	6e-45
153	0x00000004	6e-45
154	0x3ea6a385	0.3254663
155	0x00000004	6e-45
156	0x00000004	6e-45
157	0x3fbfe7d9	1.4992629
158	0x00000004	6e-45
159	0x00000004	6e-45
160	0x00000004	6e-45
161	0x00000004	6e-45
162	0x3c4cd27a	0.012501353
163	0x3f9da45a	1.2315781
164	0x3e96d00b	0.294556
165	0x3f8b2130	1.0869503
166	0x3fdf2d83	1.7435764
167	0x3ed82ce4	0.4222175

model.features.stage1.unit1.dw_conv.conv.weight f4 [168, 1, 3, 3]
0	0x3f25016c	0.64455295
1	0xbf7af693	-0.9803249
2	0xbca24c05	-0.01981164
3	0x3e967c4d	0.2939171
4	0xbec9d263	-0.39418325
5	0xbe75d5ee	-0.24007389
6	0x3e2b3536	0.16719517
7	0x3ef7751c	0.48331535
8	0x3d989f58	0.074522674
9	0x3dabd01f	0.08389305
10	0x3d5d1c00	0.05398178
11	0x3e53be88	0.2067815
12	0x3e3f7070	0.18695235
13	0x3da6f506	0.08152203
14	0x3e593e8b	0.21215264
15	0x3de626bf	0.11237859
16	0x3de18f29	0.11013634
17	0x3e027208	0.12738812
18	0x800016fe	-8.248e-42
19	0x800145b6	-1.16843e-40
20	0x0001cd17	1.65408e-40
21	0x0002239d	1.96447e-40
22	0x0001f67c	1.80257e-40
23	0x0001f49f	1.79589e-40
24	0x8001e0c3	-1.72465e-40
25	0x8001cc9f	-1.6524e-40
26	0x000234fc	2.02678e-40
27	0x0001b357	1.5617e-40
28	0x000068a6	3.7541e-41
29	0x00013d39	1.13798e-40
30	0x8001d96f	-1.69836e-40
31	0x0001ff08	1.83323e-40
32	0x8001597c	-1.23936e-40
33	0x0000986b	5.4677e-41
34	0x8001b17f	-1.55509e-40
35	0x80011754	-1.00204e-40
36	0x8001b6a8	-1.5736e-40
37	0x00018901	1.40983e-40
38	0x00018f8d	1.43332e-40
39	0x0001fa7f	1.81697e-40
40	0x0001e9ae	1.75664e-40
41	0x8001a1fd	-1.49946e-40
42	0x0001b8e2	1.58159e-40
43	0x0001b0e7	1.55296e-40
44	0x80011b43	-1.01615e-40
45	0xbea72bc8	-0.3265059
46	0xbe4d4ea6	-0.20049533
47	0xbe081099	-0.13287582
48	0x3c67062b	0.014100592
49	0xbd930a5a	-0.07179709
50	0x3e037831	0.12838818
51	0x3d35eae7	0.044413473
52	0x3e69558a	0.22786537
53	0x3ec6c11f	0.38819215
54	0x800066a9	-3.6828e-41
55	0x0001f40f	1.79387e-40
56	0x80021937	-1.92716e-40
57	0x8000873d	-4.8514e-41
58	0x0001a019	1.49268e-40
59	0x8001d338	-1.67607e-40
60	0x00004957	2.631e-41
61	0x0001a4dc	1.50976e-40
62	0x0000239d	1.2776e-41
63	0x00020d6a	1.88483e-40
64	0x00021d8d	1.94272e-40
65	0x80021a60	-1.93133e-40
66	0x00016842	1.29236e-40
67	0x8001c817	-1.63614e-40
68	0x0001ce5b	1.65862e-40
69	0x800183e8	-1.39155e-40
70	0x0001c17c	1.61245e-40
71	0x0001959a	1.45502e-40
72	0x80014608	-1.16958e-40
73	0x8000e2ae	-8.1317e-41
74	0x0001947e	1.45104e-40
75	0x00013800	1.11925e-40
76	0x8000ac4d	-6.181e-41
77	0x0000b284	6.404e-41
78	0x800004e5	-1.756e-42
79	0x0001ef2c	1.77634e-40
80	0x0000cb76	7.2988e-41
81	0x0000b844	6.6102e-41
82	0x80001fed	-1.1453e-41
83	0x80012373	-1.04552e-40
84	0x80006cd5	-3.9042e-41
85	0x000072cb	4.118e-41
86	0x0001232a	1.0445e-40
87	0x80001785	-8.437e-42
88	0x80006549	-3.6334e-41
89	0x00015873	1.23565e-40
90	0xbdb7c208	-0.089725554
91	0x3dcd12bf	0.10013341
92	0x3d9660e6	0.07342701
93	0xbd5784c7	-0.05261686
94	0x3e4238d9	0.18966998
95	0x3d57b882	0.052666195
96	0xbe67c3b6	-0.22633252
97	0xbf0d5c8a	-0.5521933
98	0xbe753cbf	-0.23948954
99	0x8001c272	-1.6159e-40
100	0x8001f466	-1.79509e-40
101	0x0001d51b	1.68283e-40
102	0x0001f4ca	1.79649e-40
103	0x8002206f	-1.95306e-40
104	0x0001f086	1.78119e-40
105	0x0001f0d2	1.78226e-40
106	0x00021d5e	1.94206e-40
107	0x0001dd69	1.71262e-40
108	0x3e27cba6	0.1638628
109	0x3e7bf011	0.24603297
110	0x3e5a8c99	0.21342696
111	0x3e1121e2	0.14173082
112	0xbcf085db	-0.029360702
113	0x3f04f4ef	0.5193624
114	0xbed91a0e	-0.4240269
115	0xbe309ceb	-0.1724736
116	0xbf0635f8	-0.524261
117	0xbdea1347	-0.11429458
118	0xbea457c7	-0.3209822
119	0xbd945aa5	-0.072438516
120	0x3e592b89	0.21208014
121	0xbe64f5fb	-0.22359459
122	0x3e4dd2b8	0.20099914
123	0xbef84cc3	-0.48496065
124	0x3e2f4037	0.1711434
125	0x3f04a16f	0.5180883
126	0x8001ebe9	-1.76464e-40
127	0x80021b89	-1.93549e-40
128	0x00020e49	1.88796e-40
129	0x0000bfe6	6.884e-41
130	0x000053e1	3.009e-41
131	0x8001a237	-1.50027e-40
132	0x80021678	-1.91731e-40
133	0x8000fba6	-9.0274e-41
134	0x0000452c	2.4814e-41
135	0x00007dba	4.5102e-41
136	0x80003e1e	-2.2283e-41
137	0x0000760b	4.2346e-41
138	0x80003cbd	-2.1789e-41
139	0x0000f707	8.8617e-41
140	0x80009df3	-5.6662e-41
141	0x000069df	3.798e-41
142	0x0000bd2c	6.7862e-41
143	0x80007ca9	-4.472e-41
144	0x00013e47	1.14176e-40
145	0x80000f0f	-5.402e-42
146	0x0000d9d8	7.8148e-41
147	0x00006329	3.5572e-41
148	0x0000e587	8.2339e-41
149	0x0001408e	1.14993e-40
150	0x00006af5	3.8369e-41
151	0x00000b10	3.968e-42
152	0x8000615c	-3.4926e-41
153	0x000208e0	1.86855e-40
154	0x00020c99	1.8819e-40
155	0x0001c0fb	1.61064e-40
156	0x0001a8cf	1.52393e-40
157	0x000144c2	1.16501e-40
158	0x000213c8	1.90767e-40
159	0x8001a9df	-1.52774e-40
160	0x8001be30	-1.60062e-40
161	0x0001f4c1	1.79637e-40
162	0x0000caf3	7.2804e-41
163	0x8001fc9d	-1.82456e-40
164	0x8000d0cd	-7.4904e-41
165	0x00008514	4.774e-41
166	0x8001ce11	-1.65758e-40
167	0x8002058e	-1.85664e-40
168	0x000226bc	1.97566e-40
169	0x000005f8	2.141e-42
170	0x8001faa8	-1.81754e-40
171	0xbe11b850	-0.14230466
172	0xbe14f574	-0.14546758
173	0xbe54c3e2	-0.20777848
174	0xbdb1893e	-0.08668755
175	0xbd1b2cdb	-0.037884574
176	0xbde73a8b	-0.11290463
177	0x3e1ebc78	0.15501583
178	0xbd307d49	-0.04308823
179	0xbcdbc246	-0.026826035
180	0x3e13c13e	0.14429185
181	0x3dca6348	0.09882218
182	0xbe7cf60d	-0.24703236
183	0x3df0685c	0.11738655
184	0x3e39131f	0.180737
185	0xbea8ac78	-0.32944083
186	0x3e8a1818	0.26971507
187	0xbde91e78	-0.113827646
188	0xbde385e7	-0.11109524
189	0x000073e8	4.158e-41
190	0x0000b169	6.3643e-41
191	0x80021039	-1.8949e-40
192	0x000220e2	1.95467e-40
193	0x000102ef	9.2888e-41
194	0x80015a87	-1.2431e-40
195	0x0000fac1	8.9954e-41
196	0x0001d6e4	1.68924e-40
197	0x000147bb	1.17568e-40
198	0x3c723082	0.014782073
199	0x3d8c9353	0.06864037
200	0x3c94bb51	0.018155726
201	0x3d878ed5	0.0661904
202	0x3e058a71	0.13041092
203	0x3daebb74	0.085318476
204	0xbc5560d2	-0.013023572
205	0x3cecb470	0.028894633
206	0x3c5454cd	0.012959671
207	0x0001de90	1.71676e-40
208	0x800143c7	-1.1615e-40
209	0x8001a4b9	-1.50927e-40
210	0x00006ab1	3.8274e-41
211	0x0001d75f	1.69096e-40
212	0x0002004c	1.83777e-40
213	0x8000e981	-8.3765e-41
214	0x0002232d	1.9629e-40
215	0x8000c772	-7.1547e-41
216	0xbd2cd474	-0.0421948
217	0x3e55ae3d	0.20867248
218	0x3ebdaaa6	0.37044257
219	0xbdea4a74	-0.11439982
220	0x3e807f3f	0.2509708
221	0xbe3c2a82	-0.1837559
222	0xbef502bb	-0.47853646
223	0xbea36bc0	-0.31918144
224	0x3ecdca1d	0.40193263
225	0x8000f581	-8.807e-41
226	0x00020f6a	1.892e-40
227	0x8000616e	-3.4951e-41
228	0x0000eb89	8.4494e-41
229	0x0001e2e7	1.73233e-40
230	0x8001de50	-1.71586e-40
231	0x0001bd4a	1.5974e-40
232	0x0001a923	1.5251e-40
233	0x0001b45a	1.56533e-40
234	0x3eae7f26	0.34081382
235	0xbd61288e	-0.054970317
236	0xbe5c3295	-0.2150367
237	0x3e942f15	0.2894217
238	0xbd4b8e3a	-0.049696185
239	0xbdb059b7	-0.08610862
240	0xbdd40bdd	-0.10353825
241	0xbeeadba6	-0.45870703
242	0x3eae25f9	0.34013346
243	0x3e4d647d	0.20057864
244	0x3e09ee2f	0.13469766
245	0xbdba1a5f	-0.09087061
246	0xbe3560e8	-0.17712748
247	0x3e4ddc19	0.20103492
248	0xbdb1a852	-0.08674683
249	0xbe7cb13d	-0.24676986
250	0xbf0fb1a2	-0.5613042
251	0xbe758ef8	-0.2398032
252	0x3a1224aa	0.00055749214
253	0xb9c21aaf	-0.00037022444
254	0xb9834f26	-0.00025045237
255	0x3a363f77	0.0006952206

model.features.stage1.unit1.dw_conv.bn.weight f4 [168]
0	0x3ef3837b	0.4756125
1	0x3ee03c9f	0.4379625
2	0x0001b9c3	1.58474e-40
3	0x8000cdab	-7.378e-41
4	0x800217f9	-1.92271e-40
5	0x3eb23e2d	0.3481306
6	0x8000bcb1	-6.769e-41
7	0x00021c1c	1.93755e-40
8	0x00005b01	3.2646e-41
9	0x8000d368	-7.5838e-41
10	0x3f66766d	0.90024453
11	0x8001e977	-1.75587e-40
12	0x3f1e5e62	0.61862767
13	0x3f1f7c81	0.6229935
14	0x80022b29	-1.99154e-40
15	0x8000a670	-5.9707e-41
16	0x00003d28	2.1939e-41
17	0x8002201e	-1.95192e-40
18	0x000209ef	1.87234e-40
19	0x3ed8b3f9	0.42324808
20	0x3edff5ee	0.43742317
21	0x0001ec3a	1.76578e-40
22	0x3ea688af	0.32526156
23	0x80021099	-1.89625e-40
24	0x3eac6632	0.3367172
25	0x8001c297	-1.61641e-40
26	0x3f0320c6	0.51221883
27	0x3f590191	0.84768015
28	0x3d8dd0ec	0.06924614
29	0x3f706d2c	0.93916583
30	0x00007a93	4.3971e-41
31	0x80020af5	-1.87602e-40
32	0x3996e5aa	0.00028781343
33	0x3099cb2f	1.1189963e-09
34	0x8000ef6f	-8.5893e-41
35	0x3e3f1b08	0.18662655
36	0x3ea416f8	0.32048774
37	0x3f2ecf61	0.68285185
38	0x3996e5e4	0.0002878151
39	0x0001109c	9.7794e-41
40	0x3f83186b	1.0241827
41	0x3f4234b5	0.75861675
42	0x8000b537	-6.5008e-41
43	0x0001b489	1.566e-40
44	0x3f02c658	0.510839
45	0x3ed49a68	0.41524053
46	0x8001ba6d	-1.58712e-40
47	0x3e7974e0	0.2436099
48	0x00009936	5.4962e-41
49	0x3ee7d559	0.4527996
50	0x3f3a88ca	0.72864974
51	0x3ea76a05	0.32698074
52	0x3e754fff	0.23956297
53	0x3f037c24	0.513613
54	0x3ee12aa9	0.4397786
55	0x3f4430f5	0.766372
56	0x3e69f41e	0.2284703
57	0x3f3fe227	0.74954456
58	0x0001813b	1.38195e-40
59	0x3f065a30	0.52481365
60	0x3d7bb0ab	0.06144778
61	0x0001c569	1.62653e-40
62	0x80002b53	-1.5542e-41
63	0x3dcfa904	0.10139659
64	0x3f0c8c5b	0.54901665
65	0x8001d64d	-1.68712e-40
66	0x3f28d660	0.6595211
67	0x3ee7181e	0.45135587
68	0x8000f79c	-8.8826e-41
69	0x0001f1f3	1.7863e-40
70	0x3e6c31ce	0.23065874
71	0x0001cbd5	1.64957e-40
72	0x3e79ec63	0.2440658
73	0x3ed273d2	0.4110399
74	0x3eb08820	0.34478855
75	0x80021c29	-1.93773e-40
76	0x0889d228	8.294795e-34
77	0x3f23cb25	0.6398185
78	0x3ea0fdaa	0.3144353
79	0x3ea1c323	0.3159419
80	0x3f02a7ab	0.5103709
81	0x8000ddf8	-7.9627e-41
82	0x3ef96b51	0.48714688
83	0x2022aa6c	1.3778322e-19
84	0x35c21bbb	1.4462197e-06
85	0x80023025	-2.00942e-40
86	0x3e9f53a5	0.31118503
87	0x3f1c2129	0.609881
88	0x3f22f713	0.63658255
89	0x3edd4e6b	0.4322389
90	0x80007a5b	-4.3893e-41
91	0x0000d60d	7.6787e-41
92	0x8001e03d	-1.72277e-40
93	0x3e4281f0	0.1899488
94	0x3ec94d47	0.3931677
95	0x3f5bd0d9	0.8586555
96	0x3f080fdc	0.531492
97	0x3e27da17	0.16391788
98	0x3f18f9fe	0.5975646
99	0x3f124ea1	0.5715123
100	0x3eaf86e4	0.342826
101	0x00022d81	1.99995e-40
102	0x00008454	4.747e-41
103	0x3f350ba3	0.7072088
104	0x8001a1f1	-1.49929e-40
105	0x8001aa44	-1.52915e-40
106	0x00003098	1.7432e-41
107	0x00017683	1.3435e-40
108	0x80002e29	-1.6559e-41
109	0x8001b0b9	-1.55232e-40
110	0x3e7f8bfe	0.24955747
111	0x3ea3b8ed	0.31977025
112	0x3d0c45d6	0.03424629
113	0x3f7fb69f	0.9988803
114	0x3ea7e590	0.3279233
115	0x0001b0b4	1.55225e-40
116	0x0001c745	1.6332e-40
117	0x3f85c138	1.0449591
118	0x3f0139ff	0.5047912
119	0x3e6c0ac6	0.23050985
120	0x3e4889f8	0.19583881
121	0x3e8b0f43	0.2716008
122	0x800190e7	-1.43817e-40
123	0x3e5b8f86	0.21441469
124	0x0001697f	1.2968e-40
125	0x3e90a3fd	0.28250113
126	0x3f36ff0d	0.71482927
127	0x8001b91d	-1.58242e-40
128	0x1983c940	1.3626367e-23
129	0x80003eb5	-2.2495e-41
130	0x3f038ed5	0.5138982
131	0x3ecb2b51	0.39681485
132	0x3ef0f962	0.47065264
133	0x3ea80dee	0.32823128
134	0x3f364478	0.71198225
135	0x3f20eb0a	0.6285864
136	0x8001b0ce	-1.55261e-40
137	0x3e69b966	0.2282463
138	0x8001faf8	-1.81866e-40
139	0x3f040178	0.5156474
140	0x00019e1d	1.48556e-40
141	0x80020661	-1.8596e-40
142	0x3d1b122c	0.037859127
143	0x3e7955ac	0.24349087
144	0x8001c065	-1.60854e-40
145	0x0001ec67	1.7664e-40
146	0x8000c3d5	-7.0251e-41
147	0x8000795a	-4.3533e-41
148	0x0001c864	1.63722e-40
149	0x3f167911	0.5877848
150	0x0000f73c	8.8691e-41
151	0x80020e90	-1.88895e-40
152	0x00021c69	1.93863e-40
153	0x8001d038	-1.6653e-40
154	0x3f13e3e4	0.5776961
155	0x0001d40c	1.67904e-40
156	0x8001392a	-1.12342e-40
157	0x3ec54dee	0.38536018
158	0x80021689	-1.91755e-40
159	0x80013e71	-1.14235e-40
160	0x8000786e	-4.3202e-41
161	0x0001ff4d	1.8342e-40
162	0x3ed9eeb0	0.42564917
163	0x3e469d6d	0.1939599
164	0x3f2f17ce	0.683957
165	0x3e9989e8	0.29988027
166	0x3f128385	0.5723193
167	0x3ee1127e	0.4395942

model.features.stage1.unit1.dw_conv.bn.bias f4 [168]
0	0xbd23ad27	-0.039960053
1	0x3dd42ddd	0.1036031
2	0x814b6d8e	-3.7363813e-38
3	0x8137394f	-3.3652908e-38
4	0x81935dc7	-5.4133836e-38
5	0xbbf4a59c	-0.0074660312
6	0x8139d14f	-3.4129305e-38
7	0x021c5718	1.1486065e-37
8	0x803312d2	-4.690362e-39
9	0x01b05a80	6.478205e-38
10	0x3e9b2cdc	0.30307662
11	0x80bb64d2	-1.7209405e-38
12	0xbe0e96e5	-0.13924749
13	0x3dea6cd7	0.11446541
14	0x02000d1b	9.407716e-38
15	0x8047fdf8	-6.611427e-39
16	0x80f9f195	-2.2953702e-38
17	0x812cffb0	-3.1774857e-38
18	0x00467a93	6.472456e-39
19	0x3da9dc7d	0.08294008
20	0x3acff7a0	0.0015866645
21	0x0126448c	3.0538565e-38
22	0xbf149140	-0.58034134
23	0x81ce55e1	-7.579568e-38
24	0x3d150b94	0.036387995
25	0x8143f9aa	-3.599497e-38
26	0xbcf50f10	-0.029914409
27	0x3e1aeecb	0.15130155
28	0xbc9ebd62	-0.019377414
29	0x3e3113fe	0.17292783
30	0x8106f97d	-2.4790912e-38
31	0x01706d6d	4.4159547e-38
32	0xb8d09c73	-9.947354e-05
33	0xa03b66ef	-1.5873574e-19
34	0x8061d2c2	-8.983649e-39
35	0xbe02e602	-0.12783054
36	0xbd53ce3f	-0.051710363
37	0x3df3ed23	0.119104646
38	0xb998c18c	-0.00029135903
39	0x8069291d	-9.657476e-39
40	0xbd8500ce	-0.06494294
41	0x3cd5c7f3	0.02609632
42	0x81781bf0	-4.557045e-38
43	0x80cb521b	-1.867206e-38
44	0x3d53931f	0.051653977
45	0x3d6ec2a8	0.058291107
46	0x819856f5	-5.596076e-38
47	0xbee700a8	-0.45117688
48	0x80106f4c	-1.509294e-39
49	0xbe0c12df	-0.13679074
50	0xbdef46c5	-0.1168342
51	0xbc33028d	-0.010925901
52	0xbd979cb6	-0.07402937
53	0x3d5615b0	0.052266777
54	0xbd9fc731	-0.078016646
55	0xbc856bd4	-0.016286768
56	0xbca73135	-0.020409206
57	0xbe089a9b	-0.13340227
58	0x01ac9fd1	6.3412147e-38
59	0xbd220d6f	-0.039563593
60	0xbd7808ad	-0.06055515
61	0x80acedb1	-1.5880973e-38
62	0x813eae8a	-3.5022714e-38
63	0x3d19e4d8	0.037571758
64	0x3e293c90	0.16527009
65	0x80631f8d	-9.103032e-39
66	0x3d971d26	0.073786065
67	0x3d99fa62	0.0751846
68	0x8101d4a1	-2.3846112e-38
69	0x0029bc0f	3.832718e-39
70	0x3d6f590f	0.058434542
71	0x808123d2	-1.1859629e-38
72	0x3d74f5fa	0.059804894
73	0x3da4ea23	0.080524705
74	0xbdb48f73	-0.08816423
75	0x818aa90c	-5.0935764e-38
76	0x8009cb01	-8.99344e-40
77	0xbdb5721f	-0.088596575
78	0xbd0a62c5	-0.0337856
79	0xbd3d9e61	-0.04629362
80	0x3cf93aa7	0.030423475
81	0x8177f31d	-4.554116e-38
82	0x3e317465	0.17329557
83	0x89b92356	-4.457036e-33
84	0xb2491bdd	-1.1706075e-08
85	0x018cff15	5.17939e-38
86	0xbd9e2e74	-0.07723704
87	0xbd1725ce	-0.036901288
88	0xbd67cddf	-0.05659282
89	0x3e5fbada	0.21848622
90	0x00128709	1.70148e-39
91	0x8019e1ae	-2.376846e-39
92	0x01a15b2c	5.9272885e-38
93	0xbd468051	-0.048462216
94	0x3c1194e2	0.008885594
95	0x3cb43f08	0.022002712
96	0x3e161f14	0.14660293
97	0x3cb24970	0.021763533
98	0x3cdf5bf0	0.027265519
99	0x3d13cbb7	0.03608295
100	0x3da506c2	0.080579296
101	0x00dab3fc	2.0084704e-38
102	0x804bd45f	-6.963847e-39
103	0xbd2dd9c1	-0.042443994
104	0x00c1773e	1.7767027e-38
105	0x0221d298	1.1888849e-37
106	0x812cce3f	-3.1739385e-38
107	0x8140b8c7	-3.5397402e-38
108	0x81b0b192	-6.490699e-38
109	0x01ad46a5	6.3651533e-38
110	0x3d0c9d96	0.034329973
111	0xbb9fcf93	-0.0048770397
112	0xbd38dae3	-0.04513062
113	0x3d232b54	0.039836243
114	0x3e0e7779	0.13912763
115	0x003f5b86	5.818469e-39
116	0x01bc5a79	6.9190115e-38
117	0x3d525ee0	0.05136001
118	0x3d150451	0.03638107
119	0xbc3d8473	-0.011567223
120	0xbcf39e50	-0.029738575
121	0xbd18bd81	-0.0372901
122	0x8138326c	-3.3831639e-38
123	0x3c59d0e3	0.013294431
124	0x81abcbe6	-6.310806e-38
125	0xbd2efc5a	-0.04272113
126	0x3d094785	0.033515472
127	0x81192474	-2.8127816e-38
128	0x9a0c59bd	-2.902381e-23
129	0x8159b683	-3.998755e-38
130	0xbdd67bf5	-0.10472862
131	0xbe1383eb	-0.14405791
132	0x3ddd16ba	0.107953504
133	0xbda18172	-0.07886018
134	0xbc7597c5	-0.014989798
135	0x3dba3e82	0.09093954
136	0x000ba742	1.070191e-39
137	0xbd963b22	-0.073354974
138	0x804f67d3	-7.29225e-39
139	0xbd9be302	-0.07611658
140	0x01400b75	3.527305e-38
141	0x0094e483	1.3673628e-38
142	0x3c9499b8	0.018139705
143	0x3ad0e055	0.0015935997
144	0x01a1f8ec	5.9499245e-38
145	0x0154a7b7	3.905858e-38
146	0x80a41bdf	-1.507102e-38
147	0x01877dbc	4.977159e-38
148	0x01d09ac7	7.662923e-38
149	0x3df52dcd	0.119716264
150	0x00153012	1.94579e-39
151	0x00412dc1	5.98572e-39
152	0x00868e2d	1.235696e-38
153	0x0028a92e	3.73411e-39
154	0xbd9d30a3	-0.07675292
155	0x0221f6f3	1.1899283e-37
156	0x80b677a6	-1.6756982e-38
157	0xbe28a1c3	-0.16467957
158	0x0188d051	5.025743e-38
159	0x0105b520	2.4558193e-38
160	0x0065ab10	9.336751e-39
161	0x8208b60d	-1.0043948e-37
162	0xbd3c563c	-0.045980677
163	0xbe0e3a1f	-0.13889359
164	0xbdeeebad	-0.11666045
165	0xbe06188f	-0.13095306
166	0xbbccd4a7	-0.006250936
167	0xbded57fa	-0.11589046

model.features.stage1.unit1.dw_conv.bn.running_mean f4 [168]
0	0xbad09c84	-0.0015915786
1	0x3e2ef969	0.1708733
2	0x00000004	6e-45
3	0x00000004	6e-45
4	0x80000004	-6e-45
5	0x3b7b99e9	0.0038391298
6	0x80000004	-6e-45
7	0x80000004	-6e-45
8	0x00000004	6e-45
9	0x80000004	-6e-45
10	0xbdda6472	-0.1066369
11	0x80000004	-6e-45
12	0x3cb22f6f	0.021751134
13	0x3c4b8391	0.012421505
14	0x00000004	6e-45
15	0x80000004	-6e-45
16	0x80000004	-6e-45
17	0x00000004	6e-45
18	0x80000004	-6e-45
19	0xbe030a7d	-0.1279697
20	0xb8e30d7e	-0.000108267166
21	0x80000004	-6e-45
22	0x3d50880d	0.050910998
23	0x80000004	-6e-45
24	0x3caaa0bf	0.020828603
25	0x00000004	6e-45
26	0xbb255573	-0.0025227934
27	0xbe49e80b	-0.19717424
28	0x00000004	6e-45
29	0xbea40b26	-0.32039756
30	0x00000004	6e-45
31	0x00000004	6e-45
32	0xa6638901	-7.894212e-16
33	0x80000004	-6e-45
34	0x00000004	6e-45
35	0x3bfcba77	0.007712658
36	0xbc1cede6	-0.009578204
37	0x3ba1a850	0.0049333945
38	0xa3eb4247	-2.550682e-17
39	0x00000004	6e-45
40	0xbce8330f	-0.02834466
41	0xbb59ec68	-0.0033252481
42	0x80000004	-6e-45
43	0x00000004	6e-45
44	0xbad3373f	-0.0016114487
45	0xbadced1a	-0.001685533
46	0x00000004	6e-45
47	0x3d04b176	0.032395802
48	0x00000004	6e-45
49	0xbaf6682f	-0.001879936
50	0xbd03776f	-0.032096323
51	0xbd2c1f3d	-0.04202198
52	0x3c6ba737	0.014383129
53	0x3b8c80c4	0.004287811
54	0x3b7b4a6f	0.0038343926
55	0xbc1f4146	-0.009720152
56	0xbb9a9d08	-0.0047184266
57	0xbd2eef19	-0.04270849
58	0x00000004	6e-45
59	0xbbd9af97	-0.0066432464
60	0xb83337c2	-4.2728854e-05
61	0x00000004	6e-45
62	0x00000004	6e-45
63	0x3c157d7d	0.009124157
64	0xbdea3e5d	-0.11437676
65	0x00000004	6e-45
66	0x3c65a2a7	0.01401583
67	0xbc58f33b	-0.013241584
68	0x80000004	-6e-45
69	0x80000004	-6e-45
70	0x3c60d3d7	0.013722382
71	0x00000004	6e-45
72	0xbadc3290	-0.0016799737
73	0x3e0d3d81	0.13792993
74	0xbcb6b327	-0.022302223
75	0x80000004	-6e-45
76	0x00000004	6e-45
77	0xbc09e1aa	-0.008415619
78	0x3a1c0acf	0.00059525383
79	0xbc14cc84	-0.009081963
80	0x3ca07c8b	0.019590637
81	0x00000004	6e-45
82	0xbdb19423	-0.08670833
83	0x80000004	-6e-45
84	0x80000004	-6e-45
85	0x00000004	6e-45
86	0x3a102b7b	0.0005499643
87	0xbc27c2a1	-0.010239274
88	0xbd5eea27	-0.054422524
89	0xbd16ebc6	-0.036845945
90	0x80000004	-6e-45
91	0x00000004	6e-45
92	0x00000004	6e-45
93	0xbb654f3f	-0.0034989861
94	0xbdba61cb	-0.09100684
95	0xbe37dae3	-0.17954592
96	0x3c8668cb	0.016407391
97	0xbc30b3f7	-0.010785094
98	0xbb08f669	-0.0020898825
99	0xbc27574a	-0.010213682
100	0x3bda511a	0.0066625
101	0x80000004	-6e-45
102	0x00000004	6e-45
103	0xbbcf474c	-0.006325638
104	0x80000004	-6e-45
105	0x80000004	-6e-45
106	0x80000004	-6e-45
107	0x80000004	-6e-45
108	0x00000004	6e-45
109	0x00000004	6e-45
110	0x3d88cf3a	0.0668015
111	0x3cd64831	0.02615747
112	0xb6e1c93e	-6.72895e-06
113	0xbeb112f8	-0.34584785
114	0xbb04d926	-0.0020271032
115	0x00000004	6e-45
116	0x00000004	6e-45
117	0xbd2de3fb	-0.042453747
118	0x3c19ed17	0.0093949055
119	0x3b8c660c	0.004284626
120	0xbbf69141	-0.00752464
121	0xbb01c048	-0.0019798446
122	0x80000004	-6e-45
123	0x3c96d4ca	0.018412013
124	0x00000004	6e-45
125	0x3a4f50af	0.0007908446
126	0xbc037594	-0.008023638
127	0x80000004	-6e-45
128	0x00000004	6e-45
129	0x00000004	6e-45
130	0xb98d527f	-0.0002695508
131	0xbb9486c9	-0.004532669
132	0x3c0d5971	0.0086272815
133	0xbaf9d9ac	-0.0019062064
134	0xbc32a593	-0.010903734
135	0xbdfd1cb1	-0.12358988
136	0x00000004	6e-45
137	0x3d7da1a9	0.06192175
138	0x00000004	6e-45
139	0xbbda3f42	-0.006660373
140	0x80000004	-6e-45
141	0x00000004	6e-45
142	0x3229af75	9.876989e-09
143	0x3d60a648	0.05484608
144	0x00000004	6e-45
145	0x00000004	6e-45
146	0x80000004	-6e-45
147	0x00000004	6e-45
148	0x00000004	6e-45
149	0x3cd41452	0.025888596
150	0x80000004	-6e-45
151	0x00000004	6e-45
152	0x80000004	-6e-45
153	0x00000004	6e-45
154	0xbb8c467c	-0.0042808633
155	0x80000004	-6e-45
156	0x00000004	6e-45
157	0x3a4f6fb8	0.0007913071
158	0x80000004	-6e-45
159	0x00000004	6e-45
160	0x00000004	6e-45
161	0x00000004	6e-45
162	0xbd5d6e57	-0.054060306
163	0x3cf24e48	0.029578343
164	0xbc349c3f	-0.01102358
165	0x3bc0ebed	0.0058874995
166	0xbd9ab597	-0.07554167
167	0x3b108073	0.0022049218

model.features.stage1.unit1.dw_conv.bn.running_var f4 [168]
0	0x3c744ae4	0.014910433
1	0x3cb2711d	0.021782452
2	0x00000004	6e-45
3	0x00000004	6e-45
4	0x00000004	6e-45
5	0x3b09a86b	0.0021004926
6	0x00000004	6e-45
7	0x00000004	6e-45
8	0x00000004	6e-45
9	0x00000004	6e-45
10	0x3da1349c	0.078713626
11	0x00000004	6e-45
12	0x3ba7fc1a	0.0051264884
13	0x3d150d6d	0.036389757
14	0x00000004	6e-45
15	0x00000004	6e-45
16	0x00000004	6e-45
17	0x00000004	6e-45
18	0x00000004	6e-45
19	0x3c619775	0.01376902
20	0x3c43329d	0.011913923
21	0x00000004	6e-45
22	0x3a2cfdde	0.00065991085
23	0x00000004	6e-45
24	0x3ba37735	0.004988576
25	0x00000004	6e-45
26	0x3bb831c3	0.0056211664
27	0x3d4ecce5	0.05048837
28	0x00000004	6e-45
29	0x3dfbe2ce	0.12299119
30	0x00000004	6e-45
31	0x00000004	6e-45
32	0x0b3a234d	3.5848854e-32
33	0x00000004	6e-45
34	0x00000004	6e-45
35	0x39e6642b	0.0004394365
36	0x3c3c7332	0.011502074
37	0x3a5d3041	0.00084376713
38	0x07ab5f32	2.578517e-34
39	0x00000004	6e-45
40	0x3cfaf161	0.030632677
41	0x3c828338	0.01593171
42	0x00000004	6e-45
43	0x00000004	6e-45
44	0x3c9f48c8	0.019443884
45	0x3c7618a7	0.015020526
46	0x00000004	6e-45
47	0x3a329d17	0.00068135693
48	0x00000004	6e-45
49	0x3bd82806	0.006596568
50	0x3d0e27f2	0.034706064
51	0x3c2740e4	0.010208342
52	0x3b13f971	0.0022579099
53	0x3c31b777	0.010846964
54	0x3b2e540b	0.0026600386
55	0x3c87772b	0.016536316
56	0x3b10ce5e	0.002209566
57	0x3ccca709	0.024981992
58	0x00000004	6e-45
59	0x3baf04a5	0.00534113
60	0x318a77c7	4.0299457e-09
61	0x00000004	6e-45
62	0x00000004	6e-45
63	0x3a72dd50	0.00092645455
64	0x3d326421	0.04355252
65	0x00000004	6e-45
66	0x3c7b2119	0.015327715
67	0x3ba6b362	0.005087302
68	0x00000004	6e-45
69	0x00000004	6e-45
70	0x3b03939d	0.0020076998
71	0x00000004	6e-45
72	0x3a1a5d92	0.0005888577
73	0x3c4bf514	0.012448568
74	0x3b325316	0.0027210168
75	0x00000004	6e-45
76	0x00000004	6e-45
77	0x3c203f31	0.009780691
78	0x3ab0c588	0.0013486603
79	0x3b2da271	0.0026494528
80	0x3c1fb6c0	0.009748161
81	0x00000004	6e-45
82	0x3c855f80	0.01628089
83	0x00000004	6e-45
84	0x00000004	6e-45
85	0x00000004	6e-45
86	0x3a3480f4	0.00068856706
87	0x3bff7409	0.007795815
88	0x3cbbf7fa	0.022945393
89	0x3c1137f6	0.00886344
90	0x00000004	6e-45
91	0x00000004	6e-45
92	0x00000004	6e-45
93	0x3aa59555	0.0012633005
94	0x3c826056	0.015915077
95	0x3d984cbf	0.07436513
96	0x3ca135f3	0.019679045
97	0x3b3f940b	0.0029232528
98	0x3caecd06	0.021337997
99	0x3cd0b5e9	0.025477367
100	0x3c602f75	0.01368319
101	0x00000004	6e-45
102	0x00000004	6e-45
103	0x3c712959	0.014719331
104	0x00000004	6e-45
105	0x00000004	6e-45
106	0x00000004	6e-45
107	0x00000004	6e-45
108	0x00000004	6e-45
109	0x00000004	6e-45
110	0x3b4b817d	0.0031052523
111	0x3b8fc03b	0.0043869293
112	0x32858c01	1.5546904e-08
113	0x3e431da9	0.19054283
114	0x3ba1c6d0	0.0049370304
115	0x00000004	6e-45
116	0x00000004	6e-45
117	0x3da3049c	0.079598635
118	0x3ca51bb7	0.020154817
119	0x3b79c85f	0.0038113815
120	0x3a93d124	0.0011277539
121	0x3a378eff	0.0007002204
122	0x00000004	6e-45
123	0x3b9d1337	0.0047935504
124	0x00000004	6e-45
125	0x3b3a6f55	0.0028447707
126	0x3cd3c2c0	0.0258497
127	0x00000004	6e-45
128	0x00000004	6e-45
129	0x00000004	6e-45
130	0x3b5fe3c6	0.0034162863
131	0x3afb41e7	0.0019169421
132	0x3a958131	0.00114063
133	0x3b8f94aa	0.004381736
134	0x3bf85909	0.007578973
135	0x3cfa92ce	0.03058758
136	0x00000004	6e-45
137	0x3a4f2bad	0.00079029315
138	0x00000004	6e-45
139	0x3b7d94ac	0.0038693352
140	0x00000004	6e-45
141	0x00000004	6e-45
142	0x2da1a5b1	1.8377163e-11
143	0x3b6241b9	0.0034524037
144	0x00000004	6e-45
145	0x00000004	6e-45
146	0x00000004	6e-45
147	0x00000004	6e-45
148	0x00000004	6e-45
149	0x3c85861b	0.016299298
150	0x00000004	6e-45
151	0x00000004	6e-45
152	0x00000004	6e-45
153	0x00000004	6e-45
154	0x3c421ca3	0.011847648
155	0x00000004	6e-45
156	0x00000004	6e-45
157	0x39dfbb2d	0.0004267333
158	0x00000004	6e-45
159	0x00000004	6e-45
160	0x00000004	6e-45
161	0x00000004	6e-45
162	0x394395c7	0.00018652446
163	0x3a54a959	0.0008112393
164	0x3be7bb4d	0.0070718885
165	0x39b69303	0.00034823277
166	0x3c0e82b0	0.0086981505
167	0x3afd6f34	0.0019335509
