yono_compression/yono/data/saved_model/MicroNet-hhar-ch176_hhar-noaug_adam_multistep_nomixup.pt (torch, 829833 bytes, 57 tensors)

model.features.init_block.conv.weight f4 [176, 1, 3, 3]
0.12522693 -0.38219923 -0.0996864 0.20104285 -0.19138588 0.17801589 -0.03645603 0.16624333
0.03220463 -0.05498158 0.13440527 0.008005302 0.12870103 -0.22377697 -0.0492824 -0.046992503
0.08107148 0.0002896151 0.325608 0.12266616 -0.09505747 -0.2514209 -0.06543259 -0.15753707
-0.034418445 0.04400444 0.14958821 0.04131724 -0.2667437 0.11247477 0.14250669 0.37983277
0.24183668 -0.30004704 -0.33184782 -0.16727532 0.2996914 -0.049801286 0.19251615 -0.16762584
0.38150227 -0.026096474 0.22677203 0.082135305 -0.036919594 0.16364907 -0.1813882 0.13636392
-0.09269639 -0.03995491 -0.35279372 -0.1531307 0.1996619 -0.018227424 0.24245739 0.1654596
-0.08571555 -0.27308542 0.17395909 0.020343373 -0.17089821 0.23620051 0.21999922 0.21515273
-0.2722429 -0.10544633 -0.010273312 -0.016316202 -0.22615655 -0.1804158 0.26397023 2.4645044e-05
0.18047443 0.014848424 0.16185486 0.14672102 0.1537838 0.14132097 -0.28716353 0.10707343
-0.25389504 -0.24548733 0.07675573 0.09529351 0.17619428 -0.13828893 -0.2904158 0.16706437
-0.06476671 0.13197288 0.09816496 -0.16174927 0.062355157 0.093778476 -0.22714931 -0.004595467
0.0810316 0.024924815 -0.048609924 -0.16469166 0.26916122 0.017765943 0.2462981 0.11637486
-0.13706815 -0.2683869 0.23646405 0.036768455 0.18246503 0.06472459 0.08241076 0.2603034
0.29896912 -0.19722265 -0.030563181 0.31565738 0.25930017 0.20323259 -0.270965 -0.22748975
-0.23646757 0.05277293 0.31332612 -0.17598079 0.092099905 -0.15089698 -0.3323109 -0.099306256
0.12547249 0.2422736 -0.1951406 0.029809322 0.30167758 0.22191922 0.21583566 0.18463679
0.23313224 0.100707844 -0.23198551 -0.22591092 -0.21649012 -0.061238304 -0.112362124 0.205531
0.0825754 -0.060423803 0.15909287 0.082990564 0.17277913 0.18072754 -0.153043 0.2954612
-0.041432373 0.08020719 -0.35122928 -0.23178962 -0.14256227 -0.09174768 0.19520026 -0.17798924
-0.2543735 0.14036866 0.17757095 0.19750771 -0.22348833 0.031791687 -0.1198245 -0.15389703
-0.18594877 -0.15600774 -0.10890115 0.12034255 0.042182676 0.061965104 0.24348953 0.30904505
0.19528191 0.06108162 -0.26928568 0.13943456 -0.061062627 -0.115596466 -0.28501153 0.06721818
-0.22386998 0.29057792 -0.21132429 -0.18257314 -0.06539455 -0.13789989 0.037786562 -0.15883677
-0.24027315 -0.03709995 0.20154464 -0.13153204 0.17220734 0.20447236 0.2513151 -0.18788502
0.12947774 -0.32196146 0.2746937 -0.15202218 0.18559451 0.026327832 0.009872714 -0.029700093
0.097460024 0.054075953 -0.02536117 0.06289277 -0.3132945 0.19962685 0.18383543 0.2705893
0.2183723 -0.11106995 -0.1953401 0.3074151 -0.22708157 0.30122998 -0.25484622 -0.22080302
0.11328357 -0.23822764 -0.06626971 0.22517295 0.2762207 0.3067464 -0.028100302 -0.24523117
0.25524244 -0.06250267 -0.19212931 0.039897442 -0.25317428 0.15692583 0.25146985 -0.19085759
-0.27555546 -0.101344846 0.0819362 -0.071252435 -0.14477058 0.04251319 -0.28519776 -0.18167013
-0.15564829 0.34764507 0.31250507 -0.094543524 -0.041222073 0.108718455 0.04023792 -0.09134477
00000000: 7d3b 003e 9eaf c3be 6228 ccbd 2dde 4d3e
00000010: a9fa 43be cc49 363e eb52 15bd b13b 2a3e
00000020: 01e9 033d 5d34 61bd 89a1 093e ac28 033c
00000030: 34ca 033e ca25 65be 58dc 49bd 367b 40bd
00000040: ce08 a63d 7bd7 9739 17b6 a63e 6538 fb3d
00000050: 7ead c2bd 3dba 80be 8601 86bd 6651 21be
00000060: 5bfa 0cbd 003e 343d a72d 193e 443c 293d
00000070: a192 88be 2c59 e63d 46ed 113e 7179 c23e
00000080: 09a4 773e c49f 99be f5e7 a9be 394a 2bbe
00000090: 2771 993e 6ffc 4bbd f422 453e 1ca6 2bbe
000000a0: 4454 c33e 46c8 d5bc ed36 683e 8e36 a83d
000000b0: 0039 17bd 9f93 273e d4bd 39be fca2 0b3e
000000c0: 9bd7 bdbd c2a7 23bd 61a1 b4be 4bce 1cbe
000000d0: 2b74 4c3e ae51 95bc c046 783e 3e6e 293e
000000e0: a28b afbd dad1 8bbe 5522 323e 25a7 a63c
000000f0: f1ff 2ebe 8cde 713e 7a47 613e ff50 5c3e
00000100: 6c63 8bbe 3ff4 d7bd 6551 28bc 8ea9 85bc
00000110: 9595 67be ebbe 38be 1b27 873e d4bc ce37
00000120: 4ace 383e ce46 733c 48bd 253e 093e 163e
00000130: 8079 1d3e 72b6 103e 1907 93be 5149 db3d
00000140: 88fe 81be 0861 7bbe 1c32 9d3d 3e29 c33d
00000150: 466c 343e 9d9b 0dbe 61b1 94be ec12 2b3e
00000160: 69a4 84bd e623 073e b60a c93d 9aa1 25be
00000170: 1f68 7f3d ee0e c03d d499 68be 9295 96bb
00000180: e5f3 a53d 202f cc3c 331b 47bd eea4 28be
00000190: 80cf 893e e289 913c 9235 7c3e f155 ee3d
000001a0: 985b 0cbe 026a 89be a223 723e 859a 163d
000001b0: 1dd8 3a3e 538e 843d f9c6 a83d 7d46 853e
000001c0: 7b12 993e bcf4 49be a35f fabc d89d a13e
000001d0: fec2 843e 341c 503e edbb 8abe 13f3 68be
000001e0: 8e24 72be 6e28 583d 486c a03e 4f34 34be
000001f0: e09e bc3d bd84 1abe a724 aabe 1461 cbbd
00000200: dc7b 003e 9216 783e f0d2 47be ae32 f43c
00000210: 7c75 9a3e cb3e 633e 0604 5d3e 6d11 3d3e
00000220: 38ba 6e3e ea3f ce3d 9c8d 6dbe 3155 67be
00000230: 96af 5dbe 04d5 7abd 1d1e e6bd b876 523e
00000240: 4b1d a93d f37e 77bd 3ee9 223e f5f6 a93d
00000250: 03ed 303e a410 393e 4eb7 1cbe b146 973e
00000260: feb4 29bd ab43 a43d 53d4 b3be 425a 6dbe
00000270: d8fb 11be 35e6 bbbd 94e2 473e d042 36be
00000280: 3e3d 82be cdbc 0f3e 29d5 353e 763f 4a3e
00000290: 20da 64be 0038 023d 8c66 f5bd 2f97 1dbe
000002a0: 5b69 3ebe 7ec0 1fbe 9107 dfbd 2876 f63d
000002b0: bec7 2c3d 1fcf 7d3d 5255 793e 273b 9e3e
000002c0: fbf7 473e b930 7a3d d0df 89be efc7 0e3e
000002d0: ce1c 7abd d7bd ecbd 08ed 91be afa9 893d
000002e0: 2c3e 65be a1c6 943e 6565 58be 74f4 3abe
000002f0: 94ed 85bd a135 0dbe 15c6 1a3d 1ba6 22be
00000300: 2a0a 76be 1ef6 17bd b861 4e3e 56b0 06be
00000310: 1f57 303e 3461 513e 5fac 803e ee64 40be
00000320: d095 043e 22d8 a4be a7a4 8c3e b4ab 1bbe
00000330: 7d0c 3e3e 77ad d73c 2ac1 213c 9c4d f3bc
00000340: 1f99 c73d bf7e 5d3d 3ac2 cfbc edcd 803d
00000350: 2368 a0be fb6a 4c3e 5b3f 3c3e ae8a 8a3e
00000360: fd9c 5f3e a478 e3bd 3c07 48be 8365 9d3e
00000370: 1288 68be d13a 9a3e 347b 82be 301a 62be
00000380: 3701 e83d f2f1 73be 6ab8 87bd bd93 663e
00000390: cd6c 8d3e dd0d 9d3e 9b32 e6bc e11d 7bbe
000003a0: 23af 823e 6601 80bd 8cbd 44be 806b 233d
000003b0: 0fa0 81be 2ab1 203e a8c0 803e 2c70 43be
000003c0: 9b15 8dbe e38d cfbd 2bce a73d ccec 91bd
000003d0: bd3e 14be 5022 2e3d 7105 92be bc07 3abe
000003e0: 4462 1fbe 89fe b13e aa00 a03e 09a0 c1bd
000003f0: 7ad8 28bd c8a7 de3d 84d0 243d f712 bbbd

model.features.init_block.bn.weight f4 [176]
0.142259 0.22144985 0.28779975 0.31508845 0.32814258 0.3528978 0.25125614 0.29976842
0.3124179 0.1871097 0.1035531 0.39443666 0.40377617 0.24990174 0.28266105 0.38856632
0.25995117 0.3891353 0.23258607 0.27720043 0.19037183 0.2604871 0.30092326 0.27852044
0.20983708 0.22359397 0.15368417 0.34921473 0.15190555 0.22659196 0.3146122 0.25728568
0.23600063 0.49731115 0.3609122 0.33915874 0.2144394 0.4732187 0.31683946 0.1816609
0.35969234 0.22309496 0.25727835 0.12570515 0.2401612 0.4594858 0.32144976 0.36021745
0.32502207 0.20527218 0.18024597 0.1865125 0.15878566 0.19788855 0.34755534 0.42671773
0.1795882 0.58191985 0.19859566 0.17232534 0.40955472 0.37427858 0.21710488 0.33284596
0.23393486 0.19432868 0.21592292 0.27429968 0.25552654 0.25342482 0.35702258 0.14307922
0.39602983 0.19814162 0.32314834 0.11793768 0.31490898 0.3404004 0.08911035 0.25504315
0.09162698 0.10149178 0.3116814 0.29091814 0.2243203 0.48454395 0.37509882 0.5260907
0.31053412 0.23336376 0.23618414 0.16503124 0.14075352 0.3556844 0.31777683 0.19297506
0.29930234 0.48314452 0.22565441 0.20073654 0.27377617 0.37418345 0.34786373 0.1868517
0.21259478 0.19668336 0.25260526 0.26648697 0.33012894 0.2323308 0.29873407 0.43934748
0.2394258 0.3217082 0.34527674 0.1698653 0.27882212 0.21380752 0.32005674 0.20769948
0.31800553 0.38460144 0.27429152 0.20952325 0.3068784 0.2130761 0.17064647 0.25295982
0.15362339 0.3479503 0.24143472 0.2795059 0.3741001 0.17798017 0.1903433 0.28882334
0.18793376 0.22836326 0.29896474 0.25698885 0.17318803 0.13831005 0.24604057 0.20367227
0.2516323 0.29026318 0.18627413 0.23329195 0.30258697 0.35816395 0.12173989 0.22466898
0.25589296 0.19727512 0.123835556 0.2799415 0.36907396 0.3010583 0.3686669 0.27204445
0.28776243 0.33208868 0.20618191 0.16497025 0.28022593 0.14759041 0.2956285 0.08682455
0.16483349 0.22912593 0.22578554 0.27147135 0.25605994 0.2555793 0.2786102 0.29186365
00000000: 58ac 113e c0c3 623e 7d5a 933e 4653 a13e
00000010: 4e02 a83e 05af b43e a5a4 803e 3f7b 993e
00000020: 3df5 9f3e af99 3f3e a613 d43d 9af3 c93e
00000030: c0bb ce3e 3ee6 7f3e f3b8 903e 2af2 c63e
00000040: 5218 853e be3c c73e 0b2b 6e3e 37ed 8d3e
00000050: d5f0 423e 915e 853e 9d12 9a3e 3b9a 8e3e
00000060: 88df 563e d1f5 643e 625f 1d3e 46cc b23e
00000070: 218d 1b3e b907 683e da14 a13e f3ba 833e
00000080: 26aa 713e 919f fe3e 7cc9 b83e 37a6 ad3e
00000090: 0196 5b3e b949 f23e c838 a23e 5105 3a3e
000000a0: 9829 b83e 0173 643e fdb9 833e dab8 003e
000000b0: d1ec 753e b941 eb3e 1095 a43e 6c6e b83e
000000c0: 4b69 a63e df32 523e 6692 383e 22fd 3e3e
000000d0: b598 223e 4ca3 4a3e c6f2 b13e bf7a da3e
000000e0: f8e5 373e b3f8 143f a95c 4b3e 0e76 303e
000000f0: 28b1 d13e 71a1 bf3e be50 5e3e c96a aa3e
00000100: 9f8c 6f3e 19fe 463e e61a 5d3e 0271 8c3e
00000110: 60d4 823e e6c0 813e aacb b63e 5c83 123e
00000120: 6cc4 ca3e a3e5 4a3e b373 a53e 4f89 f13d
00000130: c03b a13e f648 ae3e 7d7f b63d 0495 823e
00000140: eda6 bb3d ecda cf3d b494 9f3e 39f3 943e
00000150: 39b4 653e 2516 f83e f40c c03e e1ad 063f
00000160: 54fe 9e3e e9f6 6e3e 41da 713e f3fd 283e
00000170: b121 103e 441c b63e a5b3 a23e 419b 453e
00000180: 283e 993e b85e f73e f311 673e e18d 4d3e
00000190: 642c 8c3e f994 bf3e 321b b23e 0d56 3f3e
000001a0: 72b2 593e 5d67 493e 7a55 813e fb70 883e
000001b0: a906 a93e 20e8 6d3e acf3 983e 27f2 e03e
000001c0: 092c 753e f0b6 a43e 1dc8 b03e 2bf1 2d3e
000001d0: c6c1 8e3e 5cf0 5a3e 7ade a33e 2caf 543e
000001e0: 9fd1 a23e 7bea c43e f06f 8c3e 438d 563e
000001f0: 2a1f 9d3e 9f30 5a3e f3bd 2e3e f383 813e
00000200: 734f 1d3e 8b26 b23e aa3a 773e 661b 8f3e
00000210: 0c8a bf3e 6f40 363e 5be9 423e a7e0 933e
00000220: b571 403e 0fd8 693e e811 993e 0b94 833e
00000230: 3458 313e 26a1 0d3e 0ff2 7b3e 778f 503e
00000240: f3d5 803e 609d 943e a5be 3e3e 16e4 6e3e
00000250: aeec 9a3e 4461 b73e c352 f93d a00f 663e
00000260: 6704 833e 7d02 4a3e 7f9d fd3d 7e54 8f3e
00000270: 43f7 bc3e 5024 9a3e e8c1 bc3e 6949 8b3e
00000280: 9955 933e 8707 aa3e 5a21 533e f6ed 283e
00000290: c679 8f3e f121 173e 9e5c 973e 12d1 b13d
000002a0: 1cca 283e fd9f 6a3e 5334 673e 4bfe 8a3e
000002b0: 4a1a 833e 4adb 823e ffa5 8e3e 276f 953e

model.features.init_block.bn.bias f4 [176]
0.0108930925 0.012629777 -0.013359957 -0.036350176 -0.017543687 -0.022293827 -0.028833643 -0.008953782
0.013514766 -0.0042272964 -0.0018236663 0.018300522 0.0338109 0.004764066 0.035045456 -0.03199454
0.081588484 -0.013465879 0.0025848886 0.038272116 0.008509752 -0.00037302024 -0.051221844 0.02891417
-0.0060006976 0.01136586 -0.0066543915 -0.011511209 0.021823077 0.03952976 -0.030911596 -0.037995033
-0.0015793382 -0.043833096 -0.023955815 -0.04224717 0.05118028 -0.08716472 -0.024605606 -0.005916104
-0.049987152 0.006663769 -0.09811822 0.001633488 0.011668388 -0.04399348 -0.02017232 -0.040326014
0.03291961 -0.12268403 0.00447178 0.0007918031 0.05171595 -0.01061612 -0.041231222 0.08125104
0.0006184181 -0.0461668 0.008548568 -0.0068001156 -0.030810751 0.032836985 0.008536791 0.030186482
-0.0036083618 0.0071057226 0.10020094 -0.03169103 0.029146682 0.12127989 0.052410983 -0.0034254203
-0.081942834 0.001392538 -0.015904265 0.001998156 0.0269415 -0.027596522 0.0014756202 0.0046089375
0.008696959 -0.0046427394 -0.0065228357 0.028916592 0.0054189325 -0.075798556 -0.030758796 -0.03860037
0.020754555 0.04743289 -0.054704867 0.0025670165 -0.006840781 -0.028297814 0.02231605 0.009853633
-0.0023588422 -0.04540919 0.02660291 0.02974188 -0.004940455 0.042616952 -0.019010985 0.00512168
-0.05645739 -0.06583265 -0.0043400126 0.0011569804 0.036336523 -0.01933776 -0.0383735 0.05204042
-0.056941055 -0.018909834 -0.02103322 -0.0038836326 0.046072315 0.0070224097 0.026922677 0.004716986
-0.046829242 -0.057253137 -0.0119223045 0.058287457 0.022126867 0.0031574874 -0.071990415 0.024429752
0.0024603289 0.05551645 -0.002953173 0.0150070125 0.064968094 0.00481219 0.013201164 0.029321166
-0.04250834 0.030867264 0.028243734 0.011059179 -0.017441802 -0.0018692241 0.048538443 -0.03455534
-0.09054755 0.029697541 0.0015577215 0.02004719 -0.019128596 0.07645702 -0.0032299408 0.043827653
0.032751642 0.010517141 0.0036101013 0.012461925 -0.07442388 -0.061152022 0.049739897 -0.025907837
-0.012264894 -0.020445889 -0.007754765 0.006626503 -0.020722898 -0.007432645 0.03997569 0.0011170901
0.002427314 0.022513863 0.0011755624 0.017343866 -0.010729496 0.053967852 -0.016134957 0.081365965
00000000: f178 323c 20ed 4e3c b9e3 5abc ece3 14bd
00000010: c7b7 8fbc 8ba1 b6bc 8834 ecbc e2b2 12bc
00000020: 096d 5d3c 2285 8abb 1608 efba faea 953c
00000030: 4c7d 0a3d e21b 9c3b d38b 0f3d b50c 03bd
00000040: dd17 a73d fd9f 5cbc 3c67 293b 39c3 1c3d
00000050: 7d6c 0b3c ee91 c3b9 ffcd 51bd 69dd ec3c
00000060: 80a1 c4bb df37 3a3c 150d dabb 8399 3cbc
00000070: 4fc6 b23c f5e9 213d 513a fdbc aea0 1bbd
00000080: cc01 cfba 558a 33bd fc3e c4bc 5e0b 2dbd
00000090: 6aa2 513d 6b83 b2bd b291 c9bc e1db c1bb
000000a0: 54bf 4cbd bf5b da3b 35f2 c8bd c31a d63a
000000b0: c42c 3f3c 8232 34bd 6c40 a5bc e42c 25bd
000000c0: b7d6 063d c441 fbbd 0288 923b 0291 4f3a
000000d0: 1bd4 533d 3cef 2dbc 12e2 28bd f266 a63d
000000e0: 561d 223a 6619 3dbd 4b0f 0c3c 81d3 debb
000000f0: d466 fcbc 1380 063d e6dd 0b3c a449 f73c
00000100: 447a 6cbb 1fd7 e83b 2736 cd3d 74ce 01bd
00000110: 06c5 ee3c 9761 f83d e6ac 563d 047d 60bb
00000120: a5d1 a7bd d285 b63a a949 82bc 7ff3 023b
00000130: 6cb4 dc3c 1a12 e2bc 9969 c13a 9206 973b
00000140: b17d 0e3c 1f22 98bb 83bd d5bb 7de2 ec3c
00000150: 4d91 b13b 463c 9bbd dff9 fbbc 6c1b 1ebd
00000160: 7505 aa3c fd48 423d 3612 60bd 643b 283b
00000170: a128 e0bb d1d0 e7bc 26d0 b63c 2271 213c
00000180: ce96 1abb fdfe 39bd 59ee d93c 3ea5 f33c
00000190: 8ae3 a1bb 1d8f 2e3d edbc 9bbc c4d3 a73b
000001a0: dd3f 67bd 45d3 86bd aa36 8ebb d2a5 973a
000001b0: 9bd5 143d 396a 9ebc 882d 1dbd 5628 553d
000001c0: 063b 69bd cce8 9abc dc4d acbc 8b84 7ebb
000001d0: 53b6 3c3d 3e1c e63b f28c dc3c f290 9a3b
000001e0: 05d0 3fbd 4482 6abd c555 43bc d4be 6e3d
000001f0: 6743 b53c d9ed 4e3b b66f 93bd e720 c83c
00000200: 783d 213b 3865 633d 058a 41bb f9df 753c
00000210: fe0d 853d 93af 9d3b b249 583c f132 f03c
00000220: 3a1d 2ebd 58dd fc3c 675f e73c 8f31 353c
00000230: 1ce2 8ebc c100 f5ba 3fd0 463d e689 0dbd
00000240: fe70 b9bd 4248 f33c 762c cc3a 013a a43c
00000250: 93b3 9cbc 8095 9c3d 6aad 53bb a084 333d
00000260: 9626 063d 1650 2c3c 7397 6c3b 1a2d 4c3c
00000270: 8c6b 98bd 8b7a 7abd 10bc 4b3d ac3c d4bc
00000280: b2f2 48bc 237e a7bc af1b febb 2323 d93b
00000290: 11c3 a9bc 8c8d f3bb 8dbd 233d 536b 923a
000002a0: 9213 1f3b fe6e b83c 5415 9a3a b914 8e3c
000002b0: c5ca 2fbc 650d 5d3d 752d 84bc 33a3 a63d

model.features.init_block.bn.running_mean f4 [176]
0.045367863 -0.023869924 -0.022084793 -0.062013272 0.43657836 -0.20945436 0.2597423 -0.18004203
0.15079571 -0.043604188 -0.042553026 0.16541815 0.6292267 -0.18457383 0.33394548 -0.113258906
0.3795104 -0.3772059 -0.33840564 0.4794404 -0.37009937 0.004380702 0.0927185 0.25709793
-0.011202424 0.23706701 -0.2385585 -0.11277328 0.3368703 0.00093233655 0.014211948 0.063676804
-0.08073552 -0.2862728 -0.091377966 -0.12675418 0.14547975 -0.55657417 -0.3505912 0.35246804
-0.25684485 0.04171385 -0.12365293 0.14013456 0.12183217 -0.18503092 -0.062272575 -0.16416396
0.12812231 -0.15928629 0.31507745 0.0012484747 0.16923489 0.082419544 0.0012986601 -0.3728298
-0.55011195 -0.5212895 -0.3320608 0.19272067 -0.20952407 -0.049029976 -0.6058556 -0.37630126
0.024598762 0.21256402 0.50654864 0.13833266 0.39780858 0.59144706 -0.38465098 0.16386577
-0.67365193 -0.07056402 -0.24219382 -0.08226799 -0.50759983 -0.124033526 0.30142733 0.001562391
0.15977181 0.18120994 -0.119618 0.42694014 -0.40960124 -0.13656054 -0.20428212 -0.26959518
0.19234481 0.22569667 0.24091539 -0.0013577777 0.17263912 -0.35984758 -0.41954666 -0.18457665
-0.1072108 -0.57419616 0.4464721 0.039653037 -0.6140436 0.70257604 -0.22708356 0.22846894
0.4350717 0.056986313 -0.1758458 0.28881076 -0.26741123 -0.07477066 0.04343026 -0.2111444
0.33595118 -0.46251324 -0.13904414 -0.287437 0.20315614 0.19796038 -0.2863262 -0.19031206
0.06589999 -0.10352574 -0.013382991 0.29781508 0.05996023 0.19684318 0.2123251 -0.5359965
-0.3600425 -0.3080873 -0.014816385 0.11066268 0.55124366 0.069045514 -0.25004604 0.0034746544
0.2303576 -0.33068883 -0.1524689 0.34493843 0.03699486 -0.22274382 0.23926818 0.36916184
0.04653099 0.011155936 -0.27102932 -0.05917954 -0.29102516 -0.21135917 0.049557935 0.35099977
0.36056522 0.0858585 0.080196716 -0.4955638 -0.051827967 -0.17527376 0.47902206 0.15112042
-0.10923573 -0.112316854 -0.2370132 -0.09090999 -0.16064121 0.13281016 -0.3077932 0.07687622
0.2298636 0.09719487 -0.024732795 -0.46055707 0.030708801 -0.15169033 -0.5257262 0.35855663
00000000: a7d3 393d dc8a c3bc 2beb b4bc a101 7ebd
00000010: 3387 df3e 347b 56be f1fc 843e f05c 38be
00000020: 316a 1a3e 4e9a 32bd 154c 2ebd 6063 293e
00000030: 0015 213f ec00 3dbe e7fa aa3e 49f4 e7bd
00000040: 304f c23e 2221 c1be 8143 adbe 3679 f53e
00000050: aa7d bdbe fe8b 8f3b 32e3 bd3d 57a2 833e
00000060: 5f8a 37bc b2c1 723e ae48 74be adf5 e6bd
00000070: 447a ac3e 0c68 743a 3bd9 683c fc68 823d
00000080: aa58 a5bd 5992 92be 5f24 bbbd d9cb 01be
00000090: a5f8 143e a57b 0ebf b180 b3be b176 b43e
000000a0: 2b81 83be 24dc 2a3d bf3d fdbd 6f7f 0f3e
000000b0: 2583 f93d bf78 3dbe 8711 7fbd 991a 28be
000000c0: 7f32 033e f21b 23be d551 a13e dca3 a33a
000000d0: e94b 2d3e 94cb a83d cd37 aa3a 8ce3 bebe
000000e0: 23d4 0cbf 3b73 05bf e003 aabe 9158 453e
000000f0: 7a8d 56be a8d3 48bd 5a19 1bbf 8faa c0be
00000100: 5883 c93c 62aa 593e 2cad 013f 14a7 0d3e
00000110: 91ad cb3e 1369 173f f9f0 c4be 6ecc 273e
00000120: 7474 2cbf de83 90bd a801 78be 1f7c a8bd
00000130: 10f2 01bf 4a05 febd af54 9a3e 24c9 cc3a
00000140: 399b 233e 198f 393e 48fa f4bd e697 da3e
00000150: 41b7 d1be 87d6 0bbe 552f 51be 6108 8abe
00000160: 0af6 443e 071d 673e 86b2 763e 76f7 b1ba
00000170: 4fc8 303e f13d b8be d2ce d6be a901 3dbe
00000180: 5691 dbbd 85fe 12bf fe97 e43e 396b 223d
00000190: f631 1dbf 06dc 333f 9888 68be c3f3 693e
000001a0: b8c1 de3e 7b6a 693d ec10 34be 01df 933e
000001b0: 20ea 88be 5c21 99bd eee3 313d 3d36 58be
000001c0: cb01 ac3e 89ce ecbe 9661 0ebe f12a 93be
000001d0: 2a08 503e 20b6 4a3e 5999 92be 2ae1 42be
000001e0: 93f6 863d 4e05 d4bd 5544 5bbc 387b 983e
000001f0: dc98 753d 4291 493e c06b 593e 1137 09bf
00000200: 7e57 b8be 9ebd 9dbe 6cc0 72bc 1da3 e23d
00000210: 4e1e 0d3f bc67 8d3d 0906 80be 07b7 633b
00000220: dde2 6b3e 0c50 a9be cf20 1cbe c59b b03e
00000230: ec87 173d f516 64be b802 753e c802 bd3e
00000240: 4897 3e3d 63c7 363c 5bc4 8abe 3f66 72bd
00000250: 4001 95be 8a6e 58be 43fd 4a3d 3eb6 b33e
00000260: 019c b83e 95d6 af3d 2d3e a43d 8aba fdbe
00000270: 9049 54bd f77a 33be 6142 f53e 50bf 1a3e
00000280: fbb6 dfbd 6106 e6bd 97b3 72be 042f babd
00000290: 217f 24be 63ff 073e 1297 9dbe 4871 9d3d
000002a0: 5d61 6b3e 1b0e c73d 6e9c cabc 23ce ebbe
000002b0: 0691 fb3c b654 1bbe fe95 06bf bc94 b73e

model.features.init_block.bn.running_var f4 [176]
19.58331 1.5632117 4.6359096 11.300363 26.215664 8.235755 33.56162 9.521848
8.806023 6.7391133 15.019038 31.919382 50.53532 10.449379 18.459259 7.6436796
20.033546 42.3238 15.610285 24.702171 26.055647 27.228983 6.948383 12.557735
35.561954 27.68381 18.136284 6.7349005 19.910112 7.660382 4.7953258 10.553143
8.210332 10.191144 14.837536 6.6145906 4.9257197 27.053345 37.796814 14.651912
32.426632 20.061913 35.763454 19.187769 23.700617 11.540185 7.623226 5.815143
15.076838 21.13755 12.979279 12.515956 12.916276 11.779408 6.0218544 34.694996
34.983723 40.18085 16.999878 21.845999 8.875532 25.233274 32.981625 13.920571
21.359333 8.673492 28.403568 36.609337 19.314129 33.470024 20.379034 5.5469294
44.135006 11.679554 13.32007 21.036821 35.288136 19.681076 10.054442 25.02105
5.6617265 7.921637 24.402143 21.18524 32.806004 7.4895425 9.717137 28.863173
6.389664 18.095854 7.53216 23.514738 7.761079 16.066868 17.396822 42.11249
48.801315 31.302885 23.191376 8.341801 55.02567 55.286503 56.570087 20.766848
29.705973 26.68054 12.1187315 31.083162 13.5684595 6.26631 15.687294 16.765245
12.840669 41.376057 9.807482 21.684193 10.187324 13.876805 26.075985 20.861374
5.641638 14.233094 4.559786 20.933178 6.7134924 13.695954 27.895626 33.321877
29.0418 21.621115 6.8931327 9.391485 28.548935 9.295023 31.095444 5.450543
15.17705 23.13014 22.033789 52.15106 18.549753 11.629974 14.407146 19.332155
17.274097 11.753161 13.095982 18.792881 30.896135 11.312892 22.87483 25.348064
20.19937 8.960127 33.604675 22.444786 8.471959 12.695222 19.148062 10.734004
7.8678565 9.816399 22.200851 6.978011 35.60584 3.9015102 9.203407 6.4276857
44.312874 7.990407 8.27244 31.95073 5.12229 12.239071 78.46509 15.192229
00000000: 9eaa 9c41 5217 c83f 5f59 9440 49ce 3441
00000010: aeb9 d141 a7c5 0341 193f 0642 7d59 1841
00000020: 78e5 0c41 d1a6 d740 fb4d 7041 e55a ff41
00000030: 2b24 4a42 a830 2741 90ac 9341 0699 f440
00000040: b444 a041 924b 2942 bac3 7941 0c9e c541
00000050: f771 d041 f5d4 d941 2759 de40 7cec 4841
00000060: 713f 0e42 7178 dd41 1c17 9141 4e84 d740
00000070: e947 9f41 d921 f540 4f73 9940 acd9 2841
00000080: 855d 0341 ed0e 2341 8c66 6d41 baaa d340
00000090: 7f9f 9d40 406d d841 f02f 1742 3b6e 6a41
000000a0: dfb4 0142 cc7e a041 c70d 0f42 8d80 9941
000000b0: dd9a bd41 99a4 3841 78f1 f340 a715 ba40
000000c0: ba3a 7141 b419 a941 20ab 4f41 5b41 4841
000000d0: 11a9 4e41 7578 3c41 08b3 c040 adc7 0a42
000000e0: 55ef 0b42 31b9 2042 c0ff 8741 9bc4 ae41
000000f0: 2e02 0e41 bfdd c941 2fed 0342 a9ba 5e41
00000100: eadf aa41 a0c6 0a41 823a e341 f66f 1242
00000110: 5683 9a41 4ee1 0542 4308 a341 7280 b140
00000120: 3f8a 3042 74df 3a41 021f 5541 694b a841
00000130: 0d27 0d42 d872 9d41 ffde 2041 1c2b c841
00000140: dd2c b540 0d7e fd40 9737 c341 5f7b a941
00000150: 5939 0342 55aa ef40 6579 1b41 c7e7 e641
00000160: 2178 cc40 4fc4 9041 7407 f140 2f1e bc41
00000170: c25a f840 f288 8041 b12c 8b41 3173 2842
00000180: 8c34 4342 4f6c fa41 f087 b941 0478 0541
00000190: 491a 5c42 6125 5d42 c547 6242 8122 a641
000001a0: d5a5 ed41 bf71 d541 53e6 4141 51aa f841
000001b0: 6918 5941 9d85 c840 28ff 7a41 391f 8641
000001c0: 6173 4d41 1581 2542 72eb 1c41 3a79 ad41
000001d0: 47ff 2241 6507 5e41 9e9b d041 18e4 a641
000001e0: 4c88 b440 c1ba 6341 c4e9 9140 2677 a741
000001f0: eed4 d640 a122 5b41 3e2a df41 9a49 0542
00000200: 9b55 e841 0bf8 ac41 8b94 dc40 8643 1641
00000210: 3864 e441 6ab8 1441 78c3 f841 d96a ae40
00000220: 32d5 7241 870a b941 3345 b041 af9a 5042
00000230: e565 9441 6014 3a41 ac83 6641 41a8 9a41
00000240: 5a31 8a41 f30c 3c41 2489 5141 d257 9641
00000250: 492b f741 9b01 3541 a7ff b641 d6c8 ca41
00000260: 4f98 a141 ae5c 0f41 306b 0642 ec8e b341
00000270: 258d 0741 a11f 4b41 3b2f 9941 7bbe 2b41
00000280: 7bc5 fb40 f80f 1d41 589b b141 de4b df40
00000290: 616c 0e42 58b2 7940 2841 1341 9aaf cd40
000002a0: 6240 3142 6ab1 ff40 ea5b 0441 189b ff41
000002b0: cde9 a340 3cd3 4341 20ee 9c42 5f13 7341

model.features.stage1.unit1.dw_conv.conv.weight f4 [176, 1, 3, 3]
-0.43954197 -0.14831223 0.26561028 0.031577878 0.4147166 0.622168 0.06968504 0.0026464248
-0.3473596 -0.36499235 0.2945113 -0.47405228 -0.19510472 0.8170712 0.01722706 0.6676908
-0.14641085 0.1906879 -0.23801933 0.0859068 0.18807203 0.34717095 0.065614276 -0.37577248
0.37759867 -0.03019065 -0.63122475 0.2303069 0.4155231 -0.4870669 -0.17677185 0.43973634
0.6893895 -0.09313358 -0.2782618 0.16762327 -0.30794904 -0.0014214778 0.509172 -0.0116414605
0.0885488 -0.8795201 -0.09051656 -0.3217042 0.3499427 0.11778918 -0.34628206 0.86754256
0.07837918 -0.56447256 -0.38222829 -0.30563793 0.52216834 -0.06228833 0.28534657 -0.12723856
0.16864449 -0.10255016 -0.052877832 -0.34131828 0.08416754 0.1261804 0.09332758 -0.2831124
0.5596407 0.3265194 0.12679738 0.43635303 -0.15488362 -0.16610456 -0.16145374 -0.37620464
-0.034823064 0.49839154 -0.21740194 -0.6250156 -0.16514601 -0.3842278 -0.4339234 0.26241842
0.13461334 -0.065291606 -0.25275287 -0.33255547 -0.0943921 -0.13378416 -0.30905443 -0.005953349
0.20055039 0.053981394 -0.19247611 -0.026252035 0.08113995 0.10644912 -0.29310367 -0.35786608
0.04905803 0.017497864 -0.09897654 0.28799945 -0.014826743 -0.46395564 0.2674795 -0.3122178
0.19433782 -0.17932774 0.29180342 0.1495388 -0.20960207 0.3157319 0.3981126 -0.6939558
-0.6698071 0.37332717 -0.13188532 0.20094736 0.29127362 -0.5476866 -0.11758238 0.33949587
0.35981914 -0.1513134 -0.47679755 -0.4212531 0.22972178 -0.330666 -0.1565874 0.47365624
0.22488126 0.3081177 -0.09317101 -0.051164165 0.12145418 0.35785964 0.031139571 -0.2981014
-0.13947302 0.092171825 -0.28946185 -0.50951403 0.28012717 -0.17609918 -0.3345158 -0.036574136
-0.056604955 0.35366666 0.32901704 -0.29339957 0.095068134 -0.3396789 0.450202 0.07854771
-0.17357397 0.055245858 -0.38857564 0.41976467 -0.123796985 0.091393314 -0.065025754 -0.6598826
0.13734566 0.34950972 0.3263143 -0.11016831 -0.08391511 -0.38542047 -0.15787332 -0.05818738
-0.3648124 -0.22443913 -0.121620454 0.04868422 0.018865073 0.5536512 -0.87026393 0.13033208
-0.23622689 0.14152461 -0.2835267 0.07738786 0.17939053 0.34439102 0.10123752 0.038321022
0.73571557 0.15862186 0.39911622 -0.4353171 0.14588922 -0.18948972 -0.16503987 -0.274767
0.04164905 -0.45824063 0.26182827 -0.25293645 0.421756 -0.4503182 0.09771443 0.34985778
0.06218566 -0.3485096 -0.5035805 -0.22658324 0.55410403 -0.3938981 0.091843754 -0.08805463
0.3433549 -0.26645085 -0.21247941 -0.060911857 -0.35581565 0.0732282 -0.17631859 0.03798294
-0.54434085 -0.13596053 0.7138235 -0.74653524 -0.06820608 -0.10116528 0.64485455 0.53162766
0.35893795 0.454949 -0.20723107 0.04526557 0.06380034 -0.26443186 0.50429314 0.24741566
-0.35675997 -0.109837756 0.12590729 0.46554455 0.119058125 0.006429787 -0.13024585 0.3817928
-0.20701222 0.5527708 -0.2837288 -0.029482657 -0.018840766 0.0998284 0.105249204 -0.21938223
-0.024508297 0.8174417 -0.743997 -0.456421 0.20215623 -0.037586886 0.08149925 0.5062534
00000000: a50b e1be 29df 17be 12fe 873e ce57 013d
00000010: bc55 d43e 6746 1f3f 08b7 8e3d a46f 2d3b
00000020: 1ed9 b1be 47e0 babe 2fca 963e fbb6 f2be
00000030: 88c9 47be 942b 513f c31f 8d3c c9ed 2a3f
00000040: baec 15be b043 433e 57bb 73be e8ef af3d
00000050: f495 403e 64c0 b13e c760 863d 4065 c0be
00000060: 9d54 c13e 6252 f7bc f297 21bf 92d5 6b3e
00000070: 72bf d43e d560 f9be ae03 35be 1f25 e13e
00000080: d57b 303f d2bc bebd 5578 8ebe 6fa5 2b3e
00000090: 7fab 9dbe e150 baba 1959 023f d3bb 3ebc
000000a0: 1359 b53d 3b28 61bf bf60 b9bd 6ab6 a4be
000000b0: b12b b33e 743b f13d e24b b1be 4517 5e3f
000000c0: 4385 a03d 4681 10bf 6db3 c3be 937c 9cbe
000000d0: d3ac 053f 0c22 7fbd f218 923e d34a 02be
000000e0: 24b1 2c3e d105 d2bd 6d96 58bd 45c1 aebe
000000f0: 0860 ac3d 6f35 013e 8822 bf3d 1cf4 90be
00000100: 9d44 0f3f 8d2d a73e 2cd7 013e aa69 df3e
00000110: d099 1ebe 5017 2abe 2154 25be e59d c0be
00000120: a1a2 0ebd 2d2d ff3e 9d9e 5ebe 0601 20bf
00000130: 091c 29be 82b9 c4be 352b debe b55b 863e
00000140: 14d8 093e 9bb7 85bd d368 81be b644 aabe
00000150: a550 c1bd b7fe 08be 623c 9ebe 5014 c3bb
00000160: 155d 4d3e 981b 5d3d 7518 45be 820e d7bc
00000170: b42c a63d ff01 da3d af11 96be 393a b7be
00000180: 13f1 483d ae57 8f3c 36b4 cabd aa74 933e
00000190: deeb 72bc 988b edbe 13f3 883e 03db 9fbe
000001a0: 7e00 473e b1a1 37be 4267 953e b320 193e
000001b0: eda1 56be 9da7 a13e 6ad5 cb3e 16a7 31bf
000001c0: 7a78 2bbf bd24 bf3e f20c 07be 25c5 4d3e
000001d0: d121 953e 3035 0cbf 08cf f0bd 67d2 ad3e
000001e0: 373a b83e e6f1 1abe cf1e f4be 7cae d7be
000001f0: 303c 6b3e 0e4d a9be 7358 20be 1283 f23e
00000200: 4647 663e 9ac1 9d3e 71d0 bebd 8491 51bd
00000210: f8bc f83d 6139 b73e 6a18 ff3c bfa0 98be
00000220: 04d2 0ebe 95c4 bc3d 5834 94be 836f 02bf
00000230: d46c 8f3e 5853 34be a845 abbe c3ce 15bd
00000240: 99da 67bd cc13 b53e ec74 a83e 7838 96be
00000250: 15b3 c23d 65ea adbe e080 e63e 9fdd a03d
00000260: 60bd 31be 7b49 623d 63f3 c6be 65eb d63e
00000270: 4689 fdbd 6b2c bb3d 392c 85bd 11ee 28bf
00000280: 57a4 0c3e f0f2 b23e ab12 a73e ec9f e1bd
00000290: afdb abbd d555 c5be 8ba9 21be e455 6ebd
000002a0: b1c8 babe 5fd3 65be 2514 f9bd 1b69 473d
000002b0: ed8a 9a3c 16bc 0d3f 9ec9 5ebf c675 053e
000002c0: 76e5 71be d4eb 103e 692a 91be 877d 9e3d
000002d0: 27b2 373e 0554 b03e 9e55 cf3d 81f6 1c3d
000002e0: db57 3c3f c56d 223e f658 cc3e e2e1 debe
000002f0: fc63 153e 9809 42be 3600 29be 43ae 8cbe
00000300: 3298 2a3d 849e eabe 5b0e 863e e380 81be
00000310: 67f0 d73e 1b90 e6be 811e c83d 8f20 b33e
00000320: 64b6 7e3d da6f b2be a7ea 00bf 7005 68be
00000330: c3d9 0d3f 03ad c9be 9418 bc3d fc55 b4bd
00000340: 37cc af3e 3f6c 88be 3494 59be b67e 79bd
00000350: 782d b6be abf8 953d dc8c 34be 0094 1b3d
00000360: ec59 0bbf 3d39 0bbe 23bd 363f ef1c 3fbf
00000370: a1af 8bbd be2f cfbd 3015 253f c018 083f
00000380: b7c6 b73e 13ef e83e 6234 54be 6468 393d
00000390: c1a9 823d 9d63 87be 5b19 013f 885a 7d3e
000003a0: 3ea9 b6be 9ef2 e0bd d7ed 003e db5b ee3e
000003b0: bfd4 f33d f6b0 d23b 2b5f 05be 597a c33e
000003c0: 03fb 53be 6382 0d3f e744 91be 9d85 f1bc
000003d0: f357 9abc d572 cc3d e58c d73d bca5 60be
000003e0: a0c5 c8bc dc43 513f 9676 3ebf 03b0 e9be
000003f0: 0b02 4f3e b5f4 19bd 14e9 a63d d399 013f

model.features.stage1.unit1.dw_conv.bn.weight f4 [176]
0.7537265 1.0333838 0.8794913 0.8836839 0.80867904 0.7822138 0.6805182 0.8758163
0.8532245 0.7302119 0.46448717 0.77735835 0.8973549 0.7357281 0.7872119 0.8380221
0.6623156 0.891532 0.74909586 0.7889408 0.7800099 0.77063173 0.75357133 0.58312
0.81901914 0.73812175 0.8646337 0.92428297 0.7592847 0.8026075 0.7488123 0.7899707
0.86912453 0.88927627 0.7871337 0.8423215 0.6073296 0.8661618 0.8929318 0.755952
0.8678161 0.62319046 0.8320921 0.60210186 0.78088045 0.8469527 0.96060073 0.83445585
0.88390464 0.75130737 0.64492565 0.83404434 0.65795475 0.6649828 0.91146964 0.88398004
0.8501283 0.7649914 0.80718297 0.8453136 0.861759 0.83207107 0.8650959 0.88578165
0.67735505 0.82806534 0.7512805 0.8356654 0.6859458 0.7350079 0.7435024 0.5390462
0.7625198 0.73471576 0.8628258 0.5088443 0.80698776 0.5751117 0.64992017 0.8625743
0.672476 0.5969726 0.808038 0.7155383 0.88121367 0.96203357 0.9352996 0.8484283
0.6764131 0.7426352 0.75714684 0.8445862 0.63070583 0.93603855 0.81942576 0.78865486
1.0604173 0.80295867 0.66243225 0.8059449 0.8890944 0.9349874 0.8657419 0.7120247
0.81020284 0.721256 0.84734863 0.84720737 0.7644913 0.75430435 0.78718495 0.9637534
0.66412944 0.78857595 0.68025285 0.80459404 0.68775064 0.6533216 0.7994614 0.5857042
0.56553024 1.0482343 0.7609566 0.6810212 0.97348124 0.8820404 0.6899199 0.6642512
0.7362067 0.8526524 0.7515525 0.7242467 0.83358026 0.7857073 0.5473554 0.7816972
0.69251037 0.72377443 0.74046934 0.73025435 0.48332506 0.9001619 0.7067724 0.7254774
0.72371686 0.8091294 0.85337067 0.7194782 0.8662662 0.8053745 0.76639515 0.64027596
0.80074346 0.69511163 0.8325637 0.745936 0.912787 0.8812763 0.66165257 0.82581055
0.8577672 0.90117335 0.72832614 0.817473 0.7202443 0.7866453 0.7032982 0.65198445
0.8305196 0.80803525 0.7758642 0.83861625 0.862416 0.6214112 0.77277786 0.56373346
00000000: 38f4 403f ec45 843f 5826 613f 1c39 623f
00000010: 9705 4f3f 2a3f 483f 7136 2e3f 7f35 603f
00000020: ec6c 5a3f 2bef 3a3f 43d1 ed3e f500 473f
00000030: 0db9 653f ad58 3c3f b886 493f 9e88 563f
00000040: 848d 293f 713b 643f bfc4 3f3f 06f8 493f
00000050: bbae 473f 1f48 453f 0dea 403f 5a47 153f
00000060: 3dab 513f 8cf5 3c3f a258 5d3f cf9d 6c3f
00000070: 7b60 423f af77 4d3f 2ab2 3f3f 853b 4a3f
00000080: f27e 5e3f 9ca7 633f 9881 493f 62a2 573f
00000090: f479 1b3f c8bc 5d3f 2e97 643f 1286 413f
000000a0: 3229 5e3f 6989 1f3f fd03 553f 5923 1a3f
000000b0: c8e7 473f e4d1 583f eee9 753f e69e 553f
000000c0: 9347 623f ae55 403f d919 253f ee83 553f
000000d0: b96f 283f 503c 2a3f 1356 693f 844c 623f
000000e0: 02a2 593f 7ad6 433f 8ba3 4e3f 7966 583f
000000f0: 3d9c 5c3f 9c02 553f ed76 5d3f 96c2 623f
00000100: 2467 2d3f 17fc 533f eb53 403f 2bee 553f
00000110: 259a 2f3f 7a29 3c3f 2c56 3e3f effe 093f
00000120: 7f34 433f 5516 3c3f 27e2 5c3f 9f43 023f
00000130: c096 4e3f 853a 133f 2b61 263f abd1 5c3f
00000140: 6327 2c3f 32d3 183f 94db 4e3f 852d 373f
00000150: 3897 613f d547 763f cb6f 6f3f 9932 593f
00000160: 6929 2d3f 571d 3e3f 60d4 413f cd36 583f
00000170: f075 213f 39a0 6f3f e3c5 513f 49e5 493f
00000180: c1bb 873f b38e 4d3f 2995 293f 6852 4e3f
00000190: b19b 633f 565b 6f3f 43a1 5d3f 4047 363f
000001a0: 7469 4f3f 3ca4 383f d7eb 583f 95e2 583f
000001b0: b4b5 433f 171a 413f f484 493f 8bb8 763f
000001c0: 6304 2a3f 1de0 493f 0d25 2e3f e0f9 4d3f
000001d0: 6d10 303f 1640 273f 81a9 4c3f b6f0 153f
000001e0: 97c6 103f 8b2c 863f 0dce 423f 6857 2e3f
000001f0: 1136 793f 66cd 613f 979e 303f 5e0c 2a3f
00000200: 0b78 3c3f 6d47 5a3f bf65 403f 3b68 393f
00000210: 8465 553f 1d24 493f 7c1f 0c3f 4f1d 483f
00000220: 5c48 313f 4849 393f 668f 3d3f f3f1 3a3f
00000230: 6276 f73e 0371 663f 09ef 343f e3b8 393f
00000240: 8245 393f 1b23 4f3f 8076 5a3f b92f 383f
00000250: 9fc3 5d3f 062d 4e3f 7932 443f 20e9 233f
00000260: 86fd 4c3f d6f2 313f e522 553f a9f5 3e3f
00000270: 69ac 693f 539b 613f 1062 293f 5268 533f
00000280: a296 5b3f 4cb3 663f 9573 3a3f e945 513f
00000290: ee61 383f 9661 493f 5a0b 343f 74e8 263f
000002a0: ef9c 543f 66db 4e3f 099f 463f 8eaf 563f
000002b0: 4cc7 5c3f ce14 1f3f c5d4 453f d650 103f

model.features.stage1.unit1.dw_conv.bn.bias f4 [176]
-0.061288267 0.09136153 -0.023071159 0.0093541015 0.2076794 -0.0927737 0.053933963 -0.033393968
0.031598695 0.06470352 0.06924477 0.026685562 -0.007398786 0.021737343 0.038813137 0.17876573
0.019180484 -0.06052681 0.00054172287 0.086980626 0.00756967 0.08976515 0.011776038 -0.0164514
0.025343345 0.101315185 0.058720626 0.03710988 0.0823953 0.028508743 0.030002814 0.055992983
0.019282723 0.15638502 0.0852612 0.08539406 0.059569977 -0.02328725 0.036684677 0.008726864
-0.062339276 0.08202525 -0.078879334 0.11526454 0.0049641253 0.06828096 0.019070484 0.047772333
-0.109547004 -0.1583664 0.12233898 0.008069905 0.027935212 0.067884654 0.03331763 0.043362748
0.030151475 0.014172901 0.015641347 -0.036943905 0.025731008 0.07838014 0.13060127 0.0038092828
0.18875043 -0.15254442 -0.03764726 0.010030949 0.0978112 -0.0010503769 0.12032413 0.06620205
-0.027610907 0.016510904 0.010000857 0.038647875 -0.039359435 0.036141127 0.076359116 0.0043082666
-0.027264437 0.062370513 0.049422022 -0.0027983785 -0.0012086497 0.13313437 0.014203283 0.099972986
0.049656995 0.019694211 -0.07631975 0.0671656 -0.035553724 -0.015190617 -0.040020727 -0.020403603
0.10903137 -0.022727488 0.09716943 0.018553155 0.027906187 -0.0010294709 0.009365528 0.09814641
0.009205124 -0.010177898 0.040225964 0.115135565 0.09694174 -0.004435767 0.11804655 -0.10734038
0.08191851 0.03086373 0.13758256 0.030479426 0.069213256 0.068960644 0.024480985 0.069962546
0.06993909 -0.057711985 0.1287725 -0.10245976 0.1338637 0.13609327 -0.0239882 -0.115065746
-0.02387181 0.012644322 0.04650896 0.20104447 -0.027997123 0.14680563 -0.020956123 0.06605548
-0.041020982 -0.046198722 -0.069532976 0.0529183 0.1460083 -0.013538115 -0.06723213 0.047164153
-0.0024805774 -0.02639745 0.010134916 0.036215577 0.031242406 0.112611756 0.056486174 0.04681811
-0.0026509012 -0.0346054 -0.05878506 0.032945614 0.045485202 0.032920804 -0.051075097 -0.047715396
0.03166773 -0.06468892 0.001213471 -0.039604124 0.22338739 0.04349191 0.006325794 0.03175416
-0.025172327 -0.033582292 0.0022287348 -0.024862085 0.06788809 0.022573194 -0.048336826 0.04763992
00000000: 6809 7bbd c11b bb3d baff bcbc f241 193c
00000010: e9a9 543e 2300 bebd dce9 5c3d 1dc8 08bd
00000020: a26d 013d 4783 843d 34d0 8d3d ae9b da3c
00000030: 8471 f2bb 8312 b23c 86fa 1e3d 5d0e 373e
00000040: 6420 9d3c f6ea 77bd 6802 0e3a e622 b23d
00000050: ff0a f83b cad6 b73d 49f0 403c 16c5 86bc
00000060: d99c cf3c 567e cf3d 0a85 703d 8800 183d
00000070: debe a83d 2b8b e93c 76c8 f53c e658 653d
00000080: cdf6 9d3c 6523 203e 6d9d ae3d 15e3 ae3d
00000090: a6ff 733d e7c4 bebc ac42 163d 1ffb 0e3c
000000a0: 7857 7fbd dbfc a73d 7d8b a1bd d10f ec3d
000000b0: 1aaa a23b e3d6 8b3d b439 9c3c ecac 433d
000000c0: 2e5a e0bd cd2a 22be dc8c fa3d a337 043c
000000d0: 63d8 e43c 1c07 8b3d 1178 083d 239d 313d
000000e0: 3a00 f73c 7535 683c 4822 803c 7e52 17bd
000000f0: d6c9 d23c c485 a03d 57bc 053e 29a5 793b
00000100: cb47 413e 9b34 1cbe 0334 1abd d958 243c
00000110: 3d51 c83d cdac 89ba 7f6c f63d f194 873d
00000120: 4530 e2bc e041 873c a2da 233c 3c4d 1e3d
00000130: 5c37 21bd b808 143d 2b62 9c3d 5c2c 8d3b
00000140: ab59 dfbc 3978 7f3d bf6e 4a3d 0065 37bb
00000150: 8e6b 9eba 6054 083e e3b4 683c a3be cc3d
00000160: 2265 4b3d c155 a13c 874d 9cbd 1e8e 893d
00000170: c8a0 11bd 11e2 78bc c6ec 23bd 7525 a7bc
00000180: d74b df3d ff2e babc c400 c73d c9fc 973c
00000190: 849b e43c 50ef 86ba df71 193c fc00 c93d
000001a0: 17d1 163c 33c1 26bc fbc3 243d 32cc eb3d
000001b0: 6489 c63d e959 91bb 64c2 f13d 46d5 dbbd
000001c0: e4c4 a73d efd5 fc3c 71e2 0c3e fdaf f93c
000001d0: aebf 8d3d 3d3b 8d3d 598c c83c 8648 8f3d
000001e0: 3a3c 8f3d 6763 6cbd f0dc 033e 6cd6 d1bd
000001f0: 9113 093e 095c 0b3e e782 c4bc 97a7 ebbd
00000200: d08e c3bc 212a 4f3c 2e80 3e3d 9ade 4d3e
00000210: 395a e5bc 3754 163e 2dac abbc 1848 873d
00000220: 9e05 28bd df3a 3dbd 4e67 8ebd dcc0 583d
00000230: 3383 153e f8ce 5dbc 00b1 89bd 332f 413d
00000240: 2f91 22bb 773f d8bc eb0c 263c c956 143d
00000250: 13f0 ff3c fea0 e63d 0c5e 673d 59c4 3f3d
00000260: beba 2dbb 64be 0dbd 9ac8 70bd fbf1 063d
00000270: b14e 3a3d f7d7 063d 1f34 51bd 3871 43bd
00000280: 06b6 013d a07b 84bd 550d 9f3a ef37 22bd
00000290: aabf 643e 9324 323d 9b48 cf3b a610 023d
000002a0: 3236 cebc 968d 09bd f70f 123b 92ab cbbc
000002b0: e908 8b3d 6beb b83c d6fc 45bd 1422 433d

model.features.stage1.unit1.dw_conv.bn.running_mean f4 [176]
0.01768667 0.03948216 -0.006199204 0.042825393 -0.027004771 -0.017939389 -0.00375006 0.015707167
-0.032576416 -0.028141517 -0.008048979 0.00072722713 -0.02806923 -0.041691966 0.052320052 -0.060136173
0.018854236 -0.00813895 -0.035256866 -0.045597862 0.05048639 -0.02541477 -0.02644568 -0.032563146
0.002983767 -0.007686108 0.016922105 -0.021508545 0.038337614 0.11864726 -0.01517006 -0.011018664
-0.0056961663 -0.0362528 -0.011949547 0.0038235819 -0.05962728 0.010563055 0.025584573 -0.013761841
0.018007515 -0.017865423 0.019764084 -0.00441349 -0.0019144713 -0.03834019 0.03288292 -0.03074154
0.01191861 0.029708913 -0.014301977 -0.0071646874 0.023163006 0.0075714984 0.08072375 0.17241392
0.013799117 -0.01912593 -0.005406628 0.010683331 0.015742246 -0.02920012 0.038854204 -0.013754946
-0.016666502 0.0071175573 0.010327045 0.011302205 -0.037468124 0.07011496 -0.01923953 -0.01703538
-0.005763124 -0.03561382 -0.0042731385 -0.010967419 -0.02926935 -0.027372694 -0.006561497 0.0061790543
0.017489944 -0.0125731155 -0.038119193 -0.028782936 0.044240333 0.054801404 0.037722256 -0.048238434
-0.02955923 -0.028085642 0.03399287 -0.011169657 -0.0140280165 0.020360008 -0.0030661013 0.027314683
-0.007134248 -0.020798216 -0.028316667 0.12233747 0.0028371015 0.0015971962 0.0073965723 -0.020933231
0.009577693 0.0066233254 -0.025314644 -0.0032412712 -0.059658114 -0.020197585 -0.0103828935 0.19123733
-0.016055305 0.0022334186 -0.013373864 0.0101297265 -0.031357177 -0.012687168 -0.0364565 -0.032405593
-0.019064546 -0.0054863566 0.025885811 -0.011693633 0.03668763 -0.017887644 0.013863952 -0.033927746
0.0030194463 -0.0048083607 -0.020448959 -0.06821188 -0.004313026 -0.011635972 -0.01101233 0.04399735
0.021698292 0.041311905 -0.044994745 0.003540016 -0.010138572 0.02742443 0.02712911 0.008555867
0.0011527598 0.050769843 -0.011208403 -0.03144878 0.012220572 -0.18724342 0.019448785 -0.032896776
0.030512018 0.0013935656 0.0042999364 -0.020715173 0.05563202 0.004223675 -0.033825412 0.0429651
0.0006709454 0.002669638 0.031827495 -0.002748327 -0.025670074 -0.026080703 -0.07779996 0.01711193
0.024670392 0.038558867 0.005613609 -0.039023574 -0.022572912 -0.05174931 0.018786244 -0.059825864
00000000: a3e3 903c 0cb8 213d b122 cbbb ae69 2f3d
00000010: 1c39 ddbc a0f5 92bc 91c3 75bb 51ac 803c
00000020: d96e 05bd 0a89 e6bc dddf 03bc 63a3 3e3a
00000030: 71f1 e5bc 32c5 2abd 8d4d 563d 5951 76bd
00000040: 3374 9a3c 3b59 05bc 8169 10bd d3c4 3abd
00000050: d1ca 4e3d a332 d0bc 9ca4 d8bc ef60 05bd
00000060: 4e8b 433b bfdb fbbb 3aa0 8a3c b032 b0bc
00000070: e707 1d3d 56fd f23d d88b 78bc a087 34bc
00000080: e8a6 babb d17d 14bd 08c8 43bc 0f95 7a3b
00000090: bc3b 74bd aa10 2d3c bd96 d13c 5879 61bc
000000a0: 7f84 933c 825a 92bc 4ae8 a13c 0a9f 90bb
000000b0: ffee faba 9a0a 1dbd 3eb0 063d afd5 fbbc
000000c0: 4646 433c 1b60 f33c d752 6abc c1c5 eabb
000000d0: 58c0 bd3c 551a f83b 7e52 a53d 468d 303e
000000e0: b115 623c fbad 9cbc 152a b1bb 2309 2f3c
000000f0: e2f5 803c 1735 efbc 9625 1f3d 6d5c 61bc
00000100: 3088 88bc 663a e93b c432 293c e22c 393c
00000110: 2d78 19bd 6f98 8f3d 389c 9dbc c88d 8bbc
00000120: 97d8 bcbb ccdf 11bd af05 8cbb b0b0 33bc
00000130: 47c6 efbc b33c e0bc d401 d7bb aa79 ca3b
00000140: 1247 8f3c 78ff 4dbc df22 1cbd 31ca ebbc
00000150: 5a35 353d 7077 603d a782 1a3d aa95 45bd
00000160: 3326 f2bc dc13 e6bc 1c3c 0b3d f000 37bc
00000170: c4d5 65bc 08ca a63c a5f0 48bb 0bc3 df3c
00000180: 69c6 e9bb 0561 aabc 5bf8 e7bc 118c fa3d
00000190: aaee 393b 0359 d13a f25e f23b 2b7c abbc
000001a0: c2eb 1c3c 7b08 d93b a860 cfbc 826b 54bb
000001b0: 115c 74bd 6875 a5bc 031d 2abc b8d3 433e
000001c0: 6a86 83bc 8c5e 123b 0d1e 5bbc 27f7 253c
000001d0: 6270 00bd d7dd 4fbc 6953 15bd babb 04bd
000001e0: 402d 9cbc e5c6 b3bb 7b0e d43c a796 3fbc
000001f0: c545 163d 1c89 92bc a125 633c d2f7 0abd
00000200: e7e1 453b 748f 9dbb 9384 a7bc acb2 8bbd
00000210: 4954 8dbb cea4 3ebc 0f6d 34bc 9136 343d
00000220: 9ec0 b13c ac36 293d 694c 38bd 9dff 673b
00000230: 411c 26bc 33a9 e03c de3d de3c e82d 0c3c
00000240: 3318 973a 0af4 4f3d 73a3 37bc 70d0 00bd
00000250: cb38 483c bdbc 3fbe 0f53 9f3c c5be 06bd
00000260: 57f4 f93c 4da8 b63a 7be6 8c3b deb2 a9bc
00000270: 67de 633d c166 8a3b 848c 0abd 2cfc 2f3d
00000280: 62e2 2f3a 18f5 2e3b 8c5d 023d 471d 34bb
00000290: 0c4a d2bc 33a7 d5bc 9655 9fbd 512e 8c3c
000002a0: 9019 ca3c e7ef 1d3d 5ef2 b73b 2fd7 1fbd
000002b0: d4ea b8bc 16f7 53bd 9ce5 993c f70b 75bd

model.features.stage1.unit1.dw_conv.bn.running_var f4 [176]
0.0053107752 0.023972942 0.016815465 0.028876944 0.018767636 0.023162693 0.0016883457 0.010894722
0.022126622 0.0063062613 0.0010145005 0.013512884 0.066902146 0.013237024 0.019151203 0.031181483
0.016880555 0.008834796 0.0034116735 0.05526757 0.009595159 0.010252362 0.03527313 0.009217237
0.018096356 0.020236002 0.0037133629 0.029774591 0.025812903 0.04560573 0.044338565 0.023244975
0.021677375 0.040047586 0.030364621 0.042076223 0.013846651 0.020123918 0.008203225 0.011636422
0.020971853 0.006044393 0.01264475 0.0044075744 0.031358313 0.021434547 0.05326091 0.012175001
0.01571434 0.02485507 0.006062397 0.024896136 0.0075636366 0.007972622 0.055838928 0.022906434
0.0028844355 0.012245739 0.0054920064 0.0089618685 0.031695142 0.04864064 0.0040571606 0.0062540583
0.0038478218 0.0037148795 0.034831963 0.007274968 0.05959377 0.03943893 0.016741099 0.0029951027
0.00436731 0.007560376 0.012492711 0.0022229222 0.008923644 0.012509109 0.001443093 0.0040658964
0.0030925057 0.004528537 0.04249454 0.032038204 0.017215049 0.035235528 0.028533367 0.019142162
0.023374088 0.019044256 0.035500556 0.018491004 0.0061691063 0.02034986 0.016535044 0.006819824
0.08598585 0.014497188 0.043794684 0.050106496 0.009442533 0.016324362 0.006148465 0.022819234
0.02342488 0.012193951 0.017186996 0.013842203 0.014979732 0.030929346 0.11169282 0.07163189
0.008272317 0.027297854 0.027347965 0.0040349644 0.042676263 0.018340224 0.03672046 0.0053015933
0.010865221 0.025423894 0.011342982 0.0095647285 0.04681858 0.02537518 0.0074661113 0.0027406164
0.0040946533 0.023097772 0.008409329 0.053377427 0.02310132 0.0066795084 0.005057003 0.047550946
0.01974734 0.008472318 0.022425406 0.0014389474 0.004498065 0.006294338 0.012493196 0.02853313
0.024298698 0.014557324 0.0037860076 0.028827924 0.010209757 0.04122196 0.0075363875 0.019659564
0.012466206 0.01896139 0.0016390787 0.0045262175 0.038367696 0.0272804 0.028990984 0.025753018
0.013992257 0.0079039745 0.010613682 0.008105063 0.018984597 0.010455373 0.01028001 0.003678865
0.020379607 0.028589176 0.011582883 0.01543825 0.03957116 0.009348795 0.0022002347 0.03227633
00000000: 0306 ae3b e762 c43c 96c0 893c 578f ec3c
00000010: 96be 993c b0bf bd3c 7b4b dd3a c77f 323c
00000020: e442 b53c c1a4 ce3b fdf8 843a 2565 5d3c
00000030: fe03 893d 1ae0 583c fce2 9c3c 4f70 ff3c
00000040: 1749 8a3c d2bf 103c 6296 5f3b 3f60 623d
00000050: 0435 1d3c 86f9 273c 8f7a 103d e503 173c
00000060: cf3e 943c f9c5 a53c e45b 733b d8e9 f33c
00000070: 9575 d33c 13cd 3a3d 5b9c 353d 3f6c be3c
00000080: c094 b13c f008 243d 3abf f83c 1e58 2c3d
00000090: 10dd 623c eada a43c d266 063c b1a6 3e3c
000000a0: 2acd ab3c 0b10 c63b ed2b 4f3c 6a6d 903b
000000b0: 9371 003d 8197 af3c 1d28 5a3d a879 473c
000000c0: 5cbb 803c dc9c cb3c 12a7 c63b fbf2 cb3c
000000d0: 62d8 f73b 9a9f 023c 5cb7 643d 46a6 bb3c
000000e0: cc08 3d3b 5aa2 483c 4af6 b33b cdd4 123c
000000f0: c4d2 013d 683b 473d eef1 843b d8ee cc3b
00000100: bd2b 7c3b 5675 733b f6ab 0e3d db62 ee3b
00000110: 9918 743d b78a 213d a124 893c 7c49 443b
00000120: a71b 8f3b 08bd f73b 3aae 4c3c 72ae 113b
00000130: 7a34 123c 02f3 4c3c 2a26 bd3a 363b 853b
00000140: a3ab 4a3b 1f64 943b c10e 2e3d 7e3a 033d
00000150: 9306 8d3c 2153 103d cfbe e93c 06d0 9c3c
00000160: 047b bf3c b302 9c3c 0869 113d 727a 973c
00000170: 3726 ca3b c0b4 a63c 8074 873c d578 df3b
00000180: 5919 b03d 9d85 6d3c 0e62 333d 783c 4d3d
00000190: dbb4 1a3c abba 853c 1079 c93b 67ef ba3c
000001a0: 89e5 bf3c 23c9 473c becb 8c3c 68ca 623c
000001b0: 8d6d 753c 8a5f fd3c 35bf e43d beb3 923d
000001c0: 9d88 073c c09f df3c d708 e03c bc37 843b
000001d0: 4ecd 2e3d 3d3e 963c 3168 163d fdb8 ad3b
000001e0: 0a04 323c c545 d03c ead7 393c 61b5 1c3c
000001f0: d7c4 3f3d 9cdf cf3c 48a6 f43b ea9b 333b
00000200: 712c 863b 8a37 bd3c 48c7 093c 4aa2 5a3d
00000210: fb3e bd3c c7df da3b 37b5 a53b c8c4 423d
00000220: 2cc5 a13c 7acf 0a3c 7cb5 b73c 109b bc3a
00000230: 8164 933b bc40 ce3b 43b0 4c3c 50be e93c
00000240: 100e c73c d881 6e3c ab1e 783b 8a28 ec3c
00000250: d346 273c 5cd8 283d cdf3 f63b 180d a13c
00000260: 0f3f 4c3c eb54 9b3c 5bd6 d63a aa50 943b
00000270: 7227 1d3d 257b df3c 807e ed3c fef7 d23c
00000280: c83f 653c ac7f 013c 02e5 2d3c 19cb 043c
00000290: 9685 9b3c 034d 2b3c 7d6d 283c 1d19 713b
000002a0: 22f3 a63c d933 ea3c 22c6 3d3c b7f0 7c3c
000002b0: 5e15 223d b02b 193c d031 103b 2f34 043d
