yono_compression/yono/data/saved_model/MicroNet-AD-K_ninapro-db6-c7-seq80_adam_multistep_nomixup.pt (torch, 844549 bytes, 57 tensors)

model.features.init_block.conv.weight f4 [192, 1, 3, 3]
0	0x3e4ca2f9	0.19984044
1	0xbe2cf69f	-0.16890953
2	0xbd847e59	-0.064694114
3	0x3e0ff9d6	0.14060149
4	0xbea242ea	-0.31691676
5	0x3e4fe0a2	0.20300534
6	0xbd5cfcbb	-0.05395196
7	0x3e308b5d	0.17240663
8	0x3be775f2	0.0070636207
9	0xbd338927	-0.04383197
10	0x3e284d86	0.16435823
11	0x3cd58006	0.026062023
12	0x3e26a7fe	0.16275021
13	0xbddcefd7	-0.10787933
14	0xbc9e626e	-0.019334044
15	0x3ad39f8a	0.0016145569
16	0x3d2ae377	0.041720834
17	0x3c248dd6	0.010043582
18	0x3e805453	0.25064334
19	0x3e09b454	0.13447696
20	0xbd892e8d	-0.06698332
21	0xbe6cadeb	-0.2311322
22	0xbdcc545c	-0.09977028
23	0xbe6f15b8	-0.23348129
24	0xbdc75ff9	-0.09735102
25	0x3cd9ec3e	0.026601907
26	0x3e1b0424	0.15138298
27	0x3e3d6c9a	0.1849846
28	0xbeabedc5	-0.3357984
29	0x3e22755a	0.15865079
30	0x3dc39969	0.09550745
31	0x3e8a8111	0.27051595
32	0x3e8a9221	0.27064613
33	0xbe8abc6f	-0.27096888
34	0xbeb16f49	-0.34655216
35	0xbe06df0f	-0.13171028
36	0x3e9c7a67	0.30562136
37	0xbdafdcbb	-0.08587023
38	0x3e19db92	0.15025166
39	0xbdece7da	-0.1156766
40	0x3e9df4fb	0.30850968
41	0xbe177f9a	-0.1479477
42	0x3e925d03	0.28586587
43	0xbc9405bd	-0.018069142
44	0xbe251fbf	-0.16125391
45	0x3e64403a	0.22290125
46	0xbe3136f0	-0.17306113
47	0x3ddbf213	0.10739531
48	0xbdaf76ee	-0.08567606
49	0xbcc60ff8	-0.024177536
50	0xbeafbc82	-0.34323508
51	0xbe1b44a7	-0.15162908
52	0x3e22ee4c	0.15911216
53	0xbc8d622f	-0.017258732
54	0x3e9ba775	0.30401197
55	0x3e5b3f9e	0.21410987
56	0x3c795ec7	0.015220351
57	0xbe4541bc	-0.19263357
58	0x3ea243e5	0.31692424
59	0x3d6eac5a	0.058269836
60	0xbe2cda7d	-0.16880222
61	0x3e7ba343	0.24573998
62	0x3e5a6c0f	0.21330284
63	0x3e8f578f	0.2799649
64	0xbe25c754	-0.16189319
65	0xbd7844e2	-0.060612567
66	0xbd2ab1ea	-0.04167358
67	0xbc87c200	-0.016571999
68	0xbe80a347	-0.2512457
69	0xbe8b3206	-0.27186602
70	0x3e342bef	0.17594884
71	0xbe1cb32b	-0.15302722
72	0x3e568ee0	0.2095294
73	0x3d99d3ec	0.07511124
74	0x3e4c5ba1	0.19956829
75	0x3d8a5c75	0.06755916
76	0x3e066443	0.13124184
77	0x3def85fe	0.11695479
78	0xbe9d98ad	-0.30780545
79	0x3e428193	0.18994741
80	0xbe231c50	-0.15928769
81	0xbe934e9d	-0.28770915
82	0x3d05c398	0.032657236
83	0x3c49fd3f	0.012328445
84	0x3e31e72a	0.17373338
85	0xbe2f4470	-0.1711595
86	0xbe9746e0	-0.2954626
87	0x3e5de484	0.21669203
88	0xbd0c8589	-0.034307037
89	0x3e6c32cf	0.23066257
90	0x3dad53ce	0.0846325
91	0xbe5cb929	-0.21555008
92	0x3d29bdae	0.04144066
93	0x3e04fa27	0.1298605
94	0xbe79456a	-0.24342886
95	0xbe3322e1	-0.17493774
96	0x3e1379d0	0.14401937
97	0x3d508fd9	0.050918434
98	0xbe2982c9	-0.16553797
99	0xbd568481	-0.05237246
100	0x3ea652ac	0.3248495
101	0xbda32346	-0.07965712
102	0x3e420062	0.18945459
103	0x3e067ec6	0.13134298
104	0xbe661aa1	-0.22471096
105	0xbe986279	-0.2976263
106	0x3e9e7035	0.30944982
107	0xbc1676a0	-0.009183556
108	0x3e6bd382	0.23029903
109	0x3d87daeb	0.06633552
110	0x3dc22492	0.094796315
111	0x3e8a4481	0.2700539
112	0x3e9f1f69	0.31078652
113	0xbe4fbd3f	-0.20287035
114	0x3d77f970	0.060540617
115	0x3e6edd6d	0.23326655
116	0x3e83116a	0.25599223
117	0x3e7be237	0.24598013
118	0xbe40bd7a	-0.1882228
119	0xbe8044f9	-0.25052622
120	0xbe2e715a	-0.17035428
121	0x3dc506c9	0.09620435
122	0x3eb1588e	0.34637874
123	0xbe41f38d	-0.18940563
124	0x3e5c2cc8	0.21501458
125	0xbe21128c	-0.15729731
126	0xbe8ed45b	-0.2789639
127	0xbd359f3a	-0.044341303
128	0x3e81fefd	0.25389853
129	0x3ea46300	0.3210678
130	0xbe5c880a	-0.2153627
131	0x3d884e60	0.06655574
132	0x3e9f2fe6	0.3109123
133	0x3e323f86	0.17407045
134	0x3e31b222	0.17353109
135	0x3e8138b5	0.25238577
136	0x3e535718	0.20638692
137	0x3d101273	0.035173845
138	0xbe89bbc4	-0.26901066
139	0xbea29a5f	-0.317584
140	0xbddfc23d	-0.1092572
141	0x3c06981d	0.008214978
142	0xbe17a8f3	-0.14810543
143	0x3dd3b6dc	0.10337612
144	0x3ddcf279	0.107884355
145	0xbde3a100	-0.11114693
146	0x3dfdb0a5	0.12387208
147	0x3d8255c2	0.06364013
148	0x3e25db12	0.1619685
149	0x3e745414	0.23860198
150	0xbe0e0100	-0.13867569
151	0x3eb9ab12	0.3626333
152	0xbc80c3de	-0.015718397
153	0xbcbdc74b	-0.02316632
154	0xbea7c065	-0.32763973
155	0xbe2fe323	-0.1717649
156	0xbe2ba615	-0.16762574
157	0xbe285f33	-0.16442566
158	0x3e8bfbc8	0.2734053
159	0xbdea1bfe	-0.1143112
160	0xbe7a6451	-0.2445233
161	0x3e015ca2	0.12632993
162	0x3e338510	0.17531228
163	0x3e6531fd	0.2238235
164	0xbe25ed26	-0.16203746
165	0x3dba21b2	0.09088458
166	0xbdfa8182	-0.12231733
167	0xbd888031	-0.066650756
168	0xbe93ff97	-0.28905937
169	0xbd818d04	-0.06325725
170	0xbdbe4362	-0.09290196
171	0x3e277ee6	0.16357002
172	0x3dd25ace	0.10271226
173	0x3d31e415	0.043430407
174	0x3eb8a845	0.3606588
175	0x3ea22a88	0.31673074
176	0x3e3545c3	0.17702393
177	0x3d55a826	0.052162312
178	0xbe38771a	-0.18014184
179	0x3e90d98c	0.28290975
180	0xbd936530	-0.07197034
181	0x3bc8b526	0.00612511
182	0xbe935412	-0.28775078
183	0xbd0848ef	-0.03327268
184	0xbe1de5bc	-0.15419668
185	0x3eb925c9	0.3616164
186	0xbe984f0a	-0.29747802
187	0xbe867bf5	-0.26266447
188	0xbc63ad29	-0.013896265
189	0xbe2494a9	-0.16072334
190	0x3d8cd08c	0.06875715
191	0xbdbb76b3	-0.091534995
192	0xbe3164bf	-0.17323588
193	0x3dabb79f	0.08384632
194	0x3e790b8e	0.24320814
195	0xbe87bd07	-0.26511404
196	0x3e378606	0.1792222
197	0x3e5a4fc1	0.21319486
198	0x3e90f090	0.28308535
199	0xbe72d189	-0.23712744
200	0x3dce39ce	0.10069619
201	0xbe86aaec	-0.26302278
202	0x3e9d90c8	0.30774522
203	0xbde3da3f	-0.111256115
204	0x3e67a0f9	0.2262
205	0x3bd7b3fd	0.0065827356
206	0xbced9d0c	-0.02900555
207	0xbc8e4279	-0.017365681
208	0x3d5ea924	0.054360524
209	0x3e33e7fa	0.17568961
210	0x3bff9f98	0.0078010075
211	0x3d9a9600	0.075481415
212	0xbe97b0c5	-0.29627052
213	0x3e694dee	0.22783634
214	0x3eb49f47	0.3527777
215	0x3e5ca934	0.21548921
216	0x3e64ddd6	0.22350249
217	0xbe7ee9e3	-0.24893908
218	0xbd9ae57b	-0.07563301
219	0x3ea85c60	0.32882977
220	0xbe9355f1	-0.28776506
221	0x3e92ff1b	0.28710255
222	0xbe71e3b8	-0.23622024
223	0xbe3e67f0	-0.18594337
224	0x3e42e3f1	0.19032265
225	0xbe7d30c3	-0.24725632
226	0xbdb077d8	-0.086166084
227	0x3e8f710c	0.28015935
228	0x3e8262b0	0.25465918
229	0x3e94c0b5	0.29053274
230	0xbdc9bc11	-0.09850324
231	0xbe752207	-0.23938762
232	0x3ea2d739	0.31804827
233	0xbdc89206	-0.09793477
234	0xbe055e89	-0.13024344
235	0x3db678ec	0.08909783
236	0xbe67cff9	-0.22637929
237	0x3e741a1e	0.23838088
238	0x3e34d679	0.1765994
239	0xbe8ff661	-0.2811766
240	0xbe8f1596	-0.27946156
241	0xbd3eb629	-0.04656044
242	0x3e277596	0.16353449
243	0x3bece742	0.0072297165
244	0xbe569f7e	-0.20959279
245	0x3cf7a1b7	0.030228479
246	0xbea32699	-0.31865385
247	0xbe5cbc45	-0.21556194
248	0xbe6103cf	-0.21974109
249	0x3e6f4108	0.23364651
250	0x3e83030b	0.2558826
251	0xbe409eba	-0.1881055
252	0x3ce15996	0.027508538
253	0x3e1219b1	0.14267613
254	0x3d5f4567	0.054509547
255	0xbe554cf4	-0.20830137

model.features.init_block.bn.weight f4 [192]
0	0x3eaa31e3	0.33241186
1	0x3ea22ec2	0.31676298
2	0x3ea2ceb5	0.3179833
3	0x3ebb9d41	0.36643413
4	0x3ea81410	0.32827806
5	0x3e8fc043	0.28076372
6	0x3ef3a1bc	0.4758433
7	0x3e6f0b3d	0.23344131
8	0x3e83bf1c	0.25731742
9	0x3ea18247	0.31544706
10	0x3ea5b157	0.32361862
11	0x3e94af44	0.29039967
12	0x3e91713a	0.28406698
13	0x3ec11bf0	0.37716627
14	0x3e9290e9	0.28626183
15	0x3edb4e94	0.42833388
16	0x3ebbe75e	0.36699957
17	0x3e99cc02	0.30038458
18	0x3eaa2f8c	0.332394
19	0x3e8f10c2	0.27942473
20	0x3ebac1e3	0.3647605
21	0x3ee24508	0.44193292
22	0x3eb7358f	0.3578305
23	0x3e97e6aa	0.2966817
24	0x3eaef059	0.34167746
25	0x3e998f5c	0.29992187
26	0x3ed438a5	0.41449466
27	0x3eb336be	0.35002702
28	0x3e91b594	0.28458846
29	0x3ebeac96	0.37241048
30	0x3eaa7d96	0.3329894
31	0x3e85bf54	0.26122534
32	0x3eb0fe75	0.34569135
33	0x3e96ef44	0.2947942
34	0x3ec66f70	0.38756895
35	0x3ea901e2	0.3300925
36	0x3ef4b76e	0.47796196
37	0x3ecd546e	0.40103477
38	0x3e94aa98	0.29036403
39	0x3ea97cac	0.3310293
40	0x3f02dc1e	0.5111712
41	0x3ea7cc66	0.3277313
42	0x3eddf3ce	0.4335007
43	0x3e9e17a1	0.30877402
44	0x3e99ee74	0.30064738
45	0x3eba7d86	0.36423892
46	0x3e8fd564	0.28092492
47	0x3e9a5f33	0.30150756
48	0x3e8f5602	0.27995306
49	0x3e83eb3f	0.25765416
50	0x3eae131f	0.33998963
51	0x3e9915f1	0.29899552
52	0x3eb97f03	0.36229715
53	0x3ebec1ae	0.3725714
54	0x3e9c9bec	0.3058771
55	0x3eabfe99	0.3359268
56	0x3e8e1012	0.27746636
57	0x3e8c5e47	0.27415678
58	0x3e97f2f9	0.2967756
59	0x3eb37239	0.35048082
60	0x3e9bbffc	0.3041991
61	0x3e987ba7	0.2978184
62	0x3eb79056	0.35852307
63	0x3e9f3108	0.31092095
64	0x3ebdf13e	0.37098116
65	0x3ea07786	0.3134119
66	0x3ea94762	0.33062273
67	0x3e9f4ac0	0.31111717
68	0x3eb04141	0.34424785
69	0x3ea42bd8	0.320647
70	0x3ecae2af	0.3962607
71	0x3e8e9df5	0.27854887
72	0x3e4e2a31	0.20133282
73	0x3ebb4449	0.36575535
74	0x3e9bb9c6	0.3041517
75	0x3eb7e172	0.3591419
76	0x3e5de678	0.21669948
77	0x3e96cfe9	0.29455498
78	0x3ead2a3a	0.3382128
79	0x3eb4f0d8	0.3534
80	0x3ec6faa4	0.388631
81	0x3ea92df1	0.33042863
82	0x3ec17bf5	0.37789884
83	0x3ebee8aa	0.37286884
84	0x3e8281e3	0.2548972
85	0x3eb376bf	0.35051534
86	0x3e9263a6	0.2859165
87	0x3eac064a	0.33598548
88	0x3e9cbd27	0.30613062
89	0x3e88cdd9	0.2671955
90	0x3ea8af3f	0.32946202
91	0x3efab1d9	0.48963812
92	0x3e9a6708	0.30156732
93	0x3e9758e6	0.29560012
94	0x3e98939a	0.2980011
95	0x3e83729c	0.25673378
96	0x3ed9a53c	0.42508876
97	0x3e7b9529	0.24568619
98	0x3e97a574	0.29618418
99	0x3eaf1ad8	0.34200168
100	0x3ec15013	0.37756404
101	0x3ebda400	0.37039185
102	0x3ed1cd39	0.40976885
103	0x3e95dbd5	0.2926928
104	0x3ea7b954	0.32758582
105	0x3ec82776	0.39092606
106	0x3e780cd0	0.24223638
107	0x3eadfb77	0.33980915
108	0x3ea33098	0.31873012
109	0x3e926e72	0.28599888
110	0x3e87926f	0.26478907
111	0x3ebebf04	0.37255108
112	0x3ea6d45f	0.325839
113	0x3e9732e5	0.29531017
114	0x3e89cc86	0.26913851
115	0x3ed04af3	0.40682182
116	0x3ebf993e	0.37421602
117	0x3eab3999	0.3344238
118	0x3eb18be4	0.3467704
119	0x3ea7cd78	0.32773948
120	0x3e720961	0.2363639
121	0x3e884d36	0.26621407
122	0x3ea0970b	0.31365237
123	0x3e99ef40	0.30065346
124	0x3ec603d6	0.38674802
125	0x3ec1905b	0.37805447
126	0x3ea07d66	0.3134567
127	0x3ecb1365	0.39663234
128	0x3e869523	0.26285657
129	0x3e9d9342	0.3077641
130	0x3eb3f0fa	0.35144788
131	0x3eb9623e	0.36207765
132	0x3eb7743b	0.35830864
133	0x3ec7bf7d	0.3901328
134	0x3ec96f2d	0.39342633
135	0x3f05e175	0.52297145
136	0x3eb1b416	0.34707707
137	0x3e9fbff7	0.31201145
138	0x3ecd07c8	0.40045
139	0x3eb693ba	0.3565958
140	0x3eecd2bd	0.4625453
141	0x3ea3e608	0.32011437
142	0x3eef6273	0.46754798
143	0x3ea5ca03	0.32380685
144	0x3eebf921	0.46088508
145	0x3e8dc1ac	0.27686822
146	0x3ead0827	0.33795282
147	0x3eafe128	0.34351468
148	0x3eb43780	0.35198593
149	0x3e9accd5	0.302344
150	0x3ea01b53	0.31270847
151	0x3eaccef1	0.33751634
152	0x3ea6a64c	0.3254875
153	0x3eae9955	0.34101358
154	0x3e9c7115	0.30555025
155	0x3e85f3fa	0.26162702
156	0x3ecfd1a8	0.40589643
157	0x3e9fd5eb	0.31217894
158	0x3e9e107b	0.3087195
159	0x3ed31fa3	0.41235074
160	0x3e6ed140	0.2332201
161	0x3ea5c5e8	0.32377553
162	0x3ea5fdaf	0.32420108
163	0x3e994ddc	0.29942214
164	0x3eacda62	0.33760363
165	0x3e9db079	0.307987
166	0x3e99b1fd	0.30018607
167	0x3ea86b10	0.32894182
168	0x3e96dd40	0.29465675
169	0x3eb4bb70	0.35299253
170	0x3e89f82b	0.2694715
171	0x3ea02965	0.31281582
172	0x3eeb8917	0.4600303
173	0x3e99b5a7	0.30021402
174	0x3ee6de8b	0.45091662
175	0x3eb7a242	0.3586598
176	0x3e85a7e6	0.2610466
177	0x3ec2d63a	0.38054067
178	0x3ebff8cf	0.37494513
179	0x3eedc61a	0.46440202
180	0x3e77d587	0.24202548
181	0x3ea063d5	0.31326166
182	0x3e9147d2	0.28375107
183	0x3ece8915	0.4033896
184	0x3ef2cb0a	0.47420532
185	0x3e8dffc3	0.27734193
186	0x3e91ca89	0.28474835
187	0x3ed422d2	0.41432816
188	0x3e61756f	0.22017454
189	0x3e87be3a	0.2651232
190	0x3e921cc3	0.28537568
191	0x3e9a3518	0.30118632

model.features.init_block.bn.bias f4 [192]
0	0xbcf90569	-0.030398088
1	0x3be54c38	0.0069976114
2	0xbca50880	-0.020145655
3	0xbc63916b	-0.013889651
4	0x3c949df4	0.018141724
5	0xbd43ad4b	-0.047772687
6	0xbd931b11	-0.07182897
7	0xbbfaadc2	-0.007650108
8	0x3d2c48fb	0.042061787
9	0x3c12e11e	0.008964805
10	0xbc6f2fb5	-0.014598777
11	0xbc9caa91	-0.019124301
12	0x3cf5791a	0.029964972
13	0xbb971cbf	-0.004611581
14	0x3c530d48	0.012881584
15	0x3d07bc05	0.033138294
16	0xbc8dbb70	-0.017301291
17	0xbc99c1ec	-0.018769227
18	0x3c20ea92	0.009821551
19	0x3cea9add	0.028638298
20	0xbcece0e1	-0.028915824
21	0xbd131a75	-0.035913903
22	0xbc94d337	-0.018167121
23	0xbc4cfe14	-0.012511749
24	0xba9b9e20	-0.0011872686
25	0xbd8c2d1f	-0.06844544
26	0x3cdc3c3c	0.02688419
27	0xbc7f117f	-0.015568136
28	0x3d891ae4	0.06694582
29	0xbc10be26	-0.008834397
30	0xbc8b70bc	-0.01702153
31	0x3c2aaf7e	0.010417817
32	0xbc5a6403	-0.013329509
33	0xbbf72221	-0.0075419103
34	0xbda30197	-0.079592876
35	0x3c30f84d	0.010801387
36	0x3c363ffc	0.0111236535
37	0x3d7976f1	0.060904447
38	0x3cb42b83	0.021993404
39	0x3b0ee375	0.0021803055
40	0xbd268d40	-0.04066205
41	0xbb20fb50	-0.0024563856
42	0xbd8238f5	-0.0635852
43	0xbc23ecb9	-0.01000517
44	0xbc9c11cd	-0.019051457
45	0x3c3ba3bd	0.0114526125
46	0xbd23f1c1	-0.040025476
47	0xbd0a2b6e	-0.033732824
48	0xbc102f4a	-0.008800337
49	0x3a86216c	0.0010233349
50	0x3c167771	0.0091837505
51	0xbc93f40c	-0.018060707
52	0xbd1cf26e	-0.038317136
53	0xbd3ca9cf	-0.04606038
54	0xbc9303ea	-0.017946202
55	0xbcba0aa4	-0.022710152
56	0x3c8ee86e	0.017444815
57	0x3bfa0371	0.007629805
58	0xbb908a5a	-0.004411024
59	0xbb040ed1	-0.0020150433
60	0xbd1629f7	-0.036661115
61	0xbd4c3908	-0.049859077
62	0x3d2e32fd	0.042529095
63	0xbccf2d8a	-0.02529027
64	0xbd6ce877	-0.057838883
65	0x3c8dffdf	0.017333923
66	0xbca26fa3	-0.019828623
67	0xbcffdf97	-0.031234546
68	0x3cf99297	0.030465407
69	0x3b4efa69	0.0031582362
70	0x3c0cf305	0.008602862
71	0x3c5c88ce	0.013460351
72	0x3d3ffd55	0.046872456
73	0x3d190955	0.037362415
74	0xbcafae48	-0.021445408
75	0xbceddb0f	-0.02903512
76	0xbd34fc77	-0.04418608
77	0x3c13903d	0.009006557
78	0xbd44763d	-0.047964323
79	0x3cb88518	0.022524402
80	0x3c9219e1	0.017834606
81	0x3d98b298	0.07455939
82	0xbc40244e	-0.011727406
83	0xbc74bc5c	-0.0149374865
84	0xbd126f8f	-0.03575092
85	0xbd76c72b	-0.060248535
86	0xbc6cad3b	-0.014445598
87	0xbcbda2a2	-0.023148838
88	0x3cb48241	0.022034766
89	0x3ca706f0	0.02038905
90	0x3bc5860a	0.0060279416
91	0xbbfbab33	-0.0076803206
92	0x3ce2b684	0.02767492
93	0x3ab7118e	0.0013967024
94	0xbc34e46d	-0.011040789
95	0x3a8f28b7	0.0010922168
96	0x3c656de4	0.014003251
97	0xbb9a856f	-0.0047156136
98	0x3c0fed8f	0.008784666
99	0xbd62c130	-0.05536002
100	0x3c8eb4e4	0.01742024
101	0xbcc70bf5	-0.024297694
102	0xbd1c97c6	-0.03823068
103	0xbb8f3441	-0.004370243
104	0xbcc18ac7	-0.023625745
105	0xbcd8715f	-0.026421247
106	0x3d8304bf	0.063973896
107	0xbd375ac5	-0.0447643
108	0x3c3282af	0.010895415
109	0xbc2b8f0a	-0.010471115
110	0x3d107d3f	0.035275694
111	0xbc20dc5d	-0.009818164
112	0xbcc14a1c	-0.023594908
113	0x3cdc6c21	0.026907029
114	0x3d752e26	0.059858464
115	0x3cdca139	0.026932346
116	0xbce4d46b	-0.02793332
117	0x3c7c6f58	0.015407406
118	0xbbeca132	-0.0072213644
119	0xbcfcd03a	-0.030861009
120	0xbd1f7853	-0.03893311
121	0xbb2e712d	-0.002661775
122	0xbc6aaafd	-0.014322993
123	0x3c8e1e56	0.01734845
124	0xbb37bca9	-0.0028036034
125	0xbcfae2f7	-0.030625803
126	0x3bd5d506	0.0065256385
127	0xb90acc86	-0.00013236896
128	0x3d067455	0.032825787
129	0xbd7689fb	-0.060190182
130	0x3d38caf2	0.04511542
131	0x3d0093ef	0.03139108
132	0xbc3258c2	-0.010885419
133	0x3ca17789	0.01971032
134	0x3d04e301	0.03244305
135	0x3d9ae777	0.0756368
136	0x3b7c798a	0.0038524591
137	0x3cdab12f	0.026695816
138	0xbce94a51	-0.02847782
139	0xbc8685ba	-0.016421188
140	0x3d4a6b6b	0.049418848
141	0xbb6059b9	-0.0034233166
142	0xbc5f77d1	-0.013639406
143	0xbc9088cf	-0.01764336
144	0xbd090440	-0.03345132
145	0x3c5ae31d	0.013359812
146	0xbd80aa60	-0.062824965
147	0x3c0360e0	0.008018702
148	0xbd227f13	-0.03967197
149	0x3c99d6bb	0.01877915
150	0x3c403344	0.011730973
151	0xbd1cd396	-0.03828772
152	0x3c8a1802	0.016857151
153	0xbc70147a	-0.0146533195
154	0x3d85c23a	0.065311864
155	0xbaf8df17	-0.0018987384
156	0x3d286adb	0.04111753
157	0x3d40269b	0.046911817
158	0xbc7b7cb5	-0.015349557
159	0x3d3f8b6d	0.046763826
160	0x3aa485fe	0.001255214
161	0x3ca3e6bd	0.020007486
162	0x3c862b80	0.016378164
163	0xbc5cb2a8	-0.013470329
164	0xbd197d63	-0.037473094
165	0x3a8d0f91	0.0010762085
166	0x3bc9592b	0.006144663
167	0x3d7d2224	0.061800137
168	0x3c8d8f84	0.017280348
169	0x3c1b435b	0.009476508
170	0x3d6a1bb0	0.05715531
171	0x3bd2806f	0.006424002
172	0x3da5e01b	0.08099385
173	0xbd86c836	-0.06581156
174	0xbd71b63e	-0.05901169
175	0x3cf45dd8	0.029829904
176	0x3ca23b89	0.01980378
177	0x3c95f763	0.01830644
178	0xbd825dd6	-0.06365554
179	0x3db6fbdb	0.08934756
180	0xbc8ed108	-0.017433658
181	0xbc212843	-0.009836259
182	0xbb75aa22	-0.003748544
183	0xbccea4ca	-0.025225062
184	0xbd549fee	-0.051910333
185	0xba64850e	-0.00087173365
186	0x3d41de54	0.04733117
187	0xbacc6002	-0.0015592577
188	0x3d84149e	0.06449245
189	0x3d111453	0.035419773
190	0x3b80817f	0.003921687
191	0x3d106caa	0.03525988

model.features.init_block.bn.running_mean f4 [192]
0	0xb95c10ff	-0.00020987166
1	0xb97e19ba	-0.00024232912
2	0x396ed97a	0.00022778465
3	0xb8cdfcb3	-9.822231e-05
4	0xb9f250dc	-0.00046218082
5	0x39d86acf	0.0004127831
6	0xba8e5544	-0.0010859151
7	0x3a34a24a	0.0006890638
8	0xba1f00f2	-0.00060655095
9	0x393cc8e7	0.00018003919
10	0x39eaf132	0.00044811663
11	0xb8d126f0	-9.973149e-05
12	0xbaae516f	-0.0013299416
13	0x38a17efa	7.7007295e-05
14	0xba77b105	-0.000944868
15	0x3939be55	0.00017713879
16	0xba6fa771	-0.0009142077
17	0x3a31aeac	0.00067780423
18	0x39d6ddb5	0.00040982445
19	0xbac954b6	-0.0015360329
20	0x3a33176e	0.00068317994
21	0xb956633c	-0.00020445598
22	0xb9898088	-0.0002622644
23	0xba480462	-0.00076300476
24	0xb979fb26	-0.0002384005
25	0xb9ba69fd	-0.00035555652
26	0x39fe376d	0.0004848795
27	0x3a51ea9f	0.00080076786
28	0xba63ad00	-0.0008685142
29	0xba10594b	-0.000550647
30	0x3899994d	7.324163e-05
31	0xb9cd1fc0	-0.00039124303
32	0x3952d4df	0.00020106461
33	0x3a4a5e11	0.00077197055
34	0xb9838fd0	-0.00025093416
35	0x38a15f22	7.694798e-05
36	0xb85eec53	-5.314902e-05
37	0x3a946f4f	0.0011324676
38	0x3a23ecff	0.0006253272
39	0xba52a83b	-0.00080359326
40	0x3a1f847b	0.000608511
41	0xb96e3831	-0.00022718382
42	0xb6a02aaf	-4.7733406e-06
43	0xb98a2a88	-0.000263531
44	0xba283347	-0.00064163323
45	0x3a4cda0f	0.00078144757
46	0x398111f7	0.00024618182
47	0xb828bbc1	-4.022918e-05
48	0xb9323ac3	-0.00016997293
49	0xb7ea3480	-2.7919421e-05
50	0xbaa1dd1c	-0.0012349221
51	0x3907f47f	0.00012965685
52	0xb98c1260	-0.0002671657
53	0xb961e0c9	-0.00021541411
54	0xb9a769cc	-0.00031931547
55	0x3a829bab	0.0009964606
56	0x3a90da99	0.0011051475
57	0x3a9aa142	0.0011797326
58	0x39c56629	0.00037650883
59	0xba274703	-0.0006381126
60	0x39e50096	0.0004367872
61	0x3939c913	0.00017717881
62	0x3ab9c1ad	0.00141721
63	0x3a56a41b	0.0008187906
64	0xba02a890	-0.0004984224
65	0xba2d0919	-0.0006600782
66	0xbaaa6815	-0.001300099
67	0x39046773	0.00012627039
68	0xba8aa79b	-0.0010578515
69	0xba9f24d1	-0.001214171
70	0x3a24e1fb	0.0006289777
71	0xba174c90	-0.00057716016
72	0x3ad47c96	0.0016211446
73	0xb9926c28	-0.00027927873
74	0x3a4fe9ae	0.00079312443
75	0x391f664d	0.00015201532
76	0x3a968719	0.0011484354
77	0x3a0be64e	0.0005336747
78	0xba1ad7ab	-0.0005906771
79	0x39d307ee	0.00040250964
80	0xba51ccc8	-0.0008003232
81	0xb9da950f	-0.00041691258
82	0x39b2f7cb	0.00034135426
83	0xba7c47e6	-0.0009623751
84	0x39a30b80	0.0003109835
85	0x3985e7f0	0.00025540544
86	0x3989c044	0.00026273925
87	0x3a5164d7	0.00079877436
88	0xba36a501	-0.00069673365
89	0xba222e9b	-0.00061867543
90	0xba897dc8	-0.0010489756
91	0xb9d19e63	-0.00039981594
92	0x381b05dc	3.6960337e-05
93	0x3a3be44f	0.00071675045
94	0x3a830708	0.0009996602
95	0x3a052d58	0.0005080304
96	0x392a5315	0.00016243414
97	0x3aa55def	0.0012616495
98	0xbac9794e	-0.0015371235
99	0xb9c196b0	-0.000369241
100	0x3aa29825	0.0012404962
101	0xbac500ba	-0.0015030124
102	0xb8fe258a	-0.00012118656
103	0xba6ddc2e	-0.0009073642
104	0xba8e2654	-0.0010845163
105	0xb9b604a3	-0.000347172
106	0x39afc29f	0.00033523605
107	0xba5f6570	-0.000852189
108	0x39fa14a9	0.0004769911
109	0xb750b872	-1.2440711e-05
110	0xb9ee3413	-0.00045433696
111	0x3a0d4746	0.0005389344
112	0xba5a2617	-0.0008321716
113	0x3aabcf33	0.0013108015
114	0x39186dd0	0.00014536758
115	0x39f898e0	0.00047416147
116	0xba8188a6	-0.0009882643
117	0xb9beeb75	-0.00036415053
118	0x3a98b3cb	0.0011650262
119	0x39169cae	0.00014363482
120	0xba0846df	-0.0005198549
121	0xb9167a0c	-0.00014350581
122	0xb9e88ec1	-0.00044356848
123	0xba0b1382	-0.0005305336
124	0xb8fb78d3	-0.00011991118
125	0xba046819	-0.0005050912
126	0xba77da76	-0.00094548555
127	0x3a5f7795	0.0008524594
128	0x3a925229	0.0011163402
129	0x3a1e2e5f	0.00060341315
130	0x3779773e	1.486932e-05
131	0xba4ed044	-0.00078893104
132	0xba9b6bc1	-0.0011857675
133	0xb9cd2636	-0.00039129116
134	0x39faee2a	0.00047861162
135	0xb7c99b2f	-2.403333e-05
136	0xb96d8772	-0.00022652539
137	0x3a2e8d85	0.00066586613
138	0xb89df4e5	-7.5319585e-05
139	0xba139fc1	-0.000563141
140	0xb9f0fa9e	-0.00045963092
141	0x3a258f8e	0.0006315642
142	0xba272361	-0.00063758163
143	0xba966077	-0.001147284
144	0xb9978a4d	-0.00028904006
145	0xb97a7cba	-0.00023888322
146	0x3a03a572	0.00050219067
147	0x38d1f29d	0.00010011087
148	0x3a270819	0.0006371751
149	0x3a235cf5	0.0006231808
150	0x388982c9	6.55703e-05
151	0xbab85807	-0.001406432
152	0xba3cd2a6	-0.000720302
153	0xb9b824d4	-0.00035122654
154	0xb78cc831	-1.6782522e-05
155	0x3a974ce7	0.0011543304
156	0x394df868	0.00019642862
157	0x3a6e24a0	0.0009084437
158	0xba95715e	-0.0011401584
159	0xba35cd49	-0.0006935192
160	0xb9196c4e	-0.00014631564
161	0x3904dda9	0.00012671076
162	0x39b2bf29	0.0003409323
163	0x39d26ec6	0.00040136854
164	0x39b4ca88	0.00034483173
165	0xb85fa982	-5.332521e-05
166	0x3a748d40	0.0009328909
167	0xb9a21ffe	-0.00030922884
168	0xba9d8485	-0.0012017643
169	0xb960df20	-0.00021445425
170	0xb763e563	-1.3583663e-05
171	0x3a328d05	0.00068111747
172	0xb9a9f73b	-0.00032418393
173	0x385d89e3	5.2818923e-05
174	0x39eda336	0.00045325764
175	0xba27d47d	-0.00064022077
176	0xba85c86b	-0.0010206824
177	0xb9d94dc8	-0.00041447417
178	0xba83de6c	-0.0010060794
179	0x39cbd825	0.00038880217
180	0xb9bf0390	-0.00036433013
181	0x39594727	0.00020721239
182	0x3a05e14e	0.00051071204
183	0xba5a7155	-0.0008332928
184	0x3971b266	0.0002305001
185	0x39b6cd31	0.00034866625
186	0xb9af6378	-0.0003345271
187	0xb859a9db	-5.1895022e-05
188	0x3ad4a12e	0.0016222352
189	0xba0d25ed	-0.00053843745
190	0xb9bf1e39	-0.00036452877
191	0xba49298e	-0.00076737336

model.features.init_block.bn.running_var f4 [192]
0	0x3e1dc150	0.15405774
1	0x3d506427	0.050876763
2	0x3e9b7ada	0.30367166
3	0x3f334046	0.7001995
4	0x3e6b345b	0.22969191
5	0x3e5c886d	0.21536417
6	0x3eb6fa67	0.35737917
7	0x3e4ca50c	0.19984835
8	0x3e8b583f	0.27215764
9	0x3ea3a7eb	0.3196405
10	0x3e237cda	0.15965596
11	0x3e79f0d9	0.24408282
12	0x3ec6758f	0.38761565
13	0x3ea83b81	0.32857898
14	0x3ed74db7	0.4205148
15	0x3efcb7bd	0.4935893
16	0x3e6cc69b	0.23122637
17	0x3ea19816	0.31561345
18	0x3e780c9a	0.24223557
19	0x3ef6343b	0.48086724
20	0x3ec4d452	0.38443238
21	0x3e41fae8	0.1894337
22	0x3e58febe	0.21190926
23	0x3ee9a2b8	0.45631957
24	0x3eaa9199	0.33314207
25	0x3ebe75c8	0.37199235
26	0x3e899527	0.26871607
27	0x3f00027c	0.5000379
28	0x3e2c7642	0.16841987
29	0x3eac3d94	0.3364073
30	0x3e940f4c	0.2891792
31	0x3e8c5e76	0.27415818
32	0x3e3c1fc6	0.18371496
33	0x3e07b7a8	0.13253653
34	0x3e9c0c63	0.304782
35	0x3e6b1a86	0.22959337
36	0x3ea059e6	0.31318587
37	0x3e644660	0.22292471
38	0x3e920aaf	0.28523776
39	0x3ebee2b2	0.3728233
40	0x3eb15d80	0.34641647
41	0x3e69149f	0.22761773
42	0x3e3ab4c6	0.18233022
43	0x3e3f5d0a	0.18687835
44	0x3ebe2515	0.37137666
45	0x3ec65e69	0.38743904
46	0x3e8da284	0.27663052
47	0x3e90d2ac	0.2828573
48	0x3e60bd30	0.2194717
49	0x3e8c5d50	0.27414942
50	0x3eebeb03	0.46077737
51	0x3e84b853	0.25921878
52	0x3ee43bd4	0.44576895
53	0x3e2e76fb	0.17037575
54	0x3e805588	0.25065255
55	0x3ee0cbf3	0.439056
56	0x3e6cd197	0.23126827
57	0x3f0fe828	0.5621362
58	0x3e37d613	0.17952757
59	0x3e65178a	0.2237226
60	0x3e7a1228	0.24420989
61	0x3e6e3244	0.23261362
62	0x3e907d0a	0.28220397
63	0x3e51a5e2	0.20473436
64	0x3e22c1d1	0.15894248
65	0x3ebe3f2e	0.37157577
66	0x3e997a74	0.29976237
67	0x3e9766eb	0.29570708
68	0x3e710c0d	0.23539753
69	0x3eabda2b	0.33564886
70	0x3e81a751	0.25322965
71	0x3ed38975	0.4131581
72	0x3ec9768f	0.39348266
73	0x3eaf082f	0.3418593
74	0x3ea8eb7b	0.32992157
75	0x3e7c53c2	0.24641326
76	0x3ea474df	0.32120416
77	0x3ec0ef7b	0.3768271
78	0x3ea45dcf	0.3210282
79	0x3e099666	0.13436279
80	0x3ea04d2b	0.31308874
81	0x3ea68c9c	0.3252915
82	0x3e9db0f2	0.3079906
83	0x3ed3ef21	0.41393378
84	0x3ea2a1c1	0.31764033
85	0x3e2da1c8	0.16956246
86	0x3e862cf8	0.26206183
87	0x3eb6ea9e	0.35725874
88	0x3e875321	0.2643061
89	0x3f0a43a8	0.54009485
90	0x3e9aaae0	0.30208492
91	0x3e93f530	0.28898
92	0x3e97697b	0.29572663
93	0x3e9f3ff0	0.31103468
94	0x3e840b0b	0.25789675
95	0x3eab433c	0.33449733
96	0x3e397d06	0.18114099
97	0x3e86bd5d	0.26316348
98	0x3e9a2c9d	0.30112162
99	0x3ec51101	0.38489535
100	0x3e8d7a59	0.27632406
101	0x3ed2193f	0.41034886
102	0x3e2876ff	0.16451643
103	0x3eb64e2f	0.35606524
104	0x3eb1e0bc	0.3474177
105	0x3e89079f	0.26763627
106	0x3f08fb4a	0.53508437
107	0x3e96f120	0.2948084
108	0x3e8313d9	0.2560108
109	0x3eb82f4a	0.3597358
110	0x3f0bea71	0.54654604
111	0x3e751c07	0.23936473
112	0x3f091732	0.5355102
113	0x3e801b39	0.2502077
114	0x3ea960c3	0.33081636
115	0x3e999ef4	0.30004084
116	0x3ed2b2f7	0.41152164
117	0x3eb243a4	0.3481723
118	0x3ec93be8	0.39303517
119	0x3ea14463	0.31497487
120	0x3f460c61	0.7736264
121	0x3f08469e	0.53232753
122	0x3e54107d	0.20709415
123	0x3ef9b863	0.48773488
124	0x3f1236b8	0.57114744
125	0x3e914203	0.28370675
126	0x3eb391ec	0.35072267
127	0x3e81579b	0.2526215
128	0x3ea2999e	0.31757826
129	0x3ec18279	0.37794855
130	0x3e9674a1	0.29385856
131	0x3eb60a9b	0.35554966
132	0x3ea6f145	0.3260595
133	0x3eb89298	0.36049342
134	0x3e6f875a	0.23391476
135	0x3e922b24	0.2854854
136	0x3ee02036	0.43774575
137	0x3e1ca450	0.15297055
138	0x3eb1f2f7	0.3475568
139	0x3e6f7a22	0.23386434
140	0x3ea0f0d2	0.3143373
141	0x3eafa3af	0.34304568
142	0x3e2a2e99	0.16619338
143	0x3e55da82	0.20884135
144	0x3e66c4cb	0.22536008
145	0x3e1ce863	0.15323023
146	0x3e1f5009	0.15557875
147	0x3ee3ee5b	0.44517788
148	0x3e7c3597	0.24629818
149	0x3e954dc6	0.291609
150	0x3e910b18	0.28328776
151	0x3e9f4a5b	0.31111416
152	0x3f1bcb0a	0.6085669
153	0x3e1b71a2	0.15180066
154	0x3ea8f01c	0.3299569
155	0x3e784f0d	0.24248905
156	0x3eb7e4c7	0.3591673
157	0x3edc3d1d	0.43015376
158	0x3e4a45bc	0.19753164
159	0x3ebcfd4e	0.36912006
160	0x3ec4462d	0.3833479
161	0x3e1cf42d	0.1532752
162	0x3ecdc763	0.40191182
163	0x3e4b7611	0.19869258
164	0x3eb27ece	0.3486237
165	0x3e8fe844	0.28106892
166	0x3e2299ea	0.15879026
167	0x3e77faa4	0.24216706
168	0x3ebf173b	0.3732241
169	0x3eb4481c	0.35211265
170	0x3ded0ba0	0.11574483
171	0x3ef1f2f8	0.47255683
172	0x3e669202	0.22516635
173	0x3e8cb322	0.27480417
174	0x3eabe4e1	0.33573058
175	0x3eda0bbc	0.42587078
176	0x3eb4c59b	0.3530701
177	0x3ea2211e	0.3166589
178	0x3eb2200a	0.3479007
179	0x3eca87e7	0.3955681
180	0x3e28d0b1	0.1648586
181	0x3e652b59	0.22379817
182	0x3eab6803	0.33477792
183	0x3e59e19d	0.21277471
184	0x3e89bec8	0.26903367
185	0x3e61c5ac	0.22048062
186	0x3dd66ca4	0.1046994
187	0x3e897a40	0.26851082
188	0x3eb59105	0.35462204
189	0x3e45cc2f	0.19316171
190	0x3e7e8471	0.2485521
191	0x3ea84111	0.32862142

model.features.stage1.unit1.dw_conv.conv.weight f4 [192, 1, 3, 3]
0	0xbdfcc015	-0.12341324
1	0x3e30a8ce	0.17251894
2	0xbeff6898	-0.49884486
3	0x3e352844	0.17691141
4	0x3e8af1f8	0.27137733
5	0x3ef0f600	0.47062683
6	0x3e9602fd	0.29299155
7	0x3edd9fd9	0.43286017
8	0x3e468503	0.19386677
9	0xbe19623f	-0.14978884
10	0x3f01ded0	0.5073061
11	0xbc8bac23	-0.017049855
12	0xbeb2683f	-0.34845158
13	0xbe7118fc	-0.23544687
14	0x3ed57df3	0.41697654
15	0xbf4f55c1	-0.80990225
16	0x3e46eb8e	0.19425794
17	0xbd5a6478	-0.05331847
18	0x3e02967b	0.12752716
19	0x3de818fa	0.11332889
20	0x3e8f4545	0.27982536
21	0xbeab89f5	-0.3350369
22	0x3eeee6a2	0.46660334
23	0xbc8d0ecd	-0.017218972
24	0xbe7cf2c9	-0.2470199
25	0xbe7edde2	-0.24889329
26	0xbeb41eab	-0.35179648
27	0xbe3b4992	-0.18289784
28	0x3ecf419b	0.4047974
29	0x3c0ac120	0.008468896
30	0xbda1dd31	-0.07903517
31	0x3f1d43ef	0.61431783
32	0xbe5263b7	-0.2054585
33	0xbf5e05f8	-0.8672786
34	0x3e5882aa	0.21143594
35	0xbe34f27e	-0.17670628
36	0x3f0f01d0	0.5586214
37	0xbda07460	-0.07834697
38	0xbf10970d	-0.56480485
39	0xbe0de985	-0.13858612
40	0x3ebb1066	0.3653595
41	0x3dbba2e8	0.09161931
42	0xbeb82122	-0.35962778
43	0xbf0ed7ef	-0.5579824
44	0x3ea908ac	0.3301443
45	0xbeaf419d	-0.34229746
46	0xbc5ec826	-0.013597524
47	0x3e5e4288	0.21705067
48	0x3e410a76	0.18851647
49	0xbeafc044	-0.34326375
50	0xbe9497af	-0.29021975
51	0x3f513256	0.8171743
52	0x3ec8abb1	0.3919349
53	0x3f0951e3	0.53640574
54	0x3d92cf86	0.07168488
55	0xbf26c55b	-0.6514489
56	0xbe271919	-0.16318168
57	0x3f4e3780	0.80553436
58	0xbed9d85a	-0.42547876
59	0xbe44e9b8	-0.19229782
60	0x3cb8439c	0.022493176
61	0xbf5c33a1	-0.8601628
62	0xbeb39d4b	-0.35080943
63	0xbcaf00cb	-0.021362683
64	0x3f130088	0.57422686
65	0x3f3f119a	0.7463623
66	0x3ee29a65	0.4425842
67	0xbc557e3d	-0.013030586
68	0x3fa5e7f8	1.2961416
69	0xbdcb936e	-0.09940229
70	0xbe4b48ea	-0.19852033
71	0xbdf72de0	-0.12069297
72	0xbe9a874a	-0.30181342
73	0xbf041b9d	-0.51604635
74	0x3d4841cb	0.04889087
75	0xbdc1872a	-0.094496086
76	0x3e168189	0.14697851
77	0x3ea4fa35	0.32222143
78	0xbea0a9c7	-0.3137953
79	0x3f501a1a	0.8128983
80	0xbca0de73	-0.019637322
81	0xbed4da1f	-0.41572663
82	0x3e8a03b1	0.2695594
83	0x3eeb337a	0.4593771
84	0xbee6b3ca	-0.45059043
85	0x3ea69e6b	0.32542738
86	0xbe9cdc3d	-0.30636778
87	0xbb840258	-0.0040285997
88	0xbe095434	-0.13411027
89	0xbed724a0	-0.4202013
90	0x3e114e1f	0.14189957
91	0xbf1c0bb9	-0.6095539
92	0xbde9a18a	-0.11407764
93	0xbc98328f	-0.018578796
94	0xbd9c32a2	-0.07626845
95	0xbeb49ff2	-0.3527828
96	0x3e51ef1f	0.20501374
97	0x3ecc8803	0.3994752
98	0x3f58ff35	0.84764415
99	0x3d3effb8	0.04663059
100	0xbf710994	-0.9415524
101	0x3e6eb977	0.23312937
102	0xbe4c48c9	-0.1994964
103	0xbf2e462e	-0.68075836
104	0xbe0db9c4	-0.13840395
105	0x3f3b5e4d	0.73190767
106	0x3f1d3ab5	0.61417705
107	0x3f10182c	0.56286883
108	0x3e38eec3	0.1805983
109	0x3de50992	0.11183466
110	0x3f4fa881	0.8111649
111	0x3f35a022	0.7094747
112	0x3d161563	0.03664149
113	0xbf171c84	-0.59027886
114	0xbf478af1	-0.7794638
115	0xbee02e65	-0.43785396
116	0x3e0a10df	0.13482998
117	0xbe96aba9	-0.2942784
118	0x3db94bb7	0.090476446
119	0xbeec4c09	-0.4615176
120	0xbf2931aa	-0.66091406
121	0xbeee079b	-0.46490178
122	0x3efd7a22	0.49507242
123	0xbec249d9	-0.37946966
124	0x3f09045c	0.53522277
125	0x3ee8b81b	0.4545296
126	0x3f931153	1.1489662
127	0x3e9fa3ae	0.31179565
128	0xbdcf19d6	-0.1011235
129	0x3de65b9f	0.11247944
130	0x3c738fdc	0.014865842
131	0x3ef76d69	0.4832566
132	0x3ea9b36e	0.33144706
133	0x3e0c38fd	0.13693614
134	0x3f54acff	0.8307647
135	0x3e61d2f8	0.22053134
136	0xbeed8add	-0.46395007
137	0x3ef271f3	0.4735256
138	0xbdc36972	-0.095415965
139	0xbf0069b1	-0.5016127
140	0xbda8534e	-0.08219014
141	0x3ec13595	0.37736192
142	0xbf158162	-0.5840055
143	0xbf3214fc	-0.6956327
144	0xbf3e190b	-0.7425696
145	0x3f64643f	0.89215463
146	0xbf52830f	-0.8223123
147	0x3e20552f	0.15657495
148	0x3ea19235	0.3155686
149	0x3d8cf9d4	0.068835884
150	0xbe9955cd	-0.29948273
151	0xbe9c1ca8	-0.30490613
152	0x3e59d845	0.21273907
153	0x3ee00660	0.43754864
154	0x3eab3d26	0.3344509
155	0xbe1a4c31	-0.15068127
156	0xbdae10c5	-0.08499292
157	0xbf2a243b	-0.66461533
158	0xbe69aef1	-0.22820641
159	0x3e2a5e1e	0.16637465
160	0x3eaed309	0.34145382
161	0xbcdb6147	-0.026779784
162	0x3efe5496	0.4967391
163	0xbbcd545d	-0.0062661604
164	0x3f2ede7a	0.6830822
165	0xbf3b253d	-0.73103696
166	0x3eeb3702	0.45940405
167	0xbe84024e	-0.25783008
168	0xbf317576	-0.69319856
169	0x3eb24272	0.3481632
170	0xbefe8b34	-0.4971558
171	0x3e0b1df2	0.13585642
172	0x3e211ae4	0.15732914
173	0x3e978aaa	0.2959798
174	0x3e57f903	0.21091084
175	0x3f20b41b	0.6277482
176	0x3df2cfaf	0.11856019
177	0x3db86bac	0.09004912
178	0xbf0fefd1	-0.56225306
179	0x3e3d752c	0.18501729
180	0xbecfc19b	-0.40577397
181	0xbf211d36	-0.629352
182	0x3f8cd859	1.1003524
183	0x3e91280d	0.2835087
184	0xbd8a819a	-0.06763001
185	0xbc67ff30	-0.014159963
186	0x3e591f64	0.21203381
187	0x3c7b0098	0.015319966
188	0xbb3e2f9b	-0.0029020074
189	0x3f2da6e2	0.6783277
190	0xbe82ad9c	-0.25523078
191	0xbd6564ee	-0.056004457
192	0x3f4364c6	0.76325643
193	0xbc2f45b0	-0.010697767
194	0xbf125477	-0.57160133
195	0x3e0fe831	0.14053418
196	0xbf27cb06	-0.65544164
197	0x3dd023d2	0.10163082
198	0x3effaa3e	0.49934572
199	0xbea032f6	-0.3128888
200	0x3de45e92	0.1115085
201	0x3d8aab28	0.06770927
202	0xbe37331e	-0.17890593
203	0x3e87982a	0.2648328
204	0xbd3d6d2c	-0.046246693
205	0xbe63961e	-0.22225234
206	0x3eb6472e	0.3560118
207	0x3f2623c1	0.64898306
208	0x3d99a1d6	0.07501571
209	0x3efd17ac	0.49432123
210	0xbf1953ae	-0.5989331
211	0xbe928b33	-0.28621826
212	0xbea9803c	-0.33105648
213	0x3ef70f08	0.48253655
214	0xbeb41011	-0.35168508
215	0x3f76e80d	0.9644783
216	0x3f16fa5e	0.5897578
217	0x3ea1967e	0.3156013
218	0x3f1316cc	0.5745666
219	0x3ed98e3c	0.4249133
220	0xbd86e77e	-0.065871224
221	0x3f0faf17	0.5612654
222	0x3db3133a	0.087439016
223	0x3ed3bcfe	0.41355127
224	0xbea7d1b8	-0.3277719
225	0x3d69952a	0.05702702
226	0x3eb536c3	0.35393342
227	0xbdf4c795	-0.1195213
228	0x3f035f3f	0.5131721
229	0x3e007289	0.12543692
230	0x3eeab4c2	0.45841032
231	0x3e940669	0.2891114
232	0x3e7629f7	0.24039446
233	0xbe0b1e7c	-0.13585848
234	0x3ebf5b7b	0.37374482
235	0xbef1f435	-0.47256628
236	0x3e9df847	0.30853483
237	0x3ea8365e	0.3285398
238	0xbf19d022	-0.6008321
239	0x3f28a469	0.6587587
240	0xbd8163bd	-0.06317852
241	0xbec15e7e	-0.37767404
242	0x3e2db428	0.16963255
243	0x3f732ab1	0.94987017
244	0x3efa80dd	0.4892644
245	0xbf29cb9a	-0.66326296
246	0xbf06295b	-0.52406853
247	0xbf0b4a23	-0.5441
248	0x3ec0548e	0.3756451
249	0xbf065e1e	-0.5248736
250	0xbdf24bed	-0.11830888
251	0x3f649245	0.8928569
252	0x3f461290	0.77372074
253	0x3ec31191	0.3809934
254	0x3e70e0df	0.23523282
255	0xbf1133d1	-0.5671969

model.features.stage1.unit1.dw_conv.bn.weight f4 [192]
0	0x3f6c5923	0.9232351
1	0x3f7e84f8	0.99421644
2	0x3f6f1dd0	0.93404865
3	0x3f6cd605	0.9251407
4	0x3f6e0951	0.92982966
5	0x3f7096a5	0.93979865
6	0x3f69190b	0.9105384
7	0x3f6c2d56	0.9225668
8	0x3f7e7643	0.99399203
9	0x3f70363f	0.9383277
10	0x3f702d79	0.93819386
11	0x3f7f8f85	0.9982837
12	0x3f72a9e8	0.94790506
13	0x3f79037a	0.9727093
14	0x3f68d02a	0.90942633
15	0x3f6907d8	0.91027594
16	0x3f8043a7	1.0020646
17	0x3f7a05c2	0.97665036
18	0x3f7e5dc5	0.9936183
19	0x3f692497	0.91071457
20	0x3f7b0b3b	0.9806401
21	0x3f7f999b	0.9984376
22	0x3f7f21be	0.9966086
23	0x3f7165a8	0.9429574
24	0x3f76257f	0.96150964
25	0x3f70cb6f	0.94060415
26	0x3f7fb145	0.99879867
27	0x3f756695	0.9585965
28	0x3f6f8b49	0.9357191
29	0x3f8205b7	1.0157994
30	0x3f61c929	0.8819757
31	0x3f7c6020	0.98584175
32	0x3f6f056d	0.93367654
33	0x3f66fd14	0.90229917
34	0x3f876d60	1.0580254
35	0x3f817b38	1.0115728
36	0x3f7cd01c	0.9875505
37	0x3f78bad6	0.9716009
38	0x3f79cf87	0.97582287
39	0x3f74c320	0.9561024
40	0x3f8227a0	1.0168343
41	0x3f740a9f	0.95328707
42	0x3f81cb3e	1.014015
43	0x3f660861	0.89856535
44	0x3f6f3412	0.9343883
45	0x3f700566	0.9375824
46	0x3f6af85b	0.9178521
47	0x3f74c1a2	0.9560796
48	0x3f77c502	0.96784985
49	0x3f5e88d3	0.8692753
50	0x3f724a36	0.94644487
51	0x3f6a6c4e	0.9157151
52	0x3f7056aa	0.9388224
53	0x3f6d533c	0.9270513
54	0x3f624306	0.8838352
55	0x3f5f7e3b	0.8730199
56	0x3f814d24	1.0101666
57	0x3f65e92c	0.8980892
58	0x3f70aa50	0.94009876
59	0x3f7fe777	0.9996256
60	0x3f6a41d3	0.9150669
61	0x3f6bfecc	0.92185664
62	0x3f6d4c56	0.92694604
63	0x3f7bafaa	0.9831492
64	0x3f6e6849	0.93127877
65	0x3f68e26a	0.9097048
66	0x3f70b180	0.94020844
67	0x3f7b79bd	0.9823263
68	0x3f74fd88	0.9569936
69	0x3f797764	0.974478
70	0x3f814ef7	1.0102223
71	0x3f6513f8	0.89483595
72	0x3f656b94	0.89617276
73	0x3f775eeb	0.9662921
74	0x3f71cb6b	0.94451016
75	0x3f6ac5c3	0.9170801
76	0x3f68d4b2	0.9094955
77	0x3f69aecb	0.9128234
78	0x3f686898	0.907846
79	0x3f75c687	0.96006054
80	0x3f811a07	1.0086068
81	0x3f777185	0.9665759
82	0x3f7a1d20	0.9770069
83	0x3f6f7f35	0.9355348
84	0x3f61c99b	0.8819825
85	0x3f7aa6ec	0.9791095
86	0x3f751916	0.95741403
87	0x3f785ade	0.9701365
88	0x3f61e520	0.8824024
89	0x3f67fe1a	0.90622103
90	0x3f798b41	0.9747811
91	0x3f682c8b	0.9069297
92	0x3f6a442e	0.91510284
93	0x3f727012	0.94702256
94	0x3f72b3a4	0.9480536
95	0x3f7543ae	0.95806396
96	0x3f684f7c	0.90746284
97	0x3f64f7fd	0.894409
98	0x3f654350	0.89555836
99	0x3f6c302a	0.9226099
100	0x3f813a09	1.0095836
101	0x3f6e37cb	0.93053883
102	0x3f817172	1.0112746
103	0x3f73c971	0.9522925
104	0x3f748253	0.9551136
105	0x3f70d5bf	0.9407615
106	0x3f6f6431	0.93512255
107	0x3f6c9a6e	0.9242314
108	0x3f728f17	0.9474959
109	0x3f7414dc	0.9534433
110	0x3f755c89	0.9584432
111	0x3f84c816	1.0373561
112	0x3f6b58b1	0.9193221
113	0x3f6820f5	0.9067529
114	0x3f6d92bd	0.9280203
115	0x3f7d9e11	0.99069315
116	0x3f6dc24e	0.9287461
117	0x3f7199cb	0.94375294
118	0x3f7b3ac9	0.98136574
119	0x3f7485f7	0.95516914
120	0x3f68c3be	0.9092368
121	0x3f70deb2	0.94089806
122	0x3f800826	1.0002487
123	0x3f674a90	0.9034815
124	0x3f7114ec	0.9417255
125	0x3f6f2f70	0.9343176
126	0x3f816090	1.0107594
127	0x3f75ac56	0.9596609
128	0x3f7e3d5a	0.99312365
129	0x3f617750	0.8807268
130	0x3f7be2af	0.98392767
131	0x3f8061af	1.0029811
132	0x3f787ec0	0.97068405
133	0x3f6f6437	0.9351229
134	0x3f74afec	0.95580935
135	0x3f806286	1.0030067
136	0x3f80d5a2	1.0065196
137	0x3f6856c2	0.9075738
138	0x3f7d87f3	0.9903557
139	0x3f7fc1ee	0.9990529
140	0x3f7c0d2a	0.98457587
141	0x3f69b57e	0.9129256
142	0x3f6be568	0.9214692
143	0x3f67adf8	0.9049983
144	0x3f76d9da	0.96426165
145	0x3f6b1f74	0.9184487
146	0x3f798b07	0.97477764
147	0x3f6d003a	0.9257847
148	0x3f788630	0.97079754
149	0x3f6c6caf	0.9235334
150	0x3f62dc3a	0.8861729
151	0x3f6b0cb1	0.9181624
152	0x3f800bd0	1.0003605
153	0x3f7732f3	0.9656212
154	0x3f7dd35c	0.99150634
155	0x3f6d1b18	0.92619467
156	0x3f7e86ab	0.99424237
157	0x3f662f72	0.89916146
158	0x3f829b85	1.0203711
159	0x3f79363f	0.973484
160	0x3f6e4b2f	0.9308347
161	0x3f7b58ee	0.9818257
162	0x3f6ecd4d	0.93282014
163	0x3f7470f2	0.9548484
164	0x3f808027	1.0039109
165	0x3f8427f1	1.0324689
166	0x3f6036de	0.8758372
167	0x3f77fdab	0.9687144
168	0x3f6c0680	0.9219742
169	0x3f74fc2c	0.95697284
170	0x3f6748c6	0.9034542
171	0x3f7298f5	0.94764644
172	0x3f75d4f9	0.96028095
173	0x3f7090a0	0.9397068
174	0x3f6a2037	0.91455406
175	0x3f7acf18	0.9797225
176	0x3f69ef30	0.91380596
177	0x3f683bd5	0.90716296
178	0x3f71d339	0.94462925
179	0x3f7d9f8c	0.99071574
180	0x3f650972	0.8946754
181	0x3f7ad521	0.9798146
182	0x3f75a1cb	0.9595
183	0x3f76a085	0.96338683
184	0x3f6a96e5	0.91636497
185	0x3f6d98ff	0.9281158
186	0x3f7636af	0.9617719
187	0x3f803201	1.001526
188	0x3f724305	0.94633514
189	0x3f6a269d	0.9146517
190	0x3f67ce98	0.9054961
191	0x3f741483	0.953438

model.features.stage1.unit1.dw_conv.bn.bias f4 [192]
0	0x3d3ef05a	0.046615936
1	0x3c49ca1c	0.012316253
2	0x3c2f3f2a	0.010696212
3	0x3bad402a	0.00528719
4	0xbd01c5d9	-0.031682823
5	0xbcaeecf8	-0.02135323
6	0x3d5eb691	0.054373328
7	0xbd9eb322	-0.077490106
8	0xbd6d34ac	-0.05791156
9	0xbd09db53	-0.03365643
10	0xbc275c80	-0.010214925
11	0x3dbd4c30	0.09243047
12	0xbd0f4477	-0.034977403
13	0x3c220cda	0.009890759
14	0xbcea96b5	-0.028636316
15	0x3cc1ad9c	0.023642354
16	0x3aebf720	0.0018002726
17	0x3d09cc9e	0.033642404
18	0x3d4cfc5c	0.050045356
19	0xbdb95faa	-0.090514496
20	0xbdb5c8ef	-0.08876216
21	0xb6af6577	-5.2272185e-06
22	0x3d54bc43	0.051937353
23	0xbdb04649	-0.08607156
24	0x3daf9dd8	0.08575028
25	0xbd9aa306	-0.075506255
26	0x3ba8f385	0.005155983
27	0xbd73ac0c	-0.05949025
28	0xbd8429d6	-0.06453292
29	0x3d7fd11e	0.06245529
30	0xbcd50bd0	-0.02600661
31	0xbd02e8d2	-0.031960316
32	0xbc9db48e	-0.019251134
33	0xbd25ae41	-0.040449385
34	0x3db04cc5	0.086083926
35	0x3d71597b	0.058923226
36	0x3cca9733	0.0247303
37	0x3cd36ae5	0.025807807
38	0xbd556ce8	-0.052105814
39	0x3b1b011a	0.002365178
40	0x3d0ef217	0.034898844
41	0xbc6d94a6	-0.014500773
42	0xbadb8446	-0.0016747795
43	0xbd9a7e59	-0.0754363
44	0x3d7f8845	0.062385816
45	0xbda11152	-0.07864632
46	0x3b613df0	0.0034369193
47	0x3da52956	0.08064525
48	0x3ca089d6	0.019596975
49	0xbd4b9fa6	-0.0497128
50	0x3b474ef1	0.0030412043
51	0x3ca63068	0.020286754
52	0x3d18c900	0.037301064
53	0x3d3efa2f	0.046625312
54	0xbd2074fa	-0.039174058
55	0xbdb4843e	-0.08814286
56	0xbc62f153	-0.0138514815
57	0xbd5704c4	-0.05249478
58	0xbd3be0eb	-0.045868795
59	0x3cf6cacb	0.030125996
60	0xbdac9354	-0.08426538
61	0xbbfb2e53	-0.0076654344
62	0x3d121a69	0.035669718
63	0x3a8ab2a4	0.0010581804
64	0xbd340127	-0.04394641
65	0xbd072eed	-0.033003736
66	0xbcd0128e	-0.025399473
67	0xbc09fcfe	-0.008422134
68	0xbd2825d1	-0.04105169
69	0x3cdbf692	0.026850972
70	0xbc1e03cc	-0.00964446
71	0xbd3b2bf2	-0.045696206
72	0xbd9f9113	-0.077913426
73	0x3d838939	0.064226575
74	0xbbe3cb24	-0.0069517065
75	0xbb61dc0b	-0.0034463431
76	0xbd67464f	-0.056463536
77	0xbceaded7	-0.028670711
78	0x3d13bf53	0.036071133
79	0xbcc03804	-0.02346421
80	0xbc915800	-0.017742157
81	0x3c1a1393	0.009404081
82	0x3b517690	0.0031961538
83	0x3be9270e	0.0071152514
84	0x3c2752e1	0.010212631
85	0x3d435532	0.04768867
86	0xbce88ed1	-0.028388413
87	0xbc9ec254	-0.019379772
88	0xbd3bdd6b	-0.045865458
89	0xbc119afb	-0.008887048
90	0xbc357765	-0.011075829
91	0x3cb07919	0.021542119
92	0xbcb206e8	-0.021731809
93	0x3d4bdf4c	0.0497735
94	0xbc540c5e	-0.012942402
95	0xbd1be023	-0.03805555
96	0xbd02e958	-0.031960815
97	0x3b8c7fa2	0.004287676
98	0xbcb87ee7	-0.02252145
99	0x3db839f6	0.0899543
100	0x3d40467d	0.046942223
101	0xbd9b0eb1	-0.075711615
102	0x3d016b63	0.031596553
103	0xbd9c7372	-0.07639207
104	0xbd985208	-0.07437521
105	0xbdfe3ec5	-0.12414316
106	0x3dd9566a	0.10612185
107	0xbcb80f9e	-0.022468384
108	0x3d701116	0.058610044
109	0xbd0e4b5c	-0.034739837
110	0xbcb27825	-0.021785805
111	0x3b866b7b	0.004102168
112	0xbdad30d2	-0.08456577
113	0x3c61075a	0.013734663
114	0xbd56c5eb	-0.052434843
115	0x3d4883bf	0.048953768
116	0xbd253323	-0.04033197
117	0xbd7ca277	-0.061678376
118	0x3b8fee08	0.004392389
119	0xbc2de452	-0.010613518
120	0xbe00bd9b	-0.12572329
121	0x3bec34e8	0.0072084554
122	0x3dacd933	0.08439865
123	0xbca82834	-0.020526983
124	0xbd1e4f50	-0.038649857
125	0x3da1c5ab	0.0789903
126	0xbb8c9337	-0.0042900103
127	0x3cb118a9	0.021618204
128	0x3c49bc32	0.012312936
129	0xbcb2dbef	-0.021833388
130	0xbda8c956	-0.08241527
131	0x3be91fd7	0.0071143913
132	0xbd1fb1b2	-0.038987823
133	0x3d91538f	0.07096016
134	0x3d4ac4e5	0.04950418
135	0x3d01d154	0.03169377
136	0xbd5c7c6c	-0.053829595
137	0xbd46edfe	-0.04856681
138	0xbc2ff95a	-0.010740602
139	0xbd4095b0	-0.047017753
140	0x3cbc3f12	0.022979293
141	0xbb1a9667	-0.0023588182
142	0xbb128d99	-0.002236223
143	0x3ce974e5	0.028498122
144	0xbd5f46f6	-0.054511033
145	0x3c2ae309	0.010430106
146	0x3c9e8fb5	0.019355634
147	0xbd8f9356	-0.07010524
148	0xbcc3d59d	-0.02390557
149	0x3c09f19a	0.008419419
150	0xbd498fe7	-0.0492095
151	0xbd9a296c	-0.07527432
152	0x3c85a161	0.016312303
153	0xbc84d82a	-0.016216356
154	0xbc88961e	-0.016673144
155	0xbb6a8fe0	-0.0035791323
156	0xbcb3db05	-0.021955023
157	0xbc8aab31	-0.016927334
158	0x3c5733db	0.013134922
159	0x3da1aa02	0.078937545
160	0xbd5dde6f	-0.054167207
161	0x3cec94a5	0.028879473
162	0xbb8bea87	-0.004269901
163	0xbd43c0c4	-0.047791258
164	0x3d2990ee	0.04139798
165	0x3cc08fa4	0.023505993
166	0xbd454c15	-0.04816826
167	0x3d02a938	0.03189966
168	0xbd966d6a	-0.07345088
169	0xbd2430db	-0.040085655
170	0x3cda5989	0.026654022
171	0xbb46ddb7	-0.0030344555
172	0x3d1154eb	0.035481375
173	0x3b311ae1	0.0027024078
174	0xbd30c578	-0.04315707
175	0xbc4131e2	-0.011791678
176	0xbd5b1ce9	-0.053494368
177	0xbdae34d1	-0.08506168
178	0xbd0b223f	-0.033968206
179	0x3b364645	0.002781288
180	0xbcafb252	-0.021447334
181	0x3b07ecc9	0.00207405
182	0x3d02cf14	0.031935766
183	0xbd887820	-0.06663537
184	0xbd6c9f56	-0.057769142
185	0xba52e298	-0.00080446294
186	0xbbac7bc7	-0.005263779
187	0x3c4098c8	0.011755176
188	0x3b815347	0.003946695
189	0xbce2b77e	-0.027675387
190	0xbcca5c9c	-0.024702363
191	0xbd174e07	-0.036939647

model.features.stage1.unit1.dw_conv.bn.running_mean f4 [192]
0	0x3e056d40	0.13029957
1	0xbc92d39d	-0.01792317
2	0xbc8ca097	-0.017166419
3	0xbc1d1feb	-0.009590129
4	0xbd36f321	-0.04466546
5	0x3da9bfa1	0.082885034
6	0xbe82e334	-0.25563967
7	0x3e557b4c	0.20847815
8	0x3cdcd5a5	0.026957342
9	0xbd8113be	-0.06302594
10	0x3d1893da	0.037250377
11	0x3bbedc88	0.005824629
12	0x3c6906a7	0.014222777
13	0xbd349a68	-0.044092566
14	0x3ea31947	0.31855223
15	0xbe6cc545	-0.23122127
16	0xbd1b0e50	-0.037855446
17	0x3b740396	0.0037233583
18	0xbbea17d3	-0.0071439533
19	0x3e07000c	0.13183612
20	0x3d374aaf	0.04474896
21	0xbce43d3b	-0.027861228
22	0x3d741a57	0.059595432
23	0x3daba797	0.083815746
24	0x3e8d2c74	0.27572978
25	0x3debefb9	0.11520333
26	0x3ca6ef0c	0.020377658
27	0x3d0908f9	0.033455823
28	0x3e04d93f	0.12973498
29	0xbda7b7fe	-0.081893906
30	0xbd26e686	-0.040747188
31	0xbd1873dd	-0.03721987
32	0xbe3bf9ee	-0.1835706
33	0xbdb86ba4	-0.09004906
34	0xbcafef88	-0.021476522
35	0x3e6c7688	0.23092091
36	0xbda361d4	-0.079776436
37	0x3e2a7ec9	0.16649927
38	0xbd7132e9	-0.058886442
39	0xbbfea98f	-0.007771678
40	0x3b3f7b50	0.0029217787
41	0xbdb44c58	-0.08803624
42	0x3da270ae	0.07931648
43	0xbc79869c	-0.015229847
44	0xbdd7aef5	-0.10531417
45	0x3dea49e6	0.11439876
46	0xbd84acae	-0.064782485
47	0xbdd61d58	-0.104548156
48	0x3d80a1d1	0.06280864
49	0x3d15dfd1	0.0365904
50	0xbd3ec509	-0.046574626
51	0xbc949a18	-0.018139884
52	0xbe90cb77	-0.2828023
53	0xbdc6e289	-0.09711177
54	0x3e5233d0	0.20527577
55	0x3e0220bf	0.12707804
56	0x3dbfe86a	0.09370501
57	0x3d90a991	0.07063592
58	0xbc589739	-0.013219648
59	0xbd235254	-0.039873436
60	0xbe2c18f1	-0.1680639
61	0xbd81a153	-0.06329598
62	0x3d67af9f	0.05656397
63	0xbe22e5df	-0.15908001
64	0x3e24e810	0.1610415
65	0x3d8d957e	0.06913279
66	0xbe2a60e5	-0.16638525
67	0x3bca5ccb	0.0061756126
68	0x3d73293f	0.059365507
69	0xbd4b6484	-0.049656406
70	0xbe2e9e43	-0.1705256
71	0xbb9145a8	-0.0044333525
72	0x3dcde3ef	0.100532405
73	0xbe85af72	-0.26110417
74	0x3e495f60	0.19665289
75	0x3d822021	0.06353784
76	0xbd9e6797	-0.07734602
77	0xbd988a7a	-0.07448287
78	0xbe685721	-0.22689487
79	0xbe2ee82b	-0.17080753
80	0xbe3b3e6c	-0.18285531
81	0x3e427b38	0.18992317
82	0xbe5c002c	-0.2148444
83	0xbe163eaa	-0.14672342
84	0x3d1016a9	0.03517786
85	0xbd7dac0d	-0.06193166
86	0x3e661000	0.22467041
87	0xbe11f351	-0.14252974
88	0x3c9b9f8e	0.01899698
89	0x3ddc0a1b	0.10744115
90	0xbd1c4a59	-0.03815684
91	0xbd342496	-0.043980204
92	0x3d8f7dee	0.07006441
93	0x3d46ade4	0.04850568
94	0x3e72d6a6	0.23714694
95	0x3dafd625	0.08585767
96	0xbe4b0bfe	-0.19828793
97	0xbd891223	-0.066929124
98	0xbdd6d2a6	-0.10489397
99	0xbdbd348d	-0.09238539
100	0xbe5a427a	-0.21314421
101	0x3dac2370	0.08405197
102	0xbe2319c7	-0.15927802
103	0x3da158c4	0.07878259
104	0x3d7f541e	0.06233608
105	0x3e60c3cb	0.21949689
106	0xbd88206d	-0.0664681
107	0xbd0b00cb	-0.033936303
108	0xbd0482a0	-0.032351136
109	0x3e2dac09	0.16960157
110	0x3c1e2509	0.009652385
111	0xbd756b28	-0.059916645
112	0x3e540c20	0.2070775
113	0x3d7baa76	0.06144186
114	0x3abb5497	0.0014292178
115	0xbece2f2f	-0.40270373
116	0xbe674300	-0.22584152
117	0xbe3a5031	-0.18194653
118	0x3ca3c9f4	0.01999376
119	0x3bf921ab	0.0076028905
120	0x3d070836	0.032966815
121	0x3e050262	0.1298919
122	0xbdccad5b	-0.099940024
123	0x3d2aa47f	0.041660782
124	0xbe338de8	-0.17534602
125	0xbda81783	-0.082076095
126	0x3d6d25ab	0.05789725
127	0x3db4c9a7	0.08827525
128	0x3e7c025c	0.24610275
129	0x3c617764	0.013761375
130	0xbe873c76	-0.26413316
131	0xbb58520b	-0.0033007886
132	0x3de251ac	0.11050734
133	0xbe0ee9df	-0.13956402
134	0xbe0cb0c1	-0.13739301
135	0xbe530d97	-0.20610653
136	0xbe781258	-0.24225748
137	0x3d0e3411	0.034717623
138	0x3d86f012	0.065887585
139	0xbd1f2640	-0.038854837
140	0x3cda555c	0.02665203
141	0xbc53c744	-0.012925927
142	0xbd969d43	-0.07354214
143	0xbda52fc0	-0.08065748
144	0xbe26c166	-0.16284713
145	0xbe267a16	-0.1625751
146	0xbd835714	-0.06413093
147	0xbe87b74d	-0.26507035
148	0xbd0a52a0	-0.033770204
149	0xbdb1b947	-0.08677917
150	0x3cf7bc45	0.030241141
151	0x3e14249a	0.14467087
152	0xbe699eb4	-0.22814447
153	0x3d6fdcad	0.058560062
154	0x3d6b50d1	0.05745012
155	0x3d945ad1	0.07243884
156	0x3dc22c13	0.09481063
157	0x3dacfd09	0.084467
158	0xbbf3f7b6	-0.007445301
159	0x3dae7174	0.08517733
160	0x3d514f90	0.051101267
161	0xbbd2e522	-0.006436006
162	0xbe0be767	-0.13662492
163	0x3d4483cb	0.04797725
164	0x3d86a761	0.06574894
165	0xbd6cee70	-0.05784458
166	0x3e5f39b7	0.2179936
167	0xbd1502b0	-0.036379516
168	0xbe756088	-0.23962605
169	0xbe15453d	-0.14577194
170	0x3df9cf4b	0.12197741
171	0xbd8447b4	-0.06458989
172	0x3de60beb	0.11232742
173	0xbd1c349f	-0.03813612
174	0x3e3a6e36	0.18206105
175	0xbd11b8c2	-0.03557659
176	0x3de15990	0.11003411
177	0xbebf9b8d	-0.37423363
178	0x3e4149d2	0.18875816
179	0xbe7f88c4	-0.24954516
180	0x3e49cab5	0.19706233
181	0xbeb3c906	-0.35114306
182	0x3e9431cd	0.28944245
183	0x3dcff194	0.10153499
184	0x3e1a16d6	0.15047774
185	0x3e5bd82e	0.21469185
186	0x3e19991e	0.14999816
187	0xbea5d0f8	-0.32385993
188	0x3db8ec01	0.09029389
189	0xbcfa64b6	-0.0305656
190	0xbe21a6f0	-0.15786338
191	0x3e09cfdf	0.13458203
