yono_compression/yono/data/saved_model/MicroNet-AD-I-ch168_gtsrb-vw_adam_multistep_nomixup.pt (torch, 851073 bytes, 57 tensors)

model.features.init_block.conv.weight f4 [168, 1, 3, 3]
000000 78 30 e2 3d 41 59 a9 bd ce ab 1e bc 7e 52 a4 3d
       0.11044401 -0.08268977 -0.009684516 0.08023547
000010 0b a1 0f be 89 e0 a0 3d 27 71 71 bc 88 70 85 3d
       -0.14026277 0.07855327 -0.01473645 0.06515604
000020 65 87 f4 3d 1e 4e 00 00 50 05 00 80 43 9a 00 00
       0.11939887 2.8023e-41 -1.906e-42 5.5339e-41
000030 8b 21 00 80 19 2f 00 00 4a 22 00 80 6b bc 00 00
       -1.2033e-41 1.6895e-41 -1.23e-41 6.7592e-41
000040 cb 96 00 00 16 79 00 00 fa f2 f7 3d 34 6e 5a 3d
       5.4094e-41 4.3437e-41 0.12106891 0.053327754
000050 52 62 91 bd 32 03 f0 bd 09 ef 33 be fb bb e7 bd
       -0.07098831 -0.117193595 -0.17571653 -0.11315151
000060 12 03 c9 bd 4b c1 45 3d d8 60 30 3e f4 d5 43 3d
       -0.09815039 0.04828004 0.17224443 0.047811463
000070 4b 9b bb bd 44 67 8a 3c 7b 13 a0 3d e1 08 29 3e
       -0.09160479 0.016894944 0.078162156 0.16507293
000080 ed 0c ab 3d d9 d4 08 be 10 68 17 be 4d a2 14 be
       0.08352075 -0.13362445 -0.1478579 -0.14515038
000090 f5 ad 00 00 69 4b 00 80 54 3f 00 80 85 5c 00 00
       6.2404e-41 -2.7052e-41 -2.2718e-41 3.319e-41
0000a0 c9 44 00 00 37 82 00 80 d2 3b 00 80 27 45 00 80
       2.4675e-41 -4.6712e-41 -2.146e-41 -2.4807e-41
0000b0 02 40 00 80 51 1b cd 3d 19 13 48 bd 3d 99 d5 3d
       -2.2962e-41 0.10014976 -0.048846338 0.104296185
0000c0 18 77 b1 bd 06 09 29 be f9 d0 01 be 67 5c 20 3d
       -0.086652935 -0.16507348 -0.12677373 0.03915062
0000d0 b3 fa 13 3e 93 09 74 3d 06 1b 00 80 48 f9 00 00
       0.14451103 0.059579443 -9.694e-42 8.9425e-41
0000e0 59 e8 00 00 49 f2 00 00 15 06 01 00 72 2a 00 00
       8.335e-41 8.6916e-41 9.4017e-41 1.5227e-41
0000f0 89 46 01 00 cc 93 00 00 62 b8 00 80 7b 8a 5d 3c
       1.17139e-40 5.302e-41 -6.6144e-41 0.013521786
000100 2d df 46 bb 47 cb 43 bb a3 0f 3f 3b 73 79 bb 3a
       -0.0030345425 -0.0029875801 0.0029153607 0.0014303162
000110 b6 b7 52 bb 3e 10 d5 bb b3 c8 ce 3b 9e e5 08 bb
       -0.0032152957 -0.0065021804 0.0063105463 -0.0020888816
000120 cd 96 00 80 90 2f 00 00 04 82 00 80 54 a6 00 00
       -5.4097e-41 1.7062e-41 -4.6641e-41 5.9667e-41
000130 19 19 00 80 e3 c3 00 80 b2 31 00 80 3d 7a 00 80
       -9.003e-42 -7.0271e-41 -1.7827e-41 -4.3851e-41
000140 d9 93 00 00 6e 5f 55 be 86 36 62 bd 5a ac f4 bd
       5.3038e-41 -0.20837185 -0.05522778 -0.11946936
000150 8c 0f 3c 3e 17 f4 e5 bd e6 4d 59 be ec 54 95 3e
       0.18365306 -0.11228197 -0.21221122 0.29166353
000160 f4 a9 31 3d ae 59 1b 3e 64 4b d8 3d f7 5c 08 be
       0.04337497 0.15170929 0.105612546 -0.13316713
000170 69 25 98 3b 42 fd 00 3e 0e bd 2a be 2f 37 a8 bd
       0.0046431315 0.1259661 -0.16673681 -0.082136504
000180 85 72 8c 3d 74 e2 86 bc 43 43 9d bd ac 82 00 80
       0.0685778 -0.016465403 -0.07678845 -4.6876e-41
000190 9d 27 00 00 76 90 00 00 a3 90 00 00 7f 61 00 80
       1.421e-41 5.1823e-41 5.1886e-41 -3.4975e-41
0001a0 07 2b 00 00 ed 04 00 80 c8 0e 00 00 ba 2a 00 00
       1.5435e-41 -1.767e-42 5.303e-42 1.5327e-41
0001b0 89 11 81 23 bf 27 ba 1f 22 41 82 21 7a d2 5a 21
       1.3993634e-17 7.883982e-20 8.826383e-19 7.4139836e-19
0001c0 79 9a 87 16 ab 15 8a 18 c8 06 d6 a8 4c 52 59 25
       2.1907912e-25 3.5694043e-24 -2.3761714e-14 1.8849633e-16
0001d0 65 02 4d 26 40 b3 00 00 62 c3 00 80 1d a7 00 80
       7.112691e-16 6.4303e-41 -7.009e-41 -5.9949e-41
0001e0 b7 ea 00 00 e4 c5 00 80 33 6c 00 00 c7 76 00 80
       8.42e-41 -7.099e-41 3.8815e-41 -4.2609e-41
0001f0 ad 3c 00 80 f1 56 00 00 9c 76 cb bd c3 31 b1 3c
       -2.1766e-41 3.1189e-41 -0.09934732 0.021630174
000200 49 c0 11 3d 20 88 20 3d 55 ab 10 3c 9f 11 b6 3c
       0.035583768 0.03919232 0.008829911 0.0222252
000210 fd 8b c5 3d 61 62 de 3d 4b 32 ad 3d f7 9a 06 3e
       0.09645841 0.10858608 0.08456858 0.13145052
000220 88 5c fa 3d 93 d1 59 3d df 61 5e be 65 7f 3c be
       0.1222468 0.05317838 -0.21717022 -0.18407972
000230 59 7b fe bd 04 eb 8c 3d 62 aa 35 3d f3 a5 03 3e
       -0.124258704 0.06880763 0.044351943 0.12856273
000240 58 1f 00 80 ec 7c 00 00 51 10 00 80 21 ae 00 00
       -1.1244e-41 4.4814e-41 -5.853e-42 6.2466e-41
000250 44 30 00 00 c3 1c 00 80 bf af 00 00 28 07 01 80
       1.7314e-41 -1.0318e-41 6.3046e-41 -9.4403e-41
000260 6c a9 00 00 34 2e 11 3e 4d 65 05 be 55 4d d1 bd
       6.0777e-41 0.14177781 -0.13026924 -0.10219828
000270 47 fe 77 3d 20 49 b0 bd 4c 41 d7 3c 47 e6 b7 3d
       0.060545232 -0.086076975 0.026276253 0.08979469
000280 ec 4b 5d bc 54 2c 8a 3d 86 39 05 3e c3 b9 07 3e
       -0.013506871 0.06746736 0.13010225 0.13254456
000290 f0 ba d9 bd cc fe 9b 3d b5 6a e0 bd 73 c0 89 bd
       -0.106313586 0.07616958 -0.10957853 -0.0672616
0002a0 98 ba 6e bd dd 5a 22 bd 02 93 da 3d db 3c 00 00
       -0.05828342 -0.039637435 0.10672571 2.1831e-41
0002b0 dd df 00 80 5a 08 01 00 26 10 00 00 c8 bb 00 80
       -8.0307e-41 9.4831e-41 5.793e-42 -6.7363e-41
0002c0 4d 5c 00 80 c6 61 00 80 83 cf 00 00 29 d7 00 80
       -3.3111e-41 -3.5075e-41 7.4441e-41 -7.7185e-41
0002d0 71 eb 00 80 bb 3f 00 00 cc 49 00 80 64 e8 00 80
       -8.446e-41 2.2862e-41 -2.6473e-41 -8.3366e-41
0002e0 89 c7 00 80 7b 9d 00 00 83 d5 00 00 da 78 00 00
       -7.158e-41 5.6493e-41 7.6594e-41 4.3353e-41
0002f0 22 54 00 00 a0 73 60 be 75 aa ae 3d 8b 47 c8 3b
       3.0181e-41 -0.21919107 0.08528606 0.006112044
000300 4c 39 64 be 8f 66 23 3c 12 ec 85 3e 44 69 97 be
       -0.22287482 0.009973182 0.2615667 -0.295725
000310 6b 2f fd 3d 2e c4 7e 3e 91 d9 00 00 04 63 00 80
       0.1236256 0.24879524 7.8048e-41 -3.552e-41
000320 e6 93 00 80 58 32 00 00 2b 79 00 80 e6 9b 00 80
       -5.3056e-41 1.806e-41 -4.3467e-41 -5.5926e-41
000330 55 54 00 80 78 90 00 00 5e a6 00 80 36 c4 78 bd
       -3.0253e-41 5.1826e-41 -5.9681e-41 -0.060733996
000340 13 1d dc 3c 9c 2f 3b 3d 72 44 40 bb 97 a9 5c 3c
       0.026869332 0.0456997 -0.0029337672 0.013468168
000350 7a 5a 06 be 1b e5 bb 3d cd 46 ce 3d 54 80 df bc
       -0.13120452 0.09174558 0.10072098 -0.027282871
000360 51 c9 ca 3b 74 78 d0 bb 8a af 6c bb 2f fc d1 3b
       0.0061885496 -0.0063620154 -0.0036115372 0.0064082365
000370 41 4a 16 bb fa 88 d6 3b 43 c7 55 bb e6 9f e1 38
       -0.0022932442 0.0065470906 -0.003261999 0.000107586195
000380 0e 05 f6 3b 39 6b 00 80 25 82 00 80 56 a1 00 80
       0.007507927 -3.8464e-41 -4.6687e-41 -5.7876e-41
000390 89 48 00 00 e7 64 00 00 8b 1e 00 00 87 c8 00 00
       2.6021e-41 3.6197e-41 1.0957e-41 7.1936e-41
0003a0 b9 47 00 00 eb c4 00 80 ad 40 00 80 1e 5a 00 00
       2.5729e-41 -7.0641e-41 -2.3201e-41 3.2328e-41
0003b0 91 76 00 80 ac 0b 00 00 20 13 00 80 b4 06 00 00
       -4.2534e-41 4.187e-42 -6.861e-42 2.405e-42
0003c0 9c 39 00 00 4c 29 00 00 29 bc 00 00 80 dc 15 bb
       2.0666e-41 1.4815e-41 6.7499e-41 -0.0022867024
0003d0 6b 57 89 ba 71 82 b4 ba 81 b1 27 bb 49 91 98 39
       -0.0010478323 -0.0013771785 -0.0025587978 0.00029099945
0003e0 f4 13 cb 37 9c a6 43 3c f2 ba 08 3c fc 1e c1 39
       2.4208777e-05 0.011941578 0.0083453525 0.00036834914
0003f0 d5 92 00 80 c6 ba 00 00 1a f5 00 00 de d7 00 80
       -5.2673e-41 6.7002e-41 8.7926e-41 -7.7439e-41

model.features.init_block.bn.weight f4 [168]
000000 29 3d 0c bd c4 c0 00 80 9a db 02 3e a7 aa df 3d
       -0.034238014 -6.9151e-41 0.12779084 0.10921221
000010 2f 50 00 00 03 99 c7 3d d4 9f 00 80 7d a3 44 3c
       2.8764e-41 0.097459815 -5.7336e-41 0.012001869
000020 e2 ab 00 80 ac 4a ca 3d 46 41 08 3e f9 b6 88 a7
       -6.166e-41 0.09877524 0.1330615 -3.7945962e-15
000030 c3 77 af af 33 51 00 00 e1 7e ec 3d 7c c7 cf 3d
       -3.191741e-10 2.9129e-41 0.11547638 0.101454705
000040 9b ca 00 80 b9 e8 69 3d cb 6a ec 3d 42 d2 00 80
       -7.2681e-41 0.057106707 0.11543807 -7.5426e-41
000050 06 d9 00 80 8c 80 7f 3e 81 91 00 00 d1 8e 1b 3d
       -7.7853e-41 0.2495138 5.2197e-41 0.037977997
000060 61 ab 55 39 fa 2e 00 00 99 7d 00 00 d4 e6 c6 3b
       0.00020377107 1.6852e-41 4.5056e-41 0.0060699973
000070 39 b9 00 80 4f 05 00 80 98 34 62 3e 8b 46 c2 3d
       -6.6445e-41 -1.904e-42 0.22090375 0.09486111
000080 7b 84 ff 3d ec 95 b7 26 f7 fb ef 3a f5 ab 00 80
       0.124764405 1.2738812e-15 0.0018309344 -6.1687e-41
000090 53 65 99 3d 31 d4 00 80 8f 04 02 3e 5f 1a 01 00
       0.07490029 -7.612e-41 0.12697051 1.01296e-40
0000a0 db dd 6b 3c d4 0d 14 3e 0e da 52 3d 30 56 00 80
       0.014396156 0.144584 0.051477484 -3.0918e-41
0000b0 1e 7b 1c 39 28 ba 00 80 9f 95 d6 3d 3a 30 ab 3d
       0.00014923184 -6.678e-41 0.10477757 0.08358808
0000c0 d7 45 00 00 60 2d 32 3e 5f c1 a1 3d 96 e1 b2 3d
       2.5054e-41 0.17400122 0.07898211 0.08734433
0000d0 97 3c 1a 3d 93 c4 f2 3d 1d 7f 00 00 2e 77 f8 3d
       0.03765544 0.118539 4.56e-41 0.12132107
0000e0 b2 c6 9b 38 c2 8b 00 80 fe 36 30 3d e1 c1 ad 39
       7.427986e-05 -5.0136e-41 0.043021195 0.00033141582
0000f0 32 bd e4 37 1c 1a 96 3d 9b 0d 32 0b 90 d7 00 80
       2.7267819e-05 0.07329199 3.429179e-32 -7.7329e-41
000100 07 b1 00 00 29 4a 00 00 f2 4c b9 3d 84 42 82 3e
       6.3505e-41 2.6604e-41 0.09047879 0.25441372
000110 30 71 00 80 20 2f 81 29 ff 2d 9f 1a 18 d8 00 80
       -4.0604e-41 5.736926e-14 6.583517e-23 -7.752e-41
000120 41 b8 00 00 aa 26 00 80 ce 04 00 00 63 fc 0c 3e
       6.6098e-41 -1.387e-41 1.724e-42 0.13768153
000130 f6 4e 5b 05 87 4b 00 3e a9 1c 00 00 22 71 3e 3d
       1.0311833e-35 0.12528811 1.0281e-41 0.04649461
000140 00 b2 00 00 1d 91 72 1c 3e 28 d6 3d a1 6c 50 13
       6.3854e-41 8.025864e-22 0.10456894 2.630685e-27
000150 34 27 ef 3d 91 42 00 80 65 cc ba 13 dd 5d 00 00
       0.11677399 -2.388e-41 4.715455e-27 3.3672e-41
000160 ae ee 00 80 6c 46 82 ba 64 e8 ad 0e b0 0d 92 16
       -8.5622e-41 -0.00099392 4.2871577e-30 2.359621e-25
000170 69 c8 b0 36 2b ae 00 80 ba a2 a4 3d 98 b3 00 80
       5.2685396e-06 -6.248e-41 0.0803885 -6.4426e-41
000180 4f 66 07 3e 72 34 f4 3d 8c 1a 05 b0 1f fc a1 33
       0.13222621 0.11924066 -4.8422844e-10 7.543007e-08
000190 db 16 00 00 a3 b8 47 3d b9 e1 dd 3d 39 48 00 80
       8.199e-42 0.048760068 0.10834069 -2.5909e-41
0001a0 1c 7c c1 3d 34 1f bb 3d 99 b4 00 00 f6 7a 00 00
       0.094475 0.09136811 6.4786e-41 4.411e-41
0001b0 de 0d 00 80 9b 85 d4 3d 50 cc 4b 3e 45 0c 00 00
       -4.975e-42 0.10377046 0.19902158 4.401e-42
0001c0 79 2b 00 00 ca 89 2c b2 66 57 04 3e f7 12 30 3a
       1.5595e-41 -1.0043047e-08 0.12923965 0.0006716693
0001d0 b9 b5 00 80 21 3e 03 3b 81 2c 00 00 91 14 00 3e
       -6.519e-41 0.0020026045 1.5965e-41 0.12507845
0001e0 24 fd 16 3e e7 ce ca 3d 1e a3 a3 28 da 1a 88 ba
       0.14745003 0.09902745 1.8167376e-14 -0.0010383979
0001f0 0a b1 9b 3d e2 08 d1 96 fa 61 37 32 bf f0 0b 3e
       0.07602127 -3.3771377e-25 1.0674279e-08 0.13666056
000200 14 f3 00 00 8a 63 03 3e d9 7b 30 a5 e3 b3 00 3b
       8.72e-41 0.1283094 -1.5307528e-16 0.001963847
000210 80 2a 00 00 0a ea 9f 3b 08 2e 23 3e 77 34 07 3e
       1.5246e-41 0.0048801946 0.15935528 0.13203607
000220 19 97 c7 3a 3e 69 63 3d 2e 16 73 39 9e 03 f7 bb
       0.0015227526 0.05552029 0.00023182548 -0.007538273
000230 11 6f 2b 2f 49 83 00 00 70 63 00 80 99 90 00 80
       1.5591818e-10 4.7096e-41 -3.5671e-41 -5.1872e-41
000240 47 a7 06 3d 78 19 e4 a8 50 05 00 80 4f 7b 25 3c
       0.03287437 -2.532413e-14 -1.906e-42 0.0101002
000250 31 16 00 00 b6 95 00 80 e6 85 00 80 7d e2 cc 39
       7.961e-42 -5.3706e-41 -4.8034e-41 0.0003907866
000260 48 df 44 3d 16 dd 4e 30 7a 2a 00 00 b1 16 00 80
       0.0480645 7.5256545e-10 1.5238e-41 -8.14e-42
000270 95 f3 ea 3c 27 e5 00 80 0a d6 00 00 c5 fd 3c 37
       0.028680602 -8.2204e-41 7.6783e-41 1.12647585e-05
000280 b4 76 c2 3d 1c b2 2a bd f4 73 ca 26 74 6b aa 3c
       0.09495297 -0.041673765 1.4047995e-15 0.02080319
000290 f4 b7 b2 3d ff 81 86 3e 45 86 a3 3a 61 72 00 80
       0.087264925 0.26271054 0.0012475929 -4.1031e-41

model.features.init_block.bn.bias f4 [168]
000000 0f 49 bd 3d 0f 98 00 80 6c 8e 84 3d ef 14 3b 3c
       0.092424504 -5.4548e-41 0.06472477 0.011418565
000010 e5 d0 c9 8a b8 b0 91 3d ec 76 00 80 5e ea e1 3b
       -1.9434173e-32 0.071137846 -4.2661e-41 0.006894394
000020 5b 05 00 00 a4 07 f4 3d ea 29 a4 3c 43 f5 94 0d
       1.921e-42 0.1191552 0.020039517 9.180249e-31
000030 f8 60 5d 33 f2 b0 00 80 82 03 e0 3b 90 ae ed 3d
       5.1543765e-08 -6.3476e-41 0.0068363557 0.11605561
000040 8c bf 00 00 73 9f 92 3d 3f e4 75 3d 77 7f 00 80
       6.8714e-41 0.07159319 0.060032126 -4.5726e-41
000050 69 65 00 80 da dd fc 3c 47 10 00 80 04 61 6c bd
       -3.6379e-41 0.030867506 -5.839e-42 -0.05770971
000060 89 56 69 bb 6e 04 00 00 6f 5c 00 80 35 e3 be 3b
       -0.0035604557 1.589e-42 -3.3159e-41 0.005825425
000070 b5 71 00 80 bc 9f 00 00 79 9c 26 3c cf 86 90 3d
       -4.079e-41 5.7302e-41 0.010169142 0.07056963
000080 d6 f8 d9 3b f9 e1 dc 9d e1 01 d9 3a f1 43 00 80
       0.006651978 -5.8467165e-21 0.0016556346 -2.4373e-41
000090 51 55 87 3d a4 7b 00 80 c0 78 96 3d 61 c2 00 80
       0.0660807 -4.4354e-41 0.0734725 -6.973e-41
0000a0 04 70 8b 3c 1a a6 91 3d a9 cf 19 3e 3c b3 00 00
       0.017021187 0.071117595 0.15020622 6.4297e-41
0000b0 8b e1 19 37 3f 18 00 00 27 fb 29 3c 05 95 45 3d
       9.172024e-06 8.698e-42 0.010374821 0.04823782
0000c0 66 29 00 00 73 13 3d 3d 36 28 1b 3c 7d 9e 64 bb
       1.4851e-41 0.046161126 0.009470036 -0.0034884505
0000d0 8b 8d 89 3c 1e d1 29 3d f6 b4 d6 95 71 09 35 bd
       0.016791126 0.041459195 -8.671942e-26 -0.044198457
0000e0 63 5c d1 b7 5f 27 00 00 db 0e 19 be 50 0e 9c 39
       -2.4957762e-05 1.4124e-41 -0.14947073 0.00029765302
0000f0 f2 f3 f1 38 84 5b bd 3d 99 82 1f af cb 43 00 80
       0.00011537214 0.09245971 -1.4507363e-10 -2.432e-41
000100 ff 46 00 80 d5 81 00 00 aa 27 1a bd 0d a2 48 3d
       -2.5469e-41 4.6575e-41 -0.037635483 0.04898267
000110 43 8d 00 80 7e 1f c3 b6 dd 20 00 80 cc cd 00 00
       -5.0675e-41 -5.815119e-06 -1.1789e-41 7.3826e-41
000120 7e bc 00 80 75 97 08 80 0f 96 00 00 3f 95 9f 3c
       -6.7618e-41 -7.89017e-40 5.3831e-41 0.019480346
000130 da 00 14 25 8a d9 01 bd 93 61 00 00 23 3c 3c 3c
       1.2837242e-16 -0.031701602 3.5003e-41 0.011488947
000140 e4 6c 00 80 85 3c 00 80 c8 49 8e 3d 49 5d 00 80
       -3.9063e-41 -2.171e-41 0.069476664 -3.3464e-41
000150 3b 08 db 3c 34 ea fd 8c 18 10 cc a5 7f 3c 00 80
       0.026737323 -3.9121778e-31 -3.5399264e-16 -2.1702e-41
000160 0b bb 00 80 9b e5 53 3d eb bf 40 24 43 27 b9 a4
       -6.7098e-41 0.05173264 4.1795924e-17 -8.029747e-17
000170 ed 6c 95 b9 f0 a3 00 00 56 a9 cb 3d d1 8a b8 99
       -0.0002850065 5.881e-41 0.09944408 -1.9081222e-23
000180 0b 01 09 3d b6 bd a0 bd 7d 37 2b b7 bf 2e 41 b9
       0.03344826 -0.078486845 -1.0205314e-05 -0.00018423329
000190 78 3d 00 80 25 dd 41 3c 8f d2 8c 3d 75 5c 00 00
       -2.2051e-41 0.01183251 0.06876098 3.3167e-41
0001a0 80 ad 04 3d c5 1d f8 bc c5 39 1a 0c 72 53 00 00
       0.032392025 -0.030287633 1.1881113e-31 2.9935e-41
0001b0 64 b9 00 80 38 00 b8 bc 92 0d 31 3d bd 3c 00 80
       -6.6506e-41 -0.022461042 0.043225832 -2.1789e-41
0001c0 a4 78 00 00 be 95 4c b4 db b1 18 3d 6d fc f7 bc
       4.3278e-41 -1.9053456e-07 0.03727899 -0.030271733
0001d0 6b 19 00 00 3f cf 44 3c 47 1e 00 00 26 27 c6 3d
       9.118e-42 0.012012302 1.0861e-41 0.09675436
0001e0 26 f9 83 3d 01 5c 77 3d 27 a9 41 ac 4c 78 2b 3b
       0.06444006 0.060390476 -2.7520848e-12 0.0026164232
0001f0 c7 73 88 3d 0b f8 fe 21 10 36 9e b3 60 7d 98 3d
       0.06662708 1.7277366e-18 -7.367282e-08 0.074457884
000200 29 c6 00 80 42 e5 32 3c 28 b6 00 00 c4 bb 84 3a
       -7.1086e-41 0.010918917 6.5345e-41 0.0010126759
000210 d5 86 00 80 3a dd 07 bd 2e 15 9c 3d 2b 39 f9 3b
       -4.8369e-41 -0.033169962 0.07621227 0.007605692
000220 c2 f7 d5 3d b3 b5 94 3d 09 5e 97 ba 7f 07 34 3b
       0.10447647 0.07261219 -0.001154841 0.0027470288
000230 e6 8a 90 1c ce 45 00 00 76 b5 00 00 a5 49 00 80
       9.565025e-22 2.5041e-41 6.5096e-41 -2.6419e-41
000240 7c 2a c7 3d 72 46 44 23 e0 90 00 80 13 8f 73 3b
       0.097249 1.0640099e-17 -5.1971e-41 0.0037164136
000250 f0 63 00 00 37 ce 7b 9b b7 91 00 80 b9 53 b7 3b
       3.5851e-41 -2.0828865e-22 -5.2273e-41 0.0055946973
000260 bb e4 1c 3d 33 74 23 ba b2 12 00 80 a2 5b 00 00
       0.038304072 -0.00062352716 -6.707e-42 3.2872e-41
000270 e3 e7 4f ba b4 36 00 00 b6 18 00 00 86 93 00 38
       -0.0007930977 1.9624e-41 8.865e-42 3.065497e-05
000280 34 2c da 3d 5c 12 fb bb f7 85 c4 ab 8e 16 9c 3d
       0.10652962 -0.0076621007 -1.396382e-12 0.076214895
000290 1d 90 fd 3d a3 71 9e 3d 40 82 23 b8 b6 00 00 00
       0.12381003 0.07736518 -3.8983533e-05 2.55e-43

model.features.init_block.bn.running_mean f4 [168]
000000 69 3a ba ba 5c 04 00 80 55 9c 87 3a 3c ee 87 3a
       -0.0014208081 -1.564e-42 0.0010346273 0.0010370682
000010 1b 01 00 00 11 3e 5d b9 d3 05 00 80 86 3e cb b7
       3.97e-43 -0.00021099324 -2.09e-42 -2.42286e-05
000020 52 02 00 00 e8 64 38 b8 93 81 a0 3a 5d 01 00 80
       8.32e-43 -4.3962995e-05 0.0012245647 -4.89e-43
000030 e6 8d 25 25 d0 00 00 00 d8 cf 0f bb 2d 9b 43 b9
       1.4359546e-16 2.91e-43 -0.0021943953 -0.00018654457
000040 2c 03 00 80 8b 7b c0 b9 a6 54 69 b9 f9 01 00 00
       -1.138e-42 -0.0003671314 -0.00022252146 7.08e-43
000050 70 00 00 00 94 04 35 ba aa 02 00 00 a6 7c b2 b9
       1.57e-43 -0.0006905284 9.56e-43 -0.00034043676
000060 c3 39 a1 b8 45 01 00 00 78 01 00 80 6e a5 c5 b8
       -7.687837e-05 4.55e-43 -5.27e-43 -9.424506e-05
000070 8c 00 00 80 9a 01 00 80 3c 38 91 3a 4f 1e 12 b7
       -1.96e-43 -5.75e-43 0.0011079381 -8.709335e-06
000080 ce 0b 3a 3a 1e 03 00 00 69 c1 b2 36 94 03 00 00
       0.0007097096 1.118e-42 5.3273293e-06 1.284e-42
000090 72 50 5b b8 96 00 00 80 10 4f f6 3a c1 00 00 80
       -5.228859e-05 -2.1e-43 0.0018791873 -2.7e-43
0000a0 6f 30 16 ba 3c be 93 39 c0 33 3b b9 7b 00 00 80
       -0.0005729263 0.0002817976 -0.00017852988 -1.72e-43
0000b0 e6 fe 0c 33 1f 01 00 80 b4 39 2d b9 a2 f8 37 3a
       3.282812e-08 -4.02e-43 -0.00016520062 0.0007017945
0000c0 cf 00 00 00 54 de a4 3a 13 19 b9 ba 20 f9 23 3b
       2.9e-43 0.0012578466 -0.0014121853 0.0025020316
0000d0 3a 71 f3 39 0b 1a 92 3a b7 03 00 00 a7 db 07 3b
       0.00046432932 0.0011146677 1.333e-42 0.0020730288
0000e0 9e 6b 1a ab c6 04 00 00 40 00 fc 39 bf 55 ce b5
       -5.486114e-13 1.712e-42 0.00048065372 -1.5373151e-06
0000f0 07 1f 89 b4 68 6f 10 3a d1 d6 8c 0e 47 00 00 00
       -2.5540814e-07 0.0005509765 3.4719525e-30 1e-43
000100 68 06 00 80 b4 02 00 80 dd 0c de ba ff e3 18 3a
       -2.298e-42 -9.7e-43 -0.0016941089 0.0005832314
000110 0e 01 00 80 7e d3 68 a6 89 02 00 00 ef 00 00 00
       -3.78e-43 -8.0777795e-16 9.1e-43 3.35e-43
000120 6d 0a 00 00 62 01 00 00 ea 02 00 00 d1 05 77 3a
       3.74e-42 4.96e-43 1.045e-42 0.0009423169
000130 e9 03 00 80 a4 8f ec 3a 59 03 00 80 4f bf a0 38
       -1.403e-42 0.0018048179 -1.201e-42 7.6650285e-05
000140 30 03 00 80 c2 01 00 00 ca 68 ff b9 32 01 00 00
       -1.143e-42 6.3e-43 -0.00048715464 4.29e-43
000150 f8 74 ee 39 fe 00 00 80 16 b7 1f 96 a0 02 00 00
       0.00045482046 -3.56e-43 -1.290169e-25 9.42e-43
000160 d2 02 00 00 73 f1 36 ba 18 01 00 80 33 01 00 80
       1.012e-42 -0.0006978728 -3.92e-43 -4.3e-43
000170 f5 0d e7 b6 c2 02 00 80 08 72 b3 3a 8c 00 00 00
       -6.8859613e-06 -9.9e-43 0.00136906 1.96e-43
000180 8c ce 91 39 27 d5 43 3b 52 bb 91 20 4d a5 70 b3
       0.00027810445 0.0029881687 2.4687914e-19 -5.6029695e-08
000190 0d 04 00 80 59 0f 1f 3a f7 5b e2 38 1a 00 00 80
       -1.453e-42 0.00060676556 0.000107936496 -3.6e-44
0001a0 5e ac 2c bb 5f 1d bd ba 33 00 00 00 a0 06 00 00
       -0.0026347856 -0.0014428309 7.1e-44 2.377e-42
0001b0 40 01 00 80 3b 99 e1 3a 42 bd 0e 3a 03 01 00 80
       -4.48e-43 0.0017211804 0.0005445072 -3.63e-43
0001c0 d7 01 00 00 99 7c 92 94 a0 0d 80 3a 7e ae db b9
       6.6e-43 -1.4791378e-26 0.0009769686 -0.00041900942
0001d0 ae 02 00 80 48 2a 1d 3a e3 03 00 00 59 e8 cd b8
       -9.61e-43 0.0005995375 1.394e-42 -9.81844e-05
0001e0 79 91 15 3a fd 6f 9a b7 08 b1 8b 1a ea 8b 80 38
       0.0005705576 -1.841038e-05 5.777506e-23 6.129577e-05
0001f0 96 df 7c ba 1f c4 d0 8c 73 e2 a1 2f f5 e5 84 3b
       -0.0009646354 -3.216551e-31 2.944663e-10 0.0040557333
000200 53 09 00 00 7b 51 a2 3a 24 00 00 00 d2 a8 b2 35
       3.345e-42 0.0012383902 5e-44 1.3311167e-06
000210 67 00 00 80 db 06 3f 39 81 04 69 39 57 b1 81 3a
       -1.44e-43 0.00018217733 0.0002222229 0.000989477
000220 8b 09 91 ba ae d7 57 3b 50 9b 77 b5 a3 f8 95 34
       -0.0011065466 0.0032934952 -9.224068e-07 2.793432e-07
000230 07 bc 96 12 a9 02 00 00 11 03 00 80 a7 05 00 80
       9.512683e-28 9.54e-43 -1.1e-42 -2.028e-42
000240 28 23 31 b8 a7 02 00 00 b1 03 00 00 58 2c f3 b8
       -4.223283e-05 9.51e-43 1.324e-42 -0.000115954026
000250 3d 03 00 80 f0 01 00 80 b6 01 00 80 a5 0a 8e b7
       -1.162e-42 -6.95e-43 -6.14e-43 -1.6932676e-05
000260 57 e1 f3 b9 a1 df 45 b0 ae 00 00 80 8e 03 00 00
       -0.00046516463 -7.198598e-10 -2.44e-43 1.275e-42
000270 78 94 f2 38 06 03 00 00 f9 03 00 80 36 5f ab 32
       0.00011567114 1.085e-42 -1.425e-42 1.9950317e-08
000280 8e 41 23 b8 e0 d0 a9 b9 a6 a8 07 08 dc a7 97 39
       -3.892328e-05 -0.00032389816 4.082333e-34 0.0002892603
000290 a0 1a cd b9 a0 20 1a ba 9f e1 ef aa e3 01 00 00
       -0.00039120484 -0.00058794953 -4.2611485e-13 6.77e-43

model.features.init_block.bn.running_var f4 [168]
000000 15 c7 15 3d 04 00 00 00 da 64 6d 3d 42 e5 32 3d
       0.036566813 6e-45 0.057957508 0.04367567
000010 04 00 00 00 7a e4 a9 3c 04 00 00 00 30 55 f9 38
       6e-45 0.020738829 6e-45 0.00011889113
000020 04 00 00 00 bc e9 12 3e c0 2d 8c 3d 04 00 00 00
       6e-45 0.14346975 0.068446636 6e-45
000030 3f 8d 34 12 04 00 00 00 2b 0e b5 3d 2a 17 10 3d
       5.6972084e-28 6e-45 0.08840593 0.03517834
000040 04 00 00 00 ff c6 f6 3c ad ac c8 3c 04 00 00 00
       6e-45 0.030124186 0.0244964 6e-45
000050 04 00 00 00 3e f3 7d 3e 04 00 00 00 c5 b3 7b 3c
       6e-45 0.24799821 6e-45 0.015362685
000060 11 dc 0c 39 04 00 00 00 04 00 00 00 03 24 7b 39
       0.00013433422 6e-45 6e-45 0.00023950641
000070 04 00 00 00 04 00 00 00 d3 58 3d 3e a0 3b b2 3c
       6e-45 6e-45 0.18490915 0.021756947
000080 29 9e b5 3d 04 00 00 00 66 74 14 37 04 00 00 00
       0.08868057 6e-45 8.848589e-06 6e-45
000090 4b 59 d6 3c 04 00 00 00 3e da fa 3d 04 00 00 00
       0.026165625 6e-45 0.12248658 6e-45
0000a0 93 07 ca 3b 40 26 71 3d a8 bb bc 3c 04 00 00 00
       0.0061654537 0.05887437 0.0230387 6e-45
0000b0 4e 7d 0b 2e 04 00 00 00 e3 d2 64 3d cb 65 92 3d
       3.1716234e-11 6e-45 0.05586518 0.07148322
0000c0 04 00 00 00 5c cd 42 3e 58 8a b5 3d f1 44 f0 3d
       6e-45 0.19023651 0.088642776 0.117318995
0000d0 5d cb 10 3c 06 65 cc 3d 04 00 00 00 f6 0b a7 3d
       0.008837548 0.09980206 6e-45 0.08156578
0000e0 6c fc ce 1f 04 00 00 00 40 c7 9c 3b 5e 46 54 33
       8.766199e-20 6e-45 0.0047844946 4.9424095e-08
0000f0 87 31 b3 30 5f 42 81 3d 04 00 00 00 04 00 00 00
       1.3038041e-09 0.063114874 6e-45 6e-45
000100 04 00 00 00 04 00 00 00 d1 1b 35 3d 3d bd 92 3e
       6e-45 6e-45 0.04421598 0.28660002
000110 04 00 00 00 31 58 ac 14 04 00 00 00 04 00 00 00
       6e-45 1.7402347e-26 6e-45 6e-45
000120 04 00 00 00 04 00 00 00 04 00 00 00 77 86 2d 3e
       6e-45 6e-45 6e-45 0.16945826
000130 04 00 00 00 8e ea ef 3d 04 00 00 00 b5 a3 bb 3a
       6e-45 0.1171466 6e-45 0.0014315756
000140 04 00 00 00 04 00 00 00 7e bf ae 3d 04 00 00 00
       6e-45 6e-45 0.08532618 6e-45
000150 7e ee fd 3d 04 00 00 00 04 00 00 00 04 00 00 00
       0.123990044 6e-45 6e-45 6e-45
000160 04 00 00 00 72 e7 5d 3c 04 00 00 00 04 00 00 00
       6e-45 0.01354395 6e-45 6e-45
000170 9e de 9e 35 04 00 00 00 88 83 72 3d 04 00 00 00
       1.1836707e-06 6e-45 0.05920747 6e-45
000180 bd 35 24 3e d8 70 2f 3e e6 c9 67 09 68 81 cb 2e
       0.16036125 0.1713289 2.7900546e-33 9.2543584e-11
000190 04 00 00 00 7d 9f 8f 3c a2 bd 30 3d 04 00 00 00
       6e-45 0.017532105 0.043149598 6e-45
0001a0 9c 53 04 3e c0 91 4a 3d 04 00 00 00 04 00 00 00
       0.1292252 0.049455404 6e-45 6e-45
0001b0 04 00 00 00 45 23 84 3d 56 2e 61 3e 04 00 00 00
       6e-45 0.0645204 0.21990332 6e-45
0001c0 04 00 00 00 04 00 00 00 70 e5 ee 3d 88 c7 48 3b
       6e-45 6e-45 0.116648555 0.0030636508
0001d0 04 00 00 00 a8 fe 10 3c 04 00 00 00 21 86 3b 3d
       6e-45 0.008849777 6e-45 0.045782212
0001e0 01 a3 3d 3e 63 01 13 3e 1a ff 00 00 89 6f 6a 3a
       0.18519212 0.14355998 9.1513e-41 0.00089430116
0001f0 94 1e 08 3d 04 00 00 00 ac bf 35 27 a1 a3 a7 3e
       0.033232287 6e-45 2.5222701e-15 0.32742026
000200 04 00 00 00 f7 23 a0 3d 04 00 00 00 a8 e7 0c 34
       6e-45 0.0781936 6e-45 1.3122792e-07
000210 04 00 00 00 60 a8 b0 3a d1 ed 0f 3e cb 5b 89 3d
       6e-45 0.0013477914 0.14055564 0.06706961
000220 5b 8e b4 3c d7 b2 3a 3e 5b 69 ec 32 8b 8d da 34
       0.022040537 0.18232284 2.7521926e-08 4.070865e-07
000230 04 00 00 00 04 00 00 00 04 00 00 00 04 00 00 00
       6e-45 6e-45 6e-45 6e-45
000240 8e e2 e7 3c 04 00 00 00 04 00 00 00 24 4d 51 3b
       0.028306272 6e-45 6e-45 0.0031936849
000250 04 00 00 00 04 00 00 00 04 00 00 00 c6 16 99 37
       6e-45 6e-45 6e-45 1.8249626e-05
000260 2b 6a 8c 3c 9e 29 a6 29 04 00 00 00 04 00 00 00
       0.017140469 7.3791e-14 6e-45 6e-45
000270 38 43 94 3a 04 00 00 00 04 00 00 00 08 91 fd 2c
       0.0011311537 6e-45 6e-45 7.206794e-12
000280 bc c8 a7 3d 4e d0 f5 3b 04 00 00 00 15 70 0b 3c
       0.08192584 0.0075016385 6e-45 0.008510609
000290 f9 64 e5 3c 87 15 63 3e b0 22 e6 1d 04 00 00 00
       0.02800225 0.22176181 6.091636e-21 6e-45

model.features.stage1.unit1.dw_conv.conv.weight f4 [168, 1, 3, 3]
000000 3b 89 fc 3c 08 f6 86 3c 13 63 cc bd 8c 65 ea 3c
       0.030827155 0.016474739 -0.099798344 0.028612874
000010 f2 c2 4f bd 8d 6d 9e bd 64 e2 76 3d d8 67 b6 bb
       -0.050723024 -0.07735739 0.060274497 -0.0055665784
000020 b6 83 c4 bd 1d 3a 00 00 64 bd 00 00 39 5c 00 00
       -0.09595434 2.0847e-41 6.794e-41 3.3083e-41
000030 4c 99 00 80 7a 28 00 80 54 41 00 80 ee 92 00 00
       -5.4993e-41 -1.452e-41 -2.3435e-41 5.2708e-41
000040 5c 3d 00 00 a9 4a 00 80 78 7a 0b be 3d ae d3 bc
       2.2012e-41 -2.6783e-41 -0.13620937 -0.02583992
000050 f2 ae 5f be 3e dd e5 bd 66 66 7c bd 40 ab 2c 3e
       -0.2184408 -0.11223839 -0.061621092 0.16862202
000060 01 1b e7 bb eb 6b 21 3e 5d 7a f0 3d 2d c7 52 bd
       -0.0070527797 0.15763824 0.11742089 -0.05145948
000070 e6 d7 62 3c 01 2f c7 bd 97 b8 86 3d cd 33 cc bd
       0.0138454195 -0.09725762 0.065781765 -0.09970818
000080 d2 d7 a6 bd b7 35 1a 3e 65 b0 e6 3d 95 a8 0a 3d
       -0.08146633 0.15059553 0.11264113 0.03385218
000090 89 2c 00 80 fa 5e 00 80 96 b9 00 80 c1 54 00 80
       -1.5976e-41 -3.4071e-41 -6.6576e-41 -3.0404e-41
0000a0 96 4f 00 80 c6 3b 00 00 bc b7 00 00 75 63 00 00
       -2.855e-41 2.1443e-41 6.5911e-41 3.5678e-41
0000b0 28 26 00 00 4f f9 b5 bb 11 b3 92 bd 6a a7 a5 3d
       1.3688e-41 -0.0055534015 -0.071630605 0.08088572
0000c0 77 59 95 bd 12 67 1d be 12 97 cb bd e3 c4 d7 3d
       -0.07292455 -0.1537135 -0.09940924 0.105356
0000d0 69 5b b8 3d ca fd 8a 3d c3 24 01 80 de e2 00 00
       0.0900181 0.06786688 -1.05023e-40 8.1385e-41
0000e0 15 6d 00 00 0b e0 00 80 79 5f 01 00 01 ee 00 80
       3.9131e-41 -8.0371e-41 1.26085e-40 -8.538e-41
0000f0 b4 b5 00 00 6c 65 01 80 b4 8c 00 00 40 94 84 bb
       6.5183e-41 -1.28219e-40 5.0475e-41 -0.004045993
000100 dd f6 0f b9 9b cd 87 bb 00 5b 31 bb 7b f1 1e 3b
       -0.00013729506 -0.004144383 -0.0027062297 0.002425282
000110 f9 ab 83 bb db 14 cd ba 84 6c 8e 3b 81 71 4c ba
       -0.0040183035 -0.0015646474 0.004346432 -0.0007798896
000120 c7 14 00 00 9f 32 00 00 d4 46 00 80 8c 64 00 00
       7.454e-42 1.816e-41 -2.5408e-41 3.607e-41
000130 61 14 00 00 7d 29 00 00 42 5b 00 80 0b 61 00 00
       7.31e-42 1.4883e-41 -3.2737e-41 3.4812e-41
000140 2e 7a 00 80 05 18 e9 3d 1f 68 ae 3d 87 28 be 3b
       -4.383e-41 0.113815345 0.08515953 0.005803171
000150 97 44 cc 3d ec 91 87 3d a0 b2 26 3d f8 2c 1d 3e
       0.0997402 0.06619629 0.040697694 0.15349185
000160 ff 35 ed bb 29 20 b5 3d 8c 78 2f 3e 3c c5 56 bc
       -0.007239103 0.08844025 0.17135829 -0.013108548
000170 e0 14 83 bd 0d d2 24 3d 22 68 77 be 91 77 b9 bd
       -0.06400466 0.040239383 -0.24160817 -0.090560086
000180 58 5f 8a 3e 61 44 47 3d 26 28 60 bd c5 4c 00 00
       0.27025867 0.048649196 -0.05472579 2.754e-41
000190 81 06 00 80 ad 15 00 00 e2 18 00 80 44 b4 00 00
       -2.333e-42 7.776e-42 -8.926e-42 6.4667e-41
0001a0 72 a4 00 00 64 69 00 80 7d 58 00 00 8b 02 00 00
       5.8992e-41 -3.7807e-41 3.1744e-41 9.12e-43
0001b0 02 d0 9a a8 0a b4 b3 a8 42 39 08 a6 4c 9f 87 a5
       -1.7187644e-14 -1.9951072e-14 -4.7262077e-16 -2.352671e-16
0001c0 eb 34 7d 27 35 ee 0d a5 ae 24 af a3 db c2 83 24
       3.513949e-15 -1.2310508e-16 -1.8989072e-17 5.714229e-17
0001d0 50 19 96 24 f2 07 01 80 52 02 01 80 1f d7 00 80
       6.509501e-17 -9.4686e-41 -9.2668e-41 -7.7171e-41
0001e0 c1 00 00 80 b4 23 00 80 61 00 00 80 1b 91 00 80
       -2.7e-43 -1.2808e-41 -1.36e-43 -5.2054e-41
0001f0 47 6c 00 80 87 2d 00 80 d1 7f 0c be 21 46 47 3d
       -3.8843e-41 -1.6332e-41 -0.13720633 0.048650865
000200 cb 81 05 3a aa 94 bb 3d 5c 0b fe 3c d5 36 46 bb
       0.0005092888 0.09159215 0.031011276 -0.0030245085
000210 95 98 04 3e 68 c4 aa 3d 0b 16 f1 3d 38 66 e0 3d
       0.1294883 0.08338243 0.117717825 0.10956997
000220 14 79 a5 3d 5f aa 0d 3e fe 19 49 be 1d 5c 00 be
       0.080797344 0.13834523 -0.19638821 -0.12535138
000230 36 b9 15 be f9 4d 41 bc b9 5b 02 3d 63 68 8a 3c
       -0.14621434 -0.011798375 0.031825755 0.016895479
000240 1e 57 00 80 59 db 00 80 d5 ef 00 00 61 23 00 80
       -3.1252e-41 -7.8687e-41 8.6036e-41 -1.2692e-41
000250 86 80 00 80 7a 88 00 80 80 1e 00 80 5d 15 01 00
       -4.6106e-41 -4.8959e-41 -1.0941e-41 9.9499e-41
000260 4a e3 00 00 66 d8 7f be 61 46 4d 3d 43 5e 8c 3d
       8.1536e-41 -0.24984893 0.050115947 0.068539165
000270 e1 de 2d bd 8b ae 9c 3d f0 75 66 3d b5 52 e1 bd
       -0.042448882 0.07650479 0.056264818 -0.11002103
000280 ad 05 24 be 04 78 e2 3d 4a a4 f3 bd 8a fb ab be
       -0.1601779 0.110580474 -0.1189657 -0.33590347
000290 19 9d 2b 3d 52 dd 08 3d 37 0c a7 bd 45 41 d4 3d
       0.041897867 0.033414192 -0.08156627 0.10364012
0002a0 71 c9 45 3d aa 0c 6d 3e b9 1b 1c 3e 25 9d 00 00
       0.048287813 0.23149362 0.1524495 5.6373e-41
0002b0 4d fe 00 00 eb d4 00 80 48 08 01 80 64 89 00 80
       9.1226e-41 -7.638e-41 -9.4806e-41 -4.9286e-41
0002c0 63 ac 00 80 49 27 01 00 a4 c6 00 00 1c d7 00 00
       -6.1841e-41 1.05928e-40 7.1259e-41 7.7167e-41
0002d0 ac ca 00 80 65 d4 00 80 34 df 00 80 cf 16 00 80
       -7.2705e-41 -7.6193e-41 -8.007e-41 -8.182e-42
0002e0 aa 97 00 80 f8 3b 00 80 f0 da 00 80 ba d1 00 00
       -5.4407e-41 -2.1513e-41 -7.854e-41 7.5236e-41
0002f0 b6 df 00 00 64 a4 c2 bd 37 ca 35 be e0 98 05 3d
       8.0252e-41 -0.09504011 -0.1775292 0.032616496
000300 87 69 9d bd 8d ec 1f be f8 df 0e be d6 6a cc bd
       -0.07686143 -0.1561758 -0.13952625 -0.09981315
000310 47 cd 45 be b7 53 ce bd c1 68 00 00 c7 90 00 00
       -0.19316588 -0.10074561 3.7579e-41 5.1936e-41
000320 49 55 00 80 da 1a 00 80 88 1c 00 00 2c d9 00 00
       -3.0595e-41 -9.633e-42 1.0235e-41 7.7907e-41
000330 62 52 00 80 26 7e 00 00 0f 12 00 80 9e 93 34 3b
       -2.9553e-41 4.5254e-41 -6.478e-42 0.0027553807
000340 6a 1f 86 3d 28 ca a2 bc d5 74 c6 3c 22 82 09 bd
       0.065489605 -0.019871786 0.024225632 -0.03357137
000350 e2 08 93 bd d8 70 d5 bd ee 35 e6 bd 27 b5 73 3e
       -0.07179429 -0.10421914 -0.11240755 0.23799573
000360 89 f1 53 3b e2 78 1e 3a 84 f9 04 ba b7 ea 95 ba
       0.003234001 0.00060452346 -0.0005072581 -0.0011437748
000370 96 7a 20 3a 2d 30 09 ba 64 10 69 ba 15 68 4e 3a
       0.00061217824 -0.0005233314 -0.0008890687 0.0007873786
000380 16 92 c5 b9 cb 04 00 80 5a ae 00 80 3d 75 00 00
       -0.0003768361 -1.72e-42 -6.2546e-41 4.2057e-41
000390 3b 14 00 00 38 12 00 80 d5 0d 00 00 22 00 00 80
       7.257e-42 -6.536e-42 4.962e-42 -4.8e-44
0003a0 44 ea 00 80 e3 5d 00 00 7f ca 00 00 ad 6a 00 00
       -8.4039e-41 3.368e-41 7.2642e-41 3.8268e-41
0003b0 cb bf 00 00 6c c2 00 00 a7 5a 00 80 92 b9 00 00
       6.8802e-41 6.9745e-41 -3.252e-41 6.657e-41
0003c0 0d 52 00 80 70 c5 00 00 be c9 00 80 d3 7b 15 3b
       -2.9434e-41 7.0827e-41 -7.2371e-41 0.00228094
0003d0 96 71 57 3a 9a ad 01 3b 7d bb 68 3b 77 5d 4e bb
       0.0008218525 0.0019787312 0.0035512142 -0.0031488815
0003e0 58 3c b0 ba 57 fa d5 bb 8b 00 8e bb 67 cb 25 ba
       -0.0013445718 -0.006530087 -0.004333561 -0.000632456
0003f0 d2 7f 00 00 ad a5 00 80 85 91 00 00 0b bc 00 80
       4.5853e-41 -5.9433e-41 5.2203e-41 -6.7457e-41

model.features.stage1.unit1.dw_conv.bn.weight f4 [168]
000000 d9 27 90 3d b4 79 00 00 3e bc 8b 3e a4 59 09 3e
       0.0703885 4.3659e-41 0.27292055 0.13413101
000010 b5 ab 00 80 56 c3 50 3e 31 1c 00 80 a9 df e6 3c
       -6.1597e-41 0.20387015 -1.0113e-41 0.028182821
000020 aa 4c 00 80 d7 63 7a 3e 90 41 56 3e b1 6b bb 01
       -2.7502e-41 0.24452148 0.20923448 6.884748e-38
000030 bf d2 10 33 d1 9b 00 00 dd af 3e 3e 62 9b c3 3e
       3.3719285e-08 5.5896e-41 0.18621774 0.38204485
000040 cd f5 00 80 ca e7 2c 3e 21 ac 22 3e 37 e1 00 00
       -8.8177e-41 0.16885296 0.15885974 8.0792e-41
000050 42 09 00 00 39 fd 1d 3f ce c5 00 80 3e 47 9d 3d
       3.321e-42 0.6171451 -7.0959e-41 0.07679604
000060 01 f2 0d bb 0c 8e 00 00 f1 8c 00 80 d1 b8 85 3c
       -0.0021659138 5.0957e-41 -5.056e-41 0.016323479
000070 7d 67 00 80 c2 87 00 00 f2 bc d6 3e 54 75 53 3e
       -3.7125e-41 4.8701e-41 0.4194103 0.20650226
000080 63 23 03 3e d8 3e 00 80 c9 bc 79 3b b4 ac 00 80
       0.12806468 -2.2544e-41 0.003810691 -6.1954e-41
000090 e0 18 e2 3d ee d4 00 80 2a b7 42 3e 25 ac 00 00
       0.11039901 -7.6385e-41 0.19015184 6.1754e-41
0000a0 fd f8 d7 3c 4a 25 98 3e d1 e2 53 3e 70 28 00 80
       0.026363844 0.2971595 0.20691992 -1.4506e-41
0000b0 4a ce 4a 39 66 50 00 80 5b 17 9e 3d 01 e4 22 3e
       0.0001934107 -2.8842e-41 0.077192985 0.15907289
0000c0 e7 6d 00 80 e3 13 b8 3e 2e 41 2e 3e a2 99 a5 3d
       -3.9426e-41 0.35952672 0.17017052 0.08085944
0000d0 75 e8 d8 3c 7a 5c 55 3e 3a 6a 00 80 37 fb 67 3e
       0.026478032 0.20836058 -3.8107e-41 0.22654425
0000e0 79 78 01 2f ca 2d 00 00 b8 e8 55 3d b7 1c 3f 3b
       1.1775282e-10 1.6426e-41 0.05222389 0.0029161402
0000f0 20 ed 0a 39 76 5d 5c 3e c0 1b 54 1b 31 04 00 00
       0.00013249042 0.21520028 1.7545195e-22 1.504e-42
000100 e7 f5 00 00 bd 29 00 00 e2 11 a8 3d 16 82 2c 3f
       8.8213e-41 1.4973e-41 0.08206536 0.67385995
000110 60 c7 00 00 7d ec a1 32 c8 19 00 80 a4 c5 00 80
       7.1522e-41 1.885041e-08 -9.249e-42 -7.09e-41
000120 58 8a 00 00 12 87 00 80 36 23 00 00 f1 20 72 3e
       4.9628e-41 -4.8454e-41 1.2631e-41 0.23645379
000130 9a 8e 74 17 30 69 8c 3e 0e 7a 00 00 0f c8 e4 3c
       7.902064e-25 0.27424002 4.3785e-41 0.027927427
000140 50 75 00 00 73 12 aa 03 bc b0 8e 3e 96 2e 00 80
       4.2084e-41 9.995938e-37 0.27869213 -1.6712e-41
000150 4a fd ff 3d 22 7d 00 00 02 11 8f 24 c8 7d 00 80
       0.12499483 4.4889e-41 6.2045177e-17 -4.5122e-41
000160 11 b7 00 80 0a 83 25 3d ad 42 ce 09 44 23 00 80
       -6.5672e-41 0.04040817 4.9655398e-33 -1.2651e-41
000170 97 4f c4 3a 96 22 00 00 c9 87 33 3e 64 bc ac 0f
       0.0014977333 1.2407e-41 0.17532267 1.7033075e-29
000180 33 d0 7c 3e c9 db 32 3e 6e 07 8b 2b dd f0 97 37
       0.24688797 0.17466654 9.878606e-13 1.8112763e-05
000190 2b b4 00 80 59 08 e2 3d 5b d4 92 3e f4 43 00 00
       -6.4632e-41 0.110367484 0.2867764 2.4377e-41
0001a0 e5 d3 46 3e a8 2c 10 3e ed 78 00 00 c4 7c 00 00
       0.19416769 0.14079535 4.338e-41 4.4757e-41
0001b0 aa 20 00 00 e1 20 e6 3d 38 bc a7 3e b7 72 00 80
       1.1718e-41 0.1123674 0.32760787 -4.1152e-41
0001c0 ee 87 00 80 ea 56 99 22 d2 49 8c 3e 53 d2 ca 3c
       -4.8762e-41 4.1562757e-18 0.2740007 0.024758494
0001d0 0e 52 00 80 b6 d4 ad 3c 19 c7 00 80 3f f9 bf 3e
       -2.9436e-41 0.021219593 -7.1423e-41 0.37494847
0001e0 c0 8f af 3e a2 72 73 3e f4 0a f2 2e 21 3a 93 3c
       0.3428936 0.23774198 1.10068316e-10 0.017972054
0001f0 7c be 03 3e 93 01 8f 28 29 3c af 39 3d 3c bc 3e
       0.12865633 1.5876872e-14 0.00033423424 0.36764708
000200 c5 67 00 80 df b4 67 3e d7 3b 00 00 cf bc 70 3c
       -3.7225e-41 0.2262759 2.1466e-41 0.014693453
000210 81 af 00 00 e0 c8 16 3d 52 90 f2 3e dd 01 56 3e
       6.2959e-41 0.036812663 0.47375733 0.20899148
000220 10 62 8b 3d 97 98 2c 3e c8 93 7b 3a 87 27 aa 3b
       0.06805813 0.16855083 0.0009596911 0.0051927003
000230 7a 04 8b 28 5d b5 00 00 4d 2a 00 00 da bf 00 00
       1.5434041e-14 6.5061e-41 1.5175e-41 6.8823e-41
000240 11 4b 3b 3e 7a 06 25 01 0e 37 00 00 c3 35 f7 3c
       0.18290354 3.031036e-38 1.975e-41 0.030177003
000250 58 aa 00 00 5c 8f 00 00 29 b9 00 00 91 5b 83 3b
       6.1108e-41 5.1428e-41 6.6423e-41 0.0040087183
000260 19 93 a8 3d f3 f5 27 38 00 1c 00 80 ff cf 00 80
       0.08231182 4.004496e-05 -1.0045e-41 -7.4615e-41
000270 25 cc 24 3c 44 b1 00 80 1d f3 00 80 d1 4a 3d 38
       0.0100584375 -6.3591e-41 -8.7213e-41 4.513079e-05
000280 d6 de 9e 3e 8b 2d 40 3d 4a 74 d3 19 06 66 c6 3c
       0.31029385 0.046918433 2.1863857e-23 0.02421857
000290 35 ba 9c 3e 3e 78 40 3f 0b 56 ab 2b b2 c4 00 00
       0.30610815 0.75183475 1.2174163e-12 7.0561e-41

model.features.stage1.unit1.dw_conv.bn.bias f4 [168]
000000 a8 6a 40 bd e9 f7 00 80 50 7d 8a 3b 6f 2a 99 3c
       -0.046976715 -8.8933e-41 0.004226364 0.018696992
000010 a6 6f 00 80 e6 8b dc bc c6 0a 1a 00 d2 9c c4 bc
       -4.0052e-41 -0.026922178 2.391588e-39 -0.024000559
000020 bd 0f 00 80 87 9d 9d 3c 7b 05 f9 bc 49 ae 00 80
       -5.646e-42 0.019240154 -0.030398121 -6.2522e-41
000030 77 1c 73 b3 55 92 03 00 66 a2 05 3b 1f 72 48 bd
       -5.6603735e-08 3.28e-40 0.0020390986 -0.04893696
000040 63 40 06 80 3d ad c6 bd e1 05 45 3d 0a 9f 21 80
       -5.7411e-40 -0.09701011 0.04810131 -3.087624e-39
000050 00 e0 00 80 d4 57 a6 3e d2 ce 00 80 34 ac 51 3d
       -8.0356e-41 0.32488883 -7.4193e-41 0.051189616
000060 90 9e cb 3b 10 9c 05 80 e7 b8 00 80 0f 7e a5 bc
       0.0062139705 -5.15162e-40 -6.633e-41 -0.020201711
000070 e8 5b 02 00 d9 d8 00 00 1a a0 82 3e 29 8c 22 bd
       2.16641e-40 7.779e-41 0.25512773 -0.03968445
000080 7a 4c 92 bc 50 10 00 80 2f 30 a7 bb 00 80 04 80
       -0.017858732 -5.852e-42 -0.0051021795 -4.1326e-40
000090 45 c5 b6 bc 20 f0 00 80 80 ec 07 3e 77 4c 0e 00
       -0.022310862 -8.614e-41 0.13273811 1.313127e-39
0000a0 4e 56 d9 bc 1b 1b ca bc d2 19 20 bc dd a2 1b 00
       -0.026530411 -0.024671128 -0.009771781 2.537983e-39
0000b0 87 36 87 b9 b6 10 00 80 a8 6a c4 3d 63 b7 77 bc
       -0.00025789833 -5.995e-42 0.095906556 -0.015119406
0000c0 a0 6a 01 80 a9 51 81 3d 75 97 43 bc 76 37 80 3c
       -1.30085e-40 0.063144036 -0.011937966 0.015651446
0000d0 cc 1f 42 bd 28 03 2a 3e b8 9f 00 80 33 72 ac be
       -0.047393605 0.16602767 -5.7296e-41 -0.33680877
0000e0 37 9a 43 a7 bd e2 01 80 1f e4 8f ba 19 3c 67 ba
       -2.7145286e-15 -1.73174e-40 -0.001097802 -0.0008820906
0000f0 db 5f 96 b8 c2 77 86 3d c6 d0 9e a5 f1 85 00 80
       -7.170412e-05 0.06565811 -2.75501e-16 -4.8049e-41
000100 9e 70 02 00 51 56 02 00 82 71 18 3d 8c 4e 8f 3e
       2.2407e-40 2.14635e-40 0.037217624 0.27989614
000110 ab 5b 01 80 d7 37 30 b7 2b 30 00 80 14 72 01 80
       -1.2472e-40 -1.0503419e-05 -1.728e-41 -1.32759e-40
000120 d8 f7 07 80 2b b7 00 80 ab 09 03 00 c2 41 ca 3d
       -7.31758e-40 -6.5708e-41 2.78975e-40 0.098758236
000130 ca c8 6e 9c 61 c4 6e 3c 6d f2 06 00 c7 00 05 3d
       -7.900711e-22 0.014573188 6.37979e-40 0.032471444
000140 45 7b 06 80 79 21 03 00 7d 90 8e 3c 17 2a 00 80
       -5.95234e-40 2.87514e-40 0.017402882 -1.5099e-41
000150 3d 2e 48 bc 00 1f 00 80 33 d0 91 2d 96 a9 05 00
       -0.012218055 -1.1121e-41 1.657705e-11 5.20013e-40
000160 ab 12 17 00 f6 35 c8 bc 0c 83 7b 90 85 0c 8e 87
       2.118913e-39 -0.024439793 -4.9601977e-29 -2.1373144e-34
000170 0d fd 22 bb ff 87 00 80 b5 bb 9b ba 50 c3 59 8a
       -0.0024870068 -4.8786e-41 -0.0011881503 -1.0484904e-32
000180 41 8e 0a 3d ad fd 65 bd b5 41 8e 2e 08 c9 cc b8
       0.03382707 -0.056150127 6.469084e-11 -9.764923e-05
000190 b8 70 10 00 50 1a cf bd a8 0d 08 bd e2 8c 03 00
       1.509804e-39 -0.101124406 -0.03321615 3.26046e-40
0001a0 d3 ec 53 bd 23 c8 e6 bc 01 30 07 00 69 0c 0e 80
       -0.051739525 -0.028171604 6.60069e-40 -1.290149e-39
0001b0 34 cd 02 80 3d b7 a8 bd 39 8b a0 3e 03 df 01 80
       -2.57284e-40 -0.08238075 0.31356218 -1.71837e-40
0001c0 74 0b 01 80 b1 59 64 97 cc 7b 86 3d 15 d4 8a bc
       -9.5944e-41 -7.378398e-25 0.06566581 -0.016946832
0001d0 de 95 00 80 6b 7f d2 bc 43 01 12 00 dd 42 c7 bc
       -5.3762e-41 -0.025695523 1.653492e-39 -0.024323875
0001e0 f6 ae ac 3d 65 c6 10 bd 0c d8 39 a7 c9 c9 93 bc
       0.08431809 -0.035345454 -2.5791027e-15 -0.018040555
0001f0 3c a3 03 bc ab 08 9c 9d 77 95 07 b8 47 58 a9 3c
       -0.008034524 -4.130182e-21 -3.2325708e-05 0.020671977
000200 d7 c4 22 80 e1 cb df bb 11 8d 01 80 ee c2 da bb
       -3.19302e-39 -0.006829724 -1.4244e-40 -0.0066760695
000210 22 b4 00 80 e6 d8 7d bc 74 ad 00 3e c7 05 f0 bc
       -6.462e-41 -0.015493607 0.12566167 -0.02929963
000220 9b 45 d4 bc e7 c7 e0 3d 1c 36 2b ba 89 da 88 bb
       -0.025912097 0.10975628 -0.0006531195 -0.004176442
000230 1a 2d 0d aa c6 33 00 80 c3 c5 00 00 9a b1 00 00
       -1.2538963e-13 -1.8573e-41 7.0944e-41 6.3711e-41
000240 68 0a 43 bd 1f 3f 90 80 a1 06 06 80 28 0d 2f bd
       -0.047617346 -1.3246955e-38 -5.53391e-40 -0.042737156
000250 06 73 00 80 7c 78 bd 87 ab ea 00 80 b4 96 be bb
       -4.1263e-41 -2.8508374e-34 -8.4183e-41 -0.005816305
000260 1b 33 86 bd 12 ee 0f ba 93 67 00 80 a0 4b 05 80
       -0.06552716 -0.00054904923 -3.7155e-41 -4.86307e-40
000270 72 76 a1 bc 26 99 13 00 ae e9 03 80 b4 d7 3d b8
       -0.0197098 1.799814e-39 -3.59335e-40 -4.5262e-05
000280 bf 5e 10 3e 3e aa 05 bd af 27 4e 9f e4 b7 a6 3b
       0.14098643 -0.03263306 -4.3655022e-20 0.0050878394
000290 46 3d 0d ba 0f 02 bd 3e d2 cc bd 1f b8 09 01 80
       -0.00053878536 0.36915633 8.038346e-20 -9.5322e-41

model.features.stage1.unit1.dw_conv.bn.running_mean f4 [168]
000000 bf c7 95 bc 04 00 00 00 40 dd dc bb d5 4a 1f 3b
       -0.018283723 6e-45 -0.0067402422 0.0024306078
000010 04 00 00 00 a0 da 99 bb 04 00 00 00 ad 51 ac b8
       6e-45 -0.0046952516 6e-45 -8.2168124e-05
000020 04 00 00 00 03 b1 9d 3d 54 d1 d3 3a 04 00 00 80
       6e-45 0.07699778 0.0016160407 -6e-45
000030 33 1b 02 9d 04 00 00 80 ed c1 8b 3c 06 be 73 bc
       -1.7219418e-21 -6e-45 0.017060244 -0.014876848
000040 04 00 00 00 24 20 4e bc 1c 58 01 3c 04 00 00 00
       6e-45 -0.012580905 0.007894542 6e-45
000050 04 00 00 80 82 15 c6 bd 04 00 00 00 52 e8 81 37
       -6e-45 -0.09672071 6e-45 1.5486181e-05
000060 f1 5d 5e 2b 02 00 00 80 04 00 00 80 8a b8 45 b8
       7.9000614e-13 -3e-45 -6e-45 -4.7140325e-05
000070 04 00 00 00 04 00 00 80 6a 20 5e bd 91 18 0f bc
       6e-45 -6e-45 -0.05423013 -0.008733884
000080 bb c3 70 bc 04 00 00 00 67 c2 47 35 04 00 00 00
       -0.014695103 6e-45 7.441617e-07 6e-45
000090 02 fd 95 bb 04 00 00 00 f3 0f bb bb 04 00 00 80
       -0.00457728 6e-45 -0.0057086884 -6e-45
0000a0 26 49 13 b9 02 e4 64 ba 82 dd 47 bb 04 00 00 80
       -0.00014046262 -0.00087314856 -0.003049702 -6e-45
0000b0 74 30 b1 a8 04 00 00 00 fd cc d1 b9 a4 fe 52 3c
       -1.967196e-14 6e-45 -0.00040016315 0.012878094
0000c0 04 00 00 00 82 95 79 3d b9 fd 17 3c a0 50 fb bb
       6e-45 0.060933597 0.009276801 -0.0076695234
0000d0 eb cd b7 ba 32 12 be 3b 04 00 00 80 08 08 22 3c
       -0.001402316 0.005800509 -6e-45 0.00988961
0000e0 04 00 00 80 04 00 00 80 76 80 10 33 e1 52 45 b3
       -6e-45 -6e-45 3.3644447e-08 -4.5943015e-08
0000f0 bf 26 90 b1 f1 e1 bf bb 04 00 00 80 04 00 00 80
       -4.1953565e-09 -0.0058557917 -6e-45 -6e-45
000100 04 00 00 00 04 00 00 00 a6 af 4a bb e7 e7 d4 bd
       6e-45 6e-45 -0.0030927449 -0.10395794
000110 04 00 00 00 04 00 00 00 04 00 00 00 04 00 00 00
       6e-45 6e-45 6e-45 6e-45
000120 04 00 00 00 04 00 00 80 04 00 00 00 26 85 ec 3c
       6e-45 -6e-45 6e-45 0.028872084
000130 04 00 00 00 9a 13 b9 3a 04 00 00 80 0d 9c ee 39
       6e-45 0.0014120222 -6e-45 0.00045511164
000140 04 00 00 00 04 00 00 80 6b c2 0f 3c 04 00 00 80
       6e-45 -6e-45 0.00877438 -6e-45
000150 86 df 8c 3b 04 00 00 80 04 00 00 80 04 00 00 00
       0.004299107 -6e-45 -6e-45 6e-45
000160 04 00 00 80 15 32 83 bb 04 00 00 80 04 00 00 00
       -6e-45 -0.004003773 -6e-45 6e-45
000170 04 00 00 00 04 00 00 00 80 12 a9 ba 04 00 00 80
       6e-45 6e-45 -0.001289919 -6e-45
000180 1d 04 b5 3c 0d 0d 96 39 04 00 00 00 04 00 00 00
       0.022096688 0.00028619953 6e-45 6e-45
000190 04 00 00 80 f4 6e 7e ba 78 9e e1 ba 04 00 00 80
       -6e-45 -0.00097058644 -0.0017213365 -6e-45
0001a0 f5 66 bc 3c b8 cd f2 39 04 00 00 80 04 00 00 80
       0.022998312 0.0004631111 -6e-45 -6e-45
0001b0 04 00 00 00 06 8a b1 bb 8c 75 83 bd 04 00 00 80
       6e-45 -0.005418065 -0.06418905 -6e-45
0001c0 04 00 00 80 04 00 00 00 91 08 39 3b 04 00 00 80
       -6e-45 6e-45 0.0028233866 -6e-45
0001d0 04 00 00 00 52 f8 58 39 04 00 00 80 c7 f6 8e bb
       6e-45 0.00020691872 -6e-45 -0.0043629142
0001e0 8d 1a 31 3c 8b 8f e6 3c 04 00 00 80 04 96 aa 36
       0.010809553 0.028144618 -6e-45 5.083859e-06
0001f0 9a 15 e2 bb 04 00 00 80 04 00 00 00 c7 a4 85 3b
       -0.0068995478 -6e-45 6e-45 0.004078481
000200 04 00 00 80 76 73 34 3b 04 00 00 00 44 38 90 b5
       -6e-45 0.002753464 6e-45 -1.0745212e-06
000210 04 00 00 80 1b 05 ce 31 d5 e6 a1 3a 3d 56 bf 3b
       -6e-45 5.9959695e-09 0.0012352119 0.005839138
000220 a9 0a 2e ba 94 4f 4b 3b 04 00 00 00 c2 50 04 36
       -0.0006639162 0.0031022774 6e-45 1.971654e-06
000230 e2 a0 00 00 04 00 00 80 04 00 00 00 04 00 00 00
       5.7714e-41 -6e-45 6e-45 6e-45
000240 5d 44 9b bb 04 00 00 80 04 00 00 80 99 44 d5 b8
       -0.004738374 -6e-45 -6e-45 -0.00010169409
000250 04 00 00 80 04 00 00 80 04 00 00 00 e3 92 0f b7
       -6e-45 -6e-45 6e-45 -8.557664e-06
000260 5a eb 7d ba 04 00 00 80 04 00 00 80 04 00 00 80
       -0.0009686254 -6e-45 -6e-45 -6e-45
000270 7f 18 dc b9 04 00 00 00 04 00 00 00 f1 a9 75 29
       -0.0004197992 6e-45 6e-45 5.454833e-14
000280 bd d4 17 bc 2a 1f c5 38 04 00 00 80 11 7f 81 3a
       -0.009267029 9.399497e-05 -6e-45 0.0009879788
000290 40 6a fe 3b 44 04 02 be 04 00 00 00 04 00 00 00
       0.007764131 -0.1269694 6e-45 6e-45

model.features.stage1.unit1.dw_conv.bn.running_var f4 [168]
000000 36 62 74 38 04 00 00 00 e9 66 a1 3a 6c 13 da 39
       5.82656e-05 6e-45 0.0012313995 0.0004159467
000010 04 00 00 00 24 71 54 3a 04 00 00 00 83 78 16 32
       6e-45 0.00081040175 6e-45 8.75855e-09
000020 04 00 00 00 05 8c b8 3a 82 1e 93 3a 04 00 00 00
       6e-45 0.0014079815 0.0011224302 6e-45
000030 d3 00 00 00 04 00 00 00 79 98 51 3a dd 4a 07 3b
       2.96e-43 6e-45 0.00079954375 0.0020643987
000040 04 00 00 00 75 07 cd 39 7f f6 09 3b 04 00 00 00
       6e-45 0.00039106203 0.0021051464 6e-45
000050 04 00 00 00 3c 17 6e 3c 04 00 00 00 da c0 cd 36
       6e-45 0.014531907 6e-45 6.131927e-06
000060 c0 e7 0d 20 04 00 00 00 04 00 00 00 28 90 5c 31
       1.2019844e-19 6e-45 6e-45 3.2096157e-09
000070 04 00 00 00 04 00 00 00 7b fc 9e 3b 13 88 56 3a
       6e-45 6e-45 0.0048518754 0.0008183729
000080 df 4e a6 39 04 00 00 00 2f 9f b1 2a 04 00 00 00
       0.0003172075 6e-45 3.1551972e-13 6e-45
000090 9f ef 17 39 04 00 00 00 32 4e a8 3a 04 00 00 00
       0.00014489748 6e-45 0.0012840687 6e-45
0000a0 b3 b0 16 33 60 e7 05 3b a0 1f fe 39 04 00 00 00
       3.5085304e-08 0.00204321 0.00048470218 6e-45
0000b0 ee 16 d7 10 04 00 00 00 5c 82 86 39 29 b4 ca 39
       8.4837876e-29 6e-45 0.00025655597 0.00038662672
0000c0 04 00 00 00 d3 e2 76 3b cb c6 6e 39 85 a5 eb 38
       6e-45 0.003767182 0.00022771505 0.000112365036
0000d0 49 8e 07 37 cc 23 06 3a 04 00 00 00 30 92 91 39
       8.079755e-06 0.00051170285 6e-45 0.00027765473
0000e0 04 00 00 00 04 00 00 00 70 d1 e0 30 e8 45 d8 25
       6e-45 6e-45 1.6357671e-09 3.7517397e-16
0000f0 e6 ae c6 20 4b 85 0c 3a 04 00 00 00 04 00 00 00
       3.3658243e-19 0.00053604384 6e-45 6e-45
000100 04 00 00 00 04 00 00 00 c6 1d ff 38 72 a7 6c 3c
       6e-45 6e-45 0.00012164893 0.014444219
000110 04 00 00 00 04 00 00 00 04 00 00 00 04 00 00 00
       6e-45 6e-45 6e-45 6e-45
000120 04 00 00 00 04 00 00 00 04 00 00 00 30 aa de 3a
       6e-45 6e-45 6e-45 0.0016987976
000130 04 00 00 00 8b ad 34 3a 04 00 00 00 b1 67 c6 37
       6e-45 0.0006892315 6e-45 2.3651724e-05
000140 04 00 00 00 04 00 00 00 fb 50 84 3a 04 00 00 00
       6e-45 6e-45 0.0010094935 6e-45
000150 32 71 94 39 04 00 00 00 04 00 00 00 04 00 00 00
       0.00028313097 6e-45 6e-45 6e-45
000160 04 00 00 00 c1 6c 81 36 04 00 00 00 04 00 00 00
       6e-45 3.85716e-06 6e-45 6e-45
000170 04 00 00 00 04 00 00 00 36 32 2b 3a 04 00 00 00
       6e-45 6e-45 0.00065306143 6e-45
000180 26 04 5d 3a 9d 11 3b 39 04 00 00 00 04 00 00 00
       0.0008431099 0.00017840271 6e-45 6e-45
000190 04 00 00 00 78 3f 0f 37 b4 bd af 3a 04 00 00 00
       6e-45 8.538242e-06 0.0013407976 6e-45
0001a0 b0 c6 56 3a 21 bf 1e 39 04 00 00 00 04 00 00 00
       0.0008193059 0.00015139255 6e-45 6e-45
0001b0 04 00 00 00 72 2e 8f 38 98 df 8d 3b 04 00 00 00
       6e-45 6.8274225e-05 0.004329633 6e-45
0001c0 04 00 00 00 04 00 00 00 61 a0 b2 3a 04 00 00 00
       6e-45 6e-45 0.0013628119 6e-45
0001d0 04 00 00 00 16 54 1b 31 04 00 00 00 78 f3 4b 3b
       6e-45 2.2603266e-09 6e-45 0.003112046
0001e0 90 52 bb 3a 7f 29 42 3a 04 00 00 00 b5 a9 97 30
       0.0014291573 0.0007406696 6e-45 1.103493e-09
0001f0 f7 ae 84 39 04 00 00 00 04 00 00 00 fd 5c 1f 3b
       0.0002530736 6e-45 6e-45 0.00243169
000200 04 00 00 00 8f 25 5f 3a 04 00 00 00 b5 c5 f9 29
       6e-45 0.00085123716 6e-45 1.1092118e-13
000210 04 00 00 00 c4 82 9a 2c d1 74 42 3b b5 41 1e 3a
       6e-45 4.391461e-12 0.0029671679 0.0006037013
000220 88 1c 1f 37 2a f7 45 3a 04 00 00 00 e0 6e 16 2d
       9.4837815e-06 0.0007551784 6e-45 8.551132e-12
000230 04 00 00 00 04 00 00 00 04 00 00 00 04 00 00 00
       6e-45 6e-45 6e-45 6e-45
000240 ea 40 bc 38 04 00 00 00 04 00 00 00 91 98 18 33
       8.97663e-05 6e-45 6e-45 3.5529016e-08
000250 04 00 00 00 04 00 00 00 04 00 00 00 88 ab 5d 2d
       6e-45 6e-45 6e-45 1.2600483e-11
000260 65 cf 2c 38 04 00 00 00 04 00 00 00 04 00 00 00
       4.1201147e-05 6e-45 6e-45 6e-45
000270 5c e8 63 34 04 00 00 00 04 00 00 00 56 04 12 0d
       2.1225554e-07 6e-45 6e-45 4.4994943e-31
000280 6c 0c a7 3a b0 74 86 36 04 00 00 00 23 f1 06 38
       0.0012744791 4.0070954e-06 6e-45 3.2172666e-05
000290 57 66 cb 3a fb 02 7d 3c 04 00 00 00 04 00 00 00
       0.001551817 0.015442605 6e-45 6e-45
