yono_compression/yono/data/saved_model/MicroNet-AD-I-ch168_cifar10_adam_multistep_nomixup.pt (torch, 837707 bytes, 57 tensors)

model.features.init_block.conv.weight f4 [168, 3, 3, 3]
00000000: f144 433e d569 0c3e 1f9c e1bd cb56 653e
00000010: 1f1b 02bf d695 053e bdfa b3bd 2ade 22bd
00000020: 70c8 233e 8282 bc3c 60a4 5d3d da26 e5bd
00000030: f1c5 6d3e 4bad eebe f692 e93d e7a3 b5bd
00000040: 66fe 3abc 4a0d 5d3d 249b 16bd 8904 263e
00000050: a35f 79bd 36d9 493d 1cf4 56be b0c0 223d
00000060: 6df2 2bbd 3afe d93d 562f 783d fcc9 7c3e
00000070: a481 9e3d b6ad 893e 2c6b d03d 8be6 5a3e
00000080: 2bdd 923d fb1e 82be a913 acbe ef97 a5be
00000090: b111 863e 292b 283e 0e79 403e e21b 77bd
000000a0: 1960 383e 0811 1abe b3dc 893c d6e9 45be
000000b0: 9740 b3be 5588 403e c44b b43d 5f6f 423e
000000c0: 7980 50bd 8866 1cba 842e 38be 68ba 11be
000000d0: c4fc 30bc c12d 15be 0fa1 783e 719d 693e
000000e0: a4e3 b13d bc88 0ebd af42 0e3e a1af d83d
000000f0: 22d0 4fbe 89a4 8bbc 6980 a03d 6880 4b3e
00000100: a67a 2ebd 4a54 953a f615 823b 3f13 20bd
00000110: e53f 31be a2f2 8ebe 7e08 28be b9ca 29be
00000120: 7594 763e bb4f 253e 7657 3d3e 6883 a83d
00000130: 836f 3a3d 9035 7d3d 2f31 aabe eec7 46be
00000140: d4e6 88be 1220 193d a914 dd3d bbd8 463d
00000150: 78e9 c6bd 2196 5abe 75f3 12be 7450 013e
00000160: 2960 8d3d ec3f 053e c731 1e3d 669c c1bd
00000170: e198 0ebd f9a3 32be 03a0 85be ff6f 02be
00000180: fe29 253e 7805 473e 3081 b63d 2901 d1bd
00000190: c5d9 6e3d 4ed9 a5bd a23d 24be a57c 9fbd
000001a0: 2608 49bd f9a8 d43b f06d 9b3e 41b9 203e
000001b0: 7ce4 d93c 7675 d1bd 0b8b 12bd 4f70 e03d
000001c0: 710a c43d bd62 91bd 4554 9f3d 8365 c13d
000001d0: 59f0 36be f273 a7bd 55db 10be 8e2e 603d
000001e0: 7962 19be 803a 953d 34a0 6f3e 1101 bdbd
000001f0: d479 003e 408e c6bd 0bd4 58be bd9d 1ebe
00000200: ab22 903e a1ba c6bd 1162 a4bd e8ee 843e
00000210: 8399 2ebd ae94 523d 421d 123d 5ff0 4d3e
00000220: 1212 273e 984f 41bc de05 94bd 97e5 8bbe
00000230: d82b 95be 0d08 f0bd c16b 84be 0c98 9ebd
00000240: 6557 b43b f1f2 8a3d 9c81 253e 089b 823e
00000250: 1e8b b03e d8de 7d3e 2bc5 2d3e 1ac0 bc3e
00000260: 2260 373d 0e38 41be 3184 8abe 8fd4 41be
00000270: 2477 54be 2ffb c1bd 7e2c cb3d fd24 a5bd
00000280: b36c dbbd b5a8 8e3c 518c 04bd 9fa2 e23c
00000290: d78a a9bd e55a 4fbd 35c7 c2bd 77f9 f6bd
000002a0: 8448 71be 34dd 65be 1100 80be c9d9 663e
000002b0: 4f43 423e 4a11 363e 2384 b43e 9f52 c13e
000002c0: cad9 353e 62bc 323e 42c2 7f3c f0ec af3d
000002d0: 6257 16be 1022 00be 7e71 1cbe 18f5 41be
000002e0: 376d 2fbe 2735 b13d 3b2b 08be bdc0 65bd
000002f0: 6cdd 9e3c f0b4 0080 94dc 0080 e552 0180
00000300: f6c0 0080 1c1f 0100 54cb 0080 dccf 0000
00000310: 9947 0080 69f6 0080 4125 0000 8b7e 0080
00000320: 102f 0180 8d74 0100 1df9 0080 3768 0080
00000330: c65c 0180 64d8 0080 657f 0000 390e 0180
00000340: 1531 0100 7f14 0000 07db 0000 3f32 0080
00000350: 8174 0080 e7d7 0080 f62e 0100 22c0 0080
00000360: 662e 5e3d d4fb adbd 0dd8 563c 5962 213e
00000370: a9af 43bd 5fa1 783e e3c7 57bd 392d 58bd
00000380: 6eeb 223e a2c7 ccbd 3a91 9d3d ce3f 8f3e
00000390: d605 783e abeb 9f3e d681 2f3e 9e6b 4f3d
000003a0: bd04 883e 177e 973d df85 32be d861 41be
000003b0: 60f2 a7be 802f 413c 13f8 21be 2593 b7be
000003c0: 9c83 25be 930d 85be 8c6b 3abe c32a f6bd
000003d0: 5ae5 03be 8530 b4bd d9b8 4cbe eacd 5abe
000003e0: 2aa2 6ebd 7e3a ce3e 6171 df3e de01 4c3e
000003f0: 73a0 23bd 42ef 993d a72f 79bd 6a6b 15be
0.19069268 0.13712247 -0.11016106 0.2239639 -0.50822634 0.13045439 -0.08788059 -0.039762653
0.1599443 0.02301145 0.05411184 -0.11189051 0.2322004 -0.46616587 0.11404984 -0.088691525
-0.011413192 0.05396775 -0.036769047 0.16212668 -0.060882222 0.049279414 -0.20991558 0.039734542
-0.041979242 0.10644193 0.060592018 0.24686426 0.07739571 0.26890343 0.101766914 0.21377008
0.07171091 -0.2541426 -0.3360875 -0.3234248 0.26185372 0.16422714 0.18796179 -0.060329325
0.18005408 -0.1504556 0.01682887 -0.19327483 -0.35010216 0.18802007 0.08803514 0.18987797
-0.05090377 -0.0005966206 -0.17986494 -0.14231265 -0.0108024515 -0.14568235 0.24280189 0.22813965
0.08685997 -0.03479837 0.13892625 0.105803736 -0.2029424 -0.01704623 0.07836992 0.19873202
-0.042597435 0.0011392918 0.003969903 -0.039080855 -0.1730953 -0.2791949 -0.1640949 -0.16581239
0.2408007 0.16143696 0.18490395 0.08228189 0.045516502 0.06181866 -0.3324065 -0.19412205
-0.26738608 0.0373841 0.10794956 0.048546534 -0.097124994 -0.21346332 -0.14350684 0.12628347
0.06903107 0.13012666 0.03862169 -0.09453659 -0.034813765 -0.17445363 -0.26098642 -0.12738036
0.161293 0.1943568 0.08911359 -0.102052994 0.05831315 -0.08098088 -0.16039136 -0.07787446
-0.049080037 0.0064898697 0.30357313 0.15695669 0.026598208 -0.10227482 -0.035777133 0.10958921
0.09572304 -0.07098911 0.07779745 0.0944319 -0.17865123 -0.08176412 -0.14146169 0.054731898
-0.1497897 0.072865486 0.23400956 -0.09228719 0.12546474 -0.09695101 -0.21174638 -0.1548986
0.2815145 -0.097035654 -0.08026517 0.2596352 -0.04262687 0.051411323 0.035672434 0.20111226
0.16315487 -0.011798762 -0.072276816 -0.273236 -0.29135013 -0.117202856 -0.2586346 -0.077438444
0.0055035823 0.06784619 0.16162723 0.25508904 0.34481138 0.2479204 0.16969745 0.36865312
0.044769414 -0.1886904 -0.2705398 -0.18928741 -0.20748574 -0.094717376 0.099205956 -0.080636956
-0.10714092 0.01741443 -0.03236038 0.027665434 -0.08278435 -0.050623793 -0.09510652 -0.120593004
-0.23562819 -0.22447664 -0.2500005 0.22544016 0.18970989 0.17780033 0.35257062 0.37758347
0.17758861 0.17454675 0.0156102795 0.08590114 -0.14681771 -0.12512994 -0.15277669 -0.18941152
-0.17131506 0.08652716 -0.13297741 -0.056092013 0.019392692 -6.4908e-41 -7.9129e-41 -1.21572e-40
-6.9221e-41 1.02995e-40 -7.294e-41 7.4566e-41 -2.5684e-41 -8.8395e-41 1.3364e-41 -4.5395e-41
-1.08718e-40 1.33646e-40 -8.9365e-41 -3.7385e-41 -1.25116e-40 -7.7626e-41 4.57e-41 -9.6938e-41
1.09443e-40 7.353e-42 7.8572e-41 -1.8025e-41 -4.1794e-41 -7.7451e-41 1.08682e-40 -6.8924e-41
0.054243468 -0.08495298 0.013113034 0.15760173 -0.047774944 0.24280308 -0.05268086 -0.052777503
0.15910122 -0.099990144 0.076937154 0.27978367 0.24220976 0.31234488 0.17139372 0.05063974
0.26566115 0.073970966 -0.1743388 -0.1888498 -0.32802105 0.01179111 -0.15817289 -0.3585445
-0.16163486 -0.2598692 -0.18205088 -0.12019875 -0.1288046 -0.08798317 -0.19992389 -0.21367612
-0.05826012 0.40279 0.4364119 0.19922587 -0.03994794 0.07516338 -0.06083646 -0.14591756

model.features.init_block.bn.weight f4 [168]
00000000: 097b 2e3e 5f15 693e 611e 8c3e 04f3 4d3e
00000010: 278a 0e3e cd2c 9b3e 1320 603e 7fcb 0000
00000020: 0535 9a3e 514b 6f3e 090a 633e 0897 f33d
00000030: 52db 193e 447c 953e 890b 0c3e 593a 183e
00000040: ec84 2e3c c039 b33e 2693 8a3e 1cdd b33e
00000050: 7bf2 283e b121 0100 6fb0 1d3e c205 833e
00000060: 5b4f 4c3e 92bc ae3e eb7d 2e3e 5120 0180
00000070: 1500 0100 f213 0080 1145 d93d 8e45 233d
00000080: 1821 083e 2224 623e ce4d ca3d 6e72 ed3d
00000090: feca 1e3e 25c7 b33e 4d64 0b3e 1664 a13e
000000a0: 4100 7a3e 809e 4b3e dc94 563e b90f 6c3e
000000b0: 5f35 833e c5cf 233e 7724 0100 6ea3 853e
000000c0: f4a1 173e 656e 523e 2f3a 3a3e c1b2 433e
000000d0: 3eb6 6f3e 81f2 063e 7876 763e b3a6 5a3e
000000e0: 684c 283e c8e2 4f3e 2504 133e 7217 3b3e
000000f0: 3cd0 1c3e f301 403e 40f7 4d3e 562e 453d
00000100: 5dee 463e a1a5 873e 5579 3c3e 9cac 3e3e
00000110: 34a8 213e dcde 233e 8d70 183e 54da 513e
00000120: 8603 b63d 576c 523e 5c42 e83d 5917 0080
00000130: 7422 063e 9f6b 083e 09b4 773e 7f79 333e
00000140: f69a 553e f186 be3e 14c5 813e 5139 2d3e
00000150: 1797 433e bdf6 843e 4e48 2b3e 4862 333e
00000160: eeda 5a3e d5ca 6a3e ae1b 6d3e 38c2 653e
00000170: 9a5b 293e 306f 5a3e 2d5c 653e 9852 803e
00000180: fc75 813e 8c73 553e ab10 6c3e 5bab 993e
00000190: 008e 823e cbab 2a3e 9ab4 433e fb74 3e3e
000001a0: 10d7 773d 04a5 0000 3caa 243e dfb1 9e3e
000001b0: 49c8 303e d486 163e 5d68 3b3e 78d0 0b3e
000001c0: 323e 0e3a 2253 703e ccae 593e a54e 2e3e
000001d0: 01c5 0000 523c 4e3e a3d2 263e e357 173e
000001e0: 97db 633e a177 483e eca0 6a3e 8bc8 6d3e
000001f0: 8688 893e 345a 393e bfa9 053e f08a 0000
00000200: 106d e13d 16b9 1e3e 9e05 203e d85b 223e
00000210: 1dd6 773e ab7c 463e 57cd 6e3e fa72 5b3e
00000220: b291 533e 42c7 e93d 0801 6d3e 32e5 8f3e
00000230: 6f28 2a3d c82b 933e b27e 463e b68c 683e
00000240: 8052 bd3e d0f5 4c3e 76a1 003e de39 0080
00000250: 30b8 5f3e d13a c93d 6ced b63d 5f4f 4027
00000260: 0486 883e 4dab 543e 7b27 333e 0323 0100
00000270: 8c79 803e 0f3a 2234 5e22 553e 0395 533e
00000280: 0b8f 313e 4446 6c3e 7f61 083e 5377 3c3e
00000290: f23b 1e3e 95d0 833e e08e bb3d bb7a 293e
0.17039122 0.22762059 0.27366927 0.20112234 0.13919888 0.30307618 0.21887235 7.3e-41
0.30118576 0.23368575 0.22171797 0.11894041 0.1502507 0.2919637 0.13676275 0.14866008
0.010651808 0.35004997 0.2706539 0.3512963 0.16498749 1.03922e-40 0.15399335 0.2559033
0.19952147 0.34128243 0.17040221 -1.03428e-40 9.1865e-41 -7.155e-42 0.106088765 0.039861254
0.13293874 0.22084096 0.09878121 0.11594091 0.15507123 0.35112873 0.1361248 0.31521672
0.2441416 0.19884682 0.20955223 0.23052873 0.25626656 0.15997227 1.04917e-40 0.2610125
0.14807874 0.20549925 0.18186258 0.19111158 0.23409364 0.13178445 0.2406863 0.21352653
0.16435397 0.20301354 0.1435705 0.18270662 0.1531381 0.18750744 0.2011385 0.048139893
0.19426866 0.26493552 0.1840566 0.18620533 0.1578682 0.16002983 0.14886685 0.20493442
0.08887391 0.20549141 0.11340782 -8.376e-42 0.1309908 0.13322304 0.24189772 0.17526816
0.20859894 0.37212327 0.2534567 0.16916396 0.19100605 0.25969496 0.16726801 0.1751796
0.21372578 0.22928937 0.2315509 0.2243737 0.1653885 0.21331477 0.22398444 0.25063014
0.25285327 0.20844859 0.23053233 0.30013546 0.25498962 0.16667096 0.19111863 0.18599312
0.060507834 5.9196e-41 0.16080564 0.3099508 0.17263903 0.1469987 0.1830153 0.13653743
0.0005426138 0.23469213 0.21258086 0.17022188 7.0672e-41 0.20140198 0.16291289 0.1477962
0.22251736 0.19576885 0.2291295 0.23221032 0.26861972 0.18100816 0.13053034 4.9841e-41
0.1100713 0.15500292 0.15627143 0.15855348 0.24202771 0.19383495 0.23320518 0.21430579
0.20661047 0.114149585 0.23144925 0.2810455 0.041542467 0.2874434 0.19384268 0.22709927
0.36977005 0.20015645 0.12561592 -2.0759e-41 0.21847606 0.098256715 0.089320034 2.668838e-15
0.26664746 0.20768471 0.1749553 1.04395e-40 0.25092733 1.5108547e-07 0.20813891 0.20662312
0.17339723 0.23073679 0.13318442 0.18404894 0.15452555 0.25745073 0.091581106 0.16550724

model.features.init_block.bn.bias f4 [168]
00000000: 6540 8b3e 27a2 233e a93e 213c b1a1 503e
00000010: 618a 233e 3212 3e3e 1e95 7d3d 772f 0080
00000020: 0c3c cb3d 5e88 1f3e 7890 c13c 6468 0c3e
00000030: 79be 31be c633 1f3e 77c1 143d 3969 893e
00000040: 86e7 673b 73c8 1b3c aba4 0f3e 1056 2f3c
00000050: 7ef5 283c 02a5 0080 3493 203e 734c 853e
00000060: e665 8b3d 0e51 0e3d 4235 903e 5f24 0000
00000070: 7e35 0100 2135 0000 5e42 c23d 0892 b53c
00000080: 1f87 c83d 968e cbba 3296 c93c bf41 2f3e
00000090: 538e 783e d39a 073e 8b17 483e 077b ae3b
000000a0: d594 ab3e 73cd 0f3e 0db8 c7bd 9e07 ffbb
000000b0: 3504 fc3d 2418 493e c87d 0000 2dca 1d3d
000000c0: c6d2 2b3d 16cd 223e d270 143e 109e 2a3e
000000d0: feff fe3d 9ae6 813e 1855 1d3e 2f3b 253e
000000e0: 2ae5 6d3e 8d4f fa3d 25fc 2a3e dbab 8f3e
000000f0: b1e0 ef3c 7774 5f3e 8930 de3b 9ac8 ff3c
00000100: 1324 933c d948 e63d 7fcc de3d 3f50 953d
00000110: 37e6 4fbe babe f0bd 9a70 f13c 4a85 01be
00000120: 25d6 c33e b37d 473e 8d74 303e 9cc5 0080
00000130: 30b7 8e3e c84f 6f3b ba16 103e 0f01 9a3d
00000140: 0037 1cbd da98 8c3d 1793 1f3e 7365 0c3e
00000150: cd41 423c 81a1 113e 5ca2 883e c171 443e
00000160: fa05 dd3d 9518 123c 8d8f ecbb a8b6 d3bd
00000170: 47f1 6d3e 56ae 023e 0c4c 5e3e bb61 7d3e
00000180: 3c7d 3c3e 3315 873e 6b93 743e c4ce aa3d
00000190: 5d15 1b3e 3885 093e c1b3 153e fb2c 543e
000001a0: c375 c0bd 2a0a 0180 a60b f63d b418 0d3e
000001b0: e07d c93d ac2b f03c 4233 3abe 4504 bc3e
000001c0: f84e a4b8 54f7 e03d aedc 83bc b967 ba3d
000001d0: a0ee 0000 21af 513e 80b0 643e f1c7 9c3e
000001e0: 2e7f a43d db23 4e3e bb82 59bd 1feb 193e
000001f0: 8768 443e 7dc8 1ebd 4262 b23e e1ab 0080
00000200: e7ce 6f3e 8675 4f3e 6bb6 6b3e b932 e7bc
00000210: ce40 a6bd 04bd 22be b025 0d3e de65 9e3e
00000220: 18d2 623e 33d2 193e 39cc 203d bb5b 423e
00000230: c5b9 70bc 678b 70bd 460e a43c 2a0a e53d
00000240: 9f0f 533e 1ed1 393d 0d5c 463e 36f1 0000
00000250: 3f99 433d f302 823e 0b7b 52be fcad 82a6
00000260: 69dd a33d ffd9 0cbc 70d0 aa3e 6c53 0180
00000270: eac4 34bc 86ea 821b 6da9 473e a216 f3bc
00000280: 2d89 cf3d 9008 0d3e 574f e13d 7ae4 863d
00000290: 2c27 383e 3e00 833e ea59 723d 803a bcbd
0.27197567 0.15979825 0.0098415995 0.2037418 0.15970756 0.18561628 0.061909787 -1.7027e-41
0.099235624 0.15579364 0.023628458 0.13711697 -0.17357816 0.15547094 0.036317315 0.2683809
0.0035385801 0.00950824 0.1402766 0.010701671 0.010312436 -5.9194e-41 0.15681154 0.2603489
0.06806545 0.03474527 0.28165632 1.3047e-41 1.11025e-40 1.9059e-41 0.09485315 0.02216436
0.09791397 -0.0015530165 0.024607752 0.17114924 0.24273042 0.13242655 0.19540231 0.0053247246
0.33511987 0.14043216 -0.09751902 -0.0077828905 0.1230549 0.19638115 4.5122e-41 0.038522888
0.041949056 0.15898547 0.14496163 0.16661859 0.124511704 0.25371248 0.15364492 0.16135858
0.2323195 0.12222204 0.16697748 0.28060803 0.029281946 0.21821772 0.006780688 0.031223584
0.017961537 0.11244363 0.10878848 0.07290696 -0.20302664 -0.11755128 0.029472638 -0.12648502
0.38249317 0.19481544 0.1723196 -7.0889e-41 0.27874136 0.003651606 0.1407117 0.07519733
-0.03813839 0.068650916 0.15583454 0.13710575 0.011856508 0.14221765 0.2668637 0.19184019
0.107921556 0.008916994 -0.007219261 -0.10337573 0.23236571 0.12761816 0.21708697 0.24744312
0.18407148 0.2638336 0.2388436 0.08340219 0.15144868 0.13429725 0.14619352 0.20720284
-0.09397461 -9.5482e-41 0.120139405 0.13778955 0.09838462 0.0293177 -0.18183616 0.36722007
-7.8348385e-05 0.10984674 -0.01609644 0.09101815 8.5603e-41 0.20476963 0.22332954 0.30621293
0.0803207 0.20130865 -0.05310319 0.15031098 0.19180499 -0.03876542 0.3484059 -6.1659e-41
0.2341877 0.20259675 0.23018806 -0.028222429 -0.08117829 -0.15892416 0.13783908 0.30937093
0.22150457 0.15021591 0.039257262 0.18980305 -0.014692728 -0.058726694 0.020026337 0.11183579
0.20611428 0.045365445 0.19371052 8.653e-41 0.04775357 0.25392875 -0.2055475 -9.067721e-16
0.08001215 -0.008596896 0.3336215 -1.21762e-40 -0.011033276 2.1658253e-22 0.19498225 -0.029673878
0.10133586 0.13772798 0.11001461 0.06586547 0.17983693 0.25586122 0.05916778 -0.091908455

model.features.init_block.bn.running_mean f4 [168]
00000000: caf7 583d bb80 d0bc 5481 d63b cd38 873d
00000010: 65a9 d2bb b045 f23b 8edf a83c a042 0080
00000020: 8868 4bbd bf19 5b3d 0c4f 14bd 24af 9a3e
00000030: 59d1 4a3e b590 14bc 2962 aebe 97ae 3d3b
00000040: bcbe c73a a22f 0bbc 4c80 963c 3c2d 2f3c
00000050: 7f2f 243e 5544 0100 21bb 34bc f2b1 4ebc
00000060: 489a e43e d307 c83d 6233 35bd 9013 0080
00000070: d4a2 0000 1f9b 0000 04d2 84be e9b2 b53c
00000080: ae1d e83d 73c8 b03d bb0a 7bbd 8a0e b73d
00000090: 1548 93bc cf4d b7bb 2f84 253e 3696 043d
000000a0: b3a5 1cbe 3154 2fbd 3720 8d3e 0b93 573d
000000b0: df19 5fbd 6970 1a3d e024 0000 8611 033d
000000c0: 6694 3a3d 97ba 843e b73c 15bd a41d 4fbd
000000d0: 0ead 523c 483a 613d 6741 b5bd 39e2 0cbd
000000e0: 07ea 0ebf 1857 063e 4b37 4cbe 70e2 93bd
000000f0: ea48 333e 6190 93bd 2849 373e f5fb c53c
00000100: 5d01 743d 9206 0bbd a9d1 bbbe c378 5d3e
00000110: 4836 8b3d 78bf 963e 2c45 a93c 46ce d93e
00000120: 9849 14bd b884 d73c 2708 4d3d e55d 0000
00000130: 1b89 9c3c 330a fa3c 8e2a 08bd 309e 583c
00000140: 6d29 9d3e 4464 9d3c 72c8 13be 014c ab3c
00000150: 99af 023f 92de df3c 0f1e b8bd fdb4 b6bd
00000160: 86c1 313e 707a 3bbd 2ce2 f33c 32a6 953e
00000170: 974f 90b9 a54d 81b9 d143 7bbd 5c21 2a3d
00000180: b285 583d 9fa6 193b e26b afbb 197f 4f3c
00000190: 562c 49bd 4e46 d3bc 9436 d93a f84e b43c
000001a0: 0018 c2be 10bd 0080 5171 1cbc 330e d7bc
000001b0: 48dc c03c cb42 873e d737 f83e e9c1 babc
000001c0: 8820 a5b3 3581 53bd a428 223e 108f 0dbd
000001d0: 8d80 0080 4870 fd3a f957 0cbe 9079 e2bc
000001e0: d861 aa3c 0175 303d 9904 243e 443b 903d
000001f0: f5bc bcbd 0f72 bf3e 2bc1 a93b 445b 0000
00000200: 5a6f 553e 9f40 87bc f8e3 913c 5615 263e
00000210: b041 9e3e 316b 903e 667b 23be 797d 18bd
00000220: bcb3 5cbe 5e0e a1bd 196b 2b3e 6a94 933c
00000230: 6477 783c c92c 6b3e 1dd8 163e e030 963d
00000240: 8fc8 183d 2a44 883e 687a 80be fc4e 0080
00000250: 87d6 a4bb 4269 373d 6570 b3bc 2f88 0000
00000260: 6360 0e3e ef9f 98bc 1db0 49bd c137 0080
00000270: ec61 193d cee8 0000 fead 9ebc 3c4d 5e3e
00000280: 1ee1 6a3e 9ebc 593d cdf6 4fbd b988 013e
00000290: 1b44 7f3c 5a95 513d 601e 12bd 6a02 173e
0.052970685 -0.025452008 0.006546179 0.06602631 -0.006428885 0.0073935613 0.020614412 -2.39e-41
-0.049660236 0.05349135 -0.036208197 0.30211747 0.19806422 -0.009067704 -0.34059265 0.0028943175
0.0015239338 -0.008495243 0.018371724 0.010691937 0.16033743 1.16348e-40 -0.011030943 -0.012615668
0.44648957 0.09767117 -0.044238456 -7.018e-42 5.8412e-41 5.5647e-41 -0.2594148 0.022180038
0.11333786 0.08631983 -0.06128953 0.0893832 -0.017978707 -0.0055939923 0.16163705 0.032369815
-0.15297584 -0.0428049 0.2756364 0.052630465 -0.054468032 0.03770486 1.3228e-41 0.031999134
0.04555168 0.25923607 -0.036434855 -0.050565377 0.012858642 0.054987222 -0.08850365 -0.03439543
-0.5582585 0.13119161 -0.19942968 -0.07220924 0.17508283 -0.072052725 0.17899 0.024167994
0.059571613 -0.033941813 -0.36683396 0.21628098 0.06797463 0.29442954 0.020662867 0.42540187
-0.036202997 0.026308402 0.050056603 3.3683e-41 0.019108346 0.030522441 -0.03324371 0.013221309
0.30695668 0.01921285 -0.14431933 0.020910265 0.5104919 0.02732781 -0.08990108 -0.089212395
0.1735898 -0.045771062 0.029770933 0.2922836 -0.0002752512 -0.00024662647 -0.06134397 0.04153572
0.052861877 0.0023445261 -0.005353437 0.01266458 -0.049114548 -0.02579036 0.0016572052 0.022010311
-0.37908936 -6.7823e-41 -0.009548501 -0.026251888 0.023542538 0.26418146 0.48480102 -0.022797542
-7.6893286e-08 -0.051636893 0.15835816 -0.034560263 -4.6115e-41 0.0019335831 -0.13705434 -0.027645856
0.020798609 0.043080334 0.16017379 0.07042554 -0.09215728 0.37391707 0.005180498 3.274e-41
0.20843259 -0.016510306 0.0178089 0.16219077 0.3090949 0.2820678 -0.15965042 -0.037229035
-0.21552938 -0.078640684 0.16740073 0.018015105 0.015165184 0.22966303 0.14730878 0.07333541
0.037300643 0.26614505 -0.2509339 -2.8334e-41 -0.0050304565 0.044778116 -0.02190418 4.8853e-41
0.13903956 -0.01863095 -0.04924022 -2.0001e-41 0.0374469 8.3515e-41 -0.019370075 0.2170915
0.22937438 0.053158395 -0.050772477 0.12649812 0.015580202 0.051167823 -0.0356735 0.14747015

model.features.init_block.bn.running_var f4 [168]
00000000: 8177 803e 188e 2140 f15e e23f b0f7 333f
00000010: 4033 8b3e 7835 a43e b6b1 ea3e 0400 0000
00000020: 8c36 793f b1c2 ad3e 63f8 9b3f db32 bb3f
00000030: 45d4 433f 015b 163f 11d5 e63f 652d 543e
00000040: 5ea6 1838 a8db 2540 aeac 063f a876 2840
00000050: 3a95 883f 0400 0000 3208 133f d5ea bb3e
00000060: c2c3 3c40 1bf9 b33f eee8 0b3e 0400 0000
00000070: 0400 0000 0400 0000 e407 b63f 7fd8 0d3c
00000080: dc9d 313f 8d82 9c3f 69be 783e f87a 003f
00000090: 4e7d a03e 9c7e e23e 0957 fc3e 61cf 2940
000000a0: 14a5 4f3f aae9 303f 13e3 c53f c67a e23f
000000b0: 8e3d dd3f d1b0 f63e 0400 0000 1e99 c83f
000000c0: 4601 163f 1b23 9e3f e24d 9e3f 47c4 0e3f
000000d0: 6499 873f 68a2 be3d 5b7c 813f f4d0 b83e
000000e0: 264c 8540 2686 183f 5ba6 cc3f 6c4a 4f3f
000000f0: eada 523f 921b 2f3e 5e51 a93f 42e1 7d3c
00000100: 1c19 853f 4f46 093f 5e97 fc3f b720 ba3f
00000110: 5c9e 083f 59d1 b43f 1376 d93e c29b 3940
00000120: 3a0f 8e3e ed07 133f 65c5 c03d 0400 0000
00000130: 7957 b23d 4f75 623f f8d6 6c3f 2273 a53f
00000140: 870d f13f a67e 393f 02a1 553f 51f9 e33d
00000150: 5037 6440 2362 e93e 44d4 ec3e afe6 403f
00000160: c70a 853f a33a af3f e431 a33f 91f5 ed3f
00000170: 3712 0f3e bbc8 993f 0ab8 a23f 9c80 e83e
00000180: db8f 6a3f 7f3a 473e 1c0e bf3e e97e 9b3f
00000190: 6a9c 893f 87d2 263f 2a30 1540 bd82 cf3e
000001a0: e60f 0a40 0400 0000 4855 fb3f ac03 dd3f
000001b0: 45d2 9d3e 1cdb 973f f8a9 4c40 e7e8 7f3d
000001c0: 849e fc29 3119 0640 bfe5 8a3f 3548 8b3e
000001d0: 0400 0000 3e64 093f f88c 093f ad28 f13d
000001e0: ddcf 483f e2bf 5d3f bffa 863f f88a 213f
000001f0: 3350 af3f 172e 2b40 6e2b 7c3d 0400 0000
00000200: 4575 843f b4d4 f23e 6452 993d 2ca3 573f
00000210: 5e68 f83f 62a7 ae3f b767 743f 98fd ca3e
00000220: 7887 c83f f702 a43f 0e80 863f 9a41 dd3e
00000230: 84da f03b 6db2 d83f 312c f23e 5dd4 ab3f
00000240: 9aff dd3f 46cd bb3f fe27 903f 0400 0000
00000250: 1802 963f def2 963e 125e 4b3c 0400 0000
00000260: 2f75 453f e7c3 813f e5d3 2d3f 0400 0000
00000270: a85c f43f 0400 0000 bc76 533f 92cf a53f
00000280: 4657 e93f 51e9 a73f 84ec 2b3e e6d4 1b3f
00000290: 47df 503e c459 473f c0d0 8c3d d7a2 223f
0.25091174 2.5242977 1.7685224 0.70299816 0.27187538 0.32072043 0.45838708 6e-45
0.97348857 0.339376 1.2185177 1.4624895 0.7649577 0.5873261 1.8033773 0.20720442
3.6394566e-05 2.5915318 0.5260724 2.6322422 1.067054 6e-45 0.5743438 0.367026
2.949448 1.4060396 0.13663074 6e-45 6e-45 6e-45 1.4221158 0.008657574
0.693815 1.2227341 0.24291386 0.50187635 0.313456 0.4423722 0.49285153 2.6532824
0.81111264 0.69106543 1.5459923 1.7693717 1.728441 0.48181775 6e-45 1.5671728
0.58595693 1.2354463 1.2367518 0.55768245 1.0593686 0.0930832 1.0116075 0.3609692
4.1655455 0.59579694 1.5988268 0.80972934 0.82365286 0.17100361 1.3227956 0.0154956
1.0398288 0.5362291 1.9733694 1.4541234 0.5336664 1.4126388 0.42472896 2.9001317
0.27745992 0.5743397 0.0941265 6e-45 0.0870809 0.8846025 0.92515516 1.2925761
1.8832253 0.72458875 0.83448803 0.11131538 3.565876 0.45582685 0.46255696 0.75351995
1.0393914 1.368977 1.27496 1.8590566 0.13971792 1.2014383 1.2712414 0.4541062
0.91625756 0.19455908 0.37315452 1.2148105 1.0750859 0.6516499 2.3310647 0.40529433
2.1572204 6e-45 1.9635401 1.7266746 0.30824485 1.1863742 3.197874 0.062477972
1.1218546e-13 2.0952876 1.0851363 0.27203527 6e-45 0.5366858 0.53730726 0.117753364
0.78442174 0.86620915 1.0545272 0.63102674 1.369635 2.674688 0.061564855 6e-45
1.0348288 0.47427905 0.07486418 0.84233356 1.940685 1.3644831 0.95470756 0.39646602
1.5666342 1.2813405 1.0507829 0.43214113 0.007350268 1.6929451 0.4729934 1.3424183
1.7343628 1.467202 1.1262205 6e-45 1.1719389 0.29482168 0.012412565 6e-45
0.7713193 1.013791 0.6790145 6e-45 1.9090776 6e-45 0.8260305 1.295397
1.8229759 1.3118078 0.16789442 0.6087173 0.20397674 0.77871346 0.068757534 0.63529724

model.features.stage1.unit1.dw_conv.conv.weight f4 [168, 1, 3, 3]
00000000: 785f 403f a978 35bf f387 cd3c 3e2a 42be
00000010: 4044 08bf f5e8 fb3e 58a8 a9be 012d ac3e
00000020: dcec f43d a25a c63d b30a f9bd 13f7 c33e
00000030: 09a7 543d 202a 30bc 4dde c33d cd5c 2e3d
00000040: 497d f03e 1efc dc3e cf2a 85bd 6db3 54be
00000050: e291 5ebd 4d0c 90bd 8402 f2bd 59ac 293e
00000060: d7c1 77be 9d96 0bbd e051 a3bd 4ea5 2f3e
00000070: 6f35 323e 568d 873c 532c 10bf c273 1bbe
00000080: 829e 78be 085b 8e3e 1942 4a3e 6d99 843d
00000090: f995 6ebe 01a7 cf3e b25a 183e 64fb eabe
000000a0: eba7 853e 5fcd 0ebe 38fd 6fbd 5213 f13d
000000b0: 6ff9 0ebd 2302 0dbf a7d7 a4be d957 88be
000000c0: ce9e 9abd ca0b a0bd cddb 9b3e 9e05 a2bc
000000d0: e5e9 db3e 4e7d 163f 4b91 82be 1332 e63d
000000e0: 7678 bd3e c251 47bd ae2b 9c3e 62f6 623e
000000f0: b508 babd 9899 d1bd 3e88 88bd efe1 0000
00000100: b3e0 0080 949d 0000 aedb 0000 4110 0100
00000110: d813 0100 7353 0080 f77f 0000 eb95 0080
00000120: 5da3 ca3d 4a49 843e 2a7b 61bd 33f9 c93d
00000130: b2a1 bf3e 943e 1fbe 75f3 313e 7cd6 17bd
00000140: 2ce0 65be aa25 813d 516a dabe dfd2 dcbe
00000150: b300 12be fc17 083e b9c6 f63d 15bd df3b
00000160: 0880 c73e 31db b73e b860 00be 92f7 583e
00000170: 96a6 8e3e 6623 06bf 3b9c ab3d 8beb 2b3b
00000180: 29e2 053e 1d63 6fbe 037d f2bd 2f9b 413e
00000190: 5322 393c 5383 dabc 1ad1 38bc 62e3 f23d
000001a0: d26a 2a3e 1f05 cebd 424e 153e 4510 163e
000001b0: cea2 e03d de15 e53d 0082 963d eb9e 153e
000001c0: e955 4b3d 9402 8d3e 4b2c f6bd 093f 38bd
000001d0: 9c5d 41be b8e7 70be 68a9 c7be 8be8 e4bd
000001e0: b38d 153c ed1b 9bbe c375 933e 1ee4 03bf
000001f0: 8e85 c83e 1cc8 383f d960 05be 605a ad3d
00000200: 48b2 61bc a7d3 023e 1ec8 133e 3091 0a3e
00000210: 74f4 e73d fce5 533d 291f ad3d 4fa1 9a3e
00000220: 33ad 3e3e 30f2 ffbe 2823 85be d68d e33e
00000230: f8ab 803d bf2a e2be c828 6a3d 7bce 6a3e
00000240: 10a8 12ba c77a 09ba 977e 933b e1fe 2439
00000250: ab10 b5b9 0b48 a83b 217d 6e3b a50e 92ba
00000260: 75e6 0ebb 6725 c8bc 0926 953d 37fc cabd
00000270: ece5 bb3d feb9 f9bd 46d7 7fbe cb6f d0be
00000280: 43b3 81be 6908 3ebe 67c1 1abe 5ca3 99be
00000290: 6d0f 163e 162a 793d 7154 593f 4238 f8bd
000002a0: 2b4c 923c f520 b33e d7bb 9abe d4b8 e8bd
000002b0: 4471 89be fe8f e7bd 4328 d2bc e472 9dbe
000002c0: 4ab4 53be 792b 323e 040c 37be 04b0 7f3a
000002d0: bd13 c63d 6a60 193e 764f 72be 49af e73d
000002e0: 9cd7 8b3e cf63 c6be f664 983e 5203 21be
000002f0: 1fed 1ebe 145c 0180 df04 0100 0cbb 0000
00000300: 446a 0080 ccf5 0080 7ec1 0100 6f02 0100
00000310: 750a 0100 7853 0180 c7aa 85bd 9a74 09be
00000320: 5d08 fb3d e859 493e b2ec ba3e 8431 6fba
00000330: a8d4 bd3d d18d 663e 89f2 6b3c e908 533d
00000340: 6047 143f b13a 963d aa22 dbbe 1d23 bb3d
00000350: 1ecd 923e a474 463c 0240 46bf c1f1 133e
00000360: 0d0b bfbb 7cda 833e f50b bf3e a9cd 54bd
00000370: bd9e 943e 72af 80be dd5b ebbe 767d bbbe
00000380: ea02 8b3e 49ff 8bbe 5173 31be ccb3 433c
00000390: 3909 d4bd f767 2abe 1560 83be 58ff 63be
000003a0: e5a4 22bd c9d7 3c3d 40da 813e 65bf ecbe
000003b0: ea51 37bd 9a7d 3f3d 9995 213f b851 9cbe
000003c0: 217b 6ebe 0407 cebe 7196 f83e 9058 0000
000003d0: 213a 0180 c021 0000 fa49 0080 d105 0080
000003e0: 3237 0100 8761 0100 4a15 0000 7cb3 0080
000003f0: 3855 0100 28ff 0000 a021 0180 8c8b 0000
0.75145674 -0.7088724 0.02508924 -0.18961427 -0.5322914 0.4920117 -0.3313625 0.33628085
0.1195924 0.096852556 -0.12160244 0.3827444 0.05191711 -0.010752231 0.09563885 0.04256897
0.46970585 0.431611 -0.06502306 -0.2077157 -0.054338343 -0.07033596 -0.11816886 0.16569652
-0.24195038 -0.034079183 -0.07974601 0.17152902 0.17403196 0.016546886 -0.56317633 -0.15180877
-0.24279216 0.27803826 0.19751777 0.06474576 -0.23299398 0.405571 0.14878348 -0.4589492
0.26104674 -0.1394553 -0.058591098 0.11771263 -0.034905847 -0.55081385 -0.3219578 -0.26629522
-0.07549821 -0.078147486 0.30441132 -0.01977807 0.42951885 0.5878495 -0.25501475 0.1124002
0.37005967 -0.048661955 0.30502075 0.221643 -0.09083692 -0.10234374 -0.06666611 8.105e-41
-8.0607e-41 5.6528e-41 7.8806e-41 9.7666e-41 9.8954e-41 -2.9936e-41 4.5905e-41 -5.378e-41
0.0989444 0.25837165 -0.0550491 0.09861984 0.3742805 -0.15551215 0.17378028 -0.037069783
-0.22448796 0.06306012 -0.42659238 -0.43129632 -0.14258079 0.132904 0.12049622 0.0068279603
0.38964868 0.35909417 -0.12536895 0.2118819 0.2786147 -0.52397764 0.08379408 0.0026232924
0.13074555 -0.23377652 -0.1184025 0.18906854 0.011299687 -0.026673948 -0.011280322 0.11859776
0.16642311 -0.100595705 0.14580634 0.14654644 0.109685525 0.111858115 0.07349014 0.14611404
0.049642477 0.2754103 -0.12020167 -0.04498199 -0.18883365 -0.23525894 -0.38996434 -0.111771666
0.009128022 -0.30294743 0.28800783 -0.51519954 0.39164394 0.7218034 -0.13025226 0.08464503
-0.013775416 0.12776051 0.14431807 0.13531947 0.113259226 0.051733002 0.08453209 0.30201194
0.18620758 -0.49989462 -0.26003385 0.4444415 0.062828004 -0.44173238 0.0571678 0.22930329
-0.0005594501 -0.00052444305 0.0045011747 0.00015735209 -0.0003453543 0.0051355413 0.00363905 -0.001114328
-0.0021804844 -0.024431897 0.07282645 -0.099113874 0.091747135 -0.12193678 -0.24984464 -0.4071029
-0.25332078 -0.18557896 -0.1511284 -0.30007446 0.14654322 0.060831152 0.8489447 -0.12120105
0.017858585 0.34986082 -0.30221435 -0.11363378 -0.26844227 -0.11306761 -0.025653964 -0.30751717
-0.20674244 0.17399396 -0.17875677 0.00097537064 0.096717335 0.14978185 -0.23663124 0.1131273
0.27312934 -0.38748023 0.29764527 -0.15723923 -0.15520142 -1.24867e-40 9.3583e-41 6.71e-41
-3.8121e-41 -8.8175e-41 1.61247e-40 9.2709e-41 9.5587e-41 -1.21778e-40 -0.06526714 -0.13423386
0.122574545 0.19663203 0.3650871 -0.0009124505 0.092690766 0.22515036 0.014401087 0.05152217
0.5792141 0.07335413 -0.42799884 0.09137557 0.28672117 0.01211277 -0.7744142 0.1444769
-0.005830175 0.25752628 0.3731381 -0.051953945 0.29027358 -0.25133854 -0.45968524 -0.36619157
0.2715066 -0.27343205 -0.17329146 0.011944722 -0.103533216 -0.16641222 -0.25659242 -0.22265375
-0.039708037 0.046104226 0.25361824 -0.46239772 -0.044755854 0.046750642 0.6311889 -0.30531096
-0.23289157 -0.40239727 0.48552278 3.177e-41 -1.12688e-40 1.2107e-41 -2.6538e-41 -2.087e-42
1.11636e-40 1.26822e-40 7.637e-42 -6.4387e-41 1.22406e-40 9.1533e-41 -1.03898e-40 5.006e-41

model.features.stage1.unit1.dw_conv.bn.weight f4 [168]
00000000: 3356 853f 4a39 453f 140f f93e 3d6f 3d3f
00000010: cba8 ed3e d376 403f 9475 e83e fde8 0000
00000020: 6b17 043f c93f 213f e2f4 f53e 0b4f cb3e
00000030: f5a7 b83e 2073 3c3f 724c c93e 7d63 413f
00000040: 11c1 5a3c a826 793f 7021 403f b590 643f
00000050: 8973 e83e 28e3 0000 b94f 143f 515a 743f
00000060: 35c7 cd3e a123 2a3f 8b77 433f d703 0180
00000070: 364f 0100 2c76 0000 efc8 da3e 6056 853d
00000080: 20c1 963e 5436 ed3e 5f9b 623e 8ea3 d23e
00000090: 770c 343f 0fbc 593f 5cf3 0a3f 72f4 553f
000000a0: 113d 603f 919f 133f 680f b63e 8b0d 063f
000000b0: 862a 273f c768 913f d50a 0100 100f 013f
000000c0: 3cb6 823e fd98 0b3f 3ae3 f33e d077 653f
000000d0: ea5b 193f 1aaa 3c3f 09c7 973f 818e 353f
000000e0: 48e8 343f 3ba1 053f 9c58 1e3f 9aae 9d3f
000000f0: 9f25 d03e c53a 093f 97e8 d53e 3cab ca3d
00000100: 2947 a73e d9bf 4e3f 50d9 ca3e 870f b63e
00000110: deb4 c33e dbf8 bb3e d4ac 8c3e 7f65 cb3e
00000120: a7c4 823f c453 483f 0080 d53e 0486 0080
00000130: b370 553f 4993 d23e 1eaa 033f 5644 e03e
00000140: 0a44 0f3f 5fdb 673f 392f 0b3f 8c61 de3e
00000150: 464f f73e 775b e33e ba58 5e3f 81e6 2d3f
00000160: b18e e73e 9528 d93e d05a fc3e 13f8 be3e
00000170: cce8 513f 75f2 173f 9670 133f d033 883f
00000180: 31c8 683f 8e47 223f f6f7 383f d308 373f
00000190: e2d9 233f 9aad b13e 4991 433f a3ab 4a3f
000001a0: cf56 a03e bf60 0000 8a7b 093f e8ad 2b3f
000001b0: 95c5 db3e df70 c13e d293 f43e 783d 613f
000001c0: 896d be39 a432 123f 6fd3 fb3e f35a df3e
000001d0: c649 0080 73ab 583f 92fd 343f 4602 343f
000001e0: 1424 ae3e ad7f 353f 5f0f b53e 5972 153f
000001f0: b585 653f cbc6 e13e c3fd 3a3f b887 0100
00000200: 6ce8 123f 464c 093f 54a8 2c3f 321b 953e
00000210: 10fa c13e 7371 d23e 4113 ca3e 147d 663f
00000220: ffb7 343f 0a9c bb3e a357 1a3f c499 103f
00000230: 7114 8f3d 9813 c83e 193e de3e 76b4 0a3f
00000240: 1403 793f 59c6 c43e c6a1 0d3f fc03 0180
00000250: 1be8 fa3e 9549 283f f9fc 8f3e b5de 661c
00000260: 6ca6 143f b082 c63e cfe8 bd3f 7eb5 0080
00000270: 7064 fb3e d967 ba32 e377 413f a584 cf3e
00000280: 36c9 ef3e a1f6 183f 7ed3 bc3e cf06 b63e
00000290: c789 023f 9e06 d73f 1d26 1b3e 9d47 b33e
1.0416931 0.7704054 0.48644316 0.7399786 0.4641784 0.7518131 0.45402205 8.358e-41
0.51598233 0.62987953 0.48038393 0.39708742 0.3606564 0.73613167 0.39316136 0.7554243
0.013351695 0.9732461 0.7505102 0.89283305 0.45400646 8.1488e-41 0.5793415 0.9545031
0.40191045 0.66460615 0.76354283 -9.3213e-41 1.20251e-40 4.2392e-41 0.42731425 0.06510615
0.29444218 0.46330512 0.22129582 0.41140407 0.7033152 0.8505258 0.54277587 0.8357612
0.8759318 0.57665354 0.3555863 0.52364415 0.6529926 1.13601 9.5721e-41 0.5041361
0.2552966 0.54530317 0.47634298 0.89635944 0.59905875 0.73697054 1.1857616 0.7092057
0.70666933 0.52199143 0.6185396 1.2318909 0.40653703 0.536053 0.41779014 0.098959416
0.32671478 0.80761486 0.3961892 0.3555872 0.38223928 0.367133 0.27475607 0.39725873
1.0216264 0.78252816 0.4169922 -4.8076e-41 0.8337509 0.41127995 0.51431453 0.43802136
0.55963194 0.9056911 0.5436893 0.43433797 0.48302668 0.4440572 0.86854136 0.67929846
0.45226052 0.42413774 0.49288034 0.3729864 0.81995845 0.59354335 0.5759367 1.0640812
0.9093047 0.63390434 0.7225336 0.7149784 0.6400434 0.3470276 0.7639356 0.79168147
0.3131623 3.4706e-41 0.5370413 0.67062235 0.4292418 0.37781426 0.47769028 0.8798442
0.00036321234 0.5710852 0.4918475 0.43624076 -2.6465e-41 0.8463661 0.7069942 0.7031597
0.340119 0.7089794 0.3536329 0.58377606 0.89657146 0.4409698 0.7304346 1.40522e-40
0.573859 0.5363201 0.6744435 0.2912231 0.37886095 0.4110218 0.39467815 0.90034604
0.70593256 0.36642486 0.60289973 0.5648463 0.06986321 0.3907745 0.43406752 0.5418161
0.9727032 0.38432577 0.5532497 -9.3265e-41 0.49005207 0.6573728 0.2812269 7.638846e-22
0.5806644 0.38771582 1.4836673 -6.5107e-41 0.49100065 2.1700474e-08 0.7557356 0.40530887
0.468332 0.59751326 0.36880106 0.3555207 0.5099148 1.6798894 0.15151258 0.35015574

model.features.stage1.unit1.dw_conv.bn.bias f4 [168]
00000000: 763d a0bd ded6 363e 5cbc 6e3d b6cd 2b3d
00000010: b718 54bb 5818 313e 00d5 2b3e 66d6 2780
00000020: 787c 883e e61a aa3d ea74 2a3c bbae cebd
00000030: d909 9bbd ef9e b83d 6f9b 4ebe 755d 6f3d
00000040: 386d 06bc 7e2c 3d3e 681a 893e f898 973e
00000050: fd43 3fbc 4c0a 4980 f7ba 353e 98cd 96bc
00000060: f0b8 39bd ac04 b03d 09aa 2abc dcda 8180
00000070: 3994 4c00 6984 8080 8d68 08be f741 53bd
00000080: be92 2dbd 2b5d c739 0e9f 0fbe 1348 e63b
00000090: 7c4f 36bd 0c3f e03e e8e6 91bd e041 363e
000000a0: 2e6c aebd 8582 78bd 7994 393d 2097 f53d
000000b0: 4b58 9a3d 7879 26be e60b cc80 1bf5 5e3e
000000c0: 6a82 87be f549 cfbd 8035 d03d cbbb 90bd
000000d0: 2fcb 083e ca74 c5bc cba3 49bc e2fe dcbc
000000e0: adde f5bc 632f 12be 95aa 773e 9291 83bd
000000f0: 26e3 9ebd bcaa fe3c 3400 08bd a8d1 c1bd
00000100: e207 533d 1910 efbc 0cbb 02bd fbe1 f7bb
00000110: f9f9 3d3c a282 40be d131 85bd aef6 043e
00000120: 02a9 aebc a04a eebd b90f 28bd e9f3 8701
00000130: 2eaf 9fbc 542d 0dbe bdd1 f63d 2e1c 7f3b
00000140: 9d64 02be 6737 283f ede4 4fbd fc43 903c
00000150: 3f97 bebb 7273 23bd ea8f 963b 1e8f 05bd
00000160: 9e61 4abd d5ee 0b3d efbf ad3d d87e 9ebb
00000170: b7fd 01be 1d86 e0bc 6002 353d bfc3 c83d
00000180: 894f c53d 034f 433b 1e91 1b3d e8e7 bd3d
00000190: 75f2 453d f012 513b bc81 4d3d e3bb abbd
000001a0: 14fa 78be d87f b380 ea63 b03d d8a1 b93d
000001b0: eb33 7dbd 9026 f2bd f3aa 8dbe 2935 18bd
000001c0: 882d 39b7 2451 b9ba 6aa7 c93d 065c ea39
000001d0: b460 8280 1539 8a3a 17aa b8bd 14de 6d3d
000001e0: 828b 443d 830f b7bd 747d 7f3b 3f17 87bd
000001f0: 3f66 3abd f891 0dbe 71f1 08bd e1f8 7201
00000200: 8e96 01be 0c2f 91bd 66e9 c9bc d052 9abd
00000210: 1f41 75bd 1445 a23c c1bf 85bc 82d1 86bd
00000220: 7bde 9c3d 755b 64be d4ce ca3b 446f 9dbc
00000230: 2ca0 41bd 0e58 d53d f69a 10bc d605 06bd
00000240: ffdc 873e 74dc 653d 9924 41bd ff00 3880
00000250: 9d09 3cbd e611 053d c590 febd 37e6 d2a4
00000260: 5656 81bb fc01 f4bd fcb0 99bd af9e 0c02
00000270: b041 733e adee 7eaa 515d d03b 87ca 04bd
00000280: 29a7 2dbe 6268 f53d 2580 cfbd f458 0bbe
00000290: 03c2 1bbc 6320 71be cd01 9abd 2ae7 cabd
-0.07824223 0.17855403 0.058285102 0.041944228 -0.0032363364 0.17294443 0.16780472 -3.658496e-39
0.26657462 0.08305912 0.010403851 -0.10091921 -0.07570238 0.09014689 -0.2017648 0.058438737
-0.008204751 0.18474004 0.2677796 0.29608893 -0.0116739245 -6.707685e-39 0.17747103 -0.018408582
-0.045342386 0.08594641 -0.010416516 -1.1925291e-38 7.03267e-39 -1.1802443e-38 -0.13321133 -0.05157658
-0.042376272 0.00038025653 -0.14025518 0.007027635 -0.044509396 0.437981 -0.0712412 0.17798567
-0.085167274 -0.060671348 0.04530761 0.119917154 0.07536372 -0.16257274 -1.873871e-38 0.21773188
-0.26466686 -0.10121528 0.10166454 -0.07067069 0.13358758 -0.02410354 -0.012307118 -0.026977006
-0.030013407 -0.14275889 0.24186166 -0.0642425 -0.07758169 0.031087272 -0.03320332 -0.09463817
0.05152119 -0.02918248 -0.031916663 -0.007564781 0.011595243 -0.18799832 -0.06503642 0.12984726
-0.021320824 -0.11635327 -0.04103062 4.994116e-38 -0.019492712 -0.13786823 0.12051723 0.0038926709
-0.12733693 0.6570954 -0.05075543 0.017610542 -0.00581637 -0.03990502 0.0045947926 -0.03260719
-0.0494095 0.034163315 0.08483874 -0.0048368983 -0.12694441 -0.0274077 0.044191718 0.098029606
0.09634311 0.0029801733 0.03798019 0.09272748 0.04832693 0.0031902157 0.050172552 -0.08385446
-0.24314147 -1.6484416e-38 0.08612807 0.09064072 -0.06181709 -0.118237615 -0.27669486 -0.037160072
-1.103746e-05 -0.0014138562 0.09846385 0.0004470052 -1.1973305e-38 0.0010545576 -0.09016817 0.05807312
0.047984608 -0.089385055 0.0038984688 -0.06596231 -0.045507666 -0.13825214 -0.03343338 4.4626942e-38
-0.12655088 -0.070890516 -0.024647426 -0.075353265 -0.059876557 0.01980833 -0.016326787 -0.06582929
0.07659622 -0.22300513 0.0061892066 -0.019218095 -0.047271892 0.10417186 -0.008826008 -0.03272041
0.26535794 0.056118444 -0.047154043 -5.143145e-39 -0.045907605 0.032487772 -0.12429956 -9.146298e-17
-0.0039470596 -0.11914441 -0.0750446 1.0331116e-37 0.23755527 -2.2642539e-13 0.0063587804 -0.032419708
-0.16958298 0.119828 -0.101318635 -0.13608152 -0.009506705 -0.23547511 -0.07519875 -0.09907372

model.features.stage1.unit1.dw_conv.bn.running_mean f4 [168]
00000000: ea75 9ebc 1abf 813e 448c 60bd c80e a4bb
00000010: 98d4 2d3b b28f ce3c 6b5e 543d 0400 0080
00000020: 16fc 9f3d d36c 1b3d a2eb d1bc 4e20 ba3d
00000030: e6ee c139 f7c3 18bc 5d11 363d 635c 0a3d
00000040: 8bef 5938 6e9f f1bd 5684 d23d f325 e4bd
00000050: ae8d 8f3a 0400 0000 4ea5 0e3e 3189 a93b
00000060: 1172 c53b 8fc8 f9bd 7d8f b8bb 0400 0000
00000070: 0400 0000 0400 0000 3ae9 753d 020e 0aba
00000080: a7eb a13c 1273 0bbb 08b4 1abb 8303 883d
00000090: 5f96 09bc 77d9 b33d fa76 cb3c bac3 bfbd
000000a0: c933 b1bc 0913 0abc 446e f3bb 0cd5 0cbd
000000b0: c972 c1bb d59f f4bc 0400 0000 310c 523d
000000c0: e7fc 023d 973c d7bc b7ab 34bd e936 77bc
000000d0: 408f ae3c d5b7 253b 52f5 90bc 4b98 a2bb
000000e0: 2dbd 8dbb f7ee a6bc 177e c73d d628 81bc
000000f0: 8669 12bc 7dd6 3a3c f0bf 3bbd f68d 0a3a
00000100: 6a7a a43a a3a5 2fbc c46f 6d3c 7ef0 8a3d
00000110: 986b d33b a980 033c 479a 91ba f707 c6bb
00000120: 6d1e d4bb d79b 36bd 3bdf e23b 0400 0000
00000130: c327 883a 4d33 d43c 8e8e 1ebd 50c6 bc3d
00000140: 43f0 553c cbe0 e2bd 50d3 cdbc e08e 553c
00000150: fd11 4d3c 2e17 0ebc 930c 6f3c fe48 dfbc
00000160: 2231 6fbb 13fe 63bb f0ad 1cbd 6619 4f3c
00000170: 463b 00bd 6e66 9dbb 8fd1 d8bc 4bcc 9f3c
00000180: 9560 013d ce4b 01bc 758c 94bc f5fd d7bc
00000190: ee76 38bc 4d1c 773b 89f2 803e 5038 c8bb
000001a0: dfaa d83a 0400 0080 b004 283e 2a89 c8bd
000001b0: 7165 9ebb a723 413b 9160 1a3c cdef 77bc
000001c0: 0400 0000 158e febd 7d13 9cbb f6b6 f4bb
000001d0: 0400 0000 2fae 14bd 79b8 10bd fa30 1f3b
000001e0: ad7f f2bb 9f81 3cbc 6bf8 99bc fc6f 6dbb
000001f0: 436d 3dbc 1352 5a3c 8975 7bbc 0400 0000
00000200: ac66 babc 1298 24bd f64f 843c 7cd0 183a
00000210: d35d 043d 926a e73a 1e1b 00bc 41bb bfbd
00000220: 01ff b43c 61a7 d23d e05d 153d 8c83 20bd
00000230: 15a4 8eb9 dee8 48bb d1ce bb3a c957 a13d
00000240: d529 35be a09f 0cbd 33a3 acbc 0400 0080
00000250: c73b 5cbd 5f31 e439 90e8 4839 0400 0000
00000260: 1462 2e3c 0b86 a2bc ffcb 1ebc 0400 0080
00000270: c2bb 553d 0e00 0000 3de7 aabc 4cda b93c
00000280: 753b d13d 28d6 843c 232a 9abc 1d05 0d3b
00000290: 54a5 78bc 7177 77bd 5f2d 61bb 00e5 be3a
-0.019343335 0.2534111 -0.054821268 -0.005006645 0.002652442 0.025215004 0.051847856 -6e-45
0.078117535 0.03794558 -0.025625054 0.09088193 0.00036989822 -0.009324065 0.044450153 0.033779513
5.1959923e-05 -0.11797987 0.10279147 -0.11140051 0.0010952258 6e-45 0.13930246 0.005173825
0.0060255607 -0.12196457 -0.0056323395 6e-45 6e-45 6e-45 0.060036875 -0.00052663696
0.019765688 -0.0021278304 -0.0023605842 0.06641295 -0.008397668 0.087817125 0.024837006 -0.09363504
-0.021631138 -0.00842739 -0.007428916 -0.034382865 -0.005903576 -0.02986137 6e-45 0.051281158
0.031979468 -0.026274009 -0.044109073 -0.015088775 0.021308541 0.0025286574 -0.017695103 -0.0049620024
-0.00432553 -0.02037762 0.097408466 -0.015766542 -0.008936292 0.011403677 -0.045837343 0.0005285436
0.0012548689 -0.010720643 0.014491979 0.067841515 0.006452035 0.00802628 -0.00111086 -0.00604343
-0.0064733536 -0.044582214 0.006923584 6e-45 0.0010387826 0.025903368 -0.03871017 0.092175126
0.013057771 -0.11078032 -0.025125176 0.013034552 0.012516496 -0.008672519 0.0145904 -0.027256485
-0.0036497791 -0.0034788891 -0.038251817 0.012640333 -0.031306528 -0.0048034703 -0.026467113 0.019506594
0.03158625 -0.007891608 -0.018133381 -0.026366213 -0.011258824 0.0037706078 0.2518504 -0.0061102286
0.0016530416 -6e-45 0.16408038 -0.09791787 -0.00483387 0.0029470713 0.009422437 -0.015132857
6e-45 -0.12429444 -0.0047630654 -0.0074680997 6e-45 -0.036298927 -0.035332177 0.0024290667
-0.007400474 -0.011505513 -0.018795213 -0.0036230078 -0.011561695 0.013325232 -0.015347847 6e-45
-0.022754036 -0.040184088 0.01615141 0.00058294064 0.03231604 0.0017655662 -0.007818965 -0.09361888
0.022094252 0.10285831 0.03646648 -0.039187953 -0.000272066 -0.0030656378 0.0014328604 0.07878072
-0.17691739 -0.034331918 -0.021073913 -6e-45 -0.053767946 0.00043524333 0.00019160123 6e-45
0.010643501 -0.019839307 -0.009692191 -6e-45 0.052181013 2e-44 -0.020862216 0.0226871
0.10216419 0.016215399 -0.01881892 0.002151794 -0.015176136 -0.060416643 -0.0034359319 0.0014564097

model.features.stage1.unit1.dw_conv.bn.running_var f4 [168]
00000000: 5e61 2d3d 5fd6 f33c 5d04 d63b 6b32 c63c
00000010: 0343 bc3b f7e2 073d c9f3 f23b 0400 0000
00000020: 687c 8b3c 687e 113d e2de a83b c0df 6e3b
00000030: 1f81 b339 7c32 b43c fbd9 4a3b 64ec 553c
00000040: 0ac7 3631 ce91 f83c cdd7 623c f223 113d
00000050: 7e5f 0a3b 0400 0000 e155 023c 9455 1e3c
00000060: 879f 8a3b f094 cb3c dc32 c33c 0400 0000
00000070: 0400 0000 0400 0000 2350 223b 0155 8235
00000080: 73e9 1d3b 0790 203b bb09 1339 69aa a83b
00000090: 401e 9a3c fcc7 e23c 2730 783b 562e a83c
000000a0: 9643 323d c6ae 363c 0b80 153b 04ef 983b
000000b0: e389 b93b e7ad ec3c 0400 0000 3278 103c
000000c0: 543a 953a ce36 b83c bb7b 793c a1b6 b33c
000000d0: 9c59 e53b b97a bd3b f970 863d fb9c 843c
000000e0: 0be1 333c 3c6a 0c3c d98e c83b 2c11 1d3d
000000f0: 4130 823b 3217 c33c db7b 3c3b 69d6 5e37
00000100: 6038 303b 1fa8 a83c 7518 aa3b 52bf bf3b
00000110: 672c 193a 1ef0 9439 210e 0f3b 8ada b73a
00000120: 6f8b bd3b b31a a43c 8caf 9d3b 0400 0000
00000130: ee3a 543c cddb 063b 8d6c 4a3c 3d76 213c
00000140: a2b9 713b 9b42 d73c 6c83 ab3c 1505 ca3b
00000150: 4e7b c53b 255c 773c 1404 8c3c 565b 493c
00000160: b297 e53b 6bc7 8f3b c663 323c fa7c 1e3b
00000170: d473 6b3c 6e7e 6e3c 6fb1 533c aed6 a53d
00000180: fc36 963d 4b71 e43c 376d aa3c 33f8 d33c
00000190: a1eb 343d 86e2 1e3c 3c86 bd3c e1dc d83c
000001a0: 0bf9 1738 0400 0000 e751 413c 5d4a 233d
000001b0: 8977 283b 41e4 823a 7406 eb39 9b32 233d
000001c0: 0400 0000 baa2 4f3c 2cb7 8d3b c559 333c
000001d0: 0400 0000 b5e3 613d 9325 8e3c 81ab 8e3c
000001e0: 9a3b 0c3c 75e0 bf3b 85fa 143b 4641 bb3c
000001f0: b6da 553d de6c f73a 2183 953c 0400 0000
00000200: 60f3 453c 745c 973c 14b8 a53c 2165 cb3a
00000210: 6a4b 4c3b 10c9 5f3a 242e 0e3c f5ff d03c
00000220: 55cc 803c 2e17 753b e485 5a3c bb79 733c
00000230: 6097 9b35 c686 a63b ba1b 663b ebf1 c23b
00000240: ccde 043d 38be 493b ee50 fd3b 0400 0000
00000250: e8d0 993b db5c b73b 5bdc 2d36 0400 0000
00000260: 136a 513c 331f d83a 6bf1 c73d 0400 0000
00000270: ab14 5a3c 0400 0000 4440 0c3c b462 413b
00000280: b74b f03b 2637 1a3c 9261 253b e39e a23b
00000290: 9bea 5f3c 7502 333e 6fe4 5f39 0104 723a
0.042329185 0.029765306 0.006531282 0.024193963 0.005745293 0.033175435 0.0074143154 6e-45
0.017027095 0.03552094 0.005153523 0.0036449283 0.00034237743 0.02199673 0.003095268 0.013056848
2.6597626e-09 0.030342963 0.013845396 0.03543467 0.0021114047 6e-45 0.007955045 0.009663958
0.004230443 0.024851292 0.023827963 6e-45 6e-45 6e-45 0.0024767003 9.710494e-07
0.0024095445 0.002449991 0.00014022637 0.0051472676 0.018813252 0.02768325 0.0037870498 0.020529907
0.043521486 0.011150068 0.0022811915 0.0046671648 0.0056621893 0.028891517 6e-45 0.008817719
0.0011385181 0.02248707 0.015227254 0.02193767 0.0069992077 0.005782452 0.065645166 0.016188135
0.010978947 0.00857025 0.0061205444 0.038346455 0.0039730375 0.023814771 0.0028760347 1.3282152e-05
0.002688907 0.020587979 0.005190904 0.0058516646 0.0005843103 0.0002840766 0.002182849 0.0014026922
0.005784444 0.020032262 0.0048121866 6e-45 0.012953503 0.0020577789 0.012354982 0.00985485
0.0036884327 0.026276877 0.02093669 0.0061651566 0.006026662 0.015097653 0.017091788 0.012289843
0.007006609 0.004387786 0.010888046 0.0024183379 0.014370877 0.01455651 0.012920721 0.080975875
0.07334706 0.027886054 0.02080403 0.025875187 0.044170026 0.009697562 0.023135297 0.02647251
3.6233145e-05 6e-45 0.011799312 0.03986584 0.0025706014 0.0009986238 0.000448275 0.039843183
6e-45 0.012673074 0.0043248143 0.010946696 6e-45 0.0551488 0.017351901 0.017415764
0.008559132 0.005855615 0.002273233 0.022858273 0.052210532 0.001887705 0.018251004 6e-45
0.012081951 0.018476702 0.020229377 0.001551781 0.003117288 0.00085367355 0.008677993 0.025512675
0.015722433 0.003739785 0.013337586 0.014860566 1.1592456e-06 0.005081984 0.003511174 0.005949249
0.03243904 0.0030783545 0.007730595 6e-45 0.004694093 0.005595786 2.5907273e-06 6e-45
0.012781638 0.001648879 0.09762844 6e-45 0.013310592 6e-45 0.008560244 0.0029508295
0.0073332447 0.0094125625 0.0025235158 0.0049627884 0.013666774 0.17481406 0.00021352035 0.0009232164
