yono_compression/yono/data/saved_model/MicroNet-AD-I-ch168-s21_pamap2_adam_multistep_nomixup.pt (torch, 827135 bytes, 57 tensors)

model.features.init_block.conv.weight f4 [168, 1, 3, 3]
0	0x3e45a68c	0.19301814
1	0xbda32803	-0.07966616
2	0xbd51c42c	-0.051212475
3	0x3e1d8565	0.15382917
4	0xbe9ed5f7	-0.31022617
5	0x3e4cc532	0.19997099
6	0xbdab46f9	-0.08363146
7	0x3e1e004b	0.154298
8	0x3d89fe40	0.067379475
9	0xbd936b99	-0.07198257
10	0x3dbc261c	0.09186956
11	0x3cebe927	0.0287977
12	0x3e1ef115	0.15521653
13	0xbdfe64c3	-0.124215625
14	0xbd0aec55	-0.03391679
15	0xbdabea74	-0.08394328
16	0x3d17c0b6	0.037049018
17	0x3a4a20dd	0.00077105855
18	0x3e8a50b1	0.27014688
19	0x3df4bfbc	0.11950633
20	0xbde633b1	-0.11240328
21	0xbe36a635	-0.1783684
22	0xbd304e58	-0.043043464
23	0xbe048f6b	-0.12945335
24	0xbdefdeca	-0.117124155
25	0x3d17d8c6	0.037071966
26	0x3e798675	0.24367698
27	0x3e201046	0.15631208
28	0xbe99f07c	-0.30066288
29	0x3e5554ca	0.20833126
30	0x3df03fc2	0.11730911
31	0x3e768ad5	0.24076398
32	0x3e5fd902	0.21860126
33	0xbe98f962	-0.29877764
34	0xbe9bf0a2	-0.30457026
35	0xbe26e9a4	-0.16300064
36	0x3e9294ae	0.2862906
37	0x3c4f73b4	0.012661863
38	0x3e016358	0.12635553
39	0xbe3fad51	-0.18718459
40	0x3eaf305d	0.34216586
41	0xbdc13ad1	-0.094350465
42	0x3e3595fd	0.17732997
43	0x3d8f67c5	0.07002214
44	0xbdfd964a	-0.12382181
45	0x3e5908a6	0.21194705
46	0xbe5afaa8	-0.2138468
47	0x3da93070	0.08261192
48	0xbd3ba3eb	-0.04581062
49	0xbd34f07a	-0.04417465
50	0xbe8ef0d4	-0.27918112
51	0xbdd55baf	-0.10417878
52	0x3e384c0d	0.17997761
53	0xbd80ffb2	-0.0629877
54	0x3e903446	0.2816488
55	0x3e603ad3	0.2189744
56	0xbd832a59	-0.064045615
57	0xbe5d74fa	-0.21626654
58	0x3e80d093	0.2515913
59	0x3d8c582a	0.068527535
60	0xbe42cf79	-0.19024457
61	0x3e631ae4	0.22178227
62	0x3e332eb7	0.17498289
63	0x3e81486e	0.25250572
64	0xbe36b95d	-0.17844148
65	0xbd420b71	-0.047374193
66	0x3c8bdb00	0.0170722
67	0x3d6a58ca	0.057213582
68	0xbe794964	-0.24344403
69	0xbe707590	-0.23482347
70	0x3e4a96cc	0.19784087
71	0xbde6b726	-0.112654015
72	0x3e1f2de1	0.15544845
73	0x3da7ee03	0.08199694
74	0x3e0dd919	0.13852347
75	0x3d7f3146	0.06230285
76	0x3e350a8b	0.17679803
77	0x3e55c7ae	0.20876953
78	0xbe853aa0	-0.2602129
79	0x3e2d1874	0.1690386
80	0xbe4dd74d	-0.20101662
81	0xbe4bb394	-0.19892722
82	0xbccd737f	-0.025079487
83	0xbc94a55e	-0.01814526
84	0x3e4aa01f	0.19787644
85	0xbe4a5ec7	-0.19762717
86	0xbe90c3bc	-0.28274333
87	0x3e925668	0.28581548
88	0xbdb6617c	-0.089053124
89	0x3e059885	0.13046463
90	0x3e19ccbd	0.15019508
91	0xbe811caf	-0.25217196
92	0x3d87fb9c	0.066397876
93	0x3e0a73b3	0.13520698
94	0xbe7f1fa8	-0.2491442
95	0xbdca0c07	-0.09865575
96	0x3dcf7d3b	0.10131308
97	0x3cbff140	0.023430467
98	0xbdb64ef6	-0.08901779
99	0xbda4837f	-0.080328934
100	0x3e9ac989	0.30231884
101	0xbd81b457	-0.06333225
102	0x3e46a7b4	0.19399911
103	0x3e32d156	0.17462668
104	0xbe25d17d	-0.16193195
105	0xbe708d96	-0.23491511
106	0x3e9b14b4	0.30289233
107	0x3a83e559	0.0010062858
108	0x3e1ae05f	0.15124653
109	0x3dda15f3	0.10648718
110	0x3d8601d6	0.06543319
111	0x3e66ef5c	0.22552246
112	0x3e945c3f	0.28976628
113	0xbe6b91f1	-0.23004891
114	0x3d3f184e	0.046654038
115	0x3e8a806b	0.270511
116	0x3e5642be	0.20923898
117	0x3e2647aa	0.16238275
118	0xbe9160dc	-0.2839421
119	0xbe683152	-0.22675064
120	0xbe47f7ef	-0.19528173
121	0xbc6729d7	-0.0141090965
122	0x3e8e19b1	0.27753976
123	0xbe5b81bc	-0.21436208
124	0x3e3d27c1	0.18472196
125	0xbe53ac59	-0.20671214
126	0xbe7e82d3	-0.24854593
127	0xbd6d6dd0	-0.057966053
128	0x3e3c9da9	0.18419518
129	0x3ebbfab0	0.36714697
130	0xbe029f6f	-0.12756132
131	0x3db36f3b	0.0876145
132	0x3e6e0f6e	0.23248073
133	0x3e2b7250	0.16742826
134	0x3e4477db	0.19186346
135	0x3e44169c	0.1914925
136	0x3e27a145	0.16370113
137	0x3d5e2c91	0.05424172
138	0xbe7b47ad	-0.24539061
139	0xbea65558	-0.32486987
140	0xbe0b9186	-0.13629732
141	0xbd96ba90	-0.07359803
142	0xbe45c88e	-0.19314787
143	0x3db406c5	0.08790354
144	0x3da3cb99	0.079978175
145	0xbd65aff9	-0.056076024
146	0x3e015845	0.12631328
147	0x3d8dee43	0.069302104
148	0x3e69abec	0.22819489
149	0x3e45a770	0.19302154
150	0xbde9fc08	-0.11425024
151	0x3ea0ef0d	0.3143238
152	0xbcd4632b	-0.025926193
153	0x3cea5fc7	0.028610123
154	0xbe6e90b1	-0.23297383
155	0xbe2a8dd7	-0.1665567
156	0xbe28bbe7	-0.16477929
157	0xbe4e6cf4	-0.2015875
158	0x3e7f881e	0.24954268
159	0xbd9701bc	-0.07373378
160	0xbe5ef592	-0.21773365
161	0x3e1a250f	0.15053199
162	0x3df8656c	0.1212872
163	0x3e60fb19	0.21970786
164	0xbe2e8df3	-0.17046337
165	0x3d6914df	0.05690467
166	0xbdbdcbe3	-0.09267404
167	0xbe07e306	-0.13270196
168	0xbe665ce9	-0.2249638
169	0xbe074485	-0.13209732
170	0xbe25a392	-0.16175678
171	0x3e01184b	0.12606923
172	0x3db727ac	0.08943114
173	0x3da9d7fa	0.082931474
174	0x3ea65221	0.32484534
175	0x3e802edd	0.25035754
176	0x3e3758b8	0.17904937
177	0x3d7a35a0	0.061086297
178	0xbe7d0c46	-0.24711713
179	0x3e3d2eca	0.1847488
180	0xbd19b301	-0.037524227
181	0xbd04ea30	-0.0324499
182	0xbe889534	-0.26676333
183	0xbca5ffe5	-0.020263622
184	0xbe5b0890	-0.21389985
185	0x3e968e61	0.294055
186	0xbe830670	-0.2559085
187	0xbe55727f	-0.20844458
188	0xbc84bf1c	-0.01620441
189	0xbe38c3a0	-0.18043375
190	0x3e04725b	0.12934248
191	0xbdba52a6	-0.09097795
192	0xbde82dae	-0.11336838
193	0x3d6a6f1b	0.057234865
194	0x3e698380	0.2280407
195	0xbe34ab99	-0.17643584
196	0x3e307782	0.17233089
197	0x3e5f4baf	0.21806215
198	0x3e8f69fe	0.28010553
199	0xbe42d742	-0.19027427
200	0x3df07289	0.11740596
201	0xbe9d1337	-0.30678722
202	0x3e906a18	0.28205943
203	0xbddca84b	-0.10774287
204	0x3e242fc7	0.1603385
205	0x3d4fcb6b	0.050731104
206	0x3c9180aa	0.017761547
207	0xbc48fe63	-0.012267682
208	0x3d97eefe	0.07418631
209	0x3e38187d	0.17978092
210	0x3d57e255	0.05270608
211	0x3da2026b	0.079106174
212	0xbe76bc9f	-0.2409539
213	0x3e2ee12a	0.17078081
214	0x3e9032ef	0.2816386
215	0x3e8e3889	0.27777508
216	0x3e7cf235	0.2470177
217	0xbe558d80	-0.20854759
218	0xbda55f34	-0.08074799
219	0x3ea13873	0.3148838
220	0xbe68a834	-0.22720414
221	0x3e8b9212	0.2725988
222	0xbe478e74	-0.19487935
223	0xbe477def	-0.19481634
224	0x3e0a6b1a	0.13517419
225	0xbe81defa	-0.2536543
226	0x3d637a66	0.05553665
227	0x3e7b60c2	0.24548629
228	0x3e665560	0.22493505
229	0x3ea32fd3	0.31872424
230	0xbd2f5c2f	-0.042812523
231	0xbe54ea8a	-0.20792595
232	0x3ea34a5d	0.31892672
233	0xbd4074eb	-0.0469865
234	0xbe166ab4	-0.14689142
235	0x3dc4e318	0.09613627
236	0xbe7da9ce	-0.24771807
237	0x3e4af831	0.1982124
238	0x3e33ff83	0.17577939
239	0xbe8a04b4	-0.26956713
240	0xbe88647b	-0.2663916
241	0xbd0e99f0	-0.034814775
242	0x3ddea498	0.108712375
243	0xbbdd4d72	-0.006753617
244	0xbe28fa53	-0.16501741
245	0xbd15f510	-0.036610663
246	0xbea26908	-0.31720757
247	0xbe42912a	-0.19000688
248	0xbe6c5615	-0.23079713
249	0x3e85303f	0.2601337
250	0x3e8c2147	0.2736914
251	0xbe1eb903	-0.15500264
252	0x3d814e8f	0.06313812
253	0x3e0f18f5	0.13974364
254	0x3ddeca48	0.10878426
255	0xbde88f0f	-0.11355411

model.features.init_block.bn.weight f4 [168]
0	0x3e53f6bc	0.2069959
1	0x3e84020d	0.25782815
2	0x3e49d217	0.19709049
3	0x3e6edac9	0.23325647
4	0x3e685732	0.22689512
5	0x3e726595	0.23671563
6	0x3e9fd02a	0.31213504
7	0x3e5de34d	0.2166874
8	0x3e639445	0.22224529
9	0x3e59d032	0.21270826
10	0x3eae9390	0.34096956
11	0x3e88bde7	0.26707384
12	0x3e6fcb68	0.23417437
13	0x3e3ecaf0	0.18632102
14	0x3e6680f7	0.22510134
15	0x3e9b558e	0.3033871
16	0x3e44b32b	0.19208972
17	0x3e82973c	0.25506008
18	0x3e59f3ea	0.21284452
19	0x3e6d66c4	0.23183733
20	0x3e93a407	0.2883608
21	0x3e49274a	0.19643894
22	0x3e2305de	0.15920207
23	0x3ea3ea82	0.32014853
24	0x3e6ffa57	0.23435341
25	0x3e4fb2ff	0.20283125
26	0x3e8988f4	0.268623
27	0x3e409989	0.18808569
28	0x3eab5f21	0.33471015
29	0x3e550ccf	0.20805667
30	0x3e7937b6	0.24337658
31	0x3e6cc29e	0.23121116
32	0x3e5a50b1	0.21319844
33	0x3e593a5a	0.21213666
34	0x3e8edd97	0.27903435
35	0x3e6b662d	0.22988196
36	0x3e809b99	0.25118712
37	0x3e3d7a34	0.18503648
38	0x3e8a39ab	0.26997122
39	0x3e4a6e3c	0.19768614
40	0x3eaa8a0d	0.3330845
41	0x3e8e6bd1	0.27816632
42	0x3e62be94	0.22143012
43	0x3e427512	0.18989971
44	0x3e8267db	0.2546986
45	0x3e60b20c	0.2194292
46	0x3e482e85	0.19548996
47	0x3e7b2256	0.24524817
48	0x3e57158c	0.21004313
49	0x3e8c80da	0.27442056
50	0x3e6cce62	0.23125604
51	0x3e529ae4	0.20566899
52	0x3e89d959	0.26923636
53	0x3e887229	0.26649597
54	0x3ea702bc	0.32619274
55	0x3e53898a	0.20657936
56	0x3e395b72	0.1810129
57	0x3e86d562	0.26334673
58	0x3e2c8676	0.16848168
59	0x3e449178	0.19196117
60	0x3e1ca71e	0.15298125
61	0x3e32dc97	0.17466961
62	0x3e3001f2	0.17188242
63	0x3e6dbce8	0.23216593
64	0x3e42d646	0.19027051
65	0x3e8ea87e	0.27862924
66	0x3e5bcf6c	0.21465844
67	0x3e94f612	0.29093987
68	0x3e7aebe4	0.24504048
69	0x3e572184	0.21008879
70	0x3e59869c	0.21242756
71	0x3e4392ea	0.19099012
72	0x3e671712	0.22567394
73	0x3e4d60e1	0.20056488
74	0x3e6db424	0.2321325
75	0x3e8e7af6	0.27828187
76	0x3e40d383	0.18830685
77	0x3e56e1ca	0.20984569
78	0x3e532ae7	0.20621835
79	0x3e6f9409	0.23396315
80	0x3e3f7d0e	0.18700048
81	0x3ea019f4	0.312698
82	0x3ea0db76	0.31417435
83	0x3ea6288c	0.3245281
84	0x3e4b2b38	0.19840705
85	0x3e1899f7	0.14902483
86	0x3e3447c8	0.17605507
87	0x3e4a614a	0.19763675
88	0x3e3b2aff	0.1827812
89	0x3e6ade84	0.22936445
90	0x3e6233d8	0.2209009
91	0x3e81d1ab	0.25355276
92	0x3e46cf34	0.19414979
93	0x3e42b651	0.1901486
94	0x3e707abf	0.23484324
95	0x3e85b018	0.2611091
96	0x3e9e4f55	0.309199
97	0x3e838e94	0.25694716
98	0x3e856bb5	0.26058736
99	0x3e8aa7f9	0.27081278
100	0x3e610d61	0.2197776
101	0x3e7d6976	0.24747261
102	0x3e2f1e9a	0.17101517
103	0x3e7e9478	0.24861324
104	0x3e818bf1	0.2530208
105	0x3e98b49e	0.298253
106	0x3e323a60	0.17405081
107	0x3e64a7bd	0.22329612
108	0x3e4d2d59	0.2003683
109	0x3e489809	0.19589247
110	0x3e58fe90	0.21190858
111	0x3e7c1b76	0.2461985
112	0x3e6c5dfa	0.23082724
113	0x3e75e170	0.24011779
114	0x3e123c89	0.14280905
115	0x3e3f6419	0.18690528
116	0x3e9ac9d6	0.30232114
117	0x3e4d1477	0.20027338
118	0x3e40acef	0.18815969
119	0x3e84f243	0.2596608
120	0x3e83b87a	0.25726682
121	0x3e6a5fd6	0.22888121
122	0x3e7e16b6	0.24813351
123	0x3e36d1af	0.17853425
124	0x3e77c956	0.24197897
125	0x3e66debf	0.22545908
126	0x3e9d707b	0.30749878
127	0x3e8d0931	0.27546075
128	0x3e8ed2fb	0.2789534
129	0x3e55c30e	0.20875189
130	0x3e31d155	0.1736501
131	0x3e9a709c	0.3016404
132	0x3e64038f	0.22266982
133	0x3e57699a	0.21036378
134	0x3e7f7c90	0.2494986
135	0x3e673f04	0.22582632
136	0x3e9598bf	0.292181
137	0x3e8ae983	0.2713128
138	0x3e512065	0.20422514
139	0x3e77dddc	0.24205726
140	0x3e5fb411	0.21846034
141	0x3e5a7d76	0.21336922
142	0x3e96b9fe	0.29438776
143	0x3e40e0c7	0.18835746
144	0x3e2705d0	0.16310811
145	0x3e641d72	0.22276857
146	0x3e307ab3	0.17234306
147	0x3e7fe90c	0.24991244
148	0x3e56e28e	0.20984861
149	0x3e8aa4aa	0.27078754
150	0x3e8ebc41	0.27878
151	0x3e64c00c	0.22338885
152	0x3e7101ca	0.23535839
153	0x3e9142ef	0.2837138
154	0x3e7c765f	0.2465453
155	0x3e614417	0.2199863
156	0x3e4e5f72	0.20153597
157	0x3e3730d5	0.17889722
158	0x3e4eca1b	0.20194285
159	0x3e36e170	0.17859435
160	0x3e6b520a	0.22980514
161	0x3e92faa9	0.28706864
162	0x3e326083	0.17419629
163	0x3e3e0c78	0.18559444
164	0x3e5081ca	0.2036201
165	0x3e23c22f	0.15992044
166	0x3e7322b1	0.23743702
167	0x3e36f0f2	0.17865351

model.features.init_block.bn.bias f4 [168]
0	0xbcc80a8b	-0.02441909
1	0xbd0255bb	-0.03182004
2	0x3d4164ea	0.04721538
3	0xbba38ad4	-0.004990915
4	0xbd0e5a3d	-0.034754027
5	0xbc7fee7c	-0.015620824
6	0xbd1fccd7	-0.03901371
7	0xbc463a0c	-0.0120988
8	0xbc80837a	-0.015687693
9	0x3cd06e87	0.025443329
10	0x3d66a00f	0.056304988
11	0x3b7dc5cb	0.003872263
12	0xbaced407	-0.0015779742
13	0x3d8c40b6	0.0684828
14	0x3c711671	0.014714823
15	0x3cc2234e	0.023698475
16	0xbce0b2b5	-0.027428964
17	0xbcb7b6bb	-0.022426
18	0xbc86e02d	-0.016464317
19	0xbc11a41c	-0.008889224
20	0x3d3bffe2	0.045898326
21	0x3cf981d7	0.03045742
22	0x3d6181f3	0.05505557
23	0x3d13f3d8	0.03612122
24	0xbd42c87e	-0.047554485
25	0x3c30c28c	0.010788571
26	0x3cbb95a2	0.022898499
27	0xbd0b4709	-0.03400329
28	0x3d0811e0	0.033220172
29	0xbcd947c3	-0.026523476
30	0xbbab3280	-0.005224526
31	0xbba63fc4	-0.0050735194
32	0x3a9b678c	0.0011856421
33	0x3cd467f6	0.025928479
34	0x3c6ad71b	0.014333512
35	0x3c788602	0.015168669
36	0xbcea42f5	-0.02859638
37	0xbb150e6f	-0.0022744199
38	0xbcacb457	-0.021082086
39	0xbccfbf3e	-0.025359746
40	0xbd9e7fca	-0.077392176
41	0x3cb279ad	0.021786535
42	0x3c31fda9	0.0108637
43	0xbd43c040	-0.047790766
44	0xbc3e0d9a	-0.011599923
45	0x3cc829db	0.02443402
46	0x3c7099c2	0.014685096
47	0xbcba5058	-0.022743389
48	0x3c6fb5bc	0.014630731
49	0xbcb60eca	-0.022223849
50	0xbc956508	-0.018236652
51	0x3cbe91e3	0.023262924
52	0xbda0f5e6	-0.078594014
53	0xbc72bb24	-0.014815126
54	0x3d2d85d8	0.04236397
55	0xbc83ae92	-0.016074453
56	0xbc387cbc	-0.011260208
57	0x3ce77c00	0.02825737
58	0x3ca964e2	0.020677987
59	0x3c9c9d36	0.019117933
60	0x3d2ec63e	0.042669527
61	0x3a8316fe	0.0010001359
62	0x3b32861f	0.0027240587
63	0xbc21e35f	-0.00988087
64	0xbd26ef66	-0.040755652
65	0x3c9ac405	0.018892298
66	0x3cc06207	0.023484243
67	0xbce61321	-0.028085293
68	0x3cbd413a	0.023102392
69	0xbbead095	-0.007165978
70	0x3c0a9db7	0.008460454
71	0xbc620b7c	-0.013796683
72	0xbd1c0dac	-0.038098976
73	0xbc02bc08	-0.0079794
74	0xbd112c9a	-0.035442926
75	0xbcf928bc	-0.030414931
76	0xbc9ebf84	-0.019378431
77	0xbc3cea30	-0.011530444
78	0x38dcf42e	0.000105358995
79	0x3c8a56b0	0.016887039
80	0xbb4fa43c	-0.0031683585
81	0x3ccb296b	0.024800023
82	0xbc33f6d9	-0.010984146
83	0xbdc6e4ea	-0.09711631
84	0x38c8602a	9.554655e-05
85	0x3c7cb6f8	0.0154244825
86	0xbcf75277	-0.03019069
87	0xbd27ed5f	-0.04099786
88	0x3beafdb5	0.0071713575
89	0xbc8cccdf	-0.017187534
90	0xbd294f4a	-0.04133538
91	0xbcb6553b	-0.022257438
92	0xb8ef3517	-0.00011406297
93	0xbc58358e	-0.013196362
94	0x3a116497	0.00055463
95	0xbcba4c5b	-0.022741487
96	0xbcfa6882	-0.030567411
97	0xbd4bb6e3	-0.04973496
98	0x3d317f7a	0.04333446
99	0x3d2be20c	0.041963622
100	0x3d0fd463	0.035114657
101	0xbc2a31c3	-0.010387841
102	0xbd3e1cf8	-0.046414346
103	0xbc91e273	-0.017808175
104	0xbc22b8c8	-0.009931751
105	0x3c9c4b45	0.01907886
106	0x3d3550b3	0.044266414
107	0x3bf1696b	0.007367303
108	0x3cac5aca	0.021039385
109	0x3b7f014a	0.003891068
110	0x3c459da6	0.012061512
111	0x3ca9ae70	0.020713061
112	0x3be20ecc	0.0068987366
113	0x3bbbe388	0.005733911
114	0x3d152d1f	0.036419984
115	0x3a47b72b	0.0007618542
116	0xbd811284	-0.0630236
117	0xbc389bf3	-0.01126765
118	0xbc1eb0e2	-0.009685727
119	0x3bef8575	0.0073096105
120	0xbd12de1b	-0.035856348
121	0x3a9c1de5	0.0011910765
122	0x3d6648fb	0.056221943
123	0x3cd98e62	0.026557151
124	0xbc2e214b	-0.010628055
125	0xbd33a764	-0.043860808
126	0xbc999cd8	-0.018751547
127	0x3c86dcdb	0.016462734
128	0x3d0d2f93	0.0344692
129	0xbbea04cc	-0.007141685
130	0x3c02bb1b	0.00797918
131	0xbcff2a91	-0.031148227
132	0xbd2bf9bc	-0.041986212
133	0x3c5219bf	0.012823521
134	0x3b8d8ae4	0.0043195356
135	0x3a94c728	0.0011350857
136	0xbd039890	-0.032127917
137	0x3c13b16b	0.009014468
138	0xbce4ad1c	-0.027914576
139	0x3cda450d	0.026644254
140	0xba66483f	-0.0008784569
141	0xbb089d2f	-0.0020845642
142	0xbcfbdef8	-0.030745968
143	0xbd1eaad8	-0.038737148
144	0xbd37ca76	-0.044870816
145	0x3d462a51	0.0483802
146	0xbb4222d9	-0.0029622822
147	0x3ceacff7	0.028663618
148	0xbd0d3d7f	-0.034482475
149	0x3d063e13	0.032774042
150	0x3db10056	0.08642642
151	0x3d06c944	0.032906786
152	0xbc01248b	-0.007882248
153	0xbd9e155e	-0.07718919
154	0x3c9179c3	0.017758256
155	0x3bb3d5ff	0.005488157
156	0x3be27f73	0.006912166
157	0x3ca51a0a	0.020154018
158	0xbcb1dd3d	-0.02171194
159	0x3c7b706d	0.015346629
160	0xbac2d6be	-0.0014865024
161	0xbda2d743	-0.07951214
162	0x3d0aba49	0.03386906
163	0xbb9747b5	-0.0046167024
164	0x3cde24be	0.02711713
165	0xbcf37e4d	-0.02972331
166	0x3abbf502	0.0014339986
167	0xbc02f724	-0.007993493

model.features.init_block.bn.running_mean f4 [168]
0	0x3b15df8a	0.0022868835
1	0xb7819b95	-1.5450447e-05
2	0x3a1fdbf5	0.0006098145
3	0xba311d0b	-0.0006756342
4	0x3bca0ce1	0.006166086
5	0xbb58afcb	-0.0033063765
6	0x3c03bb1d	0.008040217
7	0xbb5537ae	-0.0032534408
8	0x3bc622ca	0.0060466276
9	0xbb2cab96	-0.002634739
10	0xbb39fbae	-0.0028378773
11	0x3b9f9ded	0.004871121
12	0x3c4035c0	0.011731565
13	0xbba6e3b8	-0.005093064
14	0x3c07c53d	0.008286771
15	0xbbb67acb	-0.0055688373
16	0x3c13088a	0.008974204
17	0xbbd45769	-0.0064801467
18	0xbbb55d7c	-0.005534826
19	0x3c382e18	0.011241458
20	0xbbf78384	-0.0075535197
21	0x3b513ba4	0.0031926418
22	0x3b3fc06d	0.0029258982
23	0x3c0e8bec	0.008700352
24	0x3a2756ac	0.00063834595
25	0x3beae48a	0.0071683573
26	0xbb71c6ce	-0.0036892178
27	0xbbd9160b	-0.006624942
28	0x3c048b4a	0.00808985
29	0x3bb08433	0.005386853
30	0xbb81dc29	-0.0039630127
31	0x3b12516d	0.0022326366
32	0xba2cdb7a	-0.0006593984
33	0xbc0551c9	-0.008137175
34	0x3a5e5d46	0.0008482527
35	0xbac50cce	-0.0015033723
36	0x3ab1e12f	0.0013571138
37	0xbc228669	-0.009919741
38	0xbba3d33b	-0.004999546
39	0x3bf4ec18	0.0074744336
40	0xbc0194a1	-0.007908971
41	0x3b318536	0.0027087457
42	0x3acb20d6	0.0015497457
43	0x3b917dc1	0.00444004
44	0x3b7f6968	0.003897274
45	0xbb97f15c	-0.0046369266
46	0x3b1b649c	0.002371109
47	0xba798ead	-0.00095198565
48	0x3b9fa340	0.004871756
49	0xba444231	-0.000748667
50	0x3c30664d	0.010766578
51	0xbb604a8f	-0.0034224128
52	0x3b4d90aa	0.0031366744
53	0x3b042831	0.0020165558
54	0x3b8e8d81	0.0043503647
55	0xbc2b97c0	-0.010473192
56	0xbc2f0f0d	-0.010684741
57	0xbc2e2886	-0.010629779
58	0xbb8beaef	-0.0042699496
59	0x376e2cf5	1.4196373e-05
60	0xbb9ec35a	-0.004845065
61	0xba0f3644	-0.00054631033
62	0xbc3517cf	-0.01105304
63	0xbc04e9ea	-0.00811241
64	0x3bb6e63f	0.0055816467
65	0x3c01c18c	0.00791968
66	0x3c32971a	0.010900283
67	0xb9aa6aa0	-0.0003250437
68	0x3c28d83d	0.0103054615
69	0x3c221632	0.009892987
70	0xbbcc91ee	-0.006242982
71	0x3becf2c0	0.0072310865
72	0xbc6fe27c	-0.0146414
73	0x3b1cc7e4	0.0023922855
74	0xbbbcc2d8	-0.005760532
75	0xba3a734f	-0.0007112519
76	0xbc316cbf	-0.01082915
77	0xbbd5f7c4	-0.00652978
78	0x3b822d3a	0.0039726766
79	0xbb49d14c	-0.0030794917
80	0x3bba38f8	0.0056830607
81	0x3bb64a80	0.0055630803
82	0xba685876	-0.00088632794
83	0x3c1ede08	0.009696491
84	0xbabacc27	-0.0014251516
85	0xbbc5de50	-0.0060384646
86	0xbbb2abb3	-0.005452597
87	0xbc1df4a2	-0.009640845
88	0x3bfb29cd	0.007664895
89	0x3bc5ce0d	0.006036526
90	0x3c0878ac	0.008329552
91	0x3a26e268	0.00063661346
92	0x3a485a99	0.00076428946
93	0xbc002808	-0.007822044
94	0xbc193064	-0.009349916
95	0xbba2ca21	-0.0049679433
96	0xbaaeda7d	-0.0013340261
97	0xbc32bd41	-0.010909379
98	0x3c2cde0d	0.010550988
99	0x3b9d7e36	0.0048063053
100	0xbc136567	-0.008996344
101	0x3c730ad8	0.014834128
102	0xb99c1850	-0.00029772753
103	0x3c0874f3	0.008328664
104	0x3c1417cf	0.00903888
105	0x3a847627	0.0010106013
106	0xbb3983d7	-0.0028307342
107	0x3be0a32c	0.006855389
108	0xbbb5961d	-0.0055415765
109	0xbacbce88	-0.0015549222
110	0xba6d55a0	-0.00090535916
111	0xbb8d65f8	-0.004315134
112	0x3c180e46	0.009280747
113	0xbc1eae1b	-0.009685065
114	0xbb4c9be5	-0.003122085
115	0xbb8d9adc	-0.004321439
116	0x3be93819	0.007117283
117	0x3aae6b18	0.0013307063
118	0xbc026373	-0.007958281
119	0xbb5e4a98	-0.0033918973
120	0x3bc9dcd8	0.00616036
121	0xbb2f74d0	-0.0026772507
122	0x3ae0293f	0.0017102136
123	0x3bbc0007	0.005737308
124	0x3ad009f1	0.0015872103
125	0x3b3d1922	0.0028854092
126	0x3bfc6774	0.0077027623
127	0xbc04a5bb	-0.008096154
128	0xbbd3c60e	-0.006462819
129	0xbb6f5fe3	-0.0036525659
130	0xba706f43	-0.0009171853
131	0x3bc7257a	0.0060774656
132	0x3c38a603	0.011270049
133	0x3b7f3633	0.0038942217
134	0xbaeee5ca	-0.0018226441
135	0x3b0044c6	0.0019572242
136	0x3b4281cc	0.0029679416
137	0xbbe011dd	-0.006838067
138	0xb73c4bc9	-1.1223318e-05
139	0x3bde00a4	0.0067749787
140	0x3b9e2737	0.004826452
141	0xbb9b24f5	-0.00473463
142	0x3be7570d	0.007059938
143	0x3c1b03ff	0.009461402
144	0x3ab84012	0.001405718
145	0xb99f3485	-0.00030365973
146	0xbb338b87	-0.0027396397
147	0xbb9637b6	-0.004584278
148	0xbaf08cd6	-0.0018352519
149	0xbbddde6b	-0.006770899
150	0xba53752b	-0.00080664706
151	0x3c216695	0.009851118
152	0x3ba9aab0	0.0051778182
153	0x3b15f91e	0.002288408
154	0x38fcf432	0.00012061781
155	0xbc1b025b	-0.009461011
156	0xbb4bbe91	-0.0031088928
157	0xbbee066a	-0.007263948
158	0x3c3ffee7	0.011718488
159	0x3b02efc8	0.0019979347
160	0xbb355db6	-0.0027674264
161	0x3afb8c3e	0.0019191576
162	0xbba26453	-0.0049558072
163	0xba8644d7	-0.0010243905
164	0xbbbffc32	-0.0058589214
165	0xb94cc08a	-0.00019526682
166	0xbc1535e3	-0.009107086
167	0x3b62657f	0.003454536

model.features.init_block.bn.running_var f4 [168]
0	0x3e42f627	0.19039212
1	0x3c4302ba	0.0119025055
2	0x3d896c68	0.0671013
3	0x3e7a0b2e	0.24418327
4	0x3e86af01	0.26305392
5	0x3dfac4fc	0.12244603
6	0x3ef68527	0.48148462
7	0x3e53720a	0.20648971
8	0x3e63d11c	0.22247738
9	0x3e6b3275	0.22968467
10	0x3eac923a	0.33705312
11	0x3f0dcb47	0.553883
12	0x3f0b769c	0.5447786
13	0x3e277fd3	0.16357355
14	0x3eb197e1	0.34686187
15	0x3e3b9dbd	0.18321891
16	0x3e9d256d	0.30692616
17	0x3ee81bf4	0.45333827
18	0x3e5c9ee6	0.2154499
19	0x3ede0532	0.4336334
20	0x3e97007a	0.2949255
21	0x3eca088b	0.39459643
22	0x3dc6bb89	0.09703738
23	0x3e842a4d	0.25813523
24	0x3f135d94	0.57564664
25	0x3effbd13	0.4994894
26	0x3e8981ec	0.26856935
27	0x3e6fdfda	0.23425236
28	0x3eb723c9	0.3576949
29	0x3e8d3a0e	0.27583355
30	0x3e2cdbb2	0.16880682
31	0x3e6d0f05	0.23150261
32	0x3dda83de	0.10669683
33	0x3e3533e5	0.17695577
34	0x3e33bf22	0.1755338
35	0x3de07518	0.10959834
36	0x3e418548	0.18898499
37	0x3e920386	0.28518313
38	0x3ea13051	0.31482175
39	0x3e655f1c	0.22399563
40	0x3edbad07	0.42905447
41	0x3ef2d2ef	0.47426555
42	0x3ea6dd26	0.32590598
43	0x3e70b132	0.23505095
44	0x3efa9674	0.48942912
45	0x3e78b037	0.2428597
46	0x3e94fff1	0.29101518
47	0x3e0e2da9	0.13884605
48	0x3e9f53aa	0.31118518
49	0x3ec37c75	0.3818089
50	0x3f1ceba2	0.6129705
51	0x3e556084	0.20837599
52	0x3e45f95b	0.19333403
53	0x3ea591c8	0.32337785
54	0x3e190c16	0.14946017
55	0x3ef01c6a	0.46896678
56	0x3ef094c7	0.46988508
57	0x3f000536	0.5000795
58	0x3db64507	0.08899885
59	0x3eb03852	0.3441797
60	0x3e301def	0.17198919
61	0x3ea873ab	0.32900748
62	0x3ed106df	0.40825555
63	0x3e6544a0	0.2238946
64	0x3e8c71c9	0.2743056
65	0x3e692f62	0.22771981
66	0x3ee44d09	0.44590023
67	0x3eea4fd0	0.45764017
68	0x3e996b6d	0.29964772
69	0x3ea2862d	0.31742993
70	0x3e8104da	0.25199014
71	0x3e8d1432	0.2755447
72	0x3f102fe9	0.56323105
73	0x3ec48786	0.38384646
74	0x3e83b7e4	0.25726235
75	0x3efa1a6b	0.4884828
76	0x3ef12c27	0.47103998
77	0x3e97010f	0.29492995
78	0x3e150645	0.14553173
79	0x3ea6b47c	0.32559574
80	0x3e16300f	0.1466677
81	0x3e80d165	0.25159755
82	0x3e4db788	0.20089543
83	0x3e972d45	0.29526725
84	0x3ebbd239	0.36683825
85	0x3e801d58	0.25022388
86	0x3e2a11b2	0.16608313
87	0x3f0abc16	0.54193246
88	0x3e59ed7c	0.21282
89	0x3ebb0a54	0.36531317
90	0x3e9fb281	0.31190875
91	0x3e799340	0.24372578
92	0x3e1d8f95	0.15386803
93	0x3e77fb36	0.24216923
94	0x3e8a57fb	0.2702025
95	0x3eced17d	0.40394202
96	0x3ed44994	0.41462386
97	0x3ee7aa40	0.45247078
98	0x3f079c51	0.52972895
99	0x3e4c1a7a	0.19931975
100	0x3f111b90	0.5668268
101	0x3f1f0861	0.6212216
102	0x3f031acf	0.5121278
103	0x3ed1872c	0.4092344
104	0x3ec3017f	0.3808708
105	0x3ea87604	0.3290254
106	0x3def7fe5	0.11694316
107	0x3ef4f163	0.47840413
108	0x3e7df5eb	0.24800842
109	0x3e3e456b	0.18581168
110	0x3eb80d64	0.35947716
111	0x3e0b57f0	0.13607764
112	0x3ea8c87b	0.32965454
113	0x3f06149f	0.52375215
114	0x3e74244f	0.23841976
115	0x3e72068f	0.23635314
116	0x3eb8c922	0.36090952
117	0x3e1033ed	0.14082308
118	0x3ef0c277	0.47023365
119	0x3eca80a8	0.39551282
120	0x3e623309	0.22089781
121	0x3e885e11	0.26634267
122	0x3dea1988	0.11430651
123	0x3e8b9a29	0.27266052
124	0x3dc6ad3c	0.097010106
125	0x3ecaed2f	0.39634082
126	0x3f10f5e9	0.5662523
127	0x3eace57b	0.3376883
128	0x3ebd4470	0.36966276
129	0x3f151910	0.5824137
130	0x3d8c1c06	0.068412825
131	0x3ec7f161	0.39051345
132	0x3ebc397a	0.367626
133	0x3e34799a	0.17624512
134	0x3ec2b245	0.38026634
135	0x3e05de09	0.13072981
136	0x3e437cce	0.19090578
137	0x3e938ccf	0.28818366
138	0x3ebb12ca	0.36537772
139	0x3ecb36fd	0.3969039
140	0x3eca2f3e	0.39489168
141	0x3e9032de	0.2816381
142	0x3e62c815	0.22146638
143	0x3ea61fdb	0.3244618
144	0x3e8ecb16	0.27889317
145	0x3e2a19a0	0.16611338
146	0x3e0b56a8	0.13607275
147	0x3eaa46d9	0.33257177
148	0x3ea5463d	0.3228015
149	0x3e846a95	0.25862566
150	0x3e7e44f3	0.2483099
151	0x3f17bbeb	0.59271115
152	0x3e82a8f4	0.25519526
153	0x3e7b3af3	0.24534206
154	0x3ecd5555	0.40104166
155	0x3ea77da0	0.32713032
156	0x3e7ed04d	0.24884148
157	0x3eaae8b9	0.33380678
158	0x3eb5a668	0.3547852
159	0x3e1241f1	0.14282967
160	0x3e1d418e	0.15357038
161	0x3e1e96ca	0.15487209
162	0x3eb6fe30	0.35740805
163	0x3e147ce3	0.14500766
164	0x3ee40dbc	0.44541728
165	0x3d615e48	0.055021554
166	0x3e72a729	0.23696579
167	0x3e41688c	0.18887538

model.features.stage1.unit1.dw_conv.conv.weight f4 [168, 1, 3, 3]
0	0xbe3b16e9	-0.18270458
1	0x3e4f0014	0.20214874
2	0xbec791a2	-0.38978297
3	0xbbf9b426	-0.0076203523
4	0x3ea3ca1d	0.31990138
5	0x3f275eae	0.65378845
6	0xbe67b051	-0.22625853
7	0xbe9da247	-0.3078787
8	0xbda96e0b	-0.08272942
9	0x3e87ce6d	0.26524678
10	0x3eb3d218	0.35121226
11	0xbd2fc391	-0.042911116
12	0xbf0e85d2	-0.55672944
13	0x3bcdcf29	0.006280799
14	0x3f236473	0.6382515
15	0x3edcbf3c	0.4311465
16	0xbec2f299	-0.38075712
17	0x3f0b0dbc	0.5431783
18	0xbea732ad	-0.3265585
19	0xbd2394d1	-0.039936844
20	0x3f09c67c	0.5381849
21	0x3ee97921	0.45600227
22	0xbf139366	-0.5764679
23	0x3ea78eff	0.32726285
24	0x3ed98a5a	0.42488366
25	0x3ee1461f	0.4399881
26	0xbef2ea19	-0.47444227
27	0x3e10b076	0.14129815
28	0xbea782ec	-0.32717073
29	0xbe8e5f4b	-0.27807078
30	0xbe9ec053	-0.31006107
31	0xbe9fcd87	-0.31211492
32	0x3f57d460	0.84308434
33	0xbe811d1d	-0.25217524
34	0xbe21fd6a	-0.15819326
35	0x3dfdb845	0.12388662
36	0xbec0dae8	-0.37667012
37	0x3ebe8429	0.37210205
38	0x3ef6f988	0.48237252
39	0x3e963489	0.29336956
40	0xbe4e9c3b	-0.20176785
41	0x3e367083	0.17816357
42	0xbed8fdb0	-0.42381048
43	0xbe6d77fa	-0.23190299
44	0xbeb5b261	-0.35487655
45	0xbe827b4a	-0.25484687
46	0xbdd710b4	-0.10501233
47	0xbe91b58a	-0.28458816
48	0x3e4bc092	0.19897678
49	0xbec3748a	-0.3817485
50	0xbef6f412	-0.48233086
51	0x3dd2f228	0.10300094
52	0xbe9426e3	-0.28935918
53	0xbdfd8079	-0.1237802
54	0xbea3fc8f	-0.32028624
55	0x3e81a8b2	0.25324017
56	0x3d61b9bc	0.05510877
57	0xbd81d062	-0.06338574
58	0x3e82cd2f	0.25547168
59	0x3ec1d5ee	0.37858528
60	0xbd91e9ae	-0.07124649
61	0xbdd8e0e9	-0.10589773
62	0xbe9000ac	-0.28125513
63	0xbdd71864	-0.10502699
64	0x3cd91dbd	0.026503438
65	0xbe7a10b9	-0.24420442
66	0xbe30c49e	-0.17262504
67	0x3da94699	0.082654186
68	0x3d8019df	0.062549345
69	0xbe9c3d9f	-0.30515763
70	0x3e89ea9e	0.2693681
71	0xbe589c3a	-0.21153346
72	0x3f5199fb	0.8187558
73	0x3ddaf632	0.10691489
74	0xbd66654c	-0.056248948
75	0xbe00fd83	-0.12596707
76	0xbf252a32	-0.6451751
77	0xbdbd241a	-0.092354015
78	0x3eda31c8	0.42616105
79	0xbea7228d	-0.32643548
80	0xbdd05244	-0.10171941
81	0x3f22e45d	0.63629705
82	0x3f04f00f	0.519288
83	0xbec32ec2	-0.3812161
84	0xbeaf00a2	-0.3418017
85	0xbe5b84a8	-0.21437323
86	0x3da4de50	0.08050215
87	0x3ee85f50	0.45385218
88	0x3da7b67c	0.08189103
89	0x3e30e9dd	0.17276712
90	0x3d419900	0.047265053
91	0xbe75edb4	-0.24016458
92	0xbe29f8e6	-0.16598853
93	0x3ebdb265	0.37050167
94	0xbd8e4fbc	-0.06948802
95	0xbef23692	-0.4730726
96	0x3e9feb3d	0.3123416
97	0xbe7439f0	-0.23850226
98	0x3e308c01	0.17240907
99	0xbecbdcb9	-0.39816836
100	0xbd5d77d5	-0.05406936
101	0xbdb32f5a	-0.08749266
102	0x3f1ffd4f	0.62495893
103	0x3db21466	0.08695297
104	0xbe709c61	-0.23497154
105	0x3e82220f	0.2541661
106	0xbe97a2c7	-0.29616377
107	0x3eaae667	0.33378908
108	0xbf161570	-0.5862646
109	0x3df8dbf3	0.12151327
110	0x3f1feba5	0.6246894
111	0xbe02e788	-0.12783635
112	0xbf006170	-0.5014868
113	0x3f2fe091	0.68702036
114	0xbe8c92b9	-0.2745569
115	0xbe24f849	-0.16110338
116	0xbe94dc52	-0.2907434
117	0x3f18b3d9	0.59649426
118	0xbee7b643	-0.45256242
119	0xbece7ac5	-0.4032804
120	0xbeb7d6b7	-0.35906002
121	0x3f29d667	0.66342777
122	0xbed8b8f7	-0.42328617
123	0x3bed2152	0.007236638
124	0x3e83d9dc	0.2575215
125	0xbeca1509	-0.39469174
126	0x3ecf372b	0.40471777
127	0xbd1006d4	-0.03516276
128	0xbe9ee53f	-0.31034276
129	0xbf1517cd	-0.5823944
130	0xbe3dbe7d	-0.18529697
131	0xbe903470	-0.28165007
132	0x3e5d56e1	0.21615173
133	0x3a3cb510	0.0007198611
134	0xbc463e37	-0.012099794
135	0xbe5ba81f	-0.21450852
136	0x3eb0a3e2	0.34500033
137	0x3eee3c79	0.46530512
138	0x3e8bf7f7	0.2733762
139	0xbf135e5a	-0.57565844
140	0x3e33fa40	0.17575932
141	0xbf6ac929	-0.91713196
142	0x3f0c9e68	0.5492921
143	0xbdb972a9	-0.09055073
144	0x3ec2c278	0.38038993
145	0x3e034abc	0.12821478
146	0x3e399ac3	0.18125443
147	0xbf34eb8c	-0.70671916
148	0xbe7125bc	-0.23549551
149	0x3ea8da07	0.32978842
150	0xbe726d95	-0.23674615
151	0xbdc03d88	-0.09386736
152	0x3c849d58	0.016188309
153	0xbed6b346	-0.4193365
154	0x3f144be7	0.5792832
155	0xbdfd1934	-0.12358323
156	0x3ed4fd72	0.41599613
157	0x3ed3b7a9	0.4135106
158	0x3f499a6f	0.7875127
159	0x3f49fbf6	0.78900087
160	0x3d91fb45	0.07128004
161	0xbeac38c2	-0.33637053
162	0xbe410fc2	-0.18853667
163	0x3e50f552	0.20406082
164	0x3f008a8f	0.50211424
165	0x3ebda780	0.37041855
166	0xbdf5f505	-0.120096244
167	0xbe8cfb08	-0.27535272
168	0xbef87ec0	-0.48534203
169	0xbe955769	-0.2916825
170	0x3ecdcc8c	0.4019512
171	0xbe9063ca	-0.28201133
172	0x3e5921b6	0.21204266
173	0xbf152f3b	-0.5827519
174	0x3e8be7c4	0.2732526
175	0xbf284642	-0.65732205
176	0x3e301c69	0.17198338
177	0xbd585251	-0.052812878
178	0xbe5194f0	-0.20466971
179	0x3ef7a5a8	0.48368573
180	0xbea78617	-0.3271949
181	0xbe610a3f	-0.21976565
182	0x3f4f0400	0.8086548
183	0x3d917b55	0.07103602
184	0xbea2f617	-0.31828377
185	0x3e178cb2	0.14799765
186	0xbf1211e6	-0.5705856
187	0x3e74a92d	0.2389266
188	0xbf540d12	-0.82832444
189	0x3efa870b	0.48931155
190	0xbdefa894	-0.117020756
191	0xbf1119ac	-0.566798
192	0xbeecf5a6	-0.46281165
193	0xbd1e47b7	-0.03864261
194	0x3ecd697a	0.40119535
195	0x3f31f91e	0.6952075
196	0x3d0e994e	0.03481417
197	0xbe14a067	-0.14514314
198	0xbe8a0281	-0.26955035
199	0xbe855dd1	-0.2604814
200	0x3ed63a72	0.41841465
201	0x3f2967e1	0.6617413
202	0xbe2dcfad	-0.16973753
203	0x3f26d615	0.65170413
204	0x3ea93209	0.33045986
205	0x3ed6f8e8	0.41986775
206	0xbda053df	-0.07828497
207	0xbe705719	-0.23470725
208	0x3e8a9969	0.27070168
209	0xbe7592e1	-0.23981811
210	0xbe4d5832	-0.20053175
211	0xbd50da97	-0.050989714
212	0x3eb3cd74	0.35117686
213	0xbe043e24	-0.1291433
214	0xbf15df25	-0.58543617
215	0xbddd8040	-0.10815477
216	0x3e2c6c8f	0.16838287
217	0x3e28216f	0.16419004
218	0x3f228433	0.6348297
219	0xbebd12ed	-0.36928502
220	0x3e30602a	0.17224184
221	0x3dbdf490	0.09275162
222	0xbe2e892e	-0.17044517
223	0x3e6cd710	0.23128915
224	0x3dcc07a6	0.09962396
225	0x3eb45b09	0.35225704
226	0xbe760f15	-0.24029191
227	0xbe938b85	-0.28817382
228	0x3edb0e49	0.42784336
229	0x3e69289f	0.22769402
230	0x3f22fb19	0.63664395
231	0x3f316f93	0.69310874
232	0x3f119727	0.56871265
233	0x3ec24a06	0.379471
234	0xbddd3cb5	-0.108025946
235	0xbe83aeae	-0.25719208
236	0x3c47f196	0.012203595
237	0xbef67694	-0.48137343
238	0xbd9f65b8	-0.07783073
239	0x3e9f8ac2	0.3116055
240	0xbe5ef002	-0.21771243
241	0xbde9b9ce	-0.114123926
242	0x3e615f49	0.22009005
243	0xbe6412bd	-0.22272773
244	0xbe9c1f20	-0.30492496
245	0x3f1b4558	0.60652685
246	0xbe12a455	-0.143205
247	0x3ed24b80	0.41073227
248	0xbe77c21f	-0.24195145
249	0xbeb90490	-0.36136293
250	0x3ec6e081	0.38843158
251	0xbb9743b5	-0.0046162256
252	0x3e6d9d29	0.23204483
253	0x3cd77cac	0.026304565
254	0xbe970617	-0.29496834
255	0xbc9bb1fb	-0.019005766

model.features.stage1.unit1.dw_conv.bn.weight f4 [168]
0	0x3f5a49ef	0.85269064
1	0x3f4d1613	0.8011181
2	0x3f536927	0.82582325
3	0x3f5e2221	0.86770827
4	0x3f3d2506	0.7388462
5	0x3f580de5	0.843962
6	0x3f60e1e2	0.8784467
7	0x3f55b634	0.83481145
8	0x3f5d587a	0.8646313
9	0x3f50209b	0.8129975
10	0x3f633b43	0.887623
11	0x3f5f235b	0.87163323
12	0x3f523447	0.8211102
13	0x3f423f97	0.7587828
14	0x3f48fde9	0.78512436
15	0x3f494645	0.7862285
16	0x3f474582	0.77840436
17	0x3f5f208b	0.8715903
18	0x3f538562	0.826254
19	0x3f42df61	0.761221
20	0x3f4a644b	0.79059285
21	0x3f5398d4	0.8265507
22	0x3f492555	0.7857259
23	0x3f485dda	0.78268206
24	0x3f59297e	0.8482894
25	0x3f5d02f9	0.8633266
26	0x3f634134	0.8877137
27	0x3f52b983	0.8231432
28	0x3f6b7117	0.91969436
29	0x3f50002a	0.8125025
30	0x3f51787a	0.8182446
31	0x3f4c0e30	0.7970915
32	0x3f519773	0.8187172
33	0x3f3d6499	0.73981625
34	0x3f41e300	0.75737
35	0x3f42b935	0.76063854
36	0x3f4c0e5d	0.79709417
37	0x3f6ba9a9	0.92055756
38	0x3f5500a6	0.83204114
39	0x3f4978ad	0.7869976
40	0x3f4878b7	0.78309196
41	0x3f655fb7	0.89599174
42	0x3f60718f	0.87673277
43	0x3f4bd93b	0.7962834
44	0x3f6a7bee	0.9159535
45	0x3f51e4a9	0.8198953
46	0x3f68f262	0.90994847
47	0x3f41c86b	0.7569644
48	0x3f52ba10	0.8231516
49	0x3f58fb61	0.84758574
50	0x3f66db09	0.9017797
51	0x3f493351	0.7859393
52	0x3f4b1b45	0.79338485
53	0x3f69c370	0.9131384
54	0x3f53b494	0.82697415
55	0x3f430c56	0.761907
56	0x3f50f62d	0.81625634
57	0x3f52ca9e	0.8234042
58	0x3f3c990e	0.7367104
59	0x3f461296	0.7737211
60	0x3f4633ef	0.77422994
61	0x3f4d1654	0.80112195
62	0x3f54e2fc	0.8315885
63	0x3f58d009	0.84692436
64	0x3f5d79f6	0.8651422
65	0x3f5ed1b6	0.87038743
66	0x3f5742f1	0.8408652
67	0x3f5e23ef	0.8677358
68	0x3f50084f	0.8126268
69	0x3f4d19d5	0.8011754
70	0x3f60a458	0.8775077
71	0x3f53a59f	0.8267459
72	0x3f55f99d	0.83584005
73	0x3f417c97	0.75580734
74	0x3f58e79b	0.847284
75	0x3f69617f	0.9116439
76	0x3f58371c	0.8445909
77	0x3f52fe63	0.82419413
78	0x3f41aada	0.75651324
79	0x3f766e13	0.9626171
80	0x3f4e5543	0.8059885
81	0x3f4c23fe	0.7974242
82	0x3f4f51cf	0.80984205
83	0x3f54d416	0.8313612
84	0x3f4d05d7	0.80087036
85	0x3f3aefdd	0.7302225
86	0x3f545a99	0.8295074
87	0x3f5a9879	0.85388905
88	0x3f58029d	0.8437899
89	0x3f5e25dc	0.8677652
90	0x3f608248	0.87698793
91	0x3f40e5fd	0.75350934
92	0x3f45ac3e	0.77215946
93	0x3f4f2209	0.8091131
94	0x3f60a103	0.87745684
95	0x3f68fd72	0.91011727
96	0x3f56e67c	0.8394544
97	0x3f5b25e2	0.8560468
98	0x3f63d357	0.88994354
99	0x3f57d20f	0.843049
100	0x3f645429	0.8919092
101	0x3f540660	0.8282223
102	0x3f52c385	0.8232959
103	0x3f500734	0.8126099
104	0x3f4e6fe6	0.80639493
105	0x3f50ae49	0.8151594
106	0x3f3db522	0.7410451
107	0x3f525220	0.8215656
108	0x3f4f8f55	0.8107808
109	0x3f5319be	0.82461154
110	0x3f3edb5a	0.74553454
111	0x3f51e411	0.81988627
112	0x3f689a7d	0.9086073
113	0x3f66b145	0.9011424
114	0x3f48ef6d	0.78490335
115	0x3f508cc5	0.814648
116	0x3f649e90	0.8930445
117	0x3f482bcc	0.7819183
118	0x3f5d214d	0.8637894
119	0x3f5922c9	0.848187
120	0x3f4d31b0	0.8015394
121	0x3f653dbf	0.8954734
122	0x3f58c6b3	0.8467819
123	0x3f46791b	0.7752854
124	0x3f4594d2	0.77180207
125	0x3f58b377	0.8464884
126	0x3f5b156c	0.8557956
127	0x3f5aa365	0.8540557
128	0x3f4958e3	0.78651255
129	0x3f556776	0.83360994
130	0x3f3a38a8	0.727427
131	0x3f55660e	0.8335885
132	0x3f692a49	0.9108015
133	0x3f3aa392	0.7290584
134	0x3f68709c	0.9079683
135	0x3f502b0f	0.813157
136	0x3f562754	0.8365376
137	0x3f657331	0.89628893
138	0x3f5a8401	0.8535767
139	0x3f543abb	0.82902116
140	0x3f57d197	0.84304184
141	0x3f5b97c8	0.85778475
142	0x3f581375	0.8440469
143	0x3f667b5e	0.90031993
144	0x3f51b5dc	0.8191812
145	0x3f4ae10d	0.7924965
146	0x3f4eed6c	0.8083103
147	0x3f5ad002	0.85473645
148	0x3f58f962	0.8475553
149	0x3f3c7396	0.7361387
150	0x3f551633	0.83237
151	0x3f5ae03e	0.85498416
152	0x3f5b099e	0.8556155
153	0x3f617a8e	0.8807763
154	0x3f4b6058	0.79443884
155	0x3f4f26be	0.8091849
156	0x3f56221c	0.83645797
157	0x3f503b76	0.8134073
158	0x3f67dc33	0.9057037
159	0x3f43487b	0.7628247
160	0x3f534078	0.82520247
161	0x3f4de0d1	0.8042117
162	0x3f657318	0.89628744
163	0x3f609e18	0.8774123
164	0x3f616137	0.88038963
165	0x3f4fd052	0.81177247
166	0x3f540e42	0.82834256
167	0x3f41aed7	0.7565741

model.features.stage1.unit1.dw_conv.bn.bias f4 [168]
0	0x3c4a5fa4	0.012351904
1	0x3af63eb3	0.0018786996
2	0xbd7c11e6	-0.061540507
3	0x3d70f7f4	0.058830217
4	0xbceb46ce	-0.028720286
5	0x3aef631c	0.001826379
6	0x3cd8dc87	0.026472343
7	0xbc2faee4	-0.0107228495
8	0xbd1efe7c	-0.038816914
9	0xbbf0ca57	-0.0073483395
10	0x3cb0208b	0.021499893
11	0xbc0d07e2	-0.008607836
12	0x3cf69740	0.030101418
13	0xbdb3eaff	-0.08785056
14	0xbd33cb2b	-0.043894928
15	0xbdb4aa71	-0.088215716
16	0xbd2df3e4	-0.04246892
17	0xbbed2be8	-0.0072379
18	0x3d0dde59	0.034635875
19	0xbcb79491	-0.02240971
20	0xbd060017	-0.03271493
21	0xbc8e9818	-0.017406508
22	0xbcdbf79a	-0.026851464
23	0xbd3044b4	-0.04303427
24	0xbd79d4bd	-0.0609939
25	0xbd54414e	-0.051820092
26	0xbdad5e1b	-0.08465215
27	0xbd91b405	-0.07114414
28	0x3d5e4ff9	0.054275487
29	0xbda4ece9	-0.080529995
30	0x3bd70bd7	0.0065626907
31	0xbcb856e3	-0.022502368
32	0x3ccb3944	0.02480758
33	0xbbf45fd2	-0.0074577117
34	0xbcd9c872	-0.026584838
35	0xbd8cb534	-0.06870499
36	0xbc74898c	-0.014925372
37	0xba3a21e1	-0.0007100385
38	0xbd82bc23	-0.063835405
39	0xbcd3e547	-0.025866164
40	0x3d292f08	0.041304618
41	0xbd61781f	-0.055046197
42	0x3d5d9ec0	0.054106474
43	0x3c3bc78d	0.011461151
44	0x3b8f0f59	0.0043658433
45	0x3d745d0f	0.05965906
46	0xbd39d265	-0.045366663
47	0x3cc8de32	0.024520013
48	0x3dbbba31	0.091663726
49	0x3dc3f6db	0.09568568
50	0x3c3358af	0.010946437
51	0xbcd08d90	-0.025458127
52	0xbda95fe0	-0.0827024
53	0xbd27c00c	-0.040954635
54	0x3cf64fc7	0.030067338
55	0x3cf01a90	0.029309541
56	0xbce1065e	-0.027468856
57	0x3cda3238	0.026635274
58	0xbd6d0e26	-0.05787482
59	0xbd3ce903	-0.046120655
60	0xbda03cf3	-0.07824125
61	0xbd6feb04	-0.058573738
62	0xbd6572ba	-0.056017615
63	0xbcf41013	-0.029792821
64	0x3cc82702	0.024432663
65	0xbcff78ae	-0.031185474
66	0x3cd1c2a8	0.025605515
67	0xbc641e0d	-0.01392318
68	0x3d53453e	0.051579706
69	0x3c0b11c1	0.00848812
70	0x3d3a245a	0.045444824
71	0xbc99058c	-0.018679403
72	0xbd1f503c	-0.038894877
73	0x3b17ab72	0.002314296
74	0x3c4e0be6	0.012576079
75	0xbc1dee49	-0.009639331
76	0xbd0f78af	-0.035027202
77	0xbbe1adf4	-0.006887192
78	0xbd6d22ab	-0.05789439
79	0xbd4355cc	-0.047689244
80	0xbcd21068	-0.025642589
81	0xbd59b89e	-0.05315458
82	0x3d33c102	0.04388524
83	0xbd91ad73	-0.07113161
84	0xbd1c82c1	-0.038210634
85	0xbdeed43f	-0.116615765
86	0xbd31d988	-0.043420345
87	0x3d73aa57	0.05948862
88	0xbd7addc6	-0.061246656
89	0x3d57e46a	0.052708067
90	0xbcf088f1	-0.029362174
91	0x3d3d5480	0.046223164
92	0xbc80715c	-0.015679054
93	0xbd98239b	-0.07428666
94	0x3d834ec1	0.064115055
95	0x3c9f1469	0.019418912
96	0xbd2fdeaf	-0.042936977
97	0xbcc0c1fa	-0.023529995
98	0x3cc9912e	0.02460536
99	0xbd38d380	-0.045123577
100	0xbd846b1a	-0.064657405
101	0x3cdaacec	0.026693784
102	0x3b8f2b6a	0.004369189
103	0x3ccffa51	0.025387915
104	0xbc9dfd8a	-0.019285936
105	0xb9c58b78	-0.0003767868
106	0xbc507946	-0.012724226
107	0x3d383d2d	0.044980217
108	0xbca3514c	-0.019936226
109	0xbbc12e41	-0.0058954065
110	0x3a81ef2f	0.0009913201
111	0x3d0a3777	0.0337443
112	0x3c9f2699	0.019427584
113	0x3c64cdf1	0.013965116
114	0xbd376e59	-0.04478297
115	0xbd8a4b49	-0.06752641
116	0x3b8e514d	0.004343188
117	0xbd2d1df9	-0.042264912
118	0xbd27cc56	-0.040966354
119	0xbd0e351a	-0.03471861
120	0x3c7d8a1e	0.015474824
121	0x3cfb3347	0.0306641
122	0xbd6cb5c9	-0.05779055
123	0xbd4d1095	-0.050064642
124	0xbb590f41	-0.0033120664
125	0xbd6216ac	-0.055197403
126	0xbd4c4f69	-0.04988042
127	0x3c16b2fb	0.009197946
128	0xbb54fb7c	-0.003249853
129	0xbda3d846	-0.08000235
130	0xbd240c0c	-0.04005055
131	0xbd9b4ab4	-0.07582608
132	0x3d9c5df0	0.07635105
133	0x3cf84f9e	0.030311402
134	0x3bafa612	0.0053603733
135	0xbc8c8a00	-0.017155647
136	0x3ca654c8	0.020304099
137	0x3d36b4e3	0.0446061
138	0x3ccdd247	0.025124682
139	0x3c8d4532	0.017244909
140	0x3d3b77cf	0.045768555
141	0x3b91c85d	0.004448934
142	0xbbf857d1	-0.007578828
143	0xbd5c019e	-0.05371248
144	0xbd8a9935	-0.06767503
145	0x3bdfd851	0.006831207
146	0xbd865847	-0.06559806
147	0xbd521dbd	-0.051297892
148	0xbd778bf7	-0.060436215
149	0xbd656d45	-0.05601241
150	0xbd58b99b	-0.052911382
151	0x3c904c08	0.01761438
152	0x3d5525ef	0.05203813
153	0xbd92c697	-0.07166784
154	0xbd2c2fb8	-0.042037696
155	0xbd3283f0	-0.043582857
156	0xbd06e8de	-0.032936923
157	0xba701cb5	-0.0009159551
158	0xbc51cd07	-0.01280523
159	0x3d80a121	0.06280733
160	0x3cc1ac65	0.023641774
161	0xbd833190	-0.06405938
162	0x3c980f8a	0.018562097
163	0xbc31e742	-0.010858359
164	0x3c9e5964	0.019329734
165	0x3cca60bc	0.02470433
166	0xbcfab30e	-0.030602958
167	0x3b979cbd	0.004626839

model.features.stage1.unit1.dw_conv.bn.running_mean f4 [168]
0	0x3bc6273c	0.0060471576
1	0x3d09bfbe	0.033630125
2	0x3d69c48a	0.0570722
3	0xbd13070e	-0.0358954
4	0xbc5536a7	-0.013013518
5	0xbddbb9e3	-0.107288145
6	0x3c4f7a82	0.0126634855
7	0xbd1289d4	-0.035775974
8	0xbbf9c2de	-0.007622107
9	0x3d92cff7	0.071685724
10	0xbd392e1c	-0.04520999
11	0x3cab4c48	0.020910397
12	0xbd0ec1ab	-0.034852665
13	0xbd489893	-0.04897363
14	0xbd8f85c0	-0.07007933
15	0x3b551048	0.0032510925
16	0xbc5b507d	-0.013385889
17	0x3e2cf8fd	0.16891856
18	0x3bd80043	0.006591828
19	0xbd47565f	-0.048666354
20	0xbde6c6e0	-0.11268401
21	0x3caff254	0.021477856
22	0x3e068ce2	0.1313968
23	0xbde582b1	-0.11206568
24	0x3d711970	0.05886215
25	0x3e4e06da	0.20119801
26	0xbd8b2340	-0.06793833
27	0x3bd7d1c8	0.006586287
28	0xbe07c339	-0.13258065
29	0x3d458087	0.048218276
30	0xbd59130d	-0.052996684
31	0xbd9ce056	-0.07659976
32	0x3d031fc2	0.03201271
33	0xbd60403c	-0.05474876
34	0xbd9c52d9	-0.076329894
35	0xbddbdacc	-0.107350916
36	0xbc639afd	-0.013891933
37	0x3d724903	0.05915166
38	0x3c506026	0.012718236
39	0xbca121ff	-0.01966953
40	0xbd680319	-0.05664358
41	0xbdc4832b	-0.09595331
42	0x3d0b2fe6	0.033981226
43	0x3d73fc0a	0.059566535
44	0xbded7f81	-0.11596585
45	0xbd9f432f	-0.07776486
46	0x3dc1fd50	0.09472144
47	0xbd4da20b	-0.050203364
48	0xbd01c2f7	-0.031680074
49	0xbd1aea1f	-0.03782093
50	0x3cc0cf3f	0.023536323
51	0xbdd6dfcc	-0.104919046
52	0x3d2c2144	0.042023912
53	0xbd913e70	-0.07091987
54	0xbd267c31	-0.040645782
55	0xbd810bb3	-0.063010596
56	0x3d3e5410	0.046466887
57	0xbdd6fde3	-0.10497644
58	0xbc34b60d	-0.011029732
59	0xbc1b30e1	-0.009472103
60	0x3d8fb40d	0.07016764
61	0x3c00ab60	0.007853359
62	0x3cdb4d39	0.026770221
63	0x3daa0611	0.08301938
64	0x3c8a76c1	0.01690233
65	0xbe166c10	-0.1468966
66	0xbdb8c649	-0.09022195
67	0x3d7d3d6d	0.06182616
68	0xbd8de6b4	-0.06928769
69	0xbd229f2b	-0.039702576
70	0x3bcfdf63	0.0063437684
71	0x3c91c354	0.017793335
72	0x3daace85	0.08340172
73	0xbda97972	-0.08275117
74	0x3cdb7c87	0.026792778
75	0xbcbb0326	-0.02282865
76	0x3dcd75e0	0.100322485
77	0xbdcd01a7	-0.10010081
78	0x3b4d8c11	0.0031364004
79	0xbcc75032	-0.024330232
80	0x3d8fe5ba	0.07026239
81	0xbe16b581	-0.14717676
82	0xbbd221f4	-0.006412739
83	0x3e2e99a0	0.17050791
84	0x3d5e2615	0.054235537
85	0x3d9a3d81	0.07531262
86	0x3d5d472a	0.054022945
87	0xbc838521	-0.016054692
88	0x3d0cfbf8	0.034419984
89	0x3d506e3a	0.05088637
90	0xba958149	-0.0011406328
91	0xbd9fed30	-0.07808912
92	0xbc9389c3	-0.018010026
93	0x3d818ed4	0.063260704
94	0xbaa3da9c	-0.0012501064
95	0xbd929718	-0.07157725
96	0xbe081531	-0.13289334
97	0x3d778435	0.060428817
98	0x3e10e3ef	0.1414945
99	0x3c08fe10	0.0083613545
100	0x3dcf6d38	0.10128254
101	0xbc57126e	-0.013126953
102	0x3ca59350	0.020211846
103	0xbd317efc	-0.043333992
104	0xbdc90c01	-0.09816743
105	0xbd8e947c	-0.06961915
106	0xbcc1b0af	-0.02364382
107	0x3bc614c9	0.0060449583
108	0x3c3fdd43	0.011710468
109	0x3d7efc63	0.062252413
110	0x3d3a1639	0.04543135
111	0xbd33ef52	-0.043929406
112	0xbd9597d3	-0.07304349
113	0xbd621ffc	-0.055206284
114	0x3d99bca4	0.075066835
115	0x3bf582c9	0.0074923974
116	0x3c21942c	0.009861987
117	0x3bc0cfe7	0.005884159
118	0x3d6c079f	0.057624456
119	0xbe15c0b8	-0.14624298
120	0x3c02fbfa	0.007994646
121	0xbd7f1726	-0.062277935
122	0xb91fa221	-0.0001522382
123	0xbc2af303	-0.010433915
124	0x3c5e5ee3	0.013572427
125	0x3c957db7	0.018248422
126	0xbd010478	-0.031498402
127	0x3c2e30c4	0.010631744
128	0xbe201f38	-0.15636909
129	0x3d6744b3	0.056462
130	0x3d1639c3	0.03667618
131	0xbe2fc69f	-0.17165612
132	0xbb79ae2e	-0.0038098204
133	0xbcaa56d8	-0.020793363
134	0xbd5bc525	-0.05365481
135	0xbd915b31	-0.070974715
136	0x3daf4f4f	0.08560049
137	0xbd61e300	-0.055148125
138	0x3c536ce2	0.012904378
139	0xbd9ed1e0	-0.07754874
140	0x3c64fbcc	0.013976049
141	0xbd48b520	-0.04900086
142	0xbd32ca7d	-0.04365014
143	0x3b81deed	0.0039633424
144	0x3d0357e0	0.032066226
145	0xbd349856	-0.04409059
146	0x3daa99af	0.08330094
147	0xbdd64ae3	-0.10463502
148	0xbd76ea5e	-0.060282104
149	0xbde68697	-0.1125614
150	0xbe0df8ca	-0.13864437
151	0x3cd90349	0.026490824
152	0xbc5b4edf	-0.013385504
153	0x3dc63df7	0.096797876
154	0x3c0b4cf7	0.008502237
155	0x3d9380a0	0.07202268
156	0x3cc118a5	0.023571322
157	0x3d94ec8b	0.072716795
158	0x3d412f0d	0.04716401
159	0x3d862fea	0.06552108
160	0xbca643c2	-0.020295981
161	0x3cdafe07	0.026732458
162	0x3dd387c7	0.10328632
163	0x3d54d0c8	0.05195692
164	0x3cc537c0	0.024074435
165	0x3d24beb8	0.040220946
166	0xbb4049b1	-0.0029340799
167	0x3d9f0157	0.077639274

model.features.stage1.unit1.dw_conv.bn.running_var f4 [168]
0	0x3be2f24a	0.0069258558
1	0x3d2edd27	0.042691376
2	0x3cea9503	0.028635507
3	0x3cc4cac2	0.024022464
4	0x3c20cba0	0.009814173
5	0x3cb65041	0.022255065
6	0x3c3e1b62	0.011603208
7	0x3bee34db	0.0072694845
8	0x3cb97a9e	0.022641476
9	0x3c756f2b	0.014980118
10	0x3d3d4f14	0.046217993
11	0x3c41fdfd	0.011840341
12	0x3d1097de	0.03530108
13	0x3cc305fc	0.023806565
14	0x3c290167	0.010315276
15	0x3d1163b8	0.03549549
16	0x3c0bff98	0.008544825
17	0x3d435f19	0.047698114
18	0x3c1526ff	0.009103536
19	0x3c58994a	0.013220141
20	0x3d36d368	0.044635206
21	0x3c3c4878	0.011491887
22	0x3cbd126b	0.023080071
23	0x3ce25c75	0.027631978
24	0x3c6863f2	0.014183985
25	0x3d34de73	0.044157457
26	0x3c9d4d75	0.019201973
27	0x3beabfca	0.0071639763
28	0x3d351a3a	0.044214465
29	0x3ca4f622	0.020136897
30	0x3c36f1f4	0.011166085
31	0x3c44d56f	0.012013777
32	0x3c54846a	0.012971023
33	0x3c07992a	0.008276263
34	0x3cde359c	0.027125172
35	0x3c80b133	0.015709495
36	0x3c413461	0.011792273
37	0x3c9c973b	0.019115081
38	0x3ccbc273	0.024872994
39	0x3b260b2e	0.0025336253
40	0x3ca11e31	0.019667717
41	0x3d1cc178	0.038270444
42	0x3cbd9cd7	0.023146076
43	0x3c0a4fc8	0.008441873
44	0x3c6bbc48	0.0143881515
45	0x3ca8abf4	0.020589806
46	0x3c9c28c8	0.019062415
47	0x3c82ec51	0.015981825
48	0x3c30d4ea	0.01079295
49	0x3c765d70	0.015036926
50	0x3cc09911	0.023510488
51	0x3c3f42d6	0.01167365
52	0x3c70757a	0.014676446
53	0x3c05a71d	0.008157519
54	0x3cbd4d88	0.023108259
55	0x3caaf762	0.020869914
56	0x3c33c6a8	0.010972656
57	0x3ce1c997	0.027561946
58	0x3b90ee77	0.0044229585
59	0x3c08eabc	0.008356746
60	0x3c4937f4	0.012281407
61	0x3c29090f	0.010317101
62	0x3c6ba7fa	0.01438331
63	0x3d213c18	0.03936395
64	0x3afde0f1	0.0019369406
65	0x3d0eb83b	0.034843665
66	0x3c7f8de4	0.015597794
67	0x3c80d0d1	0.015724571
68	0x3c894cf8	0.016760334
69	0x3bffffc0	0.00781247
70	0x3d3e6dd7	0.04649147
71	0x3b699cd9	0.0035646467
72	0x3cdf05f1	0.027224513
73	0x3ca86bc7	0.020559205
74	0x3c98023a	0.01855575
75	0x3c0fa2ed	0.008766872
76	0x3c9e6e41	0.019339683
77	0x3ca85c2b	0.020551762
78	0x3c1a8b0a	0.009432564
79	0x3cd0735a	0.025445629
80	0x3c63b600	0.013898373
81	0x3d0e6d7d	0.034772385
82	0x3d3ca81a	0.04605875
83	0x3d980bfa	0.07424159
84	0x3c91d359	0.017800974
85	0x3c0a2b4c	0.008433174
86	0x3c19392b	0.009352009
87	0x3c151c68	0.009101011
88	0x3b97579b	0.0046185977
89	0x3d173588	0.036916286
90	0x3c9c7aa9	0.019101458
91	0x3cc5e4d8	0.024156973
92	0x3c4a1215	0.012333413
93	0x3c97f425	0.018549034
94	0x3c15b893	0.009138244
95	0x3c2d32ef	0.010571226
96	0x3cb2516e	0.021767344
97	0x3cbd903d	0.023140067
98	0x3d07cd64	0.03315486
99	0x3ce899ce	0.028393652
100	0x3c981668	0.018565372
101	0x3c97b3d8	0.018518373
102	0x3b8fe601	0.0043914323
103	0x3ca7b18e	0.020470407
104	0x3cf1d277	0.029519303
105	0x3c1f0fed	0.009708387
106	0x3c57e10b	0.013176213
107	0x3d4c956e	0.049947195
108	0x3c499e71	0.012305842
109	0x3c4662a9	0.012108483
110	0x3c370037	0.011169485
111	0x3c67cfdc	0.014148679
112	0x3ca0cd53	0.019629156
113	0x3c9bc04d	0.019012595
114	0x3be923b7	0.0071148532
115	0x3bbad236	0.0057013286
116	0x3cb256e2	0.021769945
117	0x3be92b95	0.007115791
118	0x3cc07932	0.02349529
119	0x3cb81651	0.022471579
120	0x3c4e7b7b	0.012602682
121	0x3c4083bc	0.011750158
122	0x3c888a68	0.01666756
123	0x3b88b464	0.004171895
124	0x3c8240cb	0.015900036
125	0x3c328adb	0.010897364
126	0x3d10d2e9	0.03535739
127	0x3d097dd0	0.03356725
128	0x3cef8263	0.029236978
129	0x3c6160a7	0.013755954
130	0x3c05e452	0.008172112
131	0x3d175efd	0.036955822
132	0x3c07293b	0.008249576
133	0x3c470344	0.012146775
134	0x3c31e200	0.010857105
135	0x3ca303aa	0.019899208
136	0x3ce46e5f	0.02788466
137	0x3c335fcc	0.010948133
138	0x3c881cb6	0.016615253
139	0x3c6c8b3e	0.014437495
140	0x3bed96d2	0.007250645
141	0x3cd1b70e	0.025599983
142	0x3d0ad674	0.033895925
143	0x3ba2d507	0.0049692425
144	0x3bef4a28	0.0073025413
145	0x3c70ec31	0.01470475
146	0x3c82ed18	0.015982196
147	0x3caba2ed	0.020951713
148	0x3c02ad99	0.007975959
149	0x3cbc290a	0.022968788
150	0x3d656014	0.05599983
151	0x3c33f28e	0.0109831225
152	0x3cbca78b	0.02302911
153	0x3cf51d45	0.029921183
154	0x3ca2c3b4	0.01986871
155	0x3ce60d76	0.02808259
156	0x3c8a1f02	0.016860489
157	0x3c382e0f	0.01124145
158	0x3c0c822b	0.008575956
159	0x3c24e564	0.010064457
160	0x3c812dbb	0.015768876
161	0x3c67ee57	0.014155946
162	0x3cbd7a87	0.023129715
163	0x3c95cd9a	0.018286515
164	0x3cde2c57	0.027120752
165	0x3c8c9ba0	0.017164052
166	0x3ca08242	0.019593362
167	0x3c5cca3a	0.013475949
