yono_compression/yono/data/saved_model/MicroNet-AD-I-ch192-s22_skoda_adam_multistep_nomixup.pt (torch, 777089 bytes, 57 tensors)

model.features.init_block.conv.weight f4 [112, 1, 3, 3]
0.17938411 -0.18654816 -0.0688686 0.17288788 -0.33251742 0.19313106 -0.02937273 0.16116497
0.038029216 -0.01815398 0.121994264 0.0077015436 0.18745117 -0.12662171 -0.039039433 -0.016375799
0.04617756 -0.011590806 0.32936412 0.08719702 -0.14307871 -0.1835634 -0.06035969 -0.15500313
-0.093410216 0.023184564 0.18853454 0.17492187 -0.35118246 0.19405945 0.09464296 0.31697217
0.21566947 -0.2829253 -0.31421226 -0.17510551 0.27611715 -0.048251953 0.17711166 -0.09354286
0.35337463 -0.16313285 0.23013002 0.022570597 -0.1615143 0.16710792 -0.14114143 0.12645866
-0.12220605 -0.00035015502 -0.2626704 -0.18811549 0.24832712 -0.022745596 0.33642003 0.23353203
-0.023503093 -0.20479329 0.22479096 0.08338723 -0.1568348 0.25333843 0.18302163 0.30859703
-0.1693615 -0.067932375 0.0016269215 0.080277056 -0.22094426 -0.22361168 0.214061 -0.09581711
0.13382047 0.09959361 0.10546667 0.07021867 0.17268999 0.15977062 -0.30683625 0.17774545
-0.23272328 -0.23522921 0.017392483 -0.09728048 0.19585694 -0.2172545 -0.31328952 0.23460275
-0.07261275 0.14151105 0.11405158 -0.25060356 0.02330725 0.07976537 -0.21657199 -0.17984611
0.13413094 0.0564625 -0.14874971 -0.14434825 0.29818416 -0.09977433 0.14223167 0.13847072
-0.23469415 -0.24975953 0.2743775 -0.0016491206 0.21466464 0.100429796 0.05044787 0.22666618
0.32969055 -0.23015824 0.04842504 0.25304046 0.19194216 0.18514483 -0.2255048 -0.24015892
-0.23458835 0.025809327 0.34280732 -0.18778317 0.16638346 -0.2319524 -0.2653258 -0.05905603
0.20152426 0.30756146 -0.19458702 0.05857569 0.27570418 0.20884831 0.2020227 0.25943705
0.23066102 0.10129966 -0.2153942 -0.28768227 -0.17135063 -0.011355513 -0.1972625 0.10466294
0.12548627 -0.058214586 0.1156578 0.14733548 0.21044102 0.20135276 -0.09163599 0.3313578
-0.044256378 -0.03329801 -0.31442088 -0.20059234 -0.22001575 -0.14158188 0.22951499 -0.10946975
-0.26593885 0.12760957 0.15146933 0.22067484 -0.1773235 0.05911921 -0.10601223 -0.07708332
-0.28678575 -0.1524386 -0.06626174 0.090276435 0.029395245 0.106159516 0.26142442 0.28402174
0.28789797 -0.06498355 -0.23921336 0.27121598 -0.0585996 -0.07606551 -0.3201645 -0.049693722
-0.23091948 0.2555281 -0.24652036 -0.31244364 -0.030479696 -0.18674873 0.13202979 -0.102419235
-0.12977599 0.025031539 0.27026108 -0.20601036 0.15163113 0.22325835 0.35811645 -0.21128744
0.08406822 -0.21141793 0.29920676 -0.11087462 0.21065922 -0.007211495 -0.019231793 0.023552168
0.04266184 0.11299144 0.05650692 0.09338259 -0.29565153 0.25562143 0.25176036 0.2454322
0.24118768 -0.20296767 -0.16848528 0.28282806 -0.24923913 0.2627696 -0.246533 -0.23461314
0.15496504 -0.25800538 -0.11613906 0.23832239 0.24070454 0.32142806 -0.05216201 -0.23468207
0.32687065 -0.06382635 -0.1333298 0.07262016 -0.23435876 0.21811046 0.2162919 -0.2596712
-0.29504004 0.018463202 0.11598198 0.0054545193 -0.16404022 -0.07758735 -0.29473692 -0.2592383
-0.22716719 0.30086696 0.26360852 -0.11968769 0.056870088 0.14487715 0.031134706 -0.12644462
00000000: 78b0 373e 7b06 3fbe fb0a 8dbd 8509 313e
00000010: b93f aabe 26c4 453e 149f f0bc 6e08 253e
00000020: 86c4 1b3d a8b7 94bc 21d8 f93d 3b5d fc3b
00000030: 33f3 3f3e 1fa9 01be d0e7 1fbd 8a26 86bc
00000040: ae24 3d3d 5de7 3dbc 6aa2 a83e 5a94 b23d
00000050: 3a83 12be 0bf8 3bbe b93b 77bd 24b9 1ebe
00000060: db4d bfbd 8eed bd3c 330f 413e b81e 333e
00000070: 30ce b3be 85b7 463e 2bd4 c13d 2d4a a23e
00000080: 75d8 5c3e 96db 90be 6ee0 a0be dc4e 33be
00000090: 3a5f 8d3e d7a3 45bd c25c 353e 6693 bfbd
000000a0: 85ed b43e 4c0c 27be 34a7 6b3e f9e5 b83c
000000b0: 0164 25be 571e 2b3e 6187 10be 617e 013e
000000c0: 2a47 fabd 0395 b7b9 bc7c 86be 59a1 40be
000000d0: 7749 7e3e f954 babc 3f3f ac3e 0523 6f3e
000000e0: 8f89 c0bc 55b5 51be 9a2f 663e edc6 aa3d
000000f0: 4d99 20be 93b5 813e 066a 3b3e 6e00 9e3e
00000100: 1a6d 2dbe 2120 8bbd 6d3e d53a 4c68 a43d
00000110: 363f 62be 76fa 64be cf32 5b3e c33b c4bd
00000120: 3c08 093e bcf7 cb3d e9fe d73d cece 8f3d
00000130: a5d5 303e e99a 233e a419 9dbe e702 363e
00000140: 034f 6ebe eddf 70be ae7a 8e3c fd3a c7bd
00000150: b98e 483e f777 5ebe 7c67 a0be b43b 703e
00000160: feb5 94bd 46e8 103e e093 e93d 1c4f 80be
00000170: d9ee be3c 075c a33d 0cc5 5dbe 9429 38be
00000180: 9f59 093e 3945 673d d851 18be 07d0 13be
00000190: 98ab 983e 7c56 ccbd 2ea5 113e 45cb 0d3e
000001a0: aa53 70be f6c0 7fbe 357b 8c3e 4e27 d8ba
000001b0: 0cd1 5b3e 23ae cd3d 6da2 4e3d 2e1b 683e
000001c0: 33cd a83e 9aae 6bbe 5659 463d 858e 813e
000001d0: 7c8c 443e 9b96 3d3e bbea 66be 38ec 75be
000001e0: ee37 70be 156e d33c 7184 af3e 3b4a 40be
000001f0: 6d60 2a3e ee84 6dbe c9d8 87be bce4 71bd
00000200: 605c 4e3e b278 9d3e d241 47be 10ed 6f3d
00000210: 1929 8d3e 55dc 553e 0adf 4e3e efd4 843e
00000220: 6732 6c3e 3276 cf3d 4c90 5cbe 174b 93be
00000230: 8a76 2fbe 790c 3abc 2eff 49be 8659 d63d
00000240: 797f 003e 6b72 6ebd ffdd ec3d 1ddf 163e
00000250: da7d 573e 6b2f 4e3e a6ab bbbd bba7 a93e
00000260: 2d46 35bd 7e63 08bd c6fb a0be 1468 4dbe
00000270: cf4b 61be d7fa 10be fa05 6b3e ad31 e0bd
00000280: 2329 88be 15ac 023e c71a 1b3e 96f8 613e
00000290: 4b94 35be fc26 723d f11c d9bd dcdd 9dbd
000002a0: 95d5 92be dd18 1cbe 3cb4 87bd dae2 b83d
000002b0: 4cce f03c 296a d93d 6cd9 853e 4c6b 913e
000002c0: 5d67 933e 1816 85bd 59f4 74be d2dc 8a3e
000002d0: 2206 70bd 3cc8 9bbd 9aec a3be a58b 4bbd
000002e0: 2876 6cbe 94d4 823e d56f 7cbe 9df8 9fbe
000002f0: 8eb0 f9bc 0f3b 3fbe d132 073e 2dc1 d1bd
00000300: ffe3 04be f10e cd3c a95f 8a3e 61f4 52be
00000310: 3145 1b3e d69d 643e 0a5b b73e bc5b 58be
00000320: f52b ac3d f17d 58be a131 993e 3c12 e3bd
00000330: 0db7 573e 684e ecbb fe8b 9dbc 7af0 c03c
00000340: 2ebe 2e3d 0e68 e73d cd73 673d 5f3f bf3d
00000350: a35f 97be d0e0 823e bce6 803e 9452 7b3e
00000360: e7f9 763e c2d6 4fbe 6887 2cbe d7ce 903e
00000370: 8b38 7fbe bd89 863e 2673 7cbe 6d3e 70be
00000380: 28af 1e3e 4819 84be 51da edbd c90a 743e
00000390: 407b 763e 3892 a43e d5a7 55bd 7f50 70be
000003a0: 975b a73e 64b7 82bd 9b87 08be e1b9 943d
000003b0: befb 6fbe 5958 5f3e a07b 5d3e a0f3 84be
000003c0: 7d0f 97be 2440 973c f687 ed3d d3bb b23b
000003d0: 29fa 27be 1ee6 9ebd c2e7 96be e2ba 84be
000003e0: 849e 68be 3c0b 9a3e b2f7 863e d21e f5bd
000003f0: 9cf0 683d ad5a 143e 360e ff3c b37a 01be

model.features.init_block.bn.weight f4 [112]
0.26743925 0.25608587 0.30931264 0.34051186 0.37623906 0.3087087 0.28682503 0.3199806
0.244076 0.30006254 0.2959285 0.25098503 0.24648055 0.35228115 0.238644 0.30046314
0.28125137 0.36419907 0.39091715 0.27343374 0.28961983 0.40099365 0.3071601 0.20777473
0.31819013 0.2602269 0.33055747 0.3145888 0.42135397 0.25638792 0.2629201 0.32311612
0.33544862 0.35533184 0.34008688 0.31979623 0.26624 0.26232845 0.3405235 0.15550147
0.33918482 0.24684504 0.24807823 0.30857524 0.22129472 0.27998197 0.3319855 0.28084746
0.28668004 0.22068101 0.26327124 0.38924512 0.39627913 0.27589834 0.29213107 0.37348905
0.42951405 0.41101426 0.2802158 0.38708496 0.3661706 0.26950172 0.3251565 0.34503156
0.30961043 0.1872153 0.24530135 0.36127725 0.22401768 0.3080746 0.32088453 0.3230425
0.3901987 0.22768149 0.35219866 0.3271027 0.25823095 0.35677832 0.3597391 0.3401192
0.28871506 0.43709338 0.3293094 0.26284242 0.27909285 0.28941983 0.3802702 0.35616636
0.2921378 0.29337507 0.32719013 0.28579012 0.31014842 0.27532375 0.33293617 0.33057523
0.3151856 0.31769073 0.2815849 0.29996556 0.36318597 0.26079962 0.4347343 0.2570832
0.26485676 0.30713126 0.36637306 0.24228443 0.3174417 0.25860554 0.30306524 0.30058786
00000000: cced 883e b01d 833e 3a5e 9e3e 9257 ae3e
00000010: 68a2 c03e 110f 9e3e bbda 923e 7fd4 a33e
00000020: 0fef 793e cca1 993e f183 973e 1c81 803e
00000030: 6665 7c3e 325e b43e 185f 743e 4ed6 993e
00000040: 2e00 903e 4d78 ba3e 4b26 c83e 82ff 8b3e
00000050: 0d49 943e 0a4f cd3e 1744 9d3e e6c2 543e
00000060: d1e9 a23e 763c 853e d43e a93e c811 a13e
00000070: b5bb d73e 4745 833e 779d 863e 7a6f a53e
00000080: ecbf ab3e 0eee b53e de1f ae3e 55bc a33e
00000090: 9c50 883e ea4f 863e 1959 ae3e c73b 1f3e
000000a0: a2a9 ad3e f2c4 7c3e 3808 7e3e 93fd 9d3e
000000b0: 159b 623e cc59 8f3e 01fa a93e 3dcb 8f3e
000000c0: bac7 923e 34fa 613e 7dcb 863e 234b c73e
000000d0: 19e5 ca3e 8c42 8d3e 3492 953e f539 bf3e
000000e0: 44e9 db3e 7670 d23e 7278 8f3e 0030 c63e
000000f0: b67a bb3e 21fc 893e ea7a a63e faa7 b03e
00000100: 4285 9e3e 5eb5 3f3e 4730 7b3e 55f9 b83e
00000110: e464 653e f4bb 9d3e fa4a a43e d465 a53e
00000120: 20c8 c73e 5625 693e 6253 b43e 017a a73e
00000130: d936 843e a6ab b63e b92f b83e 1b24 ae3e
00000140: 76d2 933e b4ca df3e 3e9b a83e 4893 863e
00000150: 42e5 8e3e d62e 943e c7b2 c23e 705b b63e
00000160: 1693 953e 4235 963e 7785 a73e 1553 923e
00000170: c6cb 9e3e 3cf7 8c3e 9c76 aa3e 2841 a93e
00000180: 0260 a13e 5ca8 a23e e52b 903e 1695 993e
00000190: 83f3 b93e 8787 853e 7f95 de3e 69a0 833e
000001a0: 4e9b 873e 4f40 9d3e 4095 bb3e 6919 783e
000001b0: b887 a23e f267 843e 5e2b 9b3e a7e6 993e

model.features.init_block.bn.bias f4 [112]
-0.0074058757 -0.027658742 -0.07533962 -0.019633207 -0.0027622283 -0.0568432 -0.035939947 -0.0134148495
-0.061954677 -0.060842767 -0.009729546 -0.028939668 -0.019073073 0.008486974 0.0080640605 -0.037575305
-0.042621557 -0.010802434 -0.061024226 -0.049575273 -0.03688912 -0.049473874 -0.0071860896 0.054575797
-0.020838242 -0.043742724 -0.00092521874 -0.057001278 -0.11137196 -0.008800426 -0.06405158 -0.013093647
-0.029493703 -0.068634085 -0.05238269 0.025318176 -0.07693182 -0.016670285 -0.05755492 -0.04355787
-0.032112498 -0.05066891 -0.031196382 -0.07284635 -0.04295488 -0.027399782 0.00448507 -0.019469645
-0.016698092 -0.07437618 -0.022664297 0.009003077 -0.05494062 -0.025721695 0.021310568 -0.05326513
0.010422868 -0.024964921 -0.010235035 -0.03369162 -0.02024062 -0.059842445 -0.02113663 -0.036507014
-0.03461099 -0.057425976 -0.024372676 -0.10655258 -0.0028078065 -0.0013272883 -0.026795305 0.033396903
-0.006142225 -0.049228195 -0.059603684 -0.028511573 -0.10597238 0.0042213616 0.020275006 0.0038134418
0.007459486 -0.06389652 -0.04276284 -0.03227602 0.024796506 0.00785581 -0.04063458 -0.0074332864
0.021606842 -0.004758889 0.08183991 -0.037681807 0.016843667 0.04523006 0.013883799 -0.07383115
-0.03591596 0.018889785 0.05405634 -0.01234505 -0.00940509 0.034998305 -0.06613357 0.028661132
-0.01268738 0.05209403 -0.026806038 -0.04845306 -0.00066246686 -0.007521843 -0.02147621 -0.05342477
00000000: fdac f2bb 9694 e2bc a94b 9abd d2d5 a0bc
00000010: 8006 35bb 6ad4 68bd c435 13bd f5c9 5bbc
00000020: 30c4 7dbd 4436 79bd ac68 1fbc e212 edbc
00000030: 223f 9cbc f30c 0b3c 1f1f 043c 90e8 19bd
00000040: f193 2ebd b1fc 30bc 8af4 79bd 710f 4bbd
00000050: 0c19 17bd 1ea5 4abd 4a79 ebbb df8a 5f3d
00000060: f6b4 aabc 922b 33bd 618a 72ba 2c7a 69bd
00000070: fb16 e4bd a92f 10bc 7a2d 83bd bc86 56bc
00000080: c79c f1bc 0790 8cbd 3b8f 56bd 1068 cf3c
00000090: 6e8e 9dbd 1f90 88bc b5be 6bbd bd69 32bd
000000a0: 6588 03bd 348a 4fbd 8e8f ffbc 7830 95bd
000000b0: 75f1 2fbd 8275 e0bc 7ef7 923b ce7e 9fbc
000000c0: 70ca 88bc 8a52 98bd 7aaa b9bc a481 133c
000000d0: 6a09 61bd 4eb6 d2bc 8093 ae3c 892c 5abd
000000e0: adc4 2a3c 3c83 ccbc d9b0 27bc 3900 0abd
000000f0: a8cf a5bc 5a1d 75bd ba26 adbc 6188 15bd
00000100: 41c4 0dbd 8037 6bbd 35a9 c7bc 3d38 dabd
00000110: 2d03 38bb 68f8 adba d481 dbbc 31cb 083d
00000120: b844 c9bb 81a3 49bd fe22 74bd 1a91 e9bc
00000130: 0c08 d9bd 5953 8a3b c517 a63c f0ea 793b
00000140: b46e f43b 2edc 82bd 1628 2fbd dc33 04bd
00000150: 0b22 cb3c a8b5 003c 7270 26bd ed92 f3bb
00000160: d500 b13c 74f0 9bbb af9b a73d 3d58 1abd
00000170: bbfb 893c 2843 393d e078 633c c934 97bd
00000180: 9d1c 13bd c0be 9a3c 2e6a 5d3d e542 4abc
00000190: ce17 1abc 625a 0f3d 0a71 87bd c0ca ea3c
000001a0: bbde 4fbc 8d60 553d 5698 dbbc b776 46bd
000001b0: 66a9 2dba cb79 f6bb e0ee afbc eed3 5abd

model.features.init_block.bn.running_mean f4 [112]
0.0053335335 0.0063058482 -0.0011645762 -0.0035136812 0.024167044 -0.008637902 0.0355846 -0.0062038386
0.015555881 -0.013412092 -0.014686594 0.005040536 0.047574 -0.015295328 0.02864583 -0.009201181
0.037613675 -0.037167903 -0.01665633 0.041340783 -0.041800678 0.005583993 0.015766712 0.0304198
-0.005196001 0.016351068 -0.00997293 -0.023588767 0.028575744 0.011598614 -0.013604202 0.0065686074
-0.009411115 -0.030946169 -0.0037124031 -0.008705806 0.006632283 -0.038520504 -0.032453716 0.023961412
-0.026168473 -0.010174278 0.004120745 0.024772475 0.030076709 -0.016267842 0.0051405416 -0.004924127
0.0191005 0.0035913654 0.035257176 -0.0045260983 0.020352148 0.009896226 0.010536623 -0.037136205
-0.044831052 -0.04468541 -0.024115646 0.00013942743 -0.021931486 0.0011922291 -0.045001525 -0.028138278
0.029103681 0.025971299 0.0342847 0.004814233 0.040634993 0.045713253 -0.031150756 0.023791796
-0.05999401 0.004433404 -0.026325494 -0.00810814 -0.046345275 -0.0074986955 0.019402126 -0.005725273
0.021772087 0.017779578 -0.007831084 0.035955336 -0.0006651767 -0.0150672635 -0.02098031 -0.04353537
0.01986021 0.021758653 0.034982607 -0.0027246962 -0.0013589998 -0.029215287 -0.04221592 -0.02776859
-0.016759157 -0.04449175 0.044292998 0.017013716 -0.04202451 0.05334938 -0.010609539 0.01353698
0.03810051 0.012500361 -0.01970194 0.02914828 -0.017009407 -0.00633646 -0.0073707327 -0.015845459
00000000: ecc4 ae3b 4aa1 ce3b b1a4 98ba ca45 66bb
00000010: f7f9 c53c fd85 0dbc 28c1 113d 9249 cbbb
00000020: 18de 7e3c 64be 5bbc 0aa0 70bc 152b a53b
00000030: f4dc 423d 4199 7abc a9aa ea3c 8dc0 16bc
00000040: cc10 1a3d 5f3d 18bd db72 88bc f454 293d
00000050: 3037 2bbd eef9 b63b 3129 813c f232 f93c
00000060: 3743 aabb adf2 853c 8065 23bc 3b3d c1bc
00000070: ae17 ea3c 1d08 3e3c 29e4 5ebc 793d d73b
00000080: 1431 1abc d282 fdbc ca4b 73bb cca2 0ebc
00000090: 9f53 d93b adc7 1dbd 30ee 04bd b94a c43c
000000a0: 445f d6bc 04b2 26bc 5107 873b a5ef ca3c
000000b0: 6e63 f63c 2344 85bc fd71 a83b 925a a1bb
000000c0: a778 9c3c 1d5d 6b3b d469 103d aa4f 94bb
000000d0: 8cb9 a63c c823 223c cda1 2c3c 221c 18bd
000000e0: c4a0 37bd 0c08 37bd 2d8e c5bc 4433 1239
000000f0: a9a9 b3bc 9244 9c3a 8553 38bd 3f82 e6bc
00000100: d86a ee3c c3c1 d43c 1d6e 0c3d b7c0 9d3b
00000110: e170 263d d23d 3b3d df2f ffbc 03e7 c23c
00000120: 47bc 75bd 1746 913b 90a8 d7bc 01d8 04bc
00000130: 8bd4 3dbd 9eb7 f5bb 35f1 9e3c 129b bbbb
00000140: 605b b23c 7aa6 913c f24d 00bc e745 133d
00000150: 415f 2eba afdc 76bc e6de abbc 2552 32bd
00000160: e1b1 a23c 343f b23c ec49 0f3d d190 32bb
00000170: 7720 b2ba e654 efbc 9aea 2cbd f47a e3bc
00000180: 804a 89bc fb3c 36bd 936c 353d 5960 8b3c
00000190: e521 2cbd e184 5a3d a2d3 2dbc 36ca 5d3c
000001a0: 480f 1c3d 50ce 4c3c f665 a1bc 60c8 ee3c
000001b0: 5057 8bbc 14a2 cfbb 3086 f1bb 56ce 81bc

model.features.init_block.bn.running_var f4 [112]
0.28672457 0.029665608 0.035440106 0.19942199 0.30112833 0.08042667 0.58393264 0.19466393
0.23744047 0.21426268 0.37627727 0.6923847 0.70179886 0.09575031 0.33376804 0.093358435
0.3548466 0.67589194 0.12459203 0.5371633 0.51766115 0.51242834 0.13586949 0.26425254
0.6578375 0.38863477 0.29951236 0.2291744 0.3836795 0.14244564 0.10673121 0.15478976
0.14802468 0.23765181 0.12846893 0.045523692 0.25190732 0.3420317 0.41901937 0.1294226
0.49357787 0.6423957 0.4523552 0.3634725 0.5948478 0.27388212 0.23205343 0.13338876
0.41617763 0.3649585 0.5912188 0.22876061 0.18500537 0.30241096 0.075832136 0.46406585
0.6025258 0.59929127 0.15361787 0.5000898 0.13187124 0.4415148 0.4884908 0.23687693
0.35709852 0.1625626 0.652855 0.47527814 0.36240023 0.49695653 0.3314733 0.18634373
0.7567591 0.43469882 0.21585068 0.55555624 0.6510758 0.39840427 0.14399965 0.31846878
0.13594122 0.16772752 0.26984552 0.34020832 0.40565565 0.3041669 0.12408724 0.7022134
0.13811176 0.2865317 0.37503144 0.30047277 0.16520034 0.22431792 0.39292288 0.4665106
0.5896184 0.5617817 0.7301184 0.3200414 0.7756946 0.6776892 0.7129557 0.4341573
0.47979876 0.5186023 0.16026223 0.5493809 0.16803984 0.16291513 0.25033352 0.2666732
00000000: 90cd 923e 4a05 f33c a529 113d 4735 4c3e
00000010: 7e2d 9a3e bdb6 a43d 9c7c 153f fb55 473e
00000020: 9823 733e ad67 5b3e 6aa7 c03e 2040 313f
00000030: 17a9 333f bd18 c43d a5e3 aa3e b532 bf3d
00000040: 74ae b53e 4107 2d3f 1b2a ff3d 8983 093f
00000050: 7185 043f 812e 033f 5f21 0b3e 1c4c 873e
00000060: 0a68 283f 23fb c63e af59 993e b2ac 6a3e
00000070: a471 c43e 45dd 113e e595 da3d 3581 1e3e
00000080: c893 173e ff5a 733e 5c8d 033e 0d77 3a3d
00000090: fff9 803e c71e af3e b589 d63e 5c87 043e
000000a0: 3db6 fc3e 0b74 243f 1a9b e73e 1119 ba3e
000000b0: f247 183f 473a 8c3e 6a9f 6d3e 1097 083e
000000c0: 3c15 d53e d7db ba3e 1e5a 173f 3940 6a3e
000000d0: 0c72 3d3e 9cd5 9a3e e14d 9b3d 0a9a ed3e
000000e0: 213f 1a3f 276b 193f 014e 1d3e e305 003f
000000f0: 4109 073e 3a0e e23e 771b fa3e de8f 723e
00000100: 9ed5 b63e cf76 263e 8121 273f a857 f33e
00000110: 868c b93e 1671 fe3e deb6 a93e e4d0 3e3e
00000120: f7ba 413f d890 de3e f607 5d3e ef38 0e3f
00000130: e7ac 263f a5fb cb3e a574 133e 570e a33e
00000140: 2d34 0b3e c3c0 2b3e 3129 8a3e c92f ae3e
00000150: 19b2 cf3e c4bb 9b3e 7321 fe3d 42c4 333f
00000160: 2b6d 0d3e 48b4 923e 1f04 c03e 91d7 993e
00000170: 472a 293e 99b3 653e 302d c93e 7ada ee3e
00000180: 3bf1 163f edd0 0f3f 0ae9 3a3f 77dc a33e
00000190: ec93 463f 0a7d 2d3f 4484 363f de49 de3e
000001a0: 2fa8 f53e 1fc3 043f c81b 243e 3aa4 0c3f
000001b0: a312 2c3e 39d3 263e b72b 803e 6489 883e

model.features.stage1.unit1.dw_conv.conv.weight f4 [112, 1, 3, 3]
-0.34829766 -0.035120256 0.44293514 -0.5514693 -0.756136 0.3171781 -0.15781063 -0.08658757
0.56345737 -0.13348961 0.5371171 -0.5358361 -0.5915254 -0.23585492 0.0071092187 0.36852324
-0.5638 -0.31776145 -0.02940313 0.8418593 0.11666407 -0.35132307 0.6743104 -0.111591056
-0.12110528 0.56147665 -0.35426176 -0.8778535 -0.6268747 0.35416275 0.12649159 -0.37427062
-0.41343576 -0.19569187 0.68884045 0.23816057 0.41096416 0.038609695 0.09070839 0.11482803
-0.18260102 0.4115165 -0.72168064 0.036766507 -0.55117 -0.19446011 -0.53838164 -0.0913212
-0.29908717 -0.21768028 -0.46103725 0.42054302 -0.6605714 0.023694482 0.17290066 -0.45863754
0.5351221 -0.30346793 -0.47434133 -0.18747984 0.37235102 0.35661063 -0.50527024 -0.03427621
-0.43301374 0.76461643 0.23444082 -0.49139884 -0.31850302 0.020892963 -0.49422196 -0.17051207
-0.045006964 0.5774663 -0.4012037 -0.23068169 -0.28314736 -0.09490112 -0.5902598 -0.6087616
-0.12800662 -0.33062264 -0.2608273 0.08409601 -0.0042982227 -0.4523465 -0.23585254 0.95622355
-0.38781112 -0.76749235 -0.11476846 1.1121438 -0.25782663 0.421023 0.34046304 -0.36999318
0.63286155 0.13256061 0.6734791 0.09159437 0.07758032 -0.39946684 -0.80673563 0.47060302
0.086927265 0.24053992 -0.036464375 0.21407978 0.39244312 0.02938201 -0.11561867 0.037844863
0.4390587 0.20873778 -0.7110296 0.2387661 -0.12882762 0.13368066 -0.3518221 0.19668403
-0.045558717 0.024001505 -0.83285415 -0.13431802 -0.436401 0.10528139 0.039229725 0.1564167
-0.22396949 -0.14890228 0.067533486 -0.14446744 -0.23575479 -0.6583409 -0.27834037 0.45472687
0.43816638 1.1518599 -0.049196564 0.24820219 0.020945909 -0.49737316 -0.07917947 0.21223119
0.8582533 -0.4503414 0.14421578 0.3283929 0.17520556 -0.020486603 -0.16920365 0.05346835
-0.70280844 -0.15263708 -0.15828627 -0.17563383 -0.055311415 0.74970526 -0.65092987 0.28598145
-0.34946686 0.04835895 -0.22452033 -0.09931642 -0.9004943 0.17499866 0.1970077 1.191617
0.8960115 0.49611956 -0.7501534 0.5702916 0.26546547 -0.66227555 -0.17799512 0.25089452
-0.18768051 0.067168474 0.49390194 0.39317274 -0.36975795 0.30506164 -0.2531345 -0.21746193
-0.058811244 -0.028766556 0.42239287 0.6205511 0.58317137 -0.23709272 0.551046 0.26652834
-0.3156089 0.5150291 -0.5612935 -0.09994802 -0.14113279 -0.053252604 0.011161843 -0.3193067
0.43831483 0.01551521 0.099702545 -0.6445234 0.60491985 0.08809178 -0.7165815 0.62822175
0.34072796 -0.7325026 0.022182718 0.19084354 0.36373857 0.02909629 0.051975757 0.7248283
-0.08379213 -0.40265346 -0.28497735 0.2063107 -0.1641083 -0.34865484 -0.41035736 -0.47145826
0.43056655 0.0538977 -0.19615762 -0.34339678 0.39187923 -0.16610037 0.8076204 0.1721494
0.28314725 0.07549639 0.019258752 -0.68567973 0.10715168 0.64372426 0.25979665 -0.13904266
0.20797347 0.6230544 -0.59469044 0.4068908 0.49965402 0.47165146 -0.122382894 0.086919464
-0.0037890135 0.18345462 -0.49238068 0.12609696 0.71639043 -0.3793927 0.61872077 -0.45849636
00000000: 1254 b2be 42da 0fbd 65c8 e23e 182d 0dbf
00000010: 2192 41bf 2b65 a23e 1c99 21be d354 b1bd
00000020: be3e 103f 80b1 08be 8280 093f 8e2c 09bf
00000030: 356e 17bf f483 71be 73f4 e83b 14af bc3e
00000040: 3255 10bf a1b1 a2be d5de f0bc 1784 573f
00000050: 92ed ee3d 9ee0 b3be 9b9f 2c3f da89 e4bd
00000060: 0c06 f8bd efbc 0f3f cc61 b5be 02bb 60bf
00000070: dc7a 20bf d254 b53e 0387 013e 66a0 bfbe
00000080: daad d3be 7363 48be d957 303f 5de0 733e
00000090: e569 d23e 3325 1e3d 52c5 b93d f52a eb3d
000000a0: c3fb 3abe 4ab2 d23e 10c0 38bf 7a98 163d
000000b0: 7a19 0dbf 8d20 47be 61d3 09bf 9c06 bbbd
000000c0: f421 99be 94e7 5ebe 130d ecbe 6a51 d73e
000000d0: 351b 29bf ee1a c23c df0c 313e 8ad2 eabe
000000e0: c3fd 083f 2660 9bbe dedc f2be b7fa 3fbe
000000f0: cba4 be3e ab95 b63e 6459 01bf 3665 0cbd
00000100: fab3 ddbe e7bd 433f 4111 703e a198 fbbe
00000110: d412 a3be b827 ab3c a90a fdbe b79a 2ebe
00000120: 3959 38bd d5d4 133f 926a cdbe d237 6cbe
00000130: b1f8 90be 855b c2bd 441b 17bf cdd7 1bbf
00000140: 2b14 03be 5f47 a9be 288b 85be 873a ac3d
00000150: 1bd8 8cbb f699 e7be 5483 71be 11cb 743f
00000160: 2e8f c6be 617a 44bf ba0b ebbd ba5a 8e3f
00000170: da01 84be 5490 d73e 2c51 ae3e bf6f bdbe
00000180: 3703 223f f8bd 073e 2069 2c3f d495 bb3d
00000190: 6ee2 9e3d eb86 ccbe 3a86 4ebf e1f2 f03e
000001a0: ec06 b23d 1950 763e ab5b 15bd bb37 5b3e
000001b0: 4eee c83e 8bb2 f03c 7bc9 ecbd 3703 1b3d
000001c0: 4dcc e03e 5bbf 553e 0906 36bf 1a7f 743e
000001d0: 63eb 03be 95e3 083e 0722 b4be 8a67 493e
000001e0: c79b 3abd ce9e c43c ee35 55bf aa8a 09be
000001f0: f46f dfbe c59d d73d 59af 203d b32b 203e
00000200: 4258 65be d779 18be ff4e 8a3d 46ef 13be
00000210: b469 71be 0789 28bf a182 8ebe f6d1 e83e
00000220: 5857 e03e 2570 933f 5682 49bd b728 7e3e
00000230: c196 ab3c b2a7 febe d928 a2bd 2253 593e
00000240: 7db6 5b3f 2693 e6be 4dad 133e 1d23 a83e
00000250: 1669 333e 85d3 a7bc b943 2dbe a101 5b3d
00000260: 41eb 33bf e54c 1cbe cc15 22be 5bd9 33be
00000270: 398e 62bd afec 3f3f 57a3 26bf 296c 923e
00000280: 52ed b2be 0914 463d a8e8 65be 6866 cbbd
00000290: cb86 66bf d932 333e 63bc 493e e886 983f
000002a0: 0261 653f 6203 fe3e 0e0a 40bf a1fe 113f
000002b0: 17eb 873e e48a 29bf 5a44 36be 3f75 803e
000002c0: 522f 40be a08f 893d b7e0 fc3e f04d c93e
000002d0: ea50 bdbe 0a31 9c3e d89a 81be 57ae 5ebe
000002e0: 0fe4 70bd d7a7 ebbc e143 d83e 70dc 1e3f
000002f0: b84a 153f 6fc8 72be 5a11 0d3f 6776 883e
00000300: 7d97 a1be f2d8 033f eeb0 0fbf 8cb1 ccbd
00000310: 1d85 10be 671f 5abd 2ae0 363c 2b7c a3be
00000320: cd6a e03e 8233 7e3c d930 cc3d 7cff 24bf
00000330: 07dc 1a3f 7769 b43d e371 37bf 24d3 203f
00000340: e573 ae3e 4a85 3bbf 88b8 b53c 7d6c 433e
00000350: f13b ba3e 585b ee3c 88e4 543d 598e 393f
00000360: 359b abbd 9828 cebe 8de8 91be 1d43 533e
00000370: 020c 28be e382 b2be 5c1a d2be fa62 f1be
00000380: 3873 dc3e d6c3 5c3d 8bdd 48be b4d1 afbe
00000390: 65a4 c83e 3716 2abe 36c0 4e3f ef47 303e
000003a0: adf8 903e da9d 9a3d 88c4 9d3c b588 2fbf
000003b0: 5772 db3d 1dcb 243f 1104 853e 3361 0ebe
000003c0: fff6 543e 7e80 1f3f a23d 18bf fe53 d03e
000003d0: a7d2 ff3e 4d7c f13e e2a3 fabd d502 b23d
000003e0: 1951 78bb 87db 3b3e 5219 fcbe 901f 013e
000003f0: 5d65 373f c33f c2be 7c64 1e3f 09c0 eabe

model.features.stage1.unit1.dw_conv.bn.weight f4 [112]
0.9900221 0.94748825 0.86573654 0.9686416 0.9924355 0.86664975 0.85884243 0.9225027
0.8789874 0.92856705 0.88986284 0.91057235 0.86532766 0.946376 0.7691968 0.9733061
0.9211226 1.0354122 0.9612636 0.8469991 0.97051793 0.9010733 0.85843796 0.8341267
0.91104317 0.90013725 0.9225403 0.95083535 0.9340881 0.8715422 0.9456657 0.9013298
0.9502741 0.92467195 0.92909664 0.9721071 0.9300313 0.9369271 0.9881506 0.7884069
0.92608535 0.8735959 0.9589639 0.93720603 0.9037953 0.9750692 0.84915406 0.89642555
0.9309053 0.8897955 0.90905696 0.93431914 0.83425516 0.88374114 0.8811005 0.954281
1.0032922 1.0064508 0.93576145 0.9894064 0.92555434 0.8899065 0.97293836 0.8698668
0.88406646 0.8237732 0.8988272 0.96958447 0.83887553 0.8885429 0.878905 0.8319995
1.0124296 0.9096912 1.0139009 0.8562928 0.9042615 0.85243815 0.96480924 0.9023851
0.84103495 0.9357945 0.9577291 0.8642693 0.8760483 0.9201781 0.96415246 0.945816
0.8758446 0.89156014 0.8698801 0.8985183 0.8429724 0.9654059 0.95902073 0.9233924
0.8532395 0.9096481 0.854502 0.88727814 0.9237427 0.85194296 1.0309412 0.90285033
0.83317757 0.91877115 0.9952651 0.88226795 0.977098 0.9052823 0.8476906 0.8771109
00000000: 1772 7d3f 978e 723f e9a0 5d3f e5f8 773f
00000010: 4110 7e3f c2dc 5d3f 19dd 5b3f 2329 6c3f
00000020: 5105 613f 92b6 6d3f 0dce 633f 451b 693f
00000030: 1d86 5d3f b345 723f 15ea 443f 972a 793f
00000040: b1ce 6b3f 6388 843f 5f15 763f efd4 583f
00000050: dd73 783f bdac 663f 97c2 5b3f 5489 553f
00000060: 203a 693f 656f 663f 9a2b 6c3f f269 733f
00000070: 6620 6f3f 641d 5f3f 2617 723f 8dbd 663f
00000080: 2a45 733f 4db7 6c3f 47d9 6d3f 03dc 783f
00000090: 8816 6e3f 74da 6f3f 70f7 7c3f 09d5 493f
000000a0: ee13 6d3f fba3 5f3f a87e 753f bcec 6f3f
000000b0: 215f 673f 239e 793f 2962 593f 257c 653f
000000c0: cf4f 6e3f a3c9 633f f5b7 683f 8a2f 6f3f
000000d0: bf91 553f dc3c 623f cd8f 613f c24b 743f
000000e0: e16b 803f 61d3 803f 108e 6f3f bd49 7d3f
000000f0: 21f1 6c3f ead0 633f 7d12 793f 97af 5e3f
00000100: 2e52 623f cde2 523f 8a19 663f b036 783f
00000110: 8cc0 563f 8c77 633f ebff 603f ebfd 543f
00000120: 4b97 813f 86e1 683f 81c7 813f 0136 5b3f
00000130: af7d 673f 6339 5a3f bdfd 763f b602 673f
00000140: 114e 573f 3a90 6f3f bc2d 753f c140 5d3f
00000150: b444 603f cb90 6b3f b2d2 763f ff20 723f
00000160: 5a37 603f 493d 643f 76b0 5e3f 4c05 663f
00000170: 0acd 573f d724 773f 6282 753f 7263 6c3f
00000180: e76d 5a3f b3de 683f a5c0 5a3f a924 633f
00000190: 677a 6c3f ef18 5a3f e2f5 833f 3321 673f
000001a0: 204b 553f 9634 6b3f b2c9 7e3f 50dc 613f
000001b0: 1823 7a3f 95c0 673f 4002 593f 578a 603f

model.features.stage1.unit1.dw_conv.bn.bias f4 [112]
-0.003705274 -0.02773969 -0.098876625 -0.008694202 0.066370495 -0.06047436 -0.027810194 -0.020886932
-0.0040345476 -0.026278276 -0.058275163 -0.052081544 -0.05109122 0.005579829 -0.12185081 -0.035218082
-0.070597075 0.01571039 -0.017699024 -0.027420111 0.0032987392 -0.028815184 -0.08092796 -0.05769628
0.026600264 0.07195815 0.000295814 -0.02801462 0.031026877 -0.06790128 -0.073675714 -0.012030345
0.017826546 -0.03966398 -0.005615387 0.0032584313 0.013430606 -0.021973638 -0.0145274 -0.08189284
-0.054950196 -0.05796315 -0.014755374 -0.041982003 -0.061925642 -0.077125676 -0.0033434345 -0.03003259
0.014030336 -0.079620525 -0.010376792 -0.05106816 -0.0037828044 -0.05020844 -0.035858676 0.025794508
0.04424906 -0.039474264 -0.12831707 -0.03503709 -0.02945734 -0.082615964 -0.022410318 -0.05579465
-0.04027067 -0.09642904 0.010050098 0.010537237 0.021887222 -0.025791768 -0.047528706 -0.038439326
0.0481915 -0.026935877 0.03493262 -0.049501736 -0.057377502 -0.033364605 0.026726227 -0.07290826
0.009788075 0.022701792 -0.028781554 -0.0031830745 -0.012093035 -0.020150261 0.0010515259 0.011810889
0.0044658147 -0.033474494 0.04504504 -0.031906877 -0.023704905 -0.050482407 0.036414698 -0.0016620057
-0.027972199 -0.03525164 -0.037410047 -0.021140926 0.034805845 -0.044704217 0.03220249 0.04942138
-0.08002702 0.022206634 -0.053351287 -0.027708268 -0.0389771 -0.05129762 -0.043558706 0.05084884
00000000: 2fd4 72bb 593e e3bc d47f cabd 2072 0ebc
00000010: 41ed 873d f6b3 77bd 34d2 e3bc 121b abbc
00000020: 3d34 84bb 8a45 d7bc f0b1 6ebd 7553 55bd
00000030: 0745 51bd 00d7 b63b eb8c f9bd d640 10bd
00000040: 3395 90bd 13b3 803c 8bfd 90bc 24a0 e0bc
00000050: a92f 583b d20d ecbc 8fbd a5bd ef52 6cbd
00000060: cce8 d93c cb5e 933d 7c17 9b39 eb7e e5bc
00000070: 142c fe3c d40f 8bbd 4be3 96bd ed1a 45bc
00000080: fa08 923c b376 22bd 4801 b8bb 688b 553b
00000090: 0b0c 5c3c 0f02 b4bc 5504 6ebc 6fb7 a7bd
000000a0: 7513 61bd c56a 6dbd 86c0 71bc 52f5 2bbd
000000b0: bea5 7dbd 11f4 9dbd 861d 5bbb e806 f6bc
000000c0: 7fdf 653c 1610 a3bd 6c03 2abc d92c 51bd
000000d0: ede8 77bb 5da7 4dbd 8ce0 12bd 014f d33c
000000e0: 813e 353d c4af 21bd 8d65 03be 0d83 0fbd
000000f0: 8550 f1bc 8f32 a9bd d895 b7bc ee88 64bd
00000100: dcf2 24bd 977c c5bd 2ba9 243c 60a4 2c3c
00000110: d54c b33c 4249 d3bc 76ad 42bd 8e72 1dbd
00000120: 7364 453d a1a8 dcbc 8215 0f3d 55c2 4abd
00000130: ac04 6bbd 53a9 08bd f6f0 da3c ed50 95bd
00000140: 2a5e 203c 1cf9 b93c 4bc7 ebbc 219b 50bb
00000150: dd21 46bc 2912 a5bc 5bd3 893a 7582 413c
00000160: f855 923b 8d1c 09bd 2681 383d c9b0 02bd
00000170: ca30 c2bc a4c6 4ebd 9427 153d a8d7 d9ba
00000180: f425 e5bc 0664 10bd 473b 19bd bc2f adbc
00000190: 9390 0e3d c51b 37bd c2e6 033d 136e 4a3d
000001a0: 35e5 a3bd b0ea b53c e186 5abd 73fc e2bc
000001b0: 74a6 1fbd 741d 52bd 9d6a 32bd e046 503d

model.features.stage1.unit1.dw_conv.bn.running_mean f4 [112]
-0.056334026 -0.11838617 0.076137744 -0.10813414 -0.038122926 -0.16390163 -0.042636395 -0.09969137
-0.11670096 -0.10233619 0.23775327 -0.0006112477 0.0346431 -0.17458002 -0.11626852 0.15459083
0.018994376 -0.050187945 0.11636006 0.07811594 0.07816046 -0.035023056 -0.052191533 0.14649145
-0.15425089 0.088899665 0.045949213 0.09641325 -0.032772932 0.008732264 0.0777527 -0.10937569
0.28576702 0.06537317 0.18602447 0.23276746 0.08932247 0.118711725 0.12546302 0.0534354
-0.0865469 0.08392923 0.04163533 0.08534945 0.005100327 0.0027585912 -0.12344718 -0.016830157
-0.14454278 0.011551455 0.009513491 -0.21420121 -0.072130494 0.06586808 -0.011927161 -0.1637506
0.12369203 0.016596375 0.10066903 -0.11700284 -0.20558229 -0.14811803 0.062241 -0.041468766
-0.00833936 0.04260919 0.04252511 -0.078186214 0.09127717 0.0036170485 -0.03188759 -0.07428262
-0.17818461 0.02819684 0.033765286 -0.07436432 0.038643014 -0.2135754 -0.06741144 -0.20159656
-0.06912614 -0.002150952 -0.010459759 0.015852317 0.15002432 -0.0013697095 0.026776966 0.10733629
0.17066617 0.14026003 0.15725192 0.022343773 -0.10234253 0.049205888 0.2241867 0.0010177079
-0.065968186 0.019276695 -0.11753904 0.11945396 -0.13670217 0.07944107 0.0013999083 0.091651596
0.13511895 -0.17689618 0.071984634 -0.10137624 0.03331382 0.03702528 -0.15339987 -0.12957884
00000000: 82be 66bd 7374 f2bd 1bee 9b3d 6f75 ddbd
00000010: c926 1cbd d4d5 27be 80a3 2ebd fd2a ccbd
00000020: ea00 efbd a395 d1bd 9875 733e 243c 20ba
00000030: ece5 0d3d 1bc5 32be 311e eebd 0f4d 1e3e
00000040: 189a 9b3c e091 4dbd 2f4e ee3d 40fb 9f3d
00000050: 9712 a03d 5674 0fbd cac6 55bd db01 163e
00000060: f2f3 1dbe 0711 b63d 3e35 3c3d 4f74 c53d
00000070: e93c 06bd c511 0f3c cf3c 9f3d 5d00 e0bd
00000080: 0e50 923e 5ee2 853d 337d 3e3e 985a 6e3e
00000090: b3ee b63d 221f f33d 6179 003e 14df 5a3d
000000a0: 803f b1bd 17e3 ab3d cf89 2a3d b1cb ae3d
000000b0: a520 a73b 7bc9 343b e0d1 fcbd 66df 89bc
000000c0: 0603 14be 5042 3d3c 79de 1b3c 9057 5bbe
000000d0: 27b9 93bd d8e5 863d 246a 43bc 3dae 27be
000000e0: 3f52 fd3d 1ff5 873c 902b ce3d 2f9f efbd
000000f0: 2a84 52be 41ac 17be 6bf0 7e3d 27db 29bd
00000100: d0a1 08bc f986 2e3d cf2e 2e3d 1820 a0bd
00000110: 86ef ba3d 010c 6d3b 909c 02bd 7c21 98bd
00000120: 0776 36be 0ffd e63c 784d 0a3d 524c 98bd
00000130: 2348 1e3d 82b3 5abe 020f 8abd 546f 4ebe
00000140: 0192 8dbd fcf6 0cbb 695f 2bbc b8dc 813c
00000150: fa9f 193e d387 b3ba 5e5b db3c 21d3 db3d
00000160: 1dc3 2e3e 53a0 0f3e a606 213e 4a0a b73c
00000170: f698 d1bd 1d8c 493d 3391 653e 9c64 853a
00000180: 541a 87bd 29ea 9d3c 4fb8 f0bd 47a4 f43d
00000190: a7fb 0bbe 00b2 a23d 217d b73a d5b3 bb3d
000001a0: 9f5c 0a3e 4624 35be ae6c 933d 599e cfbd
000001b0: 1274 083d d2a7 173d db14 1dbe 51b0 04be

model.features.stage1.unit1.dw_conv.bn.running_var f4 [112]
0.0726758 0.0289068 0.065381065 0.04444315 0.020419054 0.04101438 0.016271738 0.05968751
0.023771636 0.05548222 0.068181865 0.011298677 0.01239856 0.04231789 0.030695053 0.04406024
0.030844545 0.02290395 0.06886587 0.036984876 0.018579341 0.07086001 0.0492499 0.04656114
0.03588938 0.016518995 0.04193713 0.014673051 0.04080033 0.01988197 0.020653628 0.041563272
0.067639805 0.027643373 0.04175062 0.08966021 0.033890896 0.020586634 0.03257999 0.016723491
0.03916452 0.015740547 0.022348192 0.039335515 0.014510302 0.021880446 0.0985726 0.051816955
0.04107005 0.016274288 0.033711456 0.05412356 0.042500064 0.033888604 0.038352877 0.081251085
0.18196398 0.024688473 0.013484004 0.046750207 0.055715617 0.039854657 0.03069734 0.03837074
0.034882005 0.009463562 0.035301354 0.021565506 0.041405976 0.014330275 0.0035702512 0.027076459
0.047608115 0.006398839 0.0095294835 0.078973345 0.041495144 0.055753868 0.023019303 0.032275118
0.025248067 0.015831973 0.010351361 0.017216405 0.13238114 0.02576112 0.026881281 0.036968075
0.06433381 0.083474755 0.059495077 0.015609833 0.051363327 0.022785436 0.076094836 0.028192531
0.009062641 0.026124008 0.04320463 0.09472955 0.027375119 0.034822665 0.010322227 0.0083648525
0.055012364 0.026578018 0.017967518 0.024054915 0.024856616 0.016069526 0.025731029 0.016578723
00000000: 0dd7 943d f4cd ec3c 82e6 853d 050a 363d
00000010: dc45 a73c b2fe 273d 4f4c 853c e47a 743d
00000020: bcbc c23c 5341 633d efa2 8b3d 161e 393c
00000030: 5423 4b3c 8655 2d3d 3174 fb3c 8378 343d
00000040: b3ad fc3c 11a1 bb3c 8d09 8d3d 747d 173d
00000050: b433 983c 0e1f 913d 43ba 493d e5b6 3e3d
00000060: be00 133d d852 873c 45c6 2b3d 3d67 703c
00000070: 3f1e 273d 83df a23c cc31 a93c 403e 2a3d
00000080: bd86 8a3d 5b74 e23c b302 2b3d c69f b73d
00000090: 2ed1 0a3d 4da5 a83c 9872 053d b4ff 883c
000000a0: fa6a 203d 52f2 803c 8e13 b73c 471e 213d
000000b0: 9ebc 6d3c 9f3e b33c 6ee0 c93d 043e 543d
000000c0: 1239 283d a851 853c 0615 0a3d abb0 5d3d
000000d0: 8c14 2e3d c7ce 0a3d e817 1d3d f866 a63d
000000e0: c454 3a3e 7b3f ca3c 03ec 5c3c 257d 3f3d
000000f0: 0f36 643d a33e 233d fd78 fb3c a32a 1d3d
00000100: 6fe0 0e3d 0e0d 1b3c 2798 103d 25aa b03c
00000110: 5099 293d 88c9 6a3c e0fa 693b 73cf dd3c
00000120: ba00 433d 5aad d13b 8d21 1c3c c7bc a13d
00000130: d0f6 293d 2b5e 643d fa92 bc3c ea32 043d
00000140: 09d5 ce3c 0eb2 813c c198 293c 6b09 8d3c
00000150: ec8e 073e fc08 d33c 2236 dc3c d66b 173d
00000160: 72c1 833d d0f4 aa3d 1cb1 733d 63c0 7f3c
00000170: 5a62 523d 86a8 ba3c 9cd7 9b3d 06f4 e63c
00000180: 797b 143c 0402 d63c 57f7 303d 9101 c23d
00000190: c941 e03c 36a2 0e3d 8f1e 293c bc0c 093c
000001a0: a554 613d 25ba d93c 9e30 933c d00e c53c
000001b0: 1aa0 cb3c 3da4 833c e1c9 d23c 1ad0 873c

model.features.stage1.unit1.pw_conv.conv.weight f4 [192, 112, 1, 1]
-0.050372764 0.13908277 -0.05846328 -0.007840964 0.1584595 0.023846492 0.08197396 0.09380219
0.18091719 -0.0044721 -0.07166158 0.034069117 0.05682099 0.15120521 0.00086945336 0.08225578
0.004309955 -0.12113826 0.08323907 0.08007121 0.08979615 0.017848002 -0.10381644 -0.09021218
0.063476376 -0.00010015788 -0.056852285 -0.05495376 0.15101454 -0.10805924 -0.10248335 -0.10938211
0.04491163 0.15102054 0.13557814 -0.056282975 -0.20134129 -0.001816192 -0.1817225 -0.042934656
0.11342408 -0.083077975 0.11405824 0.04853354 -0.008323524 -0.16459231 -0.08409711 0.06804213
0.074875936 0.0047532623 0.07287451 -0.04771882 0.018442223 0.02951307 0.21499808 -0.0490825
-0.12277027 0.13102406 0.043010615 -0.011537336 -0.03592028 0.17265484 0.22580443 0.059074588
-0.04420911 -0.024337806 -0.15550105 0.08459648 -0.07418305 0.03166268 -0.07135927 0.0057726353
0.04307471 -0.09055138 0.23518306 -0.02837644 0.18411154 -0.12624457 0.10107261 0.049464293
0.041154932 0.003550087 -0.029917741 0.053476166 -0.25914052 0.066601895 0.11175326 0.03334762
0.011234306 0.08693934 -0.29426712 -0.027642332 0.012909997 0.09509 0.10425197 0.0652885
-0.022275502 -0.062005617 -0.03691053 -0.12686633 0.084551595 0.022809332 -0.056368228 0.123487614
0.078550875 -0.03583592 0.074427925 0.048906587 -0.00094022276 -0.04187058 0.072243445 0.14598942
-0.088119306 -0.1767703 0.10379317 -0.06460168 0.026204076 0.065001585 0.050284084 0.1274619
0.012340067 0.013879414 0.019105865 0.005994902 0.05234864 -0.23719688 -0.055525284 -0.019363951
0.104400374 -0.1174754 -0.24473178 -0.03255488 -0.031498034 0.0392435 -0.1621975 -0.1302841
0.099726096 -0.15378474 -0.041784924 -0.1684774 -0.18159941 -0.043247882 0.005888595 -0.12354729
0.08612315 -0.050056286 0.07409796 -0.1169393 0.02754559 -0.10414098 0.05752153 0.13256146
0.051424276 -0.09069218 -0.015192307 0.18094312 -0.30345336 0.08071944 -0.021437487 0.1665276
-0.009882529 -0.13230488 -0.012568386 0.04671509 -0.0009859647 -0.06596721 -0.022941291 -0.18921305
0.13238446 0.017542167 0.13475636 -0.14660484 0.025380041 0.01108922 -0.0006401903 0.02865943
-0.014718089 0.033312574 -0.103854634 -0.006926457 -0.007635228 0.11633114 0.10088484 0.08990815
0.18519782 0.058663957 0.09197015 -0.08720226 0.075024396 0.084586814 -0.24691267 -0.07101053
0.0071731117 -0.083857596 0.08016885 -0.012442048 -0.12244099 -0.030820908 0.114132434 -0.0072252685
0.009733165 -0.100956306 0.09222091 0.00445236 -0.009540806 -0.055037577 -0.21542458 0.0041461647
-0.064504005 0.086182326 -0.06486778 0.003553423 -0.11186645 -0.13157143 -0.11087285 0.10722311
0.04549031 -0.1155817 -0.010214222 -0.2814724 0.14905114 -0.02367615 -0.05069075 0.2654918
-0.042036656 -0.16691273 -0.10346687 -0.06805537 0.06646409 0.025830783 0.02159782 0.08129186
-0.11408451 0.030813895 0.00018196228 0.13729985 -0.12758401 0.16131467 -0.06496819 0.094363995
0.07555131 0.03676553 0.028191987 0.024538217 -0.20772143 -0.045730606 0.12414837 0.17728625
-0.08427828 0.23311913 0.2733826 0.057116445 -0.048226383 0.0644822 -0.14499001 -0.00068596506
00000000: ac53 4ebd b76b 0e3e 3177 6fbd 6377 00bc
00000010: 3543 223e b859 c33c f7e1 a73d 5d1b c03d
00000020: 5b42 393e b28a 92bb 4ec3 92bd 0f8c 0b3d
00000030: 20bd 683d 8ad5 1a3e 07ec 633a b875 a83d
00000040: 863a 8d3b 5617 f8bd 3f79 aa3d 60fc a33d
00000050: 0be7 b73d f935 923c b79d d4bd 2ac1 b8bd
00000060: e7ff 813d da0b d2b8 f1dd 68bd 3217 61bd
00000070: 8ea3 1a3e 2a4e ddbd cae2 d1bd ba03 e0bd
00000080: 42f5 373d 21a5 1a3e ffd4 0a3e fa88 66bd
00000090: 692c 4ebe 4a0d eeba 7715 3abe 40dc 2fbd
000000a0: e24a e83d c924 aabd 5e97 e93d 1bcb 463d
000000b0: 645f 08bc e38a 28be 1b3b acbd ac59 8b3d
000000c0: 8e58 993d 41c1 9b3b 3b3f 953d cf74 43bd
000000d0: 2514 973c 65c5 f13c 7528 5c3e bb0a 49bd
000000e0: fb6e fbbd 2c2b 063e e62b 303d 1807 3dbc
000000f0: 2521 13bd 6ecc 303e 4739 673e 32f8 713d
00000100: 9d14 35bd 1460 c7bc ab3b 1fbe eb40 ad3d
00000110: 48ed 97bd bab0 013d cf24 92bd 6028 bd3b
00000120: 1b6f 303d 0073 b9bd d4d3 703e b575 e8bc
00000130: bc87 3c3e 4246 01be 28ff ce3d 129b 4a3d
00000140: 1392 283d 94a8 683b 0d16 f5bc d309 5b3d
00000150: 11ae 84be 9366 883d e5de e43d 8497 083d
00000160: 1810 383c 410d b23d 2eaa 96be 2c72 e2bc
00000170: 7484 533c 8cbe c23d 0f82 d53d fab5 853d
00000180: 1d7b b6bc 9af9 7dbd 7f2f 17bd 3fe9 01be
00000190: 6329 ad3d a3da ba3c 5fe2 66bd 13e7 fc3d
000001a0: 48df a03d b0c8 12bd ab6d 983d 4652 483d
000001b0: 4879 76ba 7c80 2bbd 5ff4 933d 407e 153e
000001c0: e577 b4bd 4603 35be 8391 d43d e34d 84bd
000001d0: eea9 d63c 8d1f 853d aff6 4d3d 5f85 023e
000001e0: fe2d 4a3c 7b66 633c e783 9c3c e270 c43b
000001f0: 876b 563d bde3 72be 7b6e 63bd 26a1 9ebc
00000200: ddcf d53d f196 f0bd f89a 7abe 4458 05bd
00000210: 1504 01bd cbbd 203d 1a17 26be 3269 05be
00000220: 323d cc3d bf79 1dbe ab26 2bbd 5785 2cbe
00000230: 32f5 39be b124 31bd 1df5 c03b 5d06 fdbd
00000240: 5661 b03d d207 4dbd acc0 973d df7d efbd
00000250: 4aa7 e13c de47 d5bd b29b 6b3d 31be 073e
00000260: 43a2 523d d2bc b9bd 27e9 78bc 2749 393e
00000270: 3d5e 9bbe 3c50 a53d ab9d afbc 3686 2a3e
00000280: 55ea 21bc ee7a 07be a2eb 4dbc 5258 3f3d
00000290: 7c3b 81ba d119 87bd 60ef bbbc 11c1 41be
000002a0: cb8f 073e 97b4 8f3c 92fd 093e 941f 16be
000002b0: cee9 cf3c 8faf 353c 72d2 27ba 2ec7 ea3c
000002c0: 2424 71bc c472 083d bdb1 d4bd 55f7 e2bb
000002d0: ef30 fabb 053f ee3d b69c ce3d c421 b83d
000002e0: 7fa4 3d3e 9e49 703d d95a bc3d 1997 b2bd
000002f0: 64a6 993d da3b ad3d add6 7cbe f86d 91bd
00000300: 6c0c eb3b 88bd abbd 912f a43d bbd9 4bbc
00000310: 57c2 fabd 217c fcbc 44be e93d f2c1 ecbb
00000320: da77 1f3c 2ec2 cebd 51de bc3d 1ae5 913b
00000330: 0a51 1cbc 156f 61bd 4398 5cbe 8ddc 873b
00000340: ad1a 84bd 5c80 b03d 66d9 84bd 8ce0 683b
00000350: 3d1a e5bd a9ba 06be 4e11 e3bd ca97 db3d
00000360: 0c54 3a3d 19b6 ecbd 8d59 27bc 271d 90be
00000370: dda0 183e 7cf4 c1bc 1ba1 4fbd 8bee 873e
00000380: a12e 2cbd 2ceb 2abe 70e6 d3bd 9d60 8bbd
00000390: 531e 883d 149b d33c e9ed b03c 597c a63d
000003a0: 24a5 e9bd 6c6d fc3c 21cd 3e39 5598 0c3e
000003b0: 62a5 02be ac2f 253e 0b0e 85bd e941 c13d
000003c0: a5ba 9a3d 7497 163d e2f2 e63c 5f04 c93c
000003d0: edb4 54be 0450 3bbd 8041 fe3d 878a 353e
000003e0: 179a acbd c8b6 6e3e cef8 8b3e eff2 693d
000003f0: 0789 45bd 3e0f 843d 4378 14be 56d2 33ba

model.features.stage1.unit1.pw_conv.bn.weight f4 [192]
0.22705525 0.23941076 0.261551 0.28726944 0.15752423 0.19508407 0.25841495 0.19850677
0.2773592 0.30497125 0.21619475 0.21211244 0.28665566 0.31596813 0.22683348 0.26010296
0.22318813 0.22632062 0.15504314 0.28961274 0.22461338 0.24011724 0.1893702 0.3096585
0.2843509 0.20506278 0.21806091 0.28394938 0.18731889 0.26257387 0.29454538 0.21343341
0.18953098 0.31073946 0.1931558 0.25043392 0.2375561 0.31059158 0.23264556 0.23618017
0.28435594 0.21022512 0.18155266 0.20438954 0.2123055 0.2516531 0.2330235 0.21333726
0.20860903 0.24389133 0.27894673 0.27061707 0.29337072 0.21451399 0.3143927 0.31109297
0.24259014 0.25067532 0.268148 0.21311252 0.2128436 0.21231306 0.20240851 0.24512294
0.25471488 0.288873 0.19374166 0.1570349 0.19832897 0.20285742 0.25555196 0.23353979
0.32007378 0.19718747 0.24171625 0.3811782 0.19850051 0.25479886 0.1539082 0.231999
0.31752464 0.29504862 0.25767702 0.20765743 0.21885902 0.2961501 0.29099 0.24016741
0.24772058 0.1964483 0.23726597 0.20101456 0.24780801 0.27742365 0.2264525 0.26492745
0.2185131 0.28013524 0.24476923 0.25603968 0.25837997 0.31677592 0.27596453 0.27176118
0.20847838 0.17629296 0.23459618 0.1657927 0.25401655 0.23449352 0.25167271 0.20769295
0.2140177 0.2539911 0.22813433 0.23104528 0.20649292 0.24195838 0.1515865 0.22191444
0.26172408 0.19151273 0.17043884 0.19072247 0.15811382 0.24329573 0.23519993 0.19487476
0.20527416 0.23718436 0.24168885 0.21141131 0.19917381 0.20077923 0.21876922 0.2671963
0.21494685 0.238841 0.29304275 0.23291878 0.27877888 0.31001475 0.19212888 0.20311145
0.25124165 0.26082045 0.35632223 0.24611008 0.2217806 0.27738822 0.2412865 0.2068295
0.18376756 0.24131954 0.34355098 0.23007625 0.30147704 0.19059402 0.23482057 0.13214195
0.23757312 0.23849559 0.22360827 0.14598848 0.20324041 0.19567929 0.26147786 0.19098064
0.2469413 0.21557395 0.2861689 0.16206765 0.24721366 0.24018183 0.21796003 0.34022313
0.20195282 0.24234705 0.23662183 0.20104113 0.280034 0.23829292 0.21837997 0.3571973
0.1956845 0.31149194 0.2670214 0.30162433 0.20534405 0.14982753 0.32263666 0.24055767
00000000: 2c81 683e 1828 753e 03ea 853e fb14 933e
00000010: 084e 213e 1ec4 473e f74e 843e 5c45 4b3e
00000020: 0602 8e3e 3125 9c3e 2862 5d3e 0134 593e
00000030: 88c4 923e 93c6 a13e 0947 683e 372c 853e
00000040: 6e8b 643e 98c0 673e a1c3 1e3e 1f48 943e
00000050: 0d01 663e 4be1 753e 43ea 413e 8f8b 9e3e
00000060: 7196 913e fafb 513e 5c4b 5f3e d061 913e
00000070: 86d0 3f3e 1570 863e a7ce 963e 4a8e 5a3e
00000080: 6914 423e 3e19 9f3e a2ca 453e e038 803e
00000090: e841 733e dc05 9f3e a33a 6e3e 37d9 713e
000000a0: 1a97 913e 4145 573e f1e8 393e 7e4b 513e
000000b0: 9d66 593e add8 803e b69d 6e3e 1575 5a3e
000000c0: 9b9d 553e a6be 793e 1bd2 8e3e 528e 8a3e
000000d0: b034 963e 8ea9 5b3e 14f8 a03e 9447 9f3e
000000e0: 8d69 783e 8458 803e b24a 893e 2b3a 5a3e
000000f0: acf3 593e 9868 593e 2d44 4f3e 8201 7b3e
00000100: fd69 823e 29e7 933e 3764 463e c2cd 203e
00000110: c016 4b3e dbb9 4f3e b5d7 823e 0e25 6f3e
00000120: b6e0 a33e 83eb 493e 7784 773e ca29 c33e
00000130: b843 4b3e ff74 823e 1c9a 1d3e 2591 6d3e
00000140: 9792 a23e 9d10 973e 3eee 833e 26a4 543e
00000150: 941c 603e fca0 973e a4fc 943e 72ee 753e
00000160: 77aa 7d3e be29 493e daf5 723e c3d6 4d3e
00000170: 62c1 7d3e 790a 8e3e 2ae3 673e 92a4 873e
00000180: e6c1 5f3e e36d 8f3e c9a4 7a3e a217 833e
00000190: 614a 843e 7430 a23e 394b 8d3e 4824 8b3e
000001a0: 5b7b 553e 2486 343e fb39 703e 90c5 293e
000001b0: 750e 823e 121f 703e 3fdb 803e 76ad 543e
000001c0: 7527 5b3e 1f0b 823e 0c9c 693e 2297 6c3e
000001d0: e172 533e f0c3 773e 7e39 1b3e 8a3d 633e
000001e0: b300 863e ea1b 443e 8587 2e3e c04c 433e
000001f0: 97e8 213e 8422 793e 40d8 703e 408d 473e
00000200: 6433 523e 75e0 723e 487d 773e 357c 583e
00000210: 38f4 4b3e 1299 4d3e 0a05 603e f4cd 883e
00000220: 071b 5c3e bc92 743e b309 963e 4382 6e3e
00000230: 1bbc 8e3e 41ba 9e3e 6fbd 443e 73fc 4f3e
00000240: bfa2 803e 428a 853e de6f b63e 4804 7c3e
00000250: 741a 633e d405 8e3e cf13 773e 1dcb 533e
00000260: 902d 3c3e 781c 773e eae5 af3e 1c99 6b3e
00000270: 335b 9a3e 142b 433e ce74 703e 3850 073e
00000280: 5e46 733e 3038 743e 91f9 643e 017e 153e
00000290: 411e 503e 2760 483e 6de0 853e 6e90 433e
000002a0: 2ede 7c3e 6bbf 5c3e bb84 923e 10f5 253e
000002b0: 9425 7d3e 3af2 753e ea30 5f3e ba31 ae3e
000002c0: b8cc 4e3e d329 783e fe4c 723e badd 4d3e
000002d0: 9e60 8f3e 0f03 743e 009f 5f3e 91e2 b63e
000002e0: 8461 483e df7b 9f3e 07b7 883e 816e 9a3e
000002f0: b645 523e 636c 193e a230 a53e c054 763e

model.features.stage1.unit1.pw_conv.bn.bias f4 [192]
0.030792098 0.00013852355 -0.0029658203 -0.0071137836 0.035782527 0.045645088 0.006611322 -0.018066347
-0.019839855 -0.05399994 -0.024303079 -0.026279679 -0.061866216 -0.0690668 -0.013513638 0.0123282
-0.0032093953 0.00080414716 -0.05630589 0.033643868 0.015167265 -0.013170082 -0.051268164 0.008280658
-0.07760337 -0.010181654 0.011447993 -0.025940709 0.013247364 -0.06967674 0.011399115 -0.007694466
0.01769528 -0.017032485 -0.0017243662 -0.027466323 -0.027146475 -0.047000438 -0.03816699 -0.0123368595
-0.016422821 -0.0071502756 -0.101030745 -0.07307696 -0.00525703 -0.03393391 0.008826898 0.094370835
-0.009700529 -0.03611394 0.013016581 0.038554218 0.027812166 -0.016723994 -0.065427385 0.04262093
-0.010434155 -0.024321632 0.01719067 -0.0770154 -0.0005955007 -0.013287934 0.028328896 -0.023308866
-0.035539653 0.058856633 -0.032395534 -0.04713012 0.010064324 -0.019197853 -0.0028168994 0.053868264
0.0073526106 -0.026839888 -0.0007244427 -0.074434824 -0.0004916335 -0.008225504 0.033841766 -0.041856073
-0.0016244152 0.027467892 -0.05721872 -0.027413597 0.0130983 0.0032435972 -0.02559002 -0.03756882
-0.036671642 -0.064385734 -0.027827581 -0.043886553 -0.004741294 -0.014393061 -0.008217508 0.026321221
0.021168284 -0.005098324 0.0025905357 0.00167117 -0.026311442 0.055353206 0.004196834 0.0067789624
0.047446515 -0.034016684 -0.0055862633 -0.015545847 0.014015705 0.0039991434 -0.022262162 -0.01816994
0.034804128 -0.04792515 -0.008019096 -0.003835114 -0.030649824 -0.00067178236 -0.03665659 -0.0022131489
-0.04413469 -0.022040004 0.0239071 0.007786465 0.030918306 0.023125544 -0.0023492088 -0.030447882
-0.024653457 0.016769035 0.032916915 -0.042481635 -0.034131162 0.019134622 -0.020209923 0.03486273
-0.09969495 0.016762612 0.033295345 0.002853403 -0.025723288 -0.06020586 -0.024252085 0.013498243
0.07138126 0.018941049 0.04356184 0.05358191 -0.0033637802 -0.008563628 -0.07722202 -0.04199586
-0.085702136 0.045025807 -0.03960791 0.034623917 -0.0692594 0.0048419517 -0.045003794 0.034101643
-0.04783309 0.036926627 -0.005911175 -0.062648535 -0.06839125 0.01827639 -0.0058989627 0.070417814
0.06546479 0.03543986 -0.016374221 -0.053317524 0.03735421 0.041417573 -0.002432427 0.034424953
-0.04253252 -0.027388137 0.0029415486 8.395591e-05 0.04572207 0.02485352 0.019113353 -0.031975772
0.022462178 -0.05516206 -0.025112668 -0.0070487577 -0.0316534 -0.010447233 0.004812324 0.007859764
00000000: b63f fc3c a240 1139 355e 42bb be1a e9bb
00000010: b390 123d 58f6 3a3d caa3 d83b e0ff 93bc
00000020: 3187 a2bc 0b2f 5dbd 4017 c7bc 7b48 d7bc
00000030: 6e67 7dbd e572 8dbd 4e68 5dbc 38fc 493c
00000040: b854 52bb 67cd 523a 01a1 66bd 27ce 093d
00000050: 1f80 783c 54c7 57bc 91fe 51bd 99ab 073c
00000060: 84ee 9ebd f4d0 26bc 5d90 3b3c 9c81 d4bc
00000070: 790b 593c aeb2 8ebd 5bc3 3a3c dc21 fcbb
00000080: b1f5 903c b687 8bbc 2104 e2ba 0e01 e1bc
00000090: 4962 debc 8883 40bd fd54 1cbd 8a20 4abc
000000a0: 2789 86bc dc4c eabb 35e9 cebd 60a9 95bd
000000b0: 2a43 acbb 49fe 0abd b29e 103c 7f45 c13d
000000c0: f8ee 1ebc 36ec 13bd 7f43 553c 07eb 1d3d
000000d0: 57d6 e33c c200 89bc cbfe 85bd 4993 2e3d
000000e0: 05f4 2abc 293e c7bc 73d3 8c3c 40ba 9dbd
000000f0: 601b 1cba a2b5 59bc 0012 e83c 3cf2 bebc
00000100: 0792 11bd a713 713d 2eb1 04bd 830b 41bd
00000110: d6e4 243c d144 9dbc bb9b 38bb f8a4 5c3d
00000120: 2bee f03b 53df dbbc 87e8 3dba 4971 98bd
00000130: f7e0 00ba 44c4 06bc aa9d 0a3d 4671 2bbd
00000140: 54ea d4ba 5804 e13c 2d5e 6abd 7b92 e0bc
00000150: 419a 563c 8892 543b 29a2 d1bc c3e1 19bd
00000160: 0135 16bd abdc 83bd abf6 e3bc 63c2 33bd
00000170: db5c 9bbb e0d0 6bbc baa2 06bc 9a9f d73c
00000180: 1c69 ad3c d70f a7bb fac5 293b 290b db3a
00000190: 188b d7bc 0bba 623d 9885 893b 0f22 de3b
000001a0: 4757 423d 1455 0bbd f90c b7bb 02b4 7ebc
000001b0: 21a2 653c 3f0b 833b 235f b6bc 20d9 94bc
000001c0: c68e 0e3d 294d 44bd 8762 03bc 8956 7bbb
000001d0: 5715 fbbc 8d1a 30ba 3825 16bd 7a0a 11bb
000001e0: 94c6 34bd 3d8d b4bc d3d8 c33c 9a25 ff3b
000001f0: 6348 fd3c c871 bd3c 2ff5 19bb d66d f9bc
00000200: 0cf6 c9bc 375f 893c e3d3 063d 3901 2ebd
00000210: 1ecd 0bbd 36c0 9c3c 488f a5bc 39cc 0e3d
00000220: de2c ccbd bf51 893c b360 083d 2900 3b3b
00000230: a5b9 d2bc 6b9a 76bd 4fac c6bc bc27 5d3c
00000240: 5730 923d 422a 9b3c e66d 323d b478 5b3d
00000250: de72 5cbb 764e 0cbc 9426 9ebd da03 2cbd
00000260: 9a84 afbd fb6c 383d e73b 22bd cfd1 0d3d
00000270: dfd7 8dbd 3ca9 9e3b e655 38bd 2aae 0b3d
00000280: a1ec 43bd 6040 173d 88b2 c1bb e04d 80bd
00000290: b610 8cbd 5eb8 953c 164c c1bb 3737 903d
000002a0: 6712 863d 6329 113d 3b23 86bc 7a63 5abd
000002b0: ba00 193d 79a5 293d 5a69 1fbb 2e01 0d3d
000002c0: 9436 2ebd 165d e0bc ffc6 403b 7c11 b038
000002d0: 1147 3b3d 9c99 cb3c 9b93 9c3c 07f9 02bd
000002e0: 9a02 b83c 9df1 61bd 15b9 cdbc 44f9 e6bb
000002f0: ffa6 01bd df2a 2bbc b3b0 9d3b 3dc6 003c
