yono_compression/yono/data/saved_model/MicroNet-M_gscv2-mfcc10_adam_multistep_nomixup.pt (torch, 491264 bytes, 57 tensors)

model.features.init_block.conv.weight f4 [140, 1, 10, 4]
0	0x3dcd15d9	0.10013933
1	0xbd383392	-0.044971056
2	0xbdda6f5a	-0.1066577
3	0x3e03a134	0.12854463
4	0xbcff2e7f	-0.0311501
5	0x3e2a77e6	0.166473
6	0xbdfadb81	-0.12248898
7	0x3e46ef04	0.19427115
8	0x3e3a9bb0	0.18223453
9	0x3d9dc2da	0.077031806
10	0x3e8179f0	0.25288343
11	0x3e2526fd	0.16128154
12	0xbd25ebe1	-0.040508155
13	0xbdc46c06	-0.09590916
14	0x3ecb2333	0.39675292
15	0x3d79ef3e	0.061019175
16	0xbd7ebe19	-0.06219301
17	0xbe166e6a	-0.14690557
18	0x3ed01384	0.4063989
19	0x3c6d399f	0.01447907
20	0xbe28cc1b	-0.1648411
21	0xbe62f663	-0.22164302
22	0xbcab1572	-0.02088425
23	0xbcd5e767	-0.026111318
24	0xbe0f72b9	-0.14008607
25	0xbd595891	-0.05306298
26	0x3e163aa5	0.14670809
27	0x3dc6f900	0.09715462
28	0xbdfbec53	-0.12300935
29	0x3d09ed9e	0.033673875
30	0x3d39927f	0.045305725
31	0x3dcac1be	0.09900235
32	0x3dfac17a	0.12243934
33	0xbe625f1b	-0.22106592
34	0xbe1885bf	-0.1489477
35	0xbdc6eeb0	-0.09713495
36	0x3e18b63e	0.1491327
37	0x3ba05c26	0.0048937974
38	0x3de9024f	0.113773935
39	0xbdfc798b	-0.1232787
40	0x3e8bf6a1	0.273366
41	0xbd2c2db6	-0.04203578
42	0x3dc9e2c4	0.09857705
43	0xbd562aa9	-0.052286778
44	0x3d2d3df4	0.04229541
45	0x3e0d90a6	0.1382471
46	0xbe2ff9ff	-0.1718521
47	0xbbf59082	-0.0074940333
48	0xbc7a96af	-0.015294715
49	0x3d4ab2ea	0.049487032
50	0xbe1fa913	-0.1559184
51	0xbe1aca4b	-0.15116231
52	0xbb98212a	-0.0046426253
53	0xbdf6f75c	-0.12058899
54	0x3e8ad229	0.27113464
55	0x3e35ed94	0.1776641
56	0xbe594350	-0.21217084
57	0xbe61bef3	-0.22045498
58	0x3e615fae	0.22009155
59	0x3e3e944f	0.18611263
60	0xbe80d62a	-0.25163394
61	0x3e29f54f	0.16597484
62	0x3ebb0484	0.36526883
63	0x3ee46102	0.4460526
64	0xbe255d0c	-0.16148776
65	0x3e1a6305	0.15076835
66	0xbc2af292	-0.01043381
67	0xbd4b01ec	-0.04956238
68	0xbdc4e316	-0.09613626
69	0xbd0907d1	-0.03345472
70	0x3d0443a1	0.03229106
71	0xbe0bcc18	-0.13652074
72	0x3d778fdb	0.060439926
73	0xbb764ddf	-0.0037583036
74	0x3d098f7e	0.03358411
75	0xbc24e05a	-0.010063255
76	0x3d9d5c80	0.076836586
77	0x3d9bd466	0.07608871
78	0xbe2b9edc	-0.16759819
79	0x3cb5f295	0.022210399
80	0xbe249fd5	-0.16076596
81	0xbdf51619	-0.119671054
82	0x3cce8981	0.025212051
83	0xbea1967a	-0.31560117
84	0x3d2e4183	0.042542946
85	0xbe574522	-0.21022466
86	0xbde99f84	-0.11407378
87	0x3d47b974	0.048760846
88	0xbbb40e66	-0.0054948805
89	0x3e09f855	0.13473637
90	0x3d91ea38	0.07124752
91	0xbe10686b	-0.14102332
92	0xbd9374c7	-0.07200008
93	0xbd8bede2	-0.06832482
94	0xbe1e2427	-0.15443479
95	0xbe823410	-0.25430346
96	0x3daee3bf	0.08539533
97	0x3d2aac05	0.041667957
98	0xbd78829e	-0.06067144
99	0xbda1d888	-0.07902628
100	0x3d9f7159	0.07785291
101	0x3da84655	0.0821654
102	0x3da2658f	0.07929527
103	0x3e13ae51	0.14421965
104	0xbdd7a76d	-0.10529981
105	0xbe939dbf	-0.28831288
106	0x3e93c8c7	0.28864118
107	0x3dc5e7c0	0.096633434
108	0x3e34102b	0.17584293
109	0x3df668ff	0.12031745
110	0x3dcc6c91	0.09981645
111	0x3e47dc17	0.19517551
112	0x3e636193	0.2220519
113	0xbd357c0d	-0.044307757
114	0x3c05bd84	0.00816286
115	0x3e547321	0.20747043
116	0x3dfdf0fb	0.12399479
117	0x3e10a7e4	0.14126545
118	0xbe1dc34f	-0.15406536
119	0xbd5b88f4	-0.053597406
120	0xbe072047	-0.13195907
121	0x3d07991e	0.03310501
122	0x3dcf9d2d	0.10137401
123	0xbda3bc92	-0.07994951
124	0xbcd30fb6	-0.025764327
125	0xbe445d8e	-0.19176313
126	0xbd89d7d5	-0.0673062
127	0xbc374d74	-0.0111879
128	0x3f0b8ef8	0.5451503
129	0x3db5c06b	0.088745914
130	0xbe13915e	-0.14410922
131	0xbc67edb9	-0.014155799
132	0x3f903e20	1.1268959
133	0x3e41facc	0.18943328
134	0x3de0edf1	0.10982884
135	0x3e006fb4	0.12542611
136	0x3de56eda	0.11202784
137	0x3d9ce6d8	0.076612175
138	0xbe585468	-0.21125948
139	0xbd3f0c61	-0.046642665
140	0xbe134185	-0.14380462
141	0x3d3b54df	0.045735236
142	0xbe2655ee	-0.16243717
143	0xbbd307e8	-0.0064401515
144	0x3c5ac917	0.013353608
145	0xbca7ca01	-0.020482065
146	0x3d4a1628	0.049337536
147	0x3c74e257	0.014946542
148	0x3dd8985d	0.10575936
149	0x3d9502b9	0.0727591
150	0x3a221c3c	0.0006184017
151	0x3e0084e7	0.12550698
152	0xbd972f54	-0.07382074
153	0xbded7baa	-0.11595853
154	0xbe2fcd5b	-0.1716818
155	0xbdd80fbf	-0.10549878
156	0xbd370997	-0.04468688
157	0x3cf3642a	0.029710848
158	0x3d5bfc19	0.053707216
159	0xbd2525e3	-0.040319335
160	0xbe5bc7bb	-0.2146291
161	0x3e038158	0.1284231
162	0x3e1cca43	0.15311532
163	0x3e01ad67	0.12663804
164	0xbe3cc45e	-0.18434283
165	0x3c7054d9	0.014668667
166	0xbcb16221	-0.021653237
167	0xbda13465	-0.078713216
168	0xbe2bb75c	-0.16769165
169	0xbd7c0bd7	-0.06153473
170	0xbd096909	-0.033547435
171	0x3be4031f	0.00695838
172	0x3e2cab13	0.16862135
173	0x3e2f7a26	0.1713644
174	0x3e6aabf2	0.22917154
175	0x3dc93f8b	0.09826573
176	0x3e3cf4d1	0.18452765
177	0x3c6784dd	0.014130798
178	0xbbd023fe	-0.006351947
179	0x3e7a6586	0.2445279
180	0xbdcfd53b	-0.10148092
181	0x3af11ad7	0.001839484
182	0xbd82d5d8	-0.06388444
183	0xbd426464	-0.04745902
184	0xbe2b6761	-0.16738655
185	0x3e5f759c	0.21822208
186	0xbe28c7b0	-0.16482425
187	0xbe67096e	-0.22562191
188	0xbc2debb9	-0.010615283
189	0xbdf4ef11	-0.11959661
190	0x3c1d8624	0.009614501
191	0xbe412dc6	-0.18865117
192	0xbde2e56f	-0.11078917
193	0x3dc7a50e	0.097482786
194	0x3e150a4c	0.14554709
195	0xbd9cebad	-0.07662139
196	0x3c96e7d9	0.0184211
197	0x3dce9c4f	0.10088407
198	0x3e5c2fdd	0.21502633
199	0xbdd37a2c	-0.10326037
200	0x3e2c54e0	0.16829252
201	0xbdc7b344	-0.09750989
202	0x3e03eab0	0.12882495
203	0xbcdf20a9	-0.027237253
204	0x3e1a61ec	0.15076417
205	0xbcdbaa45	-0.02681459
206	0x3d5e4418	0.054264158
207	0xbdf67ed6	-0.12035911
208	0x3d601e9f	0.054716703
209	0x3e65062f	0.2236564
210	0x393e4ca3	0.00018148361
211	0x3d13de43	0.036100637
212	0x3c7c0efe	0.015384434
213	0x3e39f07b	0.18158142
214	0x3e335402	0.17512515
215	0x3e603fe5	0.21899374
216	0x3e6fcd81	0.23418237
217	0xbe09b7c3	-0.13449006
218	0xbe360124	-0.17773873
219	0x3e4069bd	0.18790336
220	0xbe4fd6ec	-0.2029683
221	0x3e445220	0.19171953
222	0xbe71c54a	-0.23610416
223	0xbdb7608f	-0.08953964
224	0x3d56d104	0.052445427
225	0xbe173447	-0.14766036
226	0x3daef9d2	0.08543743
227	0xbd9546eb	-0.07288917
228	0x3e99a971	0.30012086
229	0x3ddc26d3	0.10749593
230	0x3aea5cc4	0.001788043
231	0xbe185236	-0.14875111
232	0x3dcd5fae	0.10028015
233	0xbc0fc777	-0.0087755835
234	0xbc6f69da	-0.014612639
235	0x3dcce39c	0.100043505
236	0x3d5c48ff	0.053780552
237	0x3d5d9b34	0.05410309
238	0x3d54183d	0.051780928
239	0xbce44c4b	-0.02786841
240	0xbde363b5	-0.11103002
241	0x3ca6bb9e	0.020353135
242	0x3d171433	0.036884498
243	0xbd29fdd8	-0.04150185
244	0xbdd7259f	-0.105052225
245	0x3d50a5eb	0.05093948
246	0xbdc711e3	-0.097202085
247	0xbd68124c	-0.056658074
248	0xbe023b3d	-0.1271791
249	0x3e66d5c4	0.22542483
250	0x3e6716fd	0.22567363
251	0xbe459792	-0.192961
252	0x3bad9853	0.0052976995
253	0x3e34bd1c	0.17650265
254	0x3e0c773a	0.13717356
255	0xbe3ace81	-0.18242837

model.features.init_block.bn.weight f4 [140]
0	0x3e75d68f	0.24007629
1	0x3e87fcb1	0.26559976
2	0x3ead2a8f	0.33821532
3	0x3ed09a00	0.40742493
4	0x3e427f7d	0.18993945
5	0x3e7f7746	0.24947843
6	0x3ebefce4	0.37302315
7	0x3e91fec0	0.2851467
8	0x3e94a6ad	0.29033414
9	0x3e5f6a6b	0.21817939
10	0x3e989908	0.29804254
11	0x3ec92320	0.3928461
12	0x3e96ab34	0.29427493
13	0x3e988029	0.29785278
14	0x3e686bf7	0.22697435
15	0x3eabca51	0.33552793
16	0x3e78b9a1	0.24289562
17	0x3ea10a0e	0.31452984
18	0x3ea3933b	0.31948265
19	0x3e927bec	0.2861017
20	0x3ec71a8a	0.38887435
21	0x3e882f66	0.26598662
22	0x3eb40fa4	0.35168183
23	0x3eb44217	0.35206673
24	0x3e97a4e0	0.29617977
25	0x3e9197fd	0.2843627
26	0x3ec45e37	0.3835313
27	0x3e9376da	0.28801614
28	0x3e547c7b	0.2075061
29	0x3e8a87a8	0.27056623
30	0x3e8a11a8	0.26966596
31	0x3e7edd04	0.24888998
32	0x3e834854	0.2564112
33	0x3e601a49	0.21885027
34	0x3ebd5dcd	0.36985627
35	0x3e8cf4cc	0.27530515
36	0x3ea4ad08	0.32163262
37	0x3ea95b79	0.330776
38	0x3e8219c3	0.2541028
39	0x3e95790e	0.2919392
40	0x3e9d0853	0.30670413
41	0x3e837fb5	0.2568337
42	0x3eaa28fd	0.33234397
43	0x3e992b8f	0.29916045
44	0x3ea08e17	0.31358406
45	0x3e696c28	0.22795165
46	0x3e8b17e3	0.27166662
47	0x3e96783f	0.29388615
48	0x3e6dc471	0.23219468
49	0x3e7e2844	0.24820048
50	0x3e902258	0.28151202
51	0x3eb52ac6	0.35384196
52	0x3e8c1a59	0.27363852
53	0x3eaa0266	0.33204955
54	0x3e714a09	0.23563398
55	0x3ed13ebb	0.40868172
56	0x3e907be9	0.28219536
57	0x3e9d17b2	0.3068214
58	0x3e8eb5cf	0.27873084
59	0x3e86ff3d	0.26366606
60	0x3e674c9d	0.2258782
61	0x3e9ed294	0.31020033
62	0x3e8baef1	0.27281907
63	0x3e4aa52d	0.19789572
64	0x3e9f2ec2	0.3109036
65	0x3e8e1934	0.27753603
66	0x3e95814e	0.29200214
67	0x3eac99da	0.3371113
68	0x3e8716bf	0.2638454
69	0x3e9a4891	0.3013349
70	0x3ebc47b3	0.36773452
71	0x3e9b4a24	0.30330002
72	0x3e8e0540	0.2773838
73	0x3ef3fde4	0.4765464
74	0x3ea53b57	0.32271835
75	0x3e7db528	0.24776137
76	0x3e6e7e65	0.23290403
77	0x3e76fce6	0.2411991
78	0x3ea7c89c	0.3277024
79	0x3ea410a0	0.32043934
80	0x3ed51356	0.41616315
81	0x3ededf9c	0.43529975
82	0x3ec1cbac	0.37850702
83	0x3e483cea	0.19554487
84	0x3e8e4b43	0.27791795
85	0x3ebfdb35	0.3747193
86	0x3e6c9a83	0.23105817
87	0x3e86538d	0.2623562
88	0x3e5fd75d	0.21859498
89	0x3eb20fc3	0.3477765
90	0x3e93669c	0.28789222
91	0x3ebad17c	0.3648795
92	0x3e856efa	0.2606123
93	0x3e889af1	0.2668071
94	0x3e9bb70f	0.304131
95	0x3e93fd6a	0.28904277
96	0x3e3daf24	0.18523842
97	0x3e87a24d	0.26491013
98	0x3e84a5e4	0.25907815
99	0x3e9379e2	0.28803927
100	0x3e9b559d	0.30338755
101	0x3e813d86	0.2524225
102	0x3ea08f0a	0.3135913
103	0x3ea07d99	0.31345823
104	0x3e7aa5f4	0.24477369
105	0x3ed910e3	0.42395696
106	0x3e708932	0.23489836
107	0x3ea55724	0.32293046
108	0x3e7d0b59	0.2471136
109	0x3eaa372c	0.33245218
110	0x3ea5d75b	0.32390866
111	0x3e75e120	0.2401166
112	0x3e936369	0.2878678
113	0x3e54bcce	0.20775148
114	0x3ea4c93e	0.32184786
115	0x3e1aaa2e	0.15103981
116	0x3eb69b96	0.35665578
117	0x3e80f0e3	0.25183782
118	0x3ea4bc7c	0.32175052
119	0x3e985ee1	0.29759887
120	0x3e8b3959	0.2719219
121	0x3e3293b4	0.17439157
122	0x3e73fda9	0.23827232
123	0x3eaa3ab0	0.332479
124	0x3ea52417	0.32254097
125	0x3ef472b1	0.47743753
126	0x3e8f0b5a	0.27938348
127	0x3e9dc08e	0.3081097
128	0x3e944bfa	0.28964216
129	0x3e7f92cc	0.24958342
130	0x3e96e631	0.29472497
131	0x3e7ebbf3	0.24876384
132	0x3e84afc3	0.25915346
133	0x3e26fb5c	0.16306823
134	0x3e95deee	0.29271644
135	0x3e902c3a	0.28158742
136	0x3e953086	0.29138583
137	0x3e930730	0.2871642
138	0x3ea0c4a6	0.3140003
139	0x3eb2ad9f	0.34898087

model.features.init_block.bn.bias f4 [140]
0	0xbc510ea9	-0.012759843
1	0xbcd24a2d	-0.025670135
2	0xbd8bc428	-0.06824523
3	0xbe5d1108	-0.21588528
4	0x3c38ce7f	0.011279701
5	0xbbf49279	-0.00746375
6	0xbe009343	-0.12556176
7	0x3d37d68b	0.04488234
8	0xbd7ef7bd	-0.06224798
9	0x3d079b04	0.03310682
10	0xbc89dc9c	-0.016828828
11	0xbe4f494c	-0.20242804
12	0x3d25b368	0.0404543
13	0x3bfd863a	0.0077369483
14	0xbc881ffc	-0.016616814
15	0xbe3b76f1	-0.18307091
16	0x3d3ec458	0.046573967
17	0x3cb1c429	0.021699982
18	0xbd22d071	-0.039749566
19	0xbb5a323f	-0.003329411
20	0xbddaedf7	-0.106899194
21	0xbd4c2368	-0.049838454
22	0x3cb04b53	0.021520292
23	0xbe00f69d	-0.12594076
24	0x3cfd7329	0.030938702
25	0xbad40266	-0.0016175031
26	0xbda63c06	-0.08116917
27	0xbd6da0ba	-0.05801461
28	0xbd826511	-0.06366933
29	0x3cc3fba2	0.023923699
30	0xbce295cb	-0.027659317
31	0x3d133f25	0.03594889
32	0xbc5da30f	-0.013527646
33	0x3d411d03	0.04714681
34	0xbd36fcd6	-0.044674717
35	0xbc093f40	-0.008376896
36	0x3cb152a1	0.021645846
37	0xbce4de28	-0.027937964
38	0x3cf22ff6	0.029563885
39	0xbce7e0b0	-0.028305382
40	0x3d407796	0.046989046
41	0xbd6983e2	-0.05701054
42	0xbd5d14cc	-0.05397491
43	0x3d0f4f68	0.034987837
44	0xbcb458b3	-0.022014951
45	0xbcb0aa2d	-0.021565521
46	0xba991517	-0.0011679259
47	0x3c80edfc	0.01573848
48	0xbc910f46	-0.017707478
49	0x3cd56556	0.026049297
50	0xbd34d314	-0.044146612
51	0xbc24b80a	-0.010053644
52	0xbd9c06bf	-0.07618474
53	0xbbf0b6d3	-0.007346013
54	0xbcce25a8	-0.02516444
55	0xbe8d091f	-0.2754602
56	0x3d6e8a39	0.05823729
57	0x3c550c22	0.013003381
58	0x3cda0555	0.02661387
59	0xbbf23d19	-0.0073925373
60	0x3a881658	0.0010382636
61	0xbbc64164	-0.0060502756
62	0xbc877d80	-0.016539335
63	0xbb7c1932	-0.0038467166
64	0xbdde67f3	-0.108596705
65	0x3d337a27	0.043817665
66	0x3ce03d21	0.027372899
67	0xbdf5a61b	-0.11994573
68	0x3d233956	0.0398496
69	0x3cff69ee	0.03117844
70	0xbd8a8c6d	-0.06765065
71	0xbbf8c182	-0.0075914273
72	0xbd7ba234	-0.061433986
73	0xbdc61dd7	-0.0967366
74	0xbe1500ac	-0.14551038
75	0x3d9a5221	0.07535196
76	0xbd0a99c5	-0.033838052
77	0x3bf335cd	0.007422185
78	0xbd3ffb2f	-0.046870407
79	0xbda5edb6	-0.081019804
80	0xbd016ca3	-0.031597745
81	0xbe3047b6	-0.17214856
82	0x3d3f8579	0.04675815
83	0x3cb5de95	0.022200862
84	0xbc6bebe4	-0.014399502
85	0xbddb1b18	-0.10698527
86	0xbcf19adf	-0.029492794
87	0x3d045db7	0.032315936
88	0xbce64f09	-0.028113859
89	0xbd8128cf	-0.06306612
90	0xbcc49574	-0.023997046
91	0xbe0cc42a	-0.13746706
92	0x3c7aaab4	0.015299488
93	0xbd42bea5	-0.047545094
94	0x3ca6158b	0.020273944
95	0xbb5f4495	-0.0034067978
96	0xbda02005	-0.07818607
97	0xbcc76899	-0.024341868
98	0xbcb0116f	-0.021492688
99	0x3da404e0	0.08008742
100	0xbc287010	-0.010280624
101	0xbcc08872	-0.023502562
102	0xbd07a9f9	-0.033121083
103	0xbcd0f26a	-0.025506217
104	0xbd9cb4a1	-0.0765164
105	0xbd966771	-0.07343949
106	0xbde97e52	-0.11401047
107	0xbd82a8cd	-0.063798524
108	0xbdcf16ec	-0.10111794
109	0xbd743616	-0.059621893
110	0xbd1a4698	-0.03766498
111	0xbc139b82	-0.009009244
112	0x3c8349e6	0.016026448
113	0xbca56e25	-0.020194123
114	0xbb3fb0ec	-0.002924974
115	0xbdf42d50	-0.11922705
116	0xbd71254f	-0.05887347
117	0x3c03cd4f	0.008044555
118	0x3d3eb6c9	0.046561036
119	0xbe05c72e	-0.13064262
120	0xbe324b59	-0.17411555
121	0x3cce65ae	0.025194969
122	0xbbeaf81f	-0.0071706916
123	0x3bb1b857	0.0054235863
124	0xbe2126ac	-0.15737408
125	0xbdec8bdb	-0.11550113
126	0xbbf7a939	-0.0075580147
127	0xbcea6c40	-0.02861607
128	0xbda1ef43	-0.07906964
129	0xbea0bb34	-0.31392825
130	0xbce8158d	-0.028330589
131	0x3a3a5d43	0.0007109234
132	0x3d56059e	0.05225145
133	0xbd1ace7d	-0.03779458
134	0x3d16dc09	0.036830936
135	0x3dc34523	0.09534671
136	0xbdda645a	-0.10663672
137	0x3d745ee6	0.059660815
138	0xbced3d6b	-0.02895995
139	0xbda22f83	-0.079192184

model.features.init_block.bn.running_mean f4 [140]
0	0x41065930	8.396774
1	0x40ead656	7.338664
2	0xbea4a151	-0.32154325
3	0x414eb2c6	12.918646
4	0x402e19ea	2.7203317
5	0x41567f59	13.406091
6	0x40e0d673	7.026178
7	0xc0f8c47b	-7.7739844
8	0xc15c764e	-13.778883
9	0xc1138d5e	-9.222013
10	0xc15424c7	-13.258979
11	0x40f53654	7.662882
12	0xc13357a3	-11.208896
13	0xc1672622	-14.44681
14	0xbea2d69c	-0.3180436
15	0x413e886e	11.908308
16	0xc1c3ed10	-24.490753
17	0xc0be318d	-5.9435487
18	0x4119d2cf	9.613967
19	0xc16804fb	-14.501216
20	0x411cf01b	9.8086195
21	0xc186b361	-16.837587
22	0x41486ed7	12.5270605
23	0x418c003e	17.500118
24	0xc10cde68	-8.804298
25	0xc16e2db0	-14.886154
26	0x408186e1	4.0477147
27	0xc0cfe904	-6.4971943
28	0x3f3570fa	0.70875514
29	0x410c729f	8.777984
30	0x4105b69b	8.357081
31	0x40221d0b	2.5330226
32	0x4150f450	13.059647
33	0xbfd7dd68	-1.6864443
34	0x4100a25e	8.03964
35	0x3f735d6c	0.95064425
36	0xc1b693bd	-22.822138
37	0x40c73d6b	6.2262473
38	0x3f66b5a3	0.90120906
39	0x4113dc74	9.241322
40	0x40ffd795	7.995066
41	0xc0e037fd	-7.0068345
42	0x408add60	4.3395233
43	0xc160a49c	-14.040188
44	0x411b6228	9.711464
45	0x3f53c1fa	0.8271786
46	0xbf99b6ff	-1.2008971
47	0xc1173823	-9.451205
48	0xc15697f3	-13.412097
49	0x40ed7da8	7.421589
50	0xc11c4a13	-9.768085
51	0x40902dd9	4.5055966
52	0x3fe7ca96	1.8108699
53	0x40f35b3b	7.6048865
54	0xc12c8b72	-10.784044
55	0x412f332b	10.949992
56	0x40ba0a99	5.8137937
57	0xc0714fbc	-3.7704916
58	0xc0a42dab	-5.1305747
59	0xc1178c53	-9.471759
60	0x4127e29e	10.492826
61	0xc11cfd65	-9.811864
62	0xc14c1713	-12.755633
63	0xc17b8599	-15.720117
64	0xc13b9ed7	-11.726279
65	0x40161d4a	2.3455377
66	0x3eee3d81	0.465313
67	0x415bbe9f	13.734038
68	0x40c4850d	6.1412416
69	0xc0c84082	-6.2578745
70	0x40f2a2f6	7.5823927
71	0xc173be5f	-15.233977
72	0x403f029c	2.9845343
73	0x40e7fa7f	7.249328
74	0xc145c7a3	-12.361239
75	0x3e49c18d	0.1970274
76	0x41674a64	14.455662
77	0xc071c0c3	-3.7773902
78	0x401eda20	2.4820633
79	0x410cba2c	8.795452
80	0xc1049221	-8.285676
81	0xc0ed3b43	-7.413484
82	0x40549804	3.3217783
83	0xc11616d1	-9.38057
84	0xc1464ac2	-12.393251
85	0x41128cd2	9.15938
86	0xc1884f1e	-17.038631
87	0x3fb8484c	1.4397063
88	0xc15cd0d3	-13.800982
89	0xc13063cf	-11.024367
90	0xc1561794	-13.380756
91	0x40bf9de8	5.9880257
92	0x411b410b	9.70338
93	0xc183925a	-16.44646
94	0x41014173	8.078479
95	0x4020bea7	2.5116365
96	0xc1521b83	-13.131717
97	0x410798e0	8.474823
98	0xc10c539b	-8.7704115
99	0xc10a8d1c	-8.659451
100	0xc11eb0e2	-9.918184
101	0x41309e71	11.038682
102	0x413cf628	11.810097
103	0xc11769e0	-9.463348
104	0x40a3d161	5.119309
105	0xc17d2251	-15.820878
106	0xc1846034	-16.546974
107	0xc0d83750	-6.756752
108	0xc1ac8f60	-21.570007
109	0x411e58ee	9.896711
110	0x3fdcb36c	1.7242255
111	0xc123d14d	-10.238599
112	0xc170e136	-15.054983
113	0x40fc5972	7.8859186
114	0xc0a6ab30	-5.208397
115	0x40edd35d	7.432051
116	0x40664f97	3.5986078
117	0x4187356f	16.90109
118	0x4122283f	10.134826
119	0x4185cd02	16.725101
120	0x41497deb	12.593242
121	0xc008ac74	-2.1355257
122	0x41279724	10.4744
123	0xbf8c978f	-1.0983752
124	0xc1415646	-12.083563
125	0x417101bc	15.062923
126	0x41351c57	11.319419
127	0x417e3b2c	15.889446
128	0xc107ad97	-8.47988
129	0x41b31496	22.385052
130	0xc16b8599	-14.720117
131	0xc0c54d6e	-6.165702
132	0x40b6af91	5.7089314
133	0xc1016f79	-8.089715
134	0x412c7d16	10.780539
135	0x413d3b6a	11.827005
136	0x416d86e7	14.845435
137	0xc06b39e8	-3.6754093
138	0xbfcdaf2b	-1.6069082
139	0x41b6e7a8	22.863113

model.features.init_block.bn.running_var f4 [140]
0	0x42e1e9e3	112.95681
1	0x428e4e6b	71.15316
2	0x42aae615	85.44938
3	0x434ebd1d	206.73872
4	0x41f5aa16	30.70805
5	0x42f22156	121.06511
6	0x42b6d827	91.42217
7	0x42dd603a	110.68794
8	0x430278f2	130.47244
9	0x430aa735	138.65315
10	0x430032cc	128.19843
11	0x42bce830	94.45349
12	0x43334436	179.26645
13	0x43060b8b	134.04509
14	0x42b2623f	89.19189
15	0x433f67be	191.40524
16	0x43d2dca4	421.72375
17	0x4244ce85	49.20168
18	0x42afff8e	87.99913
19	0x43048eb7	132.55748
20	0x42a8b379	84.35053
21	0x434d6065	205.37654
22	0x42fd6765	126.70194
23	0x43806724	256.8058
24	0x42bd2d6b	94.58871
25	0x432ea67d	174.65034
26	0x42bbab05	93.83402
27	0x42d823c9	108.06989
28	0x429bc621	77.88697
29	0x431e45ca	158.27261
30	0x4305643b	133.39153
31	0x425a6154	54.595047
32	0x43301087	176.06456
33	0x424ceb2f	51.22967
34	0x42baf952	93.48695
35	0x42ec434a	118.131424
36	0x43b1d993	355.6998
37	0x425cae8e	55.170464
38	0x422e1e60	43.529663
39	0x42ceefe9	103.468575
40	0x42affc0e	87.992294
41	0x42a6ae5b	83.34054
42	0x4285798c	66.7374
43	0x431d85e1	157.52296
44	0x42e62b71	115.08485
45	0x4203c95a	32.946632
46	0x4267a3d8	57.910004
47	0x430062cf	128.38597
48	0x42f2f694	121.4816
49	0x427302b6	60.752647
50	0x42cdb972	102.8622
51	0x4288f7be	68.48387
52	0x4230d69b	44.209576
53	0x42b43c30	90.11755
54	0x42e28324	113.256134
55	0x42ed33dc	118.60129
56	0x428b783d	69.73484
57	0x42315140	44.329346
58	0x42756901	61.352543
59	0x42eef729	119.482735
60	0x42fdc3c4	126.882355
61	0x43619d38	225.61414
62	0x4376cd36	246.8016
63	0x431778af	151.47142
64	0x4339f0f4	185.94122
65	0x42528fe5	52.640522
66	0x42950564	74.51053
67	0x43443ddf	196.24168
68	0x42952e95	74.59098
69	0x42d0a481	104.3213
70	0x4334f2be	180.94821
71	0x4330ace2	176.67532
72	0x429ba3e6	77.820114
73	0x43183a7e	152.22849
74	0x4304718b	132.44353
75	0x42694054	58.31282
76	0x4311a8d5	145.6595
77	0x420c688d	35.1021
78	0x4238ae13	46.169994
79	0x4334bf4d	180.74727
80	0x42e2cd95	113.40153
81	0x42d8a19d	108.31565
82	0x42947d81	74.245125
83	0x4291b4c3	72.85305
84	0x42cff585	103.97953
85	0x4311f9b7	145.97545
86	0x438797d9	271.1863
87	0x43087b39	136.48134
88	0x43231185	163.06844
89	0x42def996	111.48747
90	0x431e2234	158.1336
91	0x433f7343	191.45024
92	0x42dc7e6d	110.246925
93	0x4332a689	178.65053
94	0x42cbd8ce	101.92345
95	0x42766a5d	61.60387
96	0x42d2f297	105.47381
97	0x42cbb9d9	101.86298
98	0x428b273d	69.57664
99	0x42e3ed12	113.96303
100	0x42caf191	101.47181
101	0x430e5866	142.3453
102	0x430056ff	128.33983
103	0x430e717e	142.44333
104	0x429f6c8e	79.71202
105	0x43882739	272.30643
106	0x438161b5	258.76334
107	0x4286333b	67.10006
108	0x43a23633	324.42343
109	0x42d0dadb	104.42745
110	0x420c718c	35.110886
111	0x42b68086	91.25102
112	0x430551a5	133.31892
113	0x42b2825f	89.25463
114	0x4295d085	74.907265
115	0x427399a5	60.900043
116	0x426dc943	59.446545
117	0x4392b495	293.4108
118	0x42c00a27	96.01983
119	0x436aadd6	234.67905
120	0x43472ee8	199.18323
121	0x4275b4a4	61.426407
122	0x42dcf450	110.47717
123	0x42db7017	109.718925
124	0x431f669b	159.4008
125	0x432ff489	175.95522
126	0x42ed6859	118.703804
127	0x4353e771	211.90407
128	0x430a6cf5	138.42561
129	0x43e7e000	463.75
130	0x431273bd	146.4521
131	0x42e1da93	112.9269
132	0x42f98125	124.752235
133	0x42d8759a	108.22969
134	0x42c99744	100.79544
135	0x4324fe85	164.99422
136	0x43873a7c	270.4569
137	0x4262147b	56.52
138	0x428190af	64.782585
139	0x43ad45c2	346.54498

model.features.stage1.unit1.dw_conv.conv.weight f4 [140, 1, 3, 3]
0	0x3ecd01de	0.40040487
1	0x3e38bdea	0.18041196
2	0xbe7d4f96	-0.24737391
3	0x3d590593	0.05298383
4	0xbd366742	-0.044532068
5	0x3e5aea60	0.2137847
6	0xbe75db18	-0.24009359
7	0xbe2e8705	-0.17043693
8	0x3f4f9fe8	0.8110337
9	0x3e4ccbb0	0.19999576
10	0xbdd88305	-0.10571865
11	0xbd3fc9e5	-0.0468234
12	0x3da9047b	0.08252808
13	0x3aa84857	0.0012838942
14	0x3e7f197e	0.24912068
15	0xbe8310a3	-0.2559863
16	0x3e96f36f	0.294826
17	0x3eb8b18d	0.3607296
18	0x3eb4cf08	0.35314202
19	0xbd6f825c	-0.05847393
20	0xbea152a6	-0.31508368
21	0xbf0358b4	-0.51307225
22	0x3e972a79	0.29524592
23	0xbe3bc93f	-0.18338488
24	0xbe61f8e0	-0.22067595
25	0xbe0cd2f3	-0.13752346
26	0x3f1757ea	0.5911852
27	0x3da6faff	0.081533425
28	0xbee6426d	-0.44972554
29	0x3f36e802	0.71447766
30	0x3f165cc7	0.58735317
31	0xbe34dbad	-0.17661925
32	0xbe8f15a2	-0.27946192
33	0x3f24bb7b	0.6434857
34	0xbe30b8b0	-0.17257953
35	0xbef83124	-0.4847499
36	0x3e852df3	0.2601162
37	0xbef2563a	-0.4733141
38	0xbdb5e50c	-0.08881578
39	0xbe80c027	-0.251466
40	0xbe06628f	-0.13123535
41	0xbd28bf74	-0.04119821
42	0x3e2ed82a	0.17074648
43	0x3e0256ef	0.12728475
44	0x3e9d491b	0.30719838
45	0x3ee8bc65	0.45456234
46	0xbd9de829	-0.07710297
47	0xbe8a259b	-0.26981816
48	0xbe9b8ead	-0.3038229
49	0x3ee1930a	0.44057494
50	0xbe0a1c19	-0.13487281
51	0xbe26e851	-0.16299559
52	0xbe99692c	-0.29963052
53	0x3d509851	0.05092651
54	0x3f4ddaaa	0.8041178
55	0xbf14ff13	-0.5820171
56	0xba8c8694	-0.001072126
57	0x3e99132b	0.29897436
58	0xbebeba79	-0.37251642
59	0x3e3695b3	0.17830543
60	0x3e0a8f1d	0.13531156
61	0xbd154f12	-0.03645236
62	0xbedce070	-0.43139982
63	0xbe37a39a	-0.17933503
64	0x3ea5eb74	0.324062
65	0xbecca76a	-0.39971477
66	0xbe53a881	-0.20669748
67	0x3ea9518f	0.33070037
68	0x3e8b3cb1	0.2719474
69	0xbd94e90d	-0.072710134
70	0xbda50b11	-0.080587514
71	0xbf193b75	-0.5985635
72	0xbe37c553	-0.17946367
73	0x3e7147c4	0.23562533
74	0xbd7ca903	-0.06168462
75	0xbec4b8b4	-0.38422167
76	0xbf08781d	-0.5330828
77	0xbd9c2bd6	-0.076255485
78	0xbce27410	-0.027643234
79	0x3eb742ce	0.35793155
80	0x3e99b579	0.30021265
81	0xbeba8ed1	-0.36437085
82	0x3ca7bf13	0.020476853
83	0xbeb958f8	-0.3620069
84	0x3e318810	0.1733706
85	0x3e405702	0.18783191
86	0x3d0529ee	0.03251069
87	0xbda0ed47	-0.07857757
88	0x3e81ffcd	0.25390473
89	0xbee3d08f	-0.44495055
90	0x3ed9a314	0.4250723
91	0x3eaf5f27	0.34252283
92	0xbe8a7476	-0.27041978
93	0x3f3e0fea	0.7424303
94	0xbe86f738	-0.26360488
95	0xbdc77f6e	-0.09741102
96	0x3ef92185	0.48658386
97	0xbf30d1b8	-0.69070005
98	0xbe908714	-0.28228056
99	0xbee31b68	-0.44356847
100	0x3e7b96f4	0.24569303
101	0x3e1673ff	0.14692686
102	0xbd21d018	-0.039505094
103	0x3e312ac9	0.17301477
104	0x3ec441ef	0.38331553
105	0xbf07678e	-0.52892387
106	0x3e740e3d	0.23833556
107	0x3e53845b	0.20655958
108	0xbf3f9b3e	-0.74846256
109	0x3e986dfa	0.29771405
110	0x3f397344	0.72441506
111	0x3ee5abc0	0.44857597
112	0x3c46d762	0.012136312
113	0xbefe585f	-0.49676797
114	0x3ef52555	0.47880045
115	0x3e1f85be	0.15578362
116	0xbedca083	-0.4309121
117	0xbedfb8ec	-0.43695772
118	0xbc7d11df	-0.015446155
119	0x3e95a78c	0.2922939
120	0xbe0ffeb8	-0.14062011
121	0xbe3ea860	-0.18618917
122	0x3f115dcf	0.56783766
123	0xbebda3e1	-0.37039092
124	0xbe71b4ba	-0.23604098
125	0xbdfb59f6	-0.12273018
126	0xbd08c484	-0.033390537
127	0xbe8d55c8	-0.27604508
128	0xbd78a397	-0.060702886
129	0x3ea05924	0.3131801
130	0xbc8ab40d	-0.016931558
131	0xbe3a5602	-0.18196872
132	0xbe12f9fc	-0.14353174
133	0xbe8dd596	-0.27702016
134	0xbc7b5d47	-0.015342063
135	0x3d4df105	0.050278682
136	0xbe00879a	-0.12551728
137	0x3de4616c	0.11151394
138	0x3f788408	0.97076464
139	0x3ebf70fb	0.37390885
140	0xbe89f8fc	-0.26947773
141	0xbee57bdc	-0.4482106
142	0x3e843ab9	0.25826052
143	0xbecff7a5	-0.40618625
144	0xbddf3e0b	-0.10900506
145	0xbd861503	-0.065469764
146	0x3cb40986	0.021977197
147	0x3e402cda	0.1876711
148	0xbeb5e144	-0.35523427
149	0x3da127b4	0.07868901
150	0x3e518163	0.20459513
151	0xbe029400	-0.1275177
152	0xbcb4fe19	-0.02209382
153	0xbd34883c	-0.044075236
154	0xbd9692f0	-0.07352245
155	0xbf146d8a	-0.57979643
156	0x3ed0457f	0.4067802
157	0xbde9dab0	-0.114186645
158	0x3ea77e17	0.32713386
159	0xbe014c9f	-0.12626885
160	0x3f223bfe	0.6337279
161	0xbe87a489	-0.26492718
162	0x3e05b682	0.13057902
163	0xbeb7dad2	-0.35909134
164	0xbf0722ef	-0.5278768
165	0x3da0b4ba	0.07846971
166	0x3e895663	0.2682372
167	0x3dc23506	0.0948277
168	0x3e141212	0.14460018
169	0xbf0fe110	-0.56202793
170	0x3d9eecbe	0.07759999
171	0x3ec2eee1	0.38072875
172	0xbea12f4a	-0.3148139
173	0x3ef1b7df	0.47210595
174	0xbe1e4cd7	-0.15459
175	0x3d376e15	0.044782717
176	0xbf2c98e0	-0.6742077
177	0x3df51eb1	0.119687445
178	0x3d427051	0.047470395
179	0x3eb67b71	0.35641053
180	0xbf0d3085	-0.5515216
181	0xbe7cac5f	-0.2467513
182	0x3de546e5	0.11195163
183	0xbf34b502	-0.70588696
184	0x3e9d0014	0.30664122
185	0x3ea20a6f	0.31648585
186	0x3eb4be11	0.3530126
187	0x3f0d85d5	0.55282336
188	0x3e7adc80	0.24498177
189	0xbed8f0b6	-0.42371148
190	0xbeb7a1f2	-0.35865742
191	0x3eee0e28	0.46495175
192	0xbe185d18	-0.14879262
193	0xbe1c36bd	-0.15255256
194	0x3e90223e	0.28151125
195	0x3e436d52	0.19084671
196	0x3e5e1713	0.2168849
197	0x3d711e32	0.058866687
198	0x3dd03aaf	0.10167443
199	0xbe79978c	-0.24374217
200	0x3f511bba	0.8168293
201	0xbecbc57e	-0.39799112
202	0xbe8e71b6	-0.2782113
203	0xbd37ec55	-0.04490312
204	0x3d6c5bf6	0.05770489
205	0x3e7ff277	0.24994837
206	0xbf284256	-0.6572622
207	0x3f45dbe1	0.77288634
208	0x3da484d6	0.08033149
209	0xbed09a45	-0.40742698
210	0xbe319276	-0.17341027
211	0x3eaae243	0.3337575
212	0x3cae5b00	0.021283627
213	0x3d83d44e	0.06436978
214	0xbeaebdc4	-0.34129155
215	0x3e633f44	0.22192103
216	0xbe785759	-0.2425207
217	0x3d94b51a	0.07261105
218	0x3eb66496	0.35623616
219	0xbcb052b5	-0.021523813
220	0xbea7baea	-0.32759792
221	0xbe3cddd8	-0.18444002
222	0xbe13bd29	-0.14427628
223	0xbe8f8375	-0.2802998
224	0x3e204fd2	0.15655449
225	0x3ea80e4f	0.32823417
226	0x3ca8eb63	0.020620054
227	0x3f28d38e	0.65947807
228	0xbf075053	-0.5285694
229	0xbee383b6	-0.44436425
230	0xbe9c1bd9	-0.30489996
231	0x3e320226	0.17383632
232	0x3d6ff8a8	0.058586746
233	0x3f045681	0.51694494
234	0xbca24ef4	-0.019813038
235	0x3bc86832	0.0061159367
236	0xbf17da28	-0.59317255
237	0x3daf4879	0.08558745
238	0x3f1a3c98	0.6024871
239	0x3dfb439b	0.12268754
240	0x3e259c12	0.16172817
241	0x3defb8a2	0.11705138
242	0xbe51a342	-0.20472434
243	0xbe6882f2	-0.22706202
244	0x3e42090d	0.18948765
245	0xbe0fd2cb	-0.14045255
246	0xbeceece3	-0.40415105
247	0x3e911865	0.28338924
248	0xbecdaa41	-0.40168956
249	0x3f3b1b93	0.7308895
250	0xbf156e0d	-0.5837105
251	0xbda79e83	-0.081845306
252	0xba9bec79	-0.0011896036
253	0x3ea4dda0	0.32200336
254	0xbc2d9b01	-0.010596038
255	0xbe117e7d	-0.14208408

model.features.stage1.unit1.dw_conv.bn.weight f4 [140]
0	0x3f36733e	0.71269596
1	0x3f3cddec	0.73776126
2	0x3f2b51e4	0.6692183
3	0x3f8ca84f	1.0988864
4	0x3ef2b9c6	0.4740736
5	0x3f1305b8	0.574306
6	0x3f6f1907	0.93397564
7	0x3f355129	0.70826966
8	0x3f1778ce	0.5916871
9	0x3ed3043f	0.41214177
10	0x3f64b142	0.89332974
11	0x3f701f3f	0.9379768
12	0x3f3e2cd6	0.74287164
13	0x3f5c804a	0.86133254
14	0x3f02c583	0.5108263
15	0x3f5adc65	0.85492545
16	0x3f19b135	0.6003602
17	0x3f66c01a	0.90136874
18	0x3f2d0abb	0.675945
19	0x3f209571	0.6272803
20	0x3f7d1f75	0.98876125
21	0x3f2ff5e5	0.6873458
22	0x3f552bb3	0.83269805
23	0x3f468aad	0.7755535
24	0x3f131e70	0.5746832
25	0x3f52b283	0.8230364
26	0x3f57da00	0.84317017
27	0x3f2bba00	0.6708069
28	0x3ef4399e	0.47700208
29	0x3f4dff83	0.80468005
30	0x3f46f76b	0.7772128
31	0x3f366e81	0.71262366
32	0x3f48489a	0.7823578
33	0x3f3bcb84	0.73357415
34	0x3f4ce5aa	0.8003794
35	0x3f5a0dde	0.8517741
36	0x3f49d955	0.7884725
37	0x3f3b6f1e	0.73216426
38	0x3f41d20d	0.7571114
39	0x3f60210e	0.8755044
40	0x3f4843b7	0.78228325
41	0x3f4c72ad	0.7986248
42	0x3f676360	0.9038601
43	0x3f392140	0.7231636
44	0x3f65ae91	0.8971949
45	0x3ef054b2	0.46939617
46	0x3f1c70c5	0.6110957
47	0x3f4aa15e	0.79152477
48	0x3f2b00d9	0.6679817
49	0x3f179f31	0.5922728
50	0x3f318bf2	0.69354165
51	0x3f5fb34d	0.87382966
52	0x3f39ad4d	0.7253006
53	0x3f536f2f	0.8259153
54	0x3f0c4ec9	0.54807717
55	0x3f7eb055	0.9948781
56	0x3f50fa31	0.8163176
57	0x3f3e859d	0.7442263
58	0x3f34341b	0.70392007
59	0x3f497207	0.78689617
60	0x3f1d5ab2	0.61466515
61	0x3f7eff58	0.99608374
62	0x3f2663e1	0.64996153
63	0x3f159f90	0.584466
64	0x3f331780	0.69957733
65	0x3f5a68be	0.85316074
66	0x3f5905e0	0.8477459
67	0x3f7ea996	0.9947752
68	0x3f4fd280	0.8118057
69	0x3f41529e	0.7551669
70	0x3f5aa911	0.85414225
71	0x3f485f96	0.7827085
72	0x3f48aac0	0.78385544
73	0x3f7bb073	0.98316115
74	0x3f30bd3a	0.69038737
75	0x3f071893	0.5277187
76	0x3f0eb82f	0.5574979
77	0x3ef5cadc	0.48006332
78	0x3f685d28	0.90767145
79	0x3f3dcd07	0.7414097
80	0x3f59f14c	0.85133815
81	0x3f8793e2	1.0592005
82	0x3f663912	0.8993083
83	0x3f1ab6bd	0.60435086
84	0x3f2172f7	0.6306605
85	0x3f6d73d7	0.9275488
86	0x3f24e191	0.6440669
87	0x3f39af5a	0.7253319
88	0x3f323cc7	0.6962399
89	0x3f3e8fe2	0.744383
90	0x3f2c1c8a	0.6723105
91	0x3f652bca	0.8951994
92	0x3f1ebdee	0.6200856
93	0x3f1cf8fd	0.61317426
94	0x3f557006	0.8337406
95	0x3f4c7f60	0.7988186
96	0x3f078672	0.5293952
97	0x3f58c559	0.8467613
98	0x3f3eb06a	0.74487936
99	0x3f416d45	0.7555736
100	0x3f3e8646	0.74423635
101	0x3f380559	0.7188316
102	0x3f34f255	0.7068227
103	0x3f543908	0.8289952
104	0x3ed9a0c3	0.42505464
105	0x3f5c6159	0.8608604
106	0x3f171897	0.59021896
107	0x3f1a403b	0.6025426
108	0x3f3bf00c	0.7341316
109	0x3f438f51	0.7639056
110	0x3f4d1b98	0.8012023
111	0x3f069085	0.5256427
112	0x3f259aa5	0.64689094
113	0x3f1ecf2f	0.6203489
114	0x3f58a946	0.8463329
115	0x3eb798d4	0.35858786
116	0x3f66d239	0.90164524
117	0x3f2d557f	0.6770858
118	0x3f3d6db1	0.739955
119	0x3f279220	0.65457344
120	0x3f690023	0.91015834
121	0x3ecab915	0.3959433
122	0x3f26a440	0.65094376
123	0x3f557643	0.8338358
124	0x3f59e9aa	0.8512217
125	0x3f6248a4	0.8839209
126	0x3f53473e	0.8253058
127	0x3f5138bc	0.81727195
128	0x3f1d1962	0.61366856
129	0x3f499e25	0.78756934
130	0x3f274b5f	0.6534938
131	0x3f1bf2a0	0.6091709
132	0x3f2b415b	0.668966
133	0x3edda372	0.4328876
134	0x3f297725	0.66197425
135	0x3f4652fd	0.7747038
136	0x3f30e08c	0.6909263
137	0x3f3d78f2	0.7401267
138	0x3f5f34f5	0.8719018
139	0x3f448a73	0.76773757

model.features.stage1.unit1.dw_conv.bn.bias f4 [140]
0	0xbe0cfd2a	-0.1376845
1	0x3d8007d7	0.06251495
2	0xbc988929	-0.01862009
3	0x3d96dce0	0.07366347
4	0x3a0633b2	0.00051193975
5	0xbdda1eb1	-0.10650385
6	0xbe0ab9de	-0.13547465
7	0xbd5b5c31	-0.053554717
8	0x3d81f9be	0.06346463
9	0x3ddf0b9c	0.10890886
10	0x3e10d257	0.14142738
11	0x3e455f89	0.19274725
12	0xbda2fabb	-0.07957979
13	0x3d147ebe	0.036253683
14	0x3d8a0319	0.06738872
15	0x3d5bf1d0	0.053697407
16	0xbca4032a	-0.02002104
17	0x3a63c167	0.0008688182
18	0x3da6fcdd	0.081536986
19	0xbdd37061	-0.10324169
20	0x3e17b573	0.14815311
21	0xbe081b1f	-0.13291596
22	0xbc55d2a5	-0.01305071
23	0xbe39fc08	-0.18162549
24	0xbdf6b0f0	-0.12045467
25	0xbda19bdb	-0.07891055
26	0xbdf06c26	-0.11739378
27	0xbde5b3ed	-0.11215959
28	0xbce3a798	-0.027789876
29	0xbdddfd90	-0.10839379
30	0xbe11dae3	-0.14243655
31	0x3d2deb80	0.04246092
32	0x3d33bae5	0.04387941
33	0xbde6f0ce	-0.112763986
34	0xbe375ee1	-0.17907287
35	0xbd182a40	-0.037149668
36	0x3d81779d	0.063216425
37	0xbdff8828	-0.124771416
38	0xbcd35680	-0.025798082
39	0x3d50d829	0.050987396
40	0x3cd2d5ca	0.025736708
41	0xbe3bc111	-0.18335368
42	0x3d836f57	0.06417721
43	0x3e00f698	0.12594068
44	0xbc378e67	-0.011203385
45	0xbdf0e62e	-0.11762653
46	0xbe383b31	-0.1799133
47	0x3c21167f	0.009832024
48	0xbc2e272a	-0.010629455
49	0xbe2d557d	-0.16927142
50	0xbdfe6a04	-0.124225646
51	0xbdbdeb94	-0.092734486
52	0x3d0af453	0.033924412
53	0xbdb71995	-0.08940426
54	0xbe246600	-0.16054535
55	0x3db5066c	0.088391155
56	0xbdb9f3bb	-0.09079691
57	0xbc853bd1	-0.016263874
58	0xbdc5ff52	-0.09667839
59	0xbe30e440	-0.1727457
60	0xbe0be1cc	-0.13660353
61	0xbdc15b1d	-0.094412066
62	0x3ca9dd23	0.020735329
63	0xbddbf7e8	-0.10740644
64	0xbd42d4fd	-0.047566403
65	0xba91ea02	-0.0011132362
66	0xbda389ba	-0.07985254
67	0xbda34d10	-0.07973683
68	0x3d2c4546	0.04205825
69	0xbcd84a0f	-0.026402501
70	0x3d942c8f	0.072350614
71	0xbdf0fcbb	-0.117669545
72	0x3e1d266b	0.15346687
73	0xbc99f078	-0.018791422
74	0xbe4d3dca	-0.20043102
75	0xbda47400	-0.08029938
76	0xbdb5b641	-0.08872653
77	0xbd1e4420	-0.038639188
78	0x3d3f4a9b	0.04670201
79	0xbdb4fba1	-0.08837057
80	0x3ddcaa0a	0.1077462
81	0xbda1694c	-0.07881412
82	0x3cfc67f8	0.030811295
83	0xbd0c26c9	-0.034216676
84	0xbd9481ca	-0.07251318
85	0xbe0afeac	-0.13573712
86	0xbda68651	-0.081310876
87	0x3e2f5bc0	0.17124844
88	0x3c1b40e0	0.009475917
89	0xbb818b3b	-0.003953365
90	0xbd737c1b	-0.059444528
91	0x3d699efe	0.057036392
92	0xbcbde96d	-0.023182595
93	0xbcaf8e52	-0.021430168
94	0xbe1cf0d2	-0.1532624
95	0x3cbcc0bf	0.023041127
96	0xbe4dfaa0	-0.20115137
97	0xbd6b1619	-0.05739412
98	0x3cd65cfa	0.026167382
99	0x3d53328a	0.05156187
100	0xbda4af47	-0.08041244
101	0xbd07f653	-0.033193897
102	0x3d164990	0.03669125
103	0xbd1b45fd	-0.037908543
104	0xbdc3787f	-0.09544467
105	0x3d1e604e	0.038666062
106	0xbd11b3ce	-0.035571866
107	0xbdec0b7f	-0.1152563
108	0xbdb60994	-0.08888546
109	0xbd4a425a	-0.049379684
110	0x3d39289d	0.045204747
111	0xbd816949	-0.0631891
112	0x3d134e31	0.03596324
113	0xbdf561f0	-0.11981571
114	0xbdd37a4b	-0.1032606
115	0xbe0ab2b4	-0.13544732
116	0xbc6c27be	-0.014413772
117	0xbe14d7f1	-0.145355
118	0xbe6276db	-0.22115652
119	0xbdc9e073	-0.098572634
120	0xbd8a2bf8	-0.067466676
121	0xbdf248c0	-0.11830282
122	0xbd6398c0	-0.055565596
123	0x3dfbb965	0.122912206
124	0xbd60f42c	-0.05492036
125	0xbd7d47e2	-0.06183613
126	0x3dc588d4	0.096452385
127	0xbd7d552f	-0.061848816
128	0xbc58f0ac	-0.013240974
129	0xbe27df95	-0.16393884
130	0xbe23f299	-0.16010512
131	0xbd3c72c5	-0.04600789
132	0xbd3e4e29	-0.046461258
133	0xbdceb327	-0.10092764
134	0xbddb22e3	-0.107000135
135	0x3cb0e7e3	0.021594947
136	0xbe21baf0	-0.15793967
137	0xbc42aa16	-0.011881372
138	0xbdaf80d4	-0.08569494
139	0x3e52c401	0.20582582

model.features.stage1.unit1.dw_conv.bn.running_mean f4 [140]
0	0x3decf7a5	0.11570672
1	0x3d8cfd52	0.068842545
2	0xbcc275e3	-0.023737853
3	0x3d488316	0.04895314
4	0xbd22d070	-0.039749563
5	0xbd2b0903	-0.04175664
6	0xbc7e368e	-0.015515937
7	0xbce1304d	-0.027488852
8	0xbce5498f	-0.027989177
9	0xbd60518c	-0.05476527
10	0x3c1fe5db	0.009759392
11	0x3cb159ba	0.02164923
12	0x3d4bdc0a	0.049770392
13	0xbd614e00	-0.055006027
14	0xbd246557	-0.040135708
15	0x3c8dfe79	0.017333256
16	0xbd2c129a	-0.042009927
17	0x3ad515a4	0.001625706
18	0xbd817b11	-0.06322301
19	0x3c91c57c	0.017794363
20	0x3d369b9d	0.044582
21	0x3cf0c878	0.029392466
22	0xbd58f203	-0.052965175
23	0x3cf8e673	0.030383324
24	0xbdaf446e	-0.08557974
25	0x3d9c5660	0.07633662
26	0x3dbfeaab	0.09370931
27	0xbd2e5bfa	-0.042568184
28	0xbc545fe2	-0.012962313
29	0x3dc25875	0.09489528
30	0x3de6407e	0.1124277
31	0xbdc613a1	-0.09671713
32	0x3db548ca	0.08851774
33	0x3d580de1	0.05274761
34	0x3dcb88b4	0.099381834
35	0x3d453811	0.048149172
36	0xbd815f25	-0.063169755
37	0x3c5c7f7b	0.013458128
38	0x3932797c	0.0001702066
39	0xbd5bc5b0	-0.053655326
40	0xbd74b569	-0.05974332
41	0x3c86210a	0.016373176
42	0xbd27cc2f	-0.04096621
43	0x3dbc1ab1	0.091847785
44	0xbc8e330d	-0.017358327
45	0xbc362299	-0.011116647
46	0x3c446bb8	0.011988573
47	0xbd6554f6	-0.05598923
48	0xbd01f815	-0.03173073
49	0xbd2c54d8	-0.0420731
50	0x3d3d28f8	0.04618165
51	0x3cf6fecd	0.030150795
52	0x3dab2fda	0.08358736
53	0x3bbc934f	0.0057548652
54	0xbd1a11d5	-0.037614662
55	0x3d7a78e5	0.06115045
56	0xbd92ed76	-0.07174198
57	0xbcb9a124	-0.022659846
58	0x3a5d4e86	0.0008442182
59	0xbc7f0cc4	-0.015567008
60	0x3d7627dd	0.06009661
61	0x399074df	0.00027552896
62	0x3d11d769	0.03560582
63	0x3d409efa	0.047026612
64	0x3d8e2334	0.06940308
65	0xbcf6b3ca	-0.030115027
66	0x3c51882d	0.0127888145
67	0xbd211393	-0.039325308
68	0xbdd0881a	-0.10182209
69	0xbc988092	-0.018615995
70	0x3d0d996d	0.034570146
71	0x3d11e1a4	0.03561558
72	0xbdafe97d	-0.08589456
73	0x3dec7caa	0.11547215
74	0x3c46da76	0.012137046
75	0xbda04b81	-0.07826901
76	0xbd7e8caa	-0.062145866
77	0xbcf2f927	-0.02965982
78	0xbc007c6c	-0.0078421645
79	0x3e12b732	0.14327696
80	0x3d38f1b9	0.0451524
81	0x3d00bbce	0.031429105
82	0xbd2d0d95	-0.04224928
83	0x3d1e5d0c	0.038662955
84	0xbd3ab767	-0.045585062
85	0x3d61bc62	0.055111296
86	0x3d334c11	0.043773714
87	0x3d38121b	0.04493914
88	0x3d56a226	0.05240073
89	0xbcafb4ac	-0.021448456
90	0xbd1792e4	-0.03700532
91	0x3e2e684e	0.17031977
92	0xbcec5170	-0.028847426
93	0x3b49039d	0.003067232
94	0xbd18f4b7	-0.037342753
95	0xbc270106	-0.010193115
96	0x3cc403e7	0.023927642
97	0xbdc082b8	-0.093999326
98	0xbd7eafa2	-0.062179215
99	0xbd335f73	-0.0437922
100	0x3c91bc1e	0.017789897
101	0x3d8edcb1	0.06975687
102	0x3c6b0d14	0.01434638
103	0x3dcad513	0.09903922
104	0xbd01dc40	-0.031704187
105	0xbd3c9a64	-0.046045676
106	0x3d459740	0.048239946
107	0xbdbc7308	-0.09201628
108	0x3d1404d5	0.03613742
109	0xbd23c9f3	-0.039987516
110	0x3bce4d3a	0.006295827
111	0xbd063cc7	-0.032772806
112	0xbcf8e8a8	-0.030384377
113	0x3cbfb04b	0.023399493
114	0x3d2e85b9	0.042607997
115	0xbc227376	-0.009915223
116	0xbca9eff9	-0.02074431
117	0x3d3d42df	0.04620635
118	0xbd5d8555	-0.054082233
119	0x3d94c152	0.072634354
120	0x3da0a8da	0.07844706
121	0xbd03e3b0	-0.03219956
122	0xbd10d975	-0.035363633
123	0xbd665140	-0.05622983
124	0x3d845d16	0.06463067
125	0x3dbf9ab4	0.09355679
126	0xbdd82d65	-0.10555533
127	0xbd71f6ac	-0.059073135
128	0xbd5595cd	-0.052144814
129	0x3c10f150	0.008846596
130	0xbd79cabd	-0.060984362
131	0xbd351917	-0.04421338
132	0xbd8e3c07	-0.06945043
133	0xbce33f3a	-0.02774011
134	0xbd01a631	-0.031652633
135	0x3dddf8ae	0.108384475
136	0x3cccec99	0.025015162
137	0xbe248451	-0.160661
138	0x3cfb4220	0.03067118
139	0xbccb9172	-0.024849627

model.features.stage1.unit1.dw_conv.bn.running_var f4 [140]
0	0x3c9e5e10	0.019331962
1	0x3c1ee8c1	0.009699048
2	0x3c0e6b49	0.008692571
3	0x3c2c6fb3	0.010524678
4	0x3c1c25b0	0.00953047
5	0x3b44fdb3	0.0030058443
6	0x3d0f38d3	0.0349663
7	0x3c636a61	0.013880343
8	0x3bbb9351	0.0057243486
9	0x3bcf1bc4	0.0063204486
10	0x3cdf0ae3	0.02722687
11	0x3cd28b07	0.025701059
12	0x3c150f2d	0.0090978565
13	0x3c8c2c10	0.017110854
14	0x3bdb8f9e	0.00670047
15	0x3c3b9fa1	0.011451633
16	0x3b10a330	0.0022069924
17	0x3c780bcc	0.015139531
18	0x3c5977a1	0.013273151
19	0x3b6987c6	0.0035633906
20	0x3d33e523	0.043919694
21	0x3ba18305	0.004928949
22	0x3c9fb707	0.019496454
23	0x3bb424c7	0.0054975483
24	0x3c146592	0.009057419
25	0x3c1ced5e	0.009578077
26	0x3cbe0c53	0.023199236
27	0x3b87e255	0.004146854
28	0x3a911a8a	0.0011070531
29	0x3c6acfb2	0.014331745
30	0x3c786de5	0.01516292
31	0x3c8ab2b9	0.016930925
32	0x3c91d74a	0.017802853
33	0x3bc35f62	0.0059622983
34	0x3d7ae489	0.061253104
35	0x3c2236bf	0.009900748
36	0x3bbefd5f	0.005828544
37	0x3c505572	0.012715684
38	0x3c65bd41	0.014022172
39	0x3c073708	0.008252867
40	0x3c26a789	0.010171779
41	0x3c005ced	0.007834655
42	0x3c6231c6	0.013805812
43	0x3c67fc3a	0.014159257
44	0x3ca85a49	0.020550864
45	0x3b41674a	0.0029511028
46	0x3b807d2b	0.003921171
47	0x3c0fb777	0.008771769
48	0x3ba58122	0.005050794
49	0x3baeb9df	0.005332216
50	0x3bcbad65	0.0062157386
51	0x3ca6fec8	0.020385161
52	0x3cc397cf	0.023876099
53	0x3c79ac89	0.0152388895
54	0x3b43b176	0.0029860414
55	0x3c9377d1	0.018001469
56	0x3d85ea56	0.06538837
57	0x3d15a742	0.036536463
58	0x3c0dc108	0.008651979
59	0x3bf9f12d	0.0076276273
60	0x3bd66441	0.006542713
61	0x3d1db77f	0.038505074
62	0x3ba150d2	0.0049229646
63	0x3b84d0bd	0.004053204
64	0x3bad2cab	0.005284866
65	0x3d156abf	0.036478754
66	0x3c90408b	0.017608901
67	0x3cb32cba	0.021871913
68	0x3d233df2	0.039853998
69	0x3c532eac	0.012889545
70	0x3cf0881b	0.029361775
71	0x3bf9d7d9	0.007624608
72	0x3c885a51	0.016644629
73	0x3d020c5f	0.03175008
74	0x3b999001	0.004686356
75	0x3c3a6322	0.011376174
76	0x3c02c6c9	0.007981964
77	0x3ba3ddec	0.0050008204
78	0x3c82ab9c	0.01595097
79	0x3d08c802	0.033393867
80	0x3d00149c	0.031269655
81	0x3d097c9b	0.0335661
82	0x3cb558a1	0.022136988
83	0x3b0ccb57	0.0021483505
84	0x3bb6e499	0.00558145
85	0x3c64b80d	0.013959897
86	0x3b45b33c	0.0030166646
87	0x3c207399	0.009793186
88	0x3b9b31d1	0.004736163
89	0x3b806186	0.0039178757
90	0x3b29013e	0.0025788094
91	0x3d6d39f1	0.057916585
92	0x3c84ce91	0.01621178
93	0x3b9fb6ba	0.0048740776
94	0x3c482857	0.012216649
95	0x3cb7498d	0.022373939
96	0x3a9dda70	0.0012043249
97	0x3c8a91b3	0.016915178
98	0x3c19d8cc	0.009390067
99	0x3c99b879	0.018764721
100	0x3c2b376b	0.010450224
101	0x3be46a82	0.0069707045
102	0x3c02ca63	0.007982823
103	0x3c5dde2a	0.013541738
104	0x3b3da07b	0.0028934765
105	0x3c6c901a	0.014438653
106	0x3b7119e9	0.0036789125
107	0x3bfdb3c4	0.007742377
108	0x3b07b90f	0.0020709669
109	0x3c85aa1f	0.016316472
110	0x3d0bd60e	0.034139685
111	0x3b1b4ee2	0.002369814
112	0x3b99d307	0.004694346
113	0x3bc705c5	0.006073686
114	0x3c39c958	0.011339508
115	0x3990e570	0.00027636765
116	0x3d873f03	0.066038154
117	0x3c0c6694	0.008569378
118	0x3c36cb14	0.011156816
119	0x3c4d5ffb	0.012535091
120	0x3c41b824	0.011823688
121	0x3b0505ca	0.002029764
122	0x3b39944c	0.0028317152
123	0x3c5aa4e2	0.013344975
124	0x3bf79551	0.0075556417
125	0x3cee14a7	0.029062582
126	0x3cae7729	0.021297054
127	0x3c1b66c6	0.009484952
128	0x3bfdec0c	0.0077490862
129	0x3a7ab3af	0.0009563518
130	0x3bf5ba24	0.0074989963
131	0x3b9e71da	0.0048353495
132	0x3c15206a	0.009101966
133	0x3a73710d	0.000928656
134	0x3c65b997	0.014021299
135	0x3cd03e4f	0.025420336
136	0x3bf5fd31	0.0075069894
137	0x3cc84608	0.024447456
138	0x3bbf4588	0.005837146
139	0x3c9b007f	0.018921135

model.features.stage1.unit1.pw_conv.conv.weight f4 [140, 140, 1, 1]
0	0xbe413a0f	-0.18869804
1	0xbd1ea22c	-0.038728878
2	0x3db10c85	0.08644966
3	0x3da7cd1e	0.0819342
4	0xbdb46424	-0.08808163
5	0xbdd9b757	-0.106306724
6	0xbcc91c06	-0.024549495
7	0xbc2c920f	-0.01053287
8	0xbdad9b13	-0.08476844
9	0xbdbe1a58	-0.092823684
10	0x3d81d60e	0.06339656
11	0xbdca8260	-0.09888148
12	0x3e48d2d5	0.19611676
13	0x3d31a957	0.043374386
14	0xbe7e2bc5	-0.24821384
15	0xbd91a8c6	-0.07112269
16	0x3c95d9aa	0.018292267
17	0xbdc411ca	-0.095737055
18	0x3dc1a175	0.094546236
19	0x3e0257f8	0.1272887
20	0xbc70d0ea	-0.0146982465
21	0xbda9d9e7	-0.08293515
22	0xbd877295	-0.06613652
23	0xbc340baf	-0.010989114
24	0x3d80eaaa	0.062947586
25	0x3e46cc0a	0.19413772
26	0xbe6f61cc	-0.2337715
27	0x3d9c5e9a	0.07635231
28	0x3ddf8897	0.10914724
29	0xbd9c699e	-0.076373324
30	0xbce18000	-0.027526855
31	0xb8183118	-3.6285346e-05
32	0xbd37139d	-0.04469644
33	0x3cb62e3e	0.022238847
34	0x3d0c8b0b	0.03431229
35	0xbde74a51	-0.112934716
36	0x3e81a799	0.2532318
37	0x3d1b6f85	0.03794815
38	0x3e5f8c46	0.21830854
39	0x3de939df	0.11387991
40	0x3d8d543a	0.069008306
41	0x3ebc5396	0.3678252
42	0x3cfcb827	0.03084953
43	0x3e424ad0	0.18973851
44	0x3e6a0560	0.22853613
45	0xbd8986aa	-0.06715138
46	0x3d36160a	0.04445461
47	0xbbed8012	-0.007247933
48	0x3d98c436	0.07459299
49	0xbeaea619	-0.34111097
50	0x3d553769	0.052054796
51	0x3d9ff663	0.078106664
52	0xbc624af3	-0.013811815
53	0xbe04a84e	-0.12954828
54	0xbdd1b527	-0.1023963
55	0xbdfca6bb	-0.12336489
56	0x3d1b4631	0.037908737
57	0x3ec99766	0.3937332
58	0xbddba368	-0.10724527
59	0xbe5085f3	-0.20363598
60	0xbe86c612	-0.2632299
61	0xbd82b332	-0.06381835
62	0xbe327687	-0.17428027
63	0xbcff6b4d	-0.031179095
64	0x3cc0725a	0.023492027
65	0x3e4fe9bf	0.20304011
66	0xbc099186	-0.008396512
67	0x3da385a5	0.07984475
68	0xbdc2889e	-0.09498714
69	0xbd5c4764	-0.05377902
70	0xbe45a6fd	-0.19301982
71	0xb81d86fa	-3.7557424e-05
72	0x3eb9abe8	0.36263967
73	0xbe8c9ee4	-0.27464974
74	0xbd7fe635	-0.062475402
75	0x3d015f6c	0.031585142
76	0x3cecacad	0.028890932
77	0xbd2147e9	-0.03937522
78	0x3dab4d85	0.08364395
79	0x3d01ff24	0.03173746
80	0x3d037e28	0.032102734
81	0xbe3b2fbb	-0.18279926
82	0xbe27b67d	-0.16378208
83	0x3da0cabe	0.0785117
84	0x3dbefab7	0.09325164
85	0x3d0111e4	0.031511202
86	0xbe31a819	-0.1734928
87	0x3e9a2b37	0.30111095
88	0x3dff95da	0.12479754
89	0xbe87ad78	-0.26499534
90	0xbe0b01dd	-0.1357493
91	0x3c665c68	0.014060117
92	0x3cdbdb24	0.026837893
93	0xbdaef75b	-0.08543273
94	0xbe08a496	-0.13344035
95	0xbca601bf	-0.020264504
96	0x3c29ff25	0.010375773
97	0xbdb945f8	-0.090465486
98	0xbe063b68	-0.13108599
99	0xbe11585e	-0.14193866
100	0x3e04e44b	0.12977712
101	0xbe8d2035	-0.27563635
102	0x3e12855c	0.14308685
103	0x3bc641e6	0.006050336
104	0xbdd3f834	-0.10350075
105	0x3db49874	0.088181406
106	0x3d1f12aa	0.03883616
107	0x3d96c942	0.07362606
108	0xbc847662	-0.01616973
109	0x3e13535f	0.14387272
110	0x3d99a5cd	0.07502327
111	0x3d8e519a	0.06949158
112	0x3cda2058	0.02662675
113	0x3c63139e	0.013859658
114	0x3d7f86d6	0.06238445
115	0xbdfab946	-0.12242369
116	0xbde7e161	-0.113222845
117	0xbe69ec52	-0.22844055
118	0x3d8407d0	0.064468026
119	0xbe399b4b	-0.18125646
120	0x3d14963a	0.03627608
121	0x3d708de5	0.05872907
122	0xbe3812a7	-0.17975865
123	0x3ea76b5f	0.32699105
124	0x3d79de58	0.06100306
125	0x3bd92c64	0.006627606
126	0xbd93b235	-0.07211725
127	0x3eb447c7	0.35211012
128	0x3ddd12d3	0.10794606
129	0xbdc00507	-0.09375959
130	0xbe2a670c	-0.16640872
131	0x3e23a055	0.1597913
132	0xbe188ddb	-0.14897864
133	0x3d8bc441	0.06824542
134	0xbda7df2f	-0.08196866
135	0xbdce2bdc	-0.10066959
136	0xbe8abb5f	-0.27096078
137	0x3e2b4890	0.16726899
138	0x3d6e5157	0.05818304
139	0xbd90d3cb	-0.07071646
140	0xbd2d9aaa	-0.042383827
141	0xbd17f137	-0.037095275
142	0xbcfe2d6c	-0.031027518
143	0xbd3e4ff4	-0.046462968
144	0x3d440a1c	0.047861204
145	0xbd14943f	-0.03627419
146	0xbd3d1fa2	-0.046172746
147	0x3d9aa011	0.075500615
148	0x3bc3d2e6	0.005976069
149	0xbd4f271e	-0.050574414
150	0xb8d0ddf3	-9.959554e-05
151	0xbd07e5a7	-0.033177998
152	0xbe323f7a	-0.17407027
153	0x3d6cf92c	0.057854816
154	0xbd6cd80c	-0.057823226
155	0x3dff2db8	0.12459892
156	0xbac735b1	-0.0015198496
157	0xbe167640	-0.14693546
158	0x3d0eefbd	0.0348966
159	0x3a908775	0.0011026697
160	0xbda2c7b0	-0.079482436
161	0x3d8d4665	0.06898192
162	0xbe8de6f4	-0.27715266
163	0xbe4289c4	-0.18997866
164	0xbddd8a7f	-0.10817432
165	0x3d333297	0.043749418
166	0xbe447fa7	-0.1918932
167	0x3d063c05	0.032772083
168	0x3daa1964	0.08305624
169	0xbd5fc941	-0.05463529
170	0xbd9da1a6	-0.076968476
171	0x3e02d6b7	0.1277722
172	0xbde85b87	-0.113455825
173	0xbcbb2285	-0.022843609
174	0x3d30b9de	0.043146007
175	0x3e55f7fd	0.20895381
176	0x3e0a43a8	0.13502371
177	0xbd251c8e	-0.040310435
178	0xbcd9dee7	-0.026595546
179	0xbcbe086c	-0.023197375
180	0x3d3f15cc	0.046651646
181	0x3e58159b	0.21101992
182	0x3d0def19	0.03465185
183	0x3da9e2e8	0.08295232
184	0xbd8f9d1b	-0.07012387
185	0xbcd07d2e	-0.025450315
186	0xbd9df2e2	-0.07712342
187	0xbd972059	-0.07379217
188	0x3dd368a9	0.10322697
189	0xbc238ed8	-0.009982787
190	0x3dbe886a	0.09303363
191	0x3db7c081	0.08972264
192	0xbdbe40db	-0.09289714
193	0xbe5ea139	-0.21741189
194	0xbcbf9967	-0.023388578
195	0x3dcd4ab9	0.10024018
196	0xbd42dc26	-0.04757323
197	0x3e0703d8	0.1318506
198	0x3d3b0676	0.04566046
199	0x3d7097c7	0.058738496
200	0xbde00b51	-0.109396584
201	0xbcddcd7b	-0.02707552
202	0xbd979de4	-0.07403162
203	0xbd83cd10	-0.06435597
204	0x3e50d397	0.20393215
205	0xbc0ca701	-0.008584739
206	0xbdc8e1bf	-0.09808683
207	0x3cef363f	0.029200671
208	0x3a7569a9	0.0009361753
209	0xbd7938f5	-0.060845334
210	0xbe17bc97	-0.14818035
211	0x3dc85d75	0.097834505
212	0x3d8c48a8	0.068497956
213	0xbe947a93	-0.28999767
214	0xbdd8a6bc	-0.10578677
215	0x3dc9c113	0.09851279
216	0xbd7469de	-0.059671275
217	0xbd06e7c4	-0.032935873
218	0x3d57fb72	0.05273003
219	0xbd8e34f4	-0.06943694
220	0xbd89175a	-0.06693907
221	0xbe02fbbf	-0.12791346
222	0x3e113ff5	0.14184554
223	0x399cb22c	0.00029887387
224	0x3d69baa5	0.057062764
225	0x3d23c39d	0.039981473
226	0xbe18e689	-0.14931692
227	0x3ca1265a	0.019671608
228	0x3e297cc5	0.16551502
229	0xbe1403a0	-0.14454508
230	0x3c0c7a8a	0.008574137
231	0xbbbf854a	-0.0058447467
232	0xbde6236b	-0.11237224
233	0x3d01f029	0.031723175
234	0xbe3f8ad8	-0.18705308
235	0xbe86e7a5	-0.26348606
236	0xbd30a219	-0.04312334
237	0xbd895b67	-0.06706887
238	0xbe5e36bb	-0.21700566
239	0x3d4565c0	0.04819274
240	0x3de6722a	0.11252244
241	0xbe17a572	-0.14809206
242	0x3d4d3b8d	0.05010562
243	0xbe07edfd	-0.13274379
244	0xbc44b4e8	-0.012006022
245	0xbd8d2da8	-0.06893474
246	0x3e0a2531	0.1349075
247	0x3db64c4d	0.08901272
248	0x3e2eaa24	0.17057091
249	0x3daac6a6	0.083386704
250	0x3dbb8749	0.09156663
251	0xbd002bf9	-0.031291936
252	0x3df7944b	0.120888315
253	0x3d16f6a6	0.036856316
254	0x3dcbc905	0.09950451
255	0xbcc3395d	-0.023831064
