yono_compression/yono/data/saved_model/VWNet_mnist_adam_multistep_nomixup.pt (torch, 187667 bytes, 12 tensors)

features.init_block.0.weight f4 [8, 1, 3, 3]
00000000: f1d9 0d3e 49e0 a4be dd3e 08bf a6c4 c73e
00000010: d179 18be 2954 4cbe a3f6 973d b904 f23e
00000020: 52cb a73e b03a e03c 215d 743e 9f94 5b3e
00000030: d525 893e fa53 403c 86b7 22be 6377 143d
00000040: eb11 66be c4c8 09be 5a99 c83e 5d66 413e
00000050: 206e babc 7b34 8fbe 7b5a b8be 4473 babe
00000060: 4d1a 5fbe de44 b63d f1fa c43e 4598 8a3e
00000070: e1b0 ae3c f6a7 aa3e d2e2 5d3d e851 c63e
00000080: 244c 983e 57b0 fcbe a8ab 08bf 0f65 dfbe
00000090: 8047 353e a978 f4bb 0079 683e 38b0 633b
000000a0: 71ea 033f f010 9dbe 9cf0 b23e 7333 b53d
000000b0: fcdc 03bf f3e5 803d 8e40 59be 77fb c9be
000000c0: d5c4 eabd d3a4 80be d94b babe d91c cdbe
000000d0: 23e3 f8bd 338c 99bc 25d3 5c3e 67ed 3e3e
000000e0: 3621 5b3e 3b33 c9bd c5eb c13d c2df 6b3e
000000f0: 6e50 9ebd cca4 8e3d 2450 e73e 0266 c43e
00000100: 5a6f da3d 92c1 04bf f4fb 823e 0fdb b13d
00000110: 01ea f4be 348f 21be e3d5 f3be 5eee 73be
0.1385267 -0.32202366 -0.5322092 0.39017218 -0.1489022 -0.1995398 0.07420089 0.47269228
0.3277231 0.027371734 0.23863651 0.21443413 0.26786676 0.011738772 -0.15890321 0.03624667
-0.22467773 -0.13455492 0.39179498 0.18886705 -0.02275759 -0.27969727 -0.3600653 -0.36416066
-0.21787377 0.08899854 0.38472703 0.27069297 0.021324577 0.3333127 0.05417139 0.38734365
0.2974559 -0.49353287 -0.53386927 -0.4363179 0.17703056 -0.007460673 0.22702408 0.0034742486
0.51529604 -0.30676985 0.34949195 0.08847704 -0.5150907 0.06293859 -0.21216032 -0.39449665
-0.11463324 -0.2512575 -0.36385992 -0.40061072 -0.12152698 -0.01874361 0.2156492 0.1864525
0.21399388 -0.098242246 0.094687976 0.23034576 -0.077301845 0.06965026 0.4517833 0.38359076
0.1066577 -0.51857865 0.2558285 0.0868436 -0.4783478 -0.15777284 -0.4762412 -0.23821399

features.init_block.0.bias f4 [8]
00000000: b98d aa3d 8908 05be 7894 90bd 89c4 35bd
00000010: 2d5d 3d3b dbf9 8a3e bf82 443e 0526 65be
0.08327813 -0.12991537 -0.07059568 -0.044376884 0.0028894648 0.2714375 0.191905 -0.22377785

features.stage1.0.weight f4 [16, 8, 3, 3]
00000000: a32a 33bd 0eeb 85bd eb15 da3d 533c 4cbe
00000010: 86d7 e8bd 8008 073e 72be f4bd ef61 283e
00000020: 6612 203d c0e7 0b3e 536d 473d 9769 00be
00000030: da2a 45bd 0ca2 91bd e522 71be 6bf3 983d
00000040: fd70 c93d 5f22 e43d b80b d73d 6ba9 f0bc
00000050: 7feb ba3d c10a 11bc 34b2 c6bb fc78 f03d
00000060: 9b9f b33e 6e94 9a3e 1443 583e bf57 2a3c
00000070: 7f07 1f3e c21b 523e 6309 f53d e998 c43d
00000080: f8fd 8a3d 5d92 e0bd c0a1 09bf 3d99 3cbe
00000090: fd12 e33b f616 f03b 3188 41bd d166 43be
000000a0: 9007 38be 5400 03be 3f6a ea3d 2c18 dc3d
000000b0: 7725 2f3e 7716 02be 1751 aebe 4baa 5cbf
000000c0: c923 c9bc 1ece e23c 4342 1ebe 55d8 1a3d
000000d0: 6473 ed3c 84a9 c9bd 99dd f43d b2b9 283e
000000e0: dc84 133e c4ed 4abd 3a98 0abe 0974 1dbd
000000f0: 995d efbd 2c34 5b3b 66ed 1c3d 5ec2 283d
00000100: 217a 10be fe55 ccbe ccfe 9cbd eef3 3cbe
00000110: 4c27 c2bd 09a8 583e fc13 38be b12a d33d
00000120: a65e c03d 18d6 143c c8f3 eebd cb08 f83d
00000130: 482e 4abd d771 5fbe e1de 80bd 3680 26be
00000140: 1c16 89be 5a6f f9bb b364 553d d072 0d3d
00000150: df12 f2bd 04f6 74bc 4f37 cabd 302d d03d
00000160: 6441 a9bd a42e 4dbe 0ff0 f1bd edba a0bc
00000170: 8284 b73d 9272 babd 00d7 6ebc 9405 213d
00000180: 1b0b 563e c86c 11bc 4190 debc 79f9 073d
00000190: 9bb1 883c c919 c7bd 8ff6 b03d c5c4 a63d
000001a0: 3b6f 0ebe 5aeb 023f b9e3 c1bd 7931 95be
000001b0: 56c3 b6bd 2346 2abc 8baf 6ebd dc8b 17be
000001c0: 0364 46be a705 ddbc 7c7a 20be 1d8e bebd
000001d0: 87a0 783d 6d4e 0d3e ae1c 513d 9068 b0bd
000001e0: 4034 93bc 78d7 a4bd 73bf 1c3d ab9d 2dbd
000001f0: 2f3a fb3d 5f54 1fbe 72b4 d6bd ed85 333c
00000200: ce91 4e3e 7581 66bd 9ef5 d6bc 68e1 823e
00000210: 2c4d 0dbe 1e4a cbbc addd a03e 4e5b 483d
00000220: d4ca 873e 69b1 5ebd 7fb6 73bc 3702 073e
00000230: 2e05 0dbe 876b 413c bca1 d2bb 7ae8 8f3d
00000240: 0c97 123e 9a1e b1bd 6525 cbbe 76a0 f73c
00000250: fd8f 793e f85a 423e c894 17be 552e 2ebd
00000260: dbe6 d33e 2408 25be 8836 13bd 9509 0dbd
00000270: eb74 b33d dc9c 63bd afeb b5be eaa8 f2bd
00000280: a84e 1ebd a59b 97be 7e62 943e 09be a93e
00000290: aa7b f5bd ed34 e5bc e274 18be a4ea 8fbe
000002a0: 7e28 e03c b0bf 883c 7426 c5bc 23ba 263c
000002b0: 3486 223e 22fd 323e fb26 d53d 242e 253d
000002c0: 714f 13bd 1402 ba3d 8c84 a2bc eec8 dfbd
000002d0: 8205 8abd 93ae 40bc 8f14 21be dcf5 cc3d
000002e0: 0326 53bd 241b 69bd 4d5b 5f3d a9bb 97bd
000002f0: 7f76 f03c f809 ef3d 105a c73d 1f7e 093e
00000300: c2e4 3fbd fab9 8cbd 2e3f 1abe 55ef aabb
00000310: c2fa bbbd bf5d cbbd 7992 8dbe 7533 93bd
00000320: b868 97bd bcd9 4c3d 2585 383e 2fa8 44be
00000330: 59de 13bd ccad 093b c4ff eabc 1819 083d
00000340: 300e e93c 253d ad3d 96f2 b6bd 7439 90be
00000350: 299f 0fbe 7080 483d 4661 afbc 126e b8bd
00000360: c4ae 453d 4bbb 1a3d ed6d 4cbe c627 e1bb
00000370: 0fcb 933c ed55 573e 07bd 833e 5811 09bd
00000380: a3a4 3a3e 7c4c 68bd 0621 68bd 8b73 ca3e
00000390: fd67 5c3d 218b f23c a9a8 8bbd 3142 d83d
000003a0: 47ba 753d e9f2 973d 9045 003e 4bd1 06bd
000003b0: 2c5e 06be e873 ea3d a1f4 ee3d c57c 67bd
000003c0: c5b8 913c 3a55 46bc 0458 5c3e 851e 43be
000003d0: 4acc 4fbe 7530 d3bc f079 4abe 8d5f c13d
000003e0: 62be a0bc fd3d b5bd 7307 463d ed10 943e
000003f0: a657 ff3d 4320 4938 de1e 2a3e 1409 ffbc
-0.043741833 -0.06538974 0.10648712 -0.19944887 -0.11369233 0.13186836 -0.11950387 0.16443609
0.039080046 0.13662624 0.048688244 -0.1254028 -0.04813657 -0.07110986 -0.23548467 0.07468303
0.09836004 0.11139368 0.10500282 -0.02937766 0.091269486 -0.008852662 -0.006063724 0.11741826
0.35082707 0.30191368 0.21119338 0.010396897 0.15530203 0.20518401 0.11964681 0.09599478
0.06786722 -0.109654166 -0.53762436 -0.18417831 0.006929754 0.007326956 -0.047249023 -0.1908219
-0.17971635 -0.12793094 0.11446046 0.10746798 0.17104135 -0.12703882 -0.34046242 -0.86197346
-0.024553197 0.027686175 -0.15454964 0.037803967 0.028985687 -0.09846786 0.11956329 0.16477087
0.1440615 -0.049543157 -0.13534632 -0.038440738 -0.11687774 0.0033447845 0.03831234 0.041200988
-0.14109088 -0.39909357 -0.07665786 -0.18452427 -0.094801515 0.2115785 -0.17976373 0.10310877
0.09393053 0.009084247 -0.11667591 0.12111052 -0.049360543 -0.2182077 -0.06292511 -0.16259846
-0.2677468 -0.007612151 0.052097987 0.03453332 -0.118200056 -0.014951233 -0.098738305 0.10164869
-0.082644254 -0.20037323 -0.11813366 -0.019620383 0.08960821 -0.09103884 -0.014577627 0.03931196
0.20902674 -0.008876033 -0.027168395 0.0331969 0.016686251 -0.09721715 0.08640777 0.081429996
-0.13909619 0.5114037 -0.09467263 -0.29139307 -0.08923976 -0.010392698 -0.05827288 -0.14799446
-0.19374089 -0.026980234 -0.15671724 -0.0930445 0.060699966 0.13799448 0.05105274 -0.08613694
-0.01796925 -0.0804891 0.038268518 -0.042386692 0.12266957 -0.15559529 -0.10483636 0.010957223
0.20172808 -0.056275804 -0.026240166 0.25562596 -0.1379897 -0.024815615 0.31419125 0.0489152
0.26521933 -0.05436841 -0.014875053 0.13184439 -0.13771507 0.011805422 -0.0064279716 0.07026763
0.14315432 -0.08648415 -0.39676967 0.03022788 0.24371333 0.18980014 -0.1480285 -0.042524654
0.41387066 -0.16116387 -0.035940677 -0.034432966 0.08762535 -0.055569515 -0.35531375 -0.11848624
-0.03864923 -0.29610935 0.28981394 0.33152798 -0.11986478 -0.027979339 -0.14888337 -0.28108704
0.027363058 0.016692966 -0.024066187 0.010176214 0.15871507 0.17479375 0.104078256 0.040327206
-0.035964433 0.090824276 -0.019838594 -0.10926996 -0.06739332 -0.011760372 -0.15730499 0.100078315
-0.051549923 -0.05691065 0.05453043 -0.0740884 0.029353378 0.11671823 0.09733975 0.13427018
-0.04684902 -0.0687141 -0.15063164 -0.005216519 -0.09178688 -0.0992999 -0.27650812 -0.07187549
-0.073930204 0.050012335 0.1801954 -0.19204782 -0.03610072 0.0021008132 -0.028686412 0.033227056
0.028449148 0.08458928 -0.08932988 -0.28168833 -0.14025559 0.048950613 -0.021408688 -0.09005369
0.048262373 0.037776273 -0.19963808 -0.0068711964 0.018041162 0.21028872 0.25730154 -0.033463806
0.18226866 -0.056713566 -0.05667212 0.39541277 0.05381011 0.029607357 -0.06819279 0.105595
0.0599921 0.07419378 0.12526536 -0.03291444 -0.13121861 0.114478886 0.11667753 -0.056515474
0.0177883 -0.0121052805 0.2151795 -0.19054611 -0.20292774 -0.025779942 -0.19773078 0.09442053
-0.019622032 -0.08849714 0.048346948 0.28919163 0.124678895 4.795218e-05 0.16613337 -0.031132258

features.stage1.0.bias f4 [16]
00000000: c66b 3f39 846a cdbd 7a50 133e 1410 48bc
00000010: 70a2 8d3d b84b bfbd 22a6 9fbc 93ba a2bd
00000020: fbb7 0d3d ab21 10be 4139 b23d e48f cabd
00000030: 9a49 3cbd 1b59 04be 8573 523e b6fd bb3d
0.00018255328 -0.10030082 0.14386168 -0.012210865 0.06915748 -0.09340614 -0.019488398 -0.079457425
0.034599286 -0.14075343 0.087023266 -0.09890726 -0.04596863 -0.12924616 0.2055188 0.09179251

features.stage2.0.weight f4 [32, 16, 3, 3]
00000000: 6b5d 0b3e aa20 26bd 2854 afbc d2cd 21be
00000010: 04a8 1bbe 2718 0abd f518 59be b865 97bd
00000020: 582a 61be 2648 fb3c 7a3e aa3c 230f 283d
00000030: 3136 8e3d a963 0cbd e4dc b33d d1bd ecb9
00000040: ea34 ee3d da2e 47bd 03d6 743d c9d8 d53d
00000050: ca59 ca3d ec7f 913d 6e42 06be 21c0 5f3d
00000060: dab3 81bd b4c5 613d 1bb0 c0bc b086 54be
00000070: e3f6 0cbe 220f 81bd 1d75 65bd dcf9 ddbc
00000080: 9c8b 00be 8930 5b3d 80c9 d33d 4b42 753e
00000090: 8672 ae3e b6f4 5b3e 947d d53d dd88 fb3d
000000a0: f401 723d 7c11 253c 9a48 f53d 78f7 423d
000000b0: 8cc5 ddbd cade 543c dc36 473d 8ef0 8c3e
000000c0: c18b dfbd 08da b43d 1861 3f3d ecea 65be
000000d0: 27c3 2bbe 2cf9 ed3b 1265 32bd b222 8c3d
000000e0: 4af7 98bc 0058 313e d98e be3d 8cee 4c3d
000000f0: 47cc 81bd b5b9 f6bd 5c1f 86be abca cc3d
00000100: 9588 10bd 67e0 ca3d 7945 90bc 485a 023d
00000110: 639f 64bd 2fb5 423e 8aa0 a63c bc32 bfbd
00000120: 0917 17be 200c b9bd 22bc e2bd 2dd9 173e
00000130: c069 ac3c 3163 e53b 1090 283e f531 c23d
00000140: 0382 8f3d 45ab 4fbc 9f3c 7bbe 9119 c8be
00000150: bd45 9bbd 13bf ac3d c6a7 7fbc 0b97 88bd
00000160: 51fe 6d3d b2e5 d03d f11b 1a3e f698 a0bb
00000170: dda9 793d 2a52 3c3d a4c7 443d 74a5 1e3d
00000180: d0a9 a6bd e18b cb3d 2e80 993c 2117 693e
00000190: 9588 05bd 2d34 9f3b c614 9e3d 3c77 93bd
000001a0: ff7b 81bc 4918 6c3e c8d1 2d3c 97ae 08bd
000001b0: 4c40 453c f8aa 80bd e1a5 debc 87fb 1c3d
000001c0: 46a6 d13c 62af 8a3d 2359 e3bd 3655 893d
000001d0: e946 a93d d4eb d0bd 7fb0 d8bc 87d5 00be
000001e0: f68f 303e c4ad a43c 5b34 473d 5078 0abd
000001f0: 8105 873d 8060 813b 39eb ed3c 0aae febd
00000200: 6c09 0fbd 1fab 4dbd 413c c3be f1ba 28bc
00000210: d24e c5bd 4fee a9bd 0124 2bbd 9fd4 81bd
00000220: 1797 0fbe 8659 eabd 38df 76bd eb5f 39be
00000230: abde 95be 404a 963c 2ab3 22be 5484 a53b
00000240: 623e 69bd 04fa d93b cab6 883e e632 eabc
00000250: edc2 9c3d f7d6 413d 552e 1bbe cf5e 02be
00000260: 1b86 aabc 1177 81bc b26c 8e3d 3b91 dd3d
00000270: b50f bcbd 0672 4ebd ebe8 f73d 2fd3 19be
00000280: 2f33 663c 298d e739 183e 3b3e ece3 483e
00000290: 7e48 6cbd 98a0 00be 19ff 31be f267 0dbe
000002a0: 36aa 9cbe 66af 553d a71c 7d3d 0ddb 233d
000002b0: 9ad6 793d 8537 4abb 9b87 e7be d8c8 91bd
000002c0: 9db9 9abd 8680 3bbd 448b 9f3d ca1c 9cbd
000002d0: 8d32 e9bd f48b afbd cc9f b53d 5101 1f3e
000002e0: f84c 3bbd f20a ba3c 76eb 81be 5242 48be
000002f0: e7eb 8ebc 7692 7fbd dec6 8f3d 4b2a f03c
00000300: 9950 24bc d9ff 0ebb d623 30be 8d1d 3a3c
00000310: 953c 42bc 8f4c 443d fa54 533d dfec 063e
00000320: de87 4f3e 63ad af3d 4082 ae3d 4e80 a73d
00000330: ea29 a73e d2ff 2ebc e2f0 873d b34d 4abe
00000340: 26dd cfbd a4fe 49be c514 eabc f933 1abe
00000350: fce0 483d 2090 a0bd 5ab9 ddbd 025f c23d
00000360: 2d1d 323d 2290 073d b1fd 2c3e 7786 093e
00000370: 5fb4 abbd 260d 0dbc f869 7c3e 54d6 053e
00000380: 27aa b2bc 93ca 23be 4423 a5bb da73 48be
00000390: e1f5 eebd 13a4 a83d f749 4ebd 69fe f7bd
000003a0: 6646 883d 138f 55bd b493 5d3e f950 b73d
000003b0: f045 333d eec6 1fbd 768e a4bc 9d96 ebbd
000003c0: 44a5 cabe 3345 44be 0a3d e1bd 1173 a93d
000003d0: 9063 0ebe a6db e9bd 83f1 cd3d eb74 c1bd
000003e0: 3769 ecbd fb8f fabc 0e39 20be 0a43 023e
000003f0: 2246 c23c 9e1b 933c bb53 fbbc f072 543e
0.13609855 -0.040558495 -0.021402434 -0.1580117 -0.15200812 -0.03371444 -0.21200927 -0.07392448
-0.21988809 0.030674051 0.020781744 0.04103006 0.0694393 -0.03427473 0.08782366 -0.00045154852
0.11631186 -0.048628666 0.05977441 0.10441739 0.09880407 0.07104477 -0.13111278 0.054626588
-0.06333132 0.055120185 -0.023521474 -0.20754504 -0.13766055 -0.063017145 -0.05601989 -0.027096681
-0.12553257 0.053513084 0.103411674 0.2395107 0.3407175 0.21480069 0.10424343 0.12281964
0.059083894 0.010074969 0.11976738 0.047599286 -0.10828695 0.01299257 0.048636302 0.2752728
-0.10915328 0.08830649 0.046723455 -0.22452897 -0.16773663 0.0072623696 -0.04355342 0.06842555
-0.018672604 0.17318726 0.0930459 0.050032184 -0.06337791 -0.120471396 -0.261958 0.09999593
-0.035286505 0.099060826 -0.017611252 0.03182438 -0.055816066 0.19014429 0.020340223 -0.09335849
-0.14754881 -0.09035516 -0.1107104 0.1482894 0.02104652 0.00700035 0.16461205 0.09482185
0.0700722 -0.012675111 -0.24534844 -0.39082006 -0.07581661 0.08434882 -0.015603965 -0.06669434
0.058103863 0.10200061 0.15049721 -0.004901047 0.06095301 0.045976795 0.048041955 0.038732007
-0.08137858 0.09938789 0.018737879 0.22762729 -0.032600958 0.0048585148 0.07718806 -0.072004765
-0.015806196 0.23056139 0.010609098 -0.033369627 0.012039255 -0.0628261 -0.027178707 0.038325813
0.02559198 0.06771733 -0.11100986 0.06705706 0.08265478 -0.10201231 -0.026451347 -0.12581454
0.17242417 0.02010239 0.048633914 -0.033806145 0.06592847 0.0039482713 0.029042827 -0.12435539
-0.034921095 -0.050212022 -0.38131908 -0.010298477 -0.096341744 -0.08297407 -0.041782383 -0.063393824
-0.1402248 -0.114428565 -0.06027147 -0.18102996 -0.29271445 0.018345952 -0.15888658 0.005051175
-0.05694426 0.0066521186 0.26701957 -0.028588723 0.07654367 0.047324147 -0.15154393 -0.12731479
-0.0208159 -0.015803846 0.06954326 0.10818716 -0.091826834 -0.05040171 0.121049725 -0.15021966
0.014050289 0.00044164926 0.18285406 0.19618195 -0.05768632 -0.12561262 -0.17382468 -0.13809183
-0.3059861 0.052169226 0.061794903 0.040003825 0.060995676 -0.0030855846 -0.45220646 -0.07118386
-0.07554934 -0.045776866 0.07790235 -0.076226786 -0.11386595 -0.08571616 0.088683695 0.15527846
-0.0457277 0.022710297 -0.25374955 -0.19556549 -0.017446471 -0.062395535 0.07020353 0.029317042
-0.010028982 -0.0021819978 -0.1720117 0.0113595845 -0.011855264 0.047924574 0.05159471 0.13176297
0.20266673 0.08577993 0.08520937 0.08178769 0.32649165 -0.0106811095 0.066377416 -0.19756202
-0.101496026 -0.19726044 -0.028574357 -0.15058888 0.049042687 -0.0783999 -0.10826369 0.094907776
0.043484855 0.03309644 0.1689365 0.134302 -0.083840124 -0.008609092 0.24649799 0.13070041
-0.02180965 -0.15995245 -0.0050396044 -0.19575444 -0.116679914 0.0823442 -0.050363507 -0.12109072
0.066540524 -0.0521384 0.21638376 0.08950991 0.04376787 -0.039008074 -0.020087462 -0.115033366
-0.39579213 -0.19167022 -0.109979704 0.082739 -0.13905168 -0.11418848 0.1005583 -0.094461285
-0.11543506 -0.030586233 -0.15646765 0.12720886 0.023715083 0.017957505 -0.030679574 0.2074697

features.stage2.0.bias f4 [32]
00000000: c95f 063d 83a0 ffbd 4594 993d ef8a e2ba
00000010: 016d df3d 0b02 43bd f56d c9bc 2b3f f3bd
00000020: 3666 b83d 697c 68be 9ab1 87be b7cd 8e3d
00000030: b21d 3cbe 29ad 25be 44c2 c0bd 3686 d33c
00000040: af75 51bd eb95 f4bc a86b 6f3b 3677 d53c
00000050: ae29 17bd 2bcb 5a3d 0033 52be 56b9 34bd
00000060: 0233 62bd 4e81 a8bd ab86 c63d 8b03 71be
00000070: d301 3dbe e814 02be 9430 13bd 045e 7dbc
0.03280619 -0.12481787 0.07498983 -0.0017283837 0.10909463 -0.04760937 -0.024588564 -0.11877283
0.0900387 -0.22703709 -0.26502687 0.06972831 -0.18370703 -0.16179337 -0.09412053 0.025820833
-0.051137622 -0.029856643 0.0036532674 0.02605782 -0.036904983 0.053416412 -0.20527267 -0.044122063
-0.055224426 -0.08227788 0.096936546 -0.23536508 -0.18457727 -0.12703288 -0.035935 -0.01546431

decoder.init_decoder.0.weight f4 [128, 32]
00000000: a730 a6be 45b8 f73d bbfc 48be ad02 35be
00000010: 628d b1bd d888 c0bc c0df 73be 62ab fcbc
00000020: 5e23 d3bd fac1 553d 5991 93bc ac48 54bd
00000030: 98b7 13be 26fb 3fbe 62e6 a0bd 1ccc 57be
00000040: 4c2a 59be 9c68 a9be 2e64 8bbe 3b84 23be
00000050: 074e eb3d 7fd3 15bd 8bde 1b3e 3f42 2d3d
00000060: cbc8 ca3d 3ed1 12be 40c4 a3be 978b 7a3c
00000070: c3a8 fe3d a99e d93d d46e 1abe 0db4 6bbd
00000080: cb6e e0be 3736 f33c 89e6 3dbe a08f 8abe
00000090: 1f99 26be 9366 8a3d 6039 82be b029 4a3d
000000a0: ac92 4dbe 9298 9d3d ff01 403e 73ac 48be
000000b0: c0ac 95be e954 81be 6e9f bfbe 2312 7dbc
000000c0: c0ba 043d 6506 84be 276d 1dbe 1359 7d3d
000000d0: c342 89ba 90dc 38be 16bd 96bb f0b8 fe3b
000000e0: 6241 7fbe c065 52be 9e35 fcbc d5a5 f13d
000000f0: 944a a23d 012c 2f3c ac11 8abe 6ac7 9abb
00000100: f1e5 ccbc 948d ce3c 56a2 ab3d 10e0 65bd
00000110: 27d6 ed3d 3e96 e43c 6432 8fbd 2a29 85be
00000120: dfe0 dd3d 4830 85be d233 aa3c 3138 af3d
00000130: 5368 8cbe 5b0f 88be b0c6 1b3c 9fed 43be
00000140: a9a1 19bd d9c3 d23c e0c8 91be 9c7a 953d
00000150: e3b7 a2be 5975 913c 3cb1 903d 5167 71be
00000160: f3ad aabd 3d87 a3be 4759 8cbd 21e6 85be
00000170: a9e4 953d fb04 ebbd de1d 203c 77e7 babe
00000180: ba7b 73be 6087 a43b d171 53be 1544 6fbe
00000190: afe1 72bd 36ed 1eba d5ba 0fbe 8e9e d0bc
000001a0: fd0b 41be 6244 9d3d 6dba 243e 7de7 62bd
000001b0: efca 7abd 5703 bbbd e1f5 82be e151 7e3d
000001c0: 7c0c 80be e01e 9abe 511f 54be 1dee 3d3c
000001d0: 73ad 4e3c fd6d e2bd 0d13 c5bb 60d0 003e
000001e0: 9f48 a6be c423 92bd bf8f 003e 2ce6 223e
000001f0: ac29 193d 7a06 a2bc e1dd edbd a80b 073d
00000200: 1fde f8bc e2bd 453c 5b5a a63d f9a3 a4bd
00000210: c892 243d 5d96 68be f773 d5bd 6b6c 97be
00000220: ccd0 0c3e 0386 e8be 1d78 aa3d b3e4 0abc
00000230: 13c9 10be 4e6c 7cbe 8cc4 1e3c 435d 66be
00000240: aa66 90be 016f a9bd 548b 4cbe faf3 60be
00000250: 53a8 94be d4d6 343d 564f 973c d6c0 863d
00000260: 43c4 cdbd 1f05 39be d1f6 9fbd 4446 e43d
00000270: 9f2d 363e 2030 24be 1504 523d d67b 8cbe
00000280: f383 4cbc 6771 12be 11fb 953d d30a 24bd
00000290: 08f7 163e 19e1 8abe 0b76 163d 9467 89bd
000002a0: 89eb 22bc 0d5d 88be 76cc 84be 7d1e 21bd
000002b0: bfff 87bd 0ff1 e0bd 0536 603e b95e ae3c
000002c0: 97ec 02bd 4aed 82be 0066 b63d 70ee b6bd
000002d0: a73a abb9 e406 2f3e 59e9 1fbe 1ea9 8c3d
000002e0: 08df 80be 46b3 893c 4187 bb3d b14e 83be
000002f0: 5e99 acbe 28e6 f73c 59ce 013e 3264 7a3d
00000300: 6e92 033d 3d61 b7be 1306 6d3d 9f60 493d
00000310: 8842 d8bd cefd 133e a214 673c d07f 0b3e
00000320: ec10 0e3e af96 edbc 151c cc3d 64f0 88bd
00000330: cf74 643d d499 be3c 6371 1f3e f4cf 173d
00000340: 544b 2ebe 745b 0e3d 5f4b 01bd c1b8 193e
00000350: c3b0 92bc 8d70 3bbd fb49 9dbe 28d1 3fbe
00000360: 69f1 2e3a 55e5 70bb 06f2 9e3c 46d2 183d
00000370: c44e d93c 55d4 96be 5d8d 7d3d d5ad 523b
00000380: 110b fd3c 4f02 d6be 25fa 183e a717 853d
00000390: 213f d2bd 3dab 233e 8e85 bf3c fe6d 013e
000003a0: a522 b8bc 74ed aabb 07bc 0d3e 55bb 92bd
000003b0: ee15 51bd fdae 953d df07 d93d 1e7b 833d
000003c0: 38c5 a5be da46 5e3c c354 31bd 6b06 e73d
000003d0: 47de 323c af55 66be 3a25 b5be cce2 71be
000003e0: f920 173d 1e30 b1bd c77e 6bbb 0742 443d
000003f0: 9460 b03d c5de 8abe 29c1 eb3d 5f47 113c
-0.32458994 0.120956935 -0.19627659 -0.17676802 -0.08669545 -0.023502752 -0.23815823 -0.03084344
-0.1030948 0.052186944 -0.018013643 -0.051827118 -0.14425504 -0.1874815 -0.07856442 -0.21073955
-0.21207541 -0.33087623 -0.2722487 -0.1596841 0.11489492 -0.03657865 0.15221612 0.042299505
0.099015795 -0.14337632 -0.31985664 0.01529207 0.124345325 0.10625965 -0.1508134 -0.057544757
-0.43834528 0.029688938 -0.18544973 -0.27062702 -0.16269349 0.06757846 -0.254344 0.049356163
-0.20075482 0.07695116 0.18750761 -0.19597034 -0.2923336 -0.25260094 -0.37426323 -0.015446219
0.03240466 -0.2578613 -0.1537367 0.061852526 -0.0010472167 -0.18052888 -0.0046001775 0.007773511
-0.24927285 -0.20546627 -0.030787285 0.11799208 0.07924381 0.010691644 -0.26966608 -0.004723479
-0.025011988 0.025213994 0.083805725 -0.056121886 0.11613112 0.027903672 -0.06992033 -0.26007968
0.108339064 -0.26013398 0.020776663 0.085556395 -0.27423343 -0.26574215 0.00950782 -0.19133614
-0.037507687 0.025728153 -0.28473568 0.072987765 -0.3178092 0.017756151 0.07065055 -0.23574568
-0.083339594 -0.31939116 -0.06852966 -0.26152137 0.07319004 -0.11475559 0.009772746 -0.3650472
-0.23777667 0.005021021 -0.20648886 -0.23365815 -0.05929726 -0.0006062569 -0.14036115 -0.02546623
-0.1885223 0.076790586 0.16086741 -0.055396546 -0.06122869 -0.091314964 -0.25578216 0.062089805
-0.25009525 -0.3010168 -0.20715071 0.011592415 0.012614596 -0.11056135 -0.006014234 0.12579489
-0.3247728 -0.07135728 0.12554835 0.15908116 0.037393257 -0.019778479 -0.11614586 0.0329701
-0.030379353 0.012069197 0.08122703 -0.08039088 0.040179044 -0.22713609 -0.10422509 -0.29574904
0.13751525 -0.45414743 0.08323691 -0.008477378 -0.14139204 -0.2465069 0.009690415 -0.22496514
-0.28203326 -0.082731254 -0.19975024 -0.2196807 -0.2903467 0.04415019 0.018470448 0.06579749
-0.100471996 -0.1806836 -0.07810748 0.111462146 0.1779084 -0.16033983 0.051273424 -0.2743823
-0.012482631 -0.14301072 0.07323278 -0.040049385 0.14742672 -0.2712486 0.03673367 -0.06709209
-0.009943851 -0.26633492 -0.2593724 -0.039335717 -0.066405766 -0.10983478 0.21895607 0.021285402
-0.03196391 -0.25571662 0.08906174 -0.08932197 -0.0003265936 0.17092472 -0.15616359 0.06868194
-0.2517016 0.016809117 0.09156657 -0.25645974 -0.3371076 0.030261114 0.12676372 0.06113071
0.032122068 -0.35816374 0.05786712 0.04916441 -0.10559565 0.14452288 0.01410404 0.13622975
0.13873643 -0.029002516 0.09966294 -0.06686476 0.05577546 0.02326671 0.15570597 0.037063554
-0.17020923 0.034755185 -0.03156602 0.15011884 -0.017906552 -0.045761634 -0.30720505 -0.1873213
0.0006673546 -0.0036757786 0.019402515 0.037309907 0.026526816 -0.2945887 0.061902393 0.003214707
0.030889066 -0.41798636 0.14939173 0.06498652 -0.10265947 0.15983291 0.023379114 0.12639615
-0.022477457 -0.005216295 0.13841258 -0.07164637 -0.051046304 0.07308767 0.105972044 0.06419967
-0.32377028 0.013566697 -0.043293726 0.11280521 0.010917253 -0.22493623 -0.35379964 -0.23621672
0.03689668 -0.08651756 -0.003593372 0.04791453 0.08612171 -0.27123085 0.11511452 0.008867114

decoder.init_decoder.0.bias f4 [128]
00000000: c7bd 22be 788b fb3d 9077 693e 839b bb3d
00000010: 8bb5 123e 2242 f4bc f948 11be 2db1 4ebe
00000020: 768d 56bd c809 63be 1d50 c1bd 6fc8 813d
00000030: 96ac 353e 0d7c 083e e12b 8ebd efc9 203e
00000040: e0d2 d63d 9596 f23d 9cc6 053e bf06 61bd
00000050: 46ec 3fbe afc8 dcbc 869e 6fbe 4cdb 0cbd
00000060: cc4e ee3d 6d96 1cbe d1cd 7e3d 3286 fc3d
00000070: cd5f b2be f94b 99be b5e0 ab3d b8d2 7b3d
00000080: 6271 31be e3b9 18be 6776 803c 51f8 aebd
00000090: 2be0 e3bd 6c3f 2d3e 06ca bdbe fdfa 63bd
000000a0: 107f 093e 6442 b1bd f14c 383d 18ea 2abd
000000b0: a2e7 253e 881c 173d 352a e93d 2979 6ebc
000000c0: d907 523e 1c36 6ebc 6a4d 2dbd cb09 09be
000000d0: c79d f4bc 05b1 0b3e cdea 58be 4fa3 073e
000000e0: 0667 593d 625a 253d 8b15 9bbe 59d1 583d
000000f0: 2069 b53d 3e9a 113e be73 08be c099 133e
00000100: dfc4 b4bc 9efb 00be dc50 b0be e792 613e
00000110: 8bc5 753d 7c40 103e 429e 1dbe 8cd9 e0bc
00000120: b3c2 a13d 7e59 e53d c551 7c3c 6eef 89bd
00000130: a0c8 04be d808 883d b96e db3d 41e3 0f3e
00000140: 2982 b7be b4a4 113e dec3 103e 2c8e 203e
00000150: 6908 203b f9c7 e7bd 29ba cf3d ee24 d93d
00000160: 82cb 013e 13b2 4d3e 8a76 c63c 6149 003e
00000170: c1eb bebd 90d6 febc 60c4 cf3d d32a 4b3e
00000180: 2d99 5fbe b952 98be 9ae3 b73d 5d04 27be
00000190: 719a 27be 1959 4dbe 64ae 84bd e16f 7cbe
000001a0: 81ed e93d c759 60bc a222 193e fe4b e43d
000001b0: 9669 e13d 5d7e 7d3c b67a 86be aafa 7f3d
000001c0: 3ba6 8fbd e278 053d c89a e03d df3d aa3d
000001d0: 8b2b f0bd 2432 0d3e 60d8 ba3a c7ae 823b
000001e0: 94a8 f13d 763b 2ebd 726e f93d e66a 3f3e
000001f0: efe6 93bd 46a1 5c3d d07b 673d 8340 6fbe
-0.15892707 0.12282461 0.22799516 0.09160521 0.14327066 -0.02981669 -0.14187993 -0.20184775
-0.052381 -0.221717 -0.094391085 0.06337058 0.17741618 0.13328572 -0.06941963 0.15702032
0.1048944 0.118451275 0.13064045 -0.054938074 -0.18742475 -0.026951162 -0.23400316 -0.034388825
0.11636123 -0.15291758 0.062208 0.12330283 -0.34838715 -0.29940775 0.08392469 0.061480254
-0.17328408 -0.1491466 0.015681459 -0.08543456 -0.11126741 0.16918725 -0.37068194 -0.055659283
0.13427377 -0.08655241 0.044995252 -0.041727155 0.16201642 0.036892444 0.113850035 -0.014555254
0.20510806 -0.014539268 -0.042310156 -0.13382642 -0.02986039 0.13641746 -0.2118332 0.13245891
0.053076766 0.0403694 -0.30289873 0.052934024 0.08857942 0.14218995 -0.13325402 0.1441412
-0.022066532 -0.12595984 -0.3443669 0.22028695 0.060002845 0.14087099 -0.15392402 -0.027447484
0.07898464 0.1119871 0.015400355 -0.06735121 -0.12967157 0.06642312 0.10714478 0.14051534
-0.35841492 0.14222986 0.14137217 0.15679234 0.0024419075 -0.11317439 0.10142929 0.10602747
0.12675288 0.20087461 0.024226446 0.12527992 -0.0932231 -0.03110817 0.101448774 0.19840555
-0.21835776 -0.29750612 0.089789584 -0.16310258 -0.16367508 -0.2005352 -0.06478575 -0.24652053
0.114222534 -0.01369328 0.14954618 0.11147307 0.11006467 0.015472022 -0.26265496 0.06249491
-0.07014128 0.032585986 0.10967022 0.08312582 -0.11727055 0.13788658 0.0014255159 0.0039881202
0.11799732 -0.042537175 0.12179269 0.18693122 -0.072217815 0.05386474 0.05651456 -0.23364453

decoder.decode_stage1.0.weight f4 [256, 128]
00000000: 7187 f03d 3eca 593a ff18 26be 08eb 403d
00000010: f7f3 a9bd ab84 b23c 0ad1 ff3b 2a53 95b7
00000020: 947a 12be 3d29 1c3d c4e8 223e 4562 cbbd
00000030: 40cf 1abe d178 043d d0a6 aeba d8de 593d
00000040: 3c7c 37be 2e31 eebc 568b 14be cf8a 97bc
00000050: 05ca a03c 9a4b 82b9 ed9d 86bc a84f 0c3c
00000060: 7d19 d4bc 02c6 9c3d cd6b 0d3d c9d6 f53c
00000070: 94be 6f3d 1d87 173e 2c6e 2c3d 5e8f ca3c
00000080: 224e 813d 0752 753d e026 983d 21e9 143d
00000090: 1d15 92bd 7ab7 0c3d 16c9 693b db57 99bb
000000a0: e773 02be 6e6f 203b 85aa 0abc 9a32 bcbd
000000b0: 83b5 423d 623e 32bd 3e4c dd3c c521 693c
000000c0: 2fdc f4bd 2dec b73a f04e a3bd 742c a4ba
000000d0: a376 28bd 3421 ecbc f52f 37bd 4695 cfb9
000000e0: 5458 bfbd 546a 1bbd 3417 0ebc ac89 9ebc
000000f0: 6bd0 5d3d ee59 f4ba fb21 f23c 837f 0b3d
00000100: 5f71 d23c 9545 43bd 1638 a03d 419d cbbb
00000110: 6c88 963c fd29 ec3b 455e f73c 5121 a43c
00000120: 8874 22be 3acd acbd 8aa5 5dbd e183 853d
00000130: a3c2 d83d b4c1 e2bc 9188 2dbc 9536 4d3c
00000140: 8a3d bb3d 1829 fa3c 5e9f 163e 612f 54bd
00000150: b26e fcbd 8260 c4bb 7fdc 1b3c 4b70 5a3d
00000160: e01f 25be 39d9 6a3d 3abf 433d a8bd 863d
00000170: 4aa1 bb3c cc93 9dbc df8b 3c3d 3411 383d
00000180: 0c46 163e b7c9 c83c d2e3 b83d e911 c53c
00000190: 6c54 443d 5219 9b3d d23a 683d 9a9f 6a3d
000001a0: 3197 13bd 57cd 21bc fbaa 23be 5576 043d
000001b0: 4a6e 493d 1a46 94bd 0dd1 213e 205a b43c
000001c0: 59ea 143d fe52 9f3d fe0b 0abe 1f1f a6bc
000001d0: f88d cb3c 0463 3abe 38f6 47bc e7b9 1e3d
000001e0: fbd7 55be 851d 563d 7bc7 903c ab49 973d
000001f0: 466a 0a3e d8dd 1dbc 691f 45be e70f 813d
00000200: 731e 993d b910 cf3d aef0 3bbe de2e 993c
00000210: 4bed 49bd 69e3 1e3b 37f4 3a3c cb3a beba
00000220: a2e6 25be 1e5c 1f3d 8ed3 573c 0638 89bd
00000230: 478a 25be 4533 2cbd 4d60 ab3d 0c6e ce3c
00000240: 7358 42be 660e 5abd 4cde 2abe 3e58 803c
00000250: 163b fd3b c455 1cbd d6ae 1bbd ddfb 64bc
00000260: 5e5a e83c 69a7 663d 9e54 74bc 27c1 703b
00000270: 6346 03ba 9cf1 b83c d1f4 74bb ce19 d33b
00000280: 5a49 a6bd 7ed5 95bb 5adb 313d 2bf8 a73c
00000290: 2d7c 803b d77c aa3d 58fa 253c eb70 48bd
000002a0: 5148 b3bd f8bb 94bc f3eb 543d 0258 a6bd
000002b0: 3c6d 17ba e77b ebbc dbcd 5b3d 5262 fe3d
000002c0: 9e16 4bbe f8fe 5f3c ac92 b0bd ee47 eebc
000002d0: df4a 003d 35a1 8f3d 48d3 75bb ce81 72bd
000002e0: 551b d9bd 60aa 84bd 9a2e 763c 4976 453d
000002f0: 9edd ab3c 5da9 523d ba3e 55bc acd4 9f3d
00000300: 0128 283d 5bdd 32bd cf38 c63c fa47 353c
00000310: 223a a0bc f1ac abbd c09b a6bd 66f4 d33c
00000320: 789c 48be 9b55 f6bc 01b1 e3bc 68d8 953c
00000330: bc43 a9bc 8c4b 8cbd 856d d43d a412 183d
00000340: df93 f23d 7a6f 4e3d 109d 4a3d 4122 c1bd
00000350: 7fd2 5abe 78da 8ebc c603 52bd 4c79 783d
00000360: f6aa 09be 5a28 753c bc2f 093d a800 fe3c
00000370: ed56 0dbd 0694 93bc 1e0e 023d 323e 9c3c
00000380: e0a5 0a3e e688 74bc da0c a33c 3695 b0bd
00000390: 7b5d a33d 89c2 1d3d e8b0 8a3d 11a7 f1bc
000003a0: 7540 fdbc f290 623d e8bc 61be f5b5 933d
000003b0: 1147 62bc b765 6cbd d06e cf3d d13b 8d3d
000003c0: 8440 fa3c f5ab c63d b44b 1ebe 8e12 e63d
000003d0: 48a4 a63d 334a 1cbe e2d3 b83d b120 9bbd
000003e0: 2c09 20be f668 cf3c 4ada 573d c54f a03d
000003f0: 4c0b e73d 2a02 9d3c e700 1cbe c2f4 ebbb
0.117445834 0.00083080295 -0.16220473 0.047099143 -0.08298486 0.021791777 0.007806902 -1.780091e-05
-0.14304572 0.038125265 0.15909106 -0.09930853 -0.15118122 0.032341782 -0.001332486 0.053191036
-0.17918485 -0.029076185 -0.14506277 -0.018498806 0.01962758 -0.0002485186 -0.016432727 0.008563913
-0.02589106 0.076549545 0.034526635 0.030009644 0.05853136 0.14797635 0.042097256 0.024726566
0.06313731 0.05989268 0.0742929 0.03635514 -0.07132933 0.034354664 0.0035672835 -0.0046796626
-0.12739526 0.002448048 -0.008463507 -0.09189339 0.047536384 -0.043516524 0.027013894 0.014229243
-0.11956059 0.0014032178 -0.079740405 -0.0012525455 -0.041128766 -0.028824426 -0.04472347 -0.00039593334
-0.09343019 -0.0379432 -0.008672524 -0.019352756 0.05415384 -0.0018642524 0.029557219 0.03405715
0.025688825 -0.04767378 0.078231975 -0.0062138145 0.018375598 0.007207154 0.030196318 0.020035418
-0.15864766 -0.08437581 -0.05411295 0.065192945 0.10583999 -0.027680255 -0.010591642 0.01252522
0.09142597 0.030537173 0.14709231 -0.051802997 -0.12325801 -0.00599295 0.00951302 0.053329747
-0.1612544 0.057336066 0.04778979 0.06579143 0.022904057 -0.019235514 0.04603183 0.04493828
0.14675158 0.024510248 0.09027828 0.024056392 0.047932073 0.07573189 0.05669672 0.057281114
-0.03603286 -0.009875617 -0.15983193 0.032339413 0.049177445 -0.07239933 0.15802403 0.022015631
0.036356304 0.077795014 -0.13481137 -0.020278512 0.02484797 -0.18201834 -0.012204699 0.03875151
-0.20883171 0.052274246 0.017673245 0.07387098 0.13517103 -0.009635411 -0.19250263 0.06301861
0.07476511 0.101106115 -0.18353531 0.018699106 -0.049298566 0.0024244434 0.011410764 -0.0014513371
-0.1620126 0.03890621 0.013172997 -0.06700139 -0.1616603 -0.042041082 0.08367977 0.025198959
-0.18979053 -0.053236388 -0.16686362 0.015667077 0.007727991 -0.03816773 -0.038008533 -0.0139760645
0.028363403 0.056312 -0.014912752 0.0036736222 -0.0005007742 0.022576146 -0.0037377367 0.006442285
-0.081194595 -0.0045725694 0.04342208 0.020504078 0.003921053 0.083245926 0.010130487 -0.048935812
-0.08754028 -0.018156037 0.05198283 -0.08122255 -0.000577647 -0.028745605 0.053663116 0.12421097
-0.19832847 0.013671629 -0.086217254 -0.029087033 0.031321403 0.0701317 -0.0037509967 -0.059205823
-0.10600916 -0.06477809 0.015025759 0.04820851 0.020979699 0.05143105 -0.013015443 0.07804236
0.041053776 -0.043668132 0.02419701 0.011064524 -0.01955897 -0.08382595 -0.08135176 0.025873374
-0.19590938 -0.030070117 -0.027794363 0.018291667 -0.020662181 -0.06850347 0.10372452 0.037127152
0.118446104 0.05039928 0.049466193 -0.094303615 -0.2136936 -0.017438158 -0.05127313 0.060662553
-0.13444123 0.014963234 0.03349279 0.031006172 -0.034506727 -0.018014919 0.031751744 0.019072626
0.13539839 -0.014925217 0.019903589 -0.0862221 0.07976814 0.0385156 0.067720234 -0.029498609
-0.030914525 0.055314012 -0.22044718 0.0721244 -0.013810889 -0.05771419 0.10128558 0.06896175
0.030548342 0.09700767 -0.15458566 0.11234008 0.08136803 -0.1526268 0.090247884 -0.07574595
-0.15628499 0.025318604 0.05269841 0.07827715 0.112814516 0.019166071 -0.15234719 -0.0072008083

decoder.decode_stage1.0.bias f4 [256]
00000000: 388e 083d 3944 95bc 7d4e f83d ce5a 673e
00000010: eb88 1e3e 4f06 483e 6e0a 6f3d 97ee 473e
00000020: 28b7 1d3e 6702 e93d 58a8 1b3e 6e04 1e3e
00000030: 86d6 e03c fc7b c23d 9bb7 9c3d 8bb6 2b3e
00000040: d4aa 123e 2389 0c3e 47af 453e e6a8 0f3e
00000050: 9616 373e a9d5 2f3e a4eb 273e f3c4 6f3e
00000060: fb1f eb3d c6dc 093e affd 4f3e adac a23d
00000070: 8aba 603d 3625 1c3e 7753 0d3e 1d1b 583d
00000080: 2f44 ed3d 8396 043d 3b4a ba3d 99e9 ae3e
00000090: c226 5ebd b0c0 7b3e 49ed 953d bcbe c13d
000000a0: 120f 403d 094e 5e3e db04 5e3e 8d36 033e
000000b0: 13aa 593e bdb7 3b3e 3b60 0c3e 1a39 d03d
000000c0: ddfc 8d3e 2fb7 de3d cf54 dd3d 83f3 f93d
000000d0: 4cc4 4a3e 5328 f93d d206 5c3e 68dd fc3d
000000e0: 9825 3e3e 955c ca3d 91f4 4d3e 3e1a 9e3d
000000f0: d87c c03c 52bf 7e3e 448f 1c3e 85bd 7f3e
00000100: a7e6 1a3e 77fe 83bb ed33 e13d 1d1b 693e
00000110: 248f 363e 4eaf 1a3e 9c88 fe3d 84f7 243e
00000120: 0d2f 583e 3079 003e 648c 6f3e 578a 563d
00000130: 6364 2b3e aa63 593e d4fb 8a3e 8cc2 033e
00000140: e471 f23d c286 92bb b515 203e 5f64 703e
00000150: a040 0b3e 7ac0 203e e0e6 a63d 17b0 6ebc
00000160: 049d 363e 5e7b 463e 5ab0 2e3e 64ac b13d
00000170: 22c7 623d 2a83 0b3e d3a2 243e 8098 9b3d
00000180: e8c6 2f3d 3aeb 0a3e dc2e 0d3e d17e 443e
00000190: f945 843c 6c88 393e ca6a 453e cdb8 cfbd
000001a0: f72c 7f3e 972b 4c3e 635d 223e 2140 d73d
000001b0: efd4 7b3e 61ad 373e 05ce 953e bc8a a53d
000001c0: 9fb0 f8bd 9069 183e 5d6a 383e 48cb 1a3e
000001d0: 9570 843e e4c8 f13d c2c4 1b3e 4793 6c3e
000001e0: bfd5 de3d 358b 093e 0be3 4f3e f422 8c3e
000001f0: 7cfb d4bd 4bbf 8abb 7bbe f93d 43ac 243e
00000200: 3bdf 2c3e 06f9 183e aa02 3f3e 45ba d83d
00000210: caae 923d 99f1 7fbc aaa8 bdbb bd90 cabc
00000220: 6165 6a3e 5b2b 6c3e 6b08 b63b 966b da3d
00000230: ed8b 083e dab5 203e 1154 483e 2e51 8c3e
00000240: 700d 653e 6b0c 433e d028 953e dfb0 af3d
00000250: f189 d13d 14cb 4bbc 7c03 323e 3bd8 d33d
00000260: baff 003e c6ed 253e fe60 2a3e 5277 313e
00000270: 391d 1f3e eb7c d33c 6e58 3f3e 2f91 8c3e
00000280: 21d6 163e 5288 e43d 4ff3 503e ec9d 213e
00000290: 041b 823e 8436 ee3d 50d3 4c3e b545 543e
000002a0: c76c 0c3e ed51 1a3d 0fca fa3d 97a2 6a3e
000002b0: e4bf 1c3e e8d6 123c 56b6 9b3e b144 853c
000002c0: e3ad 163e e26a 3f3e 883d 353e 67a9 663e
000002d0: fe4b 213e 87f6 743d 3c32 723e d324 c23c
000002e0: 6b03 d33d 6445 c63d 9f15 463e 14cb 4b3e
000002f0: f54e d83d 95a1 243e cd19 12bc eee4 503d
00000300: 9813 0e3e 787a 4a3e edd9 1e3e abda 3e3e
00000310: a4ae 333e f051 623e dc97 533e 76d8 673d
00000320: 1ce7 0e3e f8da 433e 4e78 e83d ba73 973d
00000330: 964a 4c3e a2a1 253e 20cc 183d 38be d93d
00000340: 349e 983e 0b57 793d f2cf 8f3d 110e 853e
00000350: 7def 5d3e 5892 5f3e d484 2b3e ddd7 943d
00000360: 8522 b43d e7e9 253d 057d 8f3e 76f4 1cbe
00000370: 64fb 663e ed3d 3a3e 40d1 033e e06e 563d
00000380: 1dc4 623e ddf5 683e 5073 ac3d 40a6 a43d
00000390: e79b 533e 27b0 513e bc18 7c3e 3f56 b9bc
000003a0: 734c b1bd f2fb 513e 0966 083e e6ea f23d
000003b0: 8118 6a3e 43a9 ec3d 34b1 4a3e 442e 133e
000003c0: 43b7 a33d bb21 243e 5201 2f3e d0aa 6a3e
000003d0: 57b7 503e 5a21 4b3e 5079 9e3d bd08 f2bd
000003e0: a0b0 bb3d 86a0 0c3e ebd8 613e d1a5 c93d
000003f0: bd53 8a3d e65c 383e 9689 663e e7cc 413e
0.033338755 -0.018221008 0.121243455 0.22593233 0.15481918 0.19533657 0.058359556 0.19524609
0.154019 0.11377411 0.15200937 0.15431377 0.027446043 0.094963044 0.076522075 0.16768853
0.14322978 0.13724189 0.19305144 0.14029273 0.1787971 0.17171349 0.16398484 0.23414974
0.11480709 0.13463125 0.20311616 0.079430915 0.054865398 0.1524857 0.1380137 0.052760232
0.115852706 0.0323701 0.090961896 0.34162596 -0.05423618 0.24585223 0.07320649 0.09460208
0.046889372 0.21709456 0.2168154 0.12813778 0.21256284 0.1833181 0.13708584 0.10167141
0.27731982 0.10874783 0.108071916 0.12204649 0.19801444 0.12165894 0.21486977 0.123469174
0.18569028 0.0988094 0.20112826 0.07719849 0.02349703 0.2487767 0.15289026 0.2497464
0.1512705 -0.0040281373 0.10996232 0.22764249 0.17828041 0.15105936 0.124284 0.16110045
0.21111698 0.1254623 0.23393399 0.052378025 0.16737513 0.21229425 0.27145255 0.12867182
0.11838129 -0.004471631 0.1563328 0.23475789 0.13598871 0.15698424 0.08149505 -0.01456835
0.17833334 0.19382998 0.1705946 0.08675459 0.05536569 0.13624254 0.16077738 0.075974464
0.0429143 0.13566294 0.13787407 0.19189002 0.016146647 0.18118447 0.19279018 -0.1014267
0.24919496 0.19938503 0.15855937 0.105102785 0.24592946 0.17937233 0.29258743 0.08083102
-0.12143063 0.14884019 0.18009324 0.15116608 0.25867143 0.11805895 0.15211776 0.23103057
0.108806126 0.1343201 0.20301454 0.27370417 -0.10399529 -0.0042342297 0.121945344 0.16081338
0.1688203 0.14938745 0.1865336 0.10582403 0.071622446 -0.015621566 -0.0057879286 -0.02472722
0.22890235 0.23063414 0.0055552027 0.10665052 0.13334627 0.15694371 0.19563319 0.27405685
0.22368407 0.19047706 0.291327 0.08578657 0.10231388 -0.012438554 0.17384142 0.10343977
0.12597552 0.16203985 0.16638562 0.17330673 0.15538491 0.025816401 0.18686077 0.27454516
0.14730121 0.111588135 0.20405315 0.15782899 0.25411236 0.11631492 0.20002484 0.20729716
0.1371337 0.037675787 0.12245571 0.22913586 0.15307575 0.00896237 0.3041255 0.016268106
0.1471477 0.18693116 0.17699254 0.2252556 0.15751645 0.05980542 0.23651975 0.0236992
0.10303386 0.09681204 0.19344185 0.19901687 0.10561935 0.16077264 -0.008917284 0.050999574
0.13874662 0.1977328 0.1551282 0.18638103 0.17547089 0.22101569 0.20663399 0.056602918
0.13955349 0.19126499 0.11351071 0.0739512 0.19950327 0.1617494 0.037304044 0.106319845
0.298082 0.060874026 0.07022084 0.25987294 0.21673389 0.2183317 0.16749889 0.07267735
0.087956466 0.04050627 0.2802507 -0.1532763 0.22556835 0.18187685 0.12872791 0.052351832
0.22145124 0.2275004 0.084204316 0.08039522 0.20664941 0.20477353 0.2461881 -0.022624133
-0.0865716 0.20506266 0.13320173 0.118612096 0.2286091 0.115557216 0.1979416 0.14373118
0.07993939 0.16028492 0.17090347 0.22916722 0.20382439 0.19836941 0.07737982 -0.11818073
0.09164548 0.1373311 0.22055404 0.0984608 0.06754253 0.18004188 0.22513422 0.1892582

output.weight f4 [10, 256]
00000000: 1f3d 28be 28e9 44be 6bb3 7c3c 9e9a cebd
00000010: 4b5c a53d f7c5 b93c 4c15 20be 1b36 a53d
00000020: cb97 5a3d e759 41be 6bb8 c33c 37c2 17be
00000030: b104 6e3d 317f 8e3d 58ef 55be 356a 2abe
00000040: 5dde 89be c76b 073e a570 8e3d c8f0 b93d
00000050: 14e5 6cbe ca54 933d 7bcc bb3c 97e2 363d
00000060: 2f3e cc3d 1c5e 4a3d 10f7 d83d db56 c6bd
00000070: 3a9f 88be 9eca a93d f3aa 0ebe 8f54 b83d
00000080: df82 0a3d 3353 32be 9da2 413d 0f6a 2b3e
00000090: 6d47 903d 1949 5d3d 352a 94be 3a1b 8fbe
000000a0: ef53 193d 0221 efbd 1acd fcbd 26a9 99be
000000b0: b643 9f3c f3d9 893d f8b3 79bd bb42 e53d
000000c0: 7ac0 4f3d f006 b83d 9b4c 653d cb66 5d3d
000000d0: 95f9 853d 35b3 bd3d d414 dabd 9fd6 ffbd
000000e0: 81c0 f03d dc58 863d db6e 8e3d aca6 da3b
000000f0: 44e5 58be e928 b83c 6fc9 10be 3c49 a53d
00000100: 0518 8c3d 498f 92bd 9393 af3d e1c3 45be
00000110: ca45 6a3d 456c 033d 5f62 1e3d 5753 68be
00000120: 0080 45be a024 42be 2333 b43d 2436 083d
00000130: 35d3 29be 1847 9d3d b774 083e 29ec 913d
00000140: 5f9f 7bbd c406 32be b62b c13d 68fc fd3d
00000150: 9950 953d 6bb6 6f3d df24 173e 8411 a43d
00000160: 7eff cd3d f664 c13d 79dd 903d 6ef2 873d
00000170: 2d7e 933c cca9 46be 86eb 53be 671d 5f3d
00000180: ef56 e8bd 4e6f e13c 2440 12bd 3188 94be
00000190: f7a2 423d fec0 2dbe f365 44be 3ffd af3d
000001a0: bf03 b83d 9fec 473d 3744 be3d 3199 2f3e
000001b0: 8eea 0a3e 414e 3fbe 2768 0b3e 1c3c 6d3d
000001c0: b361 4dbe 08c2 073d 9ca1 7f3d 03cb e5bc
000001d0: 627b 59be 1dbf af3d 969a 673d 2d01 d23d
000001e0: 13fd 393d 8c4e fb3d aa10 203e 96d3 083e
000001f0: 835e 12bd 7382 dfbd 143e f0bd bff0 313d
00000200: 79a8 d73d 0d3b bfbb 0404 7cbe a9ad 32be
00000210: 97d3 0c3d 6ccc fe3d e118 6dbe e758 563d
00000220: 2e63 c03b 60b6 513d a572 8fbe 3687 3a3c
00000230: 6e68 fdbd 9b5a 10bd 35fa a8be 649d 9d3d
00000240: 1f56 023e d1ac 30be daa1 973d 2516 823d
00000250: 3d85 6bbe 5f4e ba3d 4f0c c93d 99bc f4bd
00000260: d79f f23d 1c8f 3dbe 9ba3 2cbe 3e34 343e
00000270: 8922 683d 4775 e93c c860 0fbe 33a5 ee3d
00000280: e7e5 87be 0452 debd dba4 d63d 5919 24be
00000290: e316 cc3d d4e0 293d f528 92be 602c bf3d
000002a0: 28c3 c23c 940e 69bc a8f6 41be 0823 ac3d
000002b0: ad86 debd 403a 543d 9390 a1be 6240 26be
000002c0: 97c0 36be 0221 a0be 3afd 29be 8fdc 02be
000002d0: e387 c6bd bef0 3e3c d90a d7bd c1d9 bd3d
000002e0: 92eb 4cbc 2032 bfbd e671 ed3d ab67 d43d
000002f0: a633 60be 4075 a13d 8b8a 7cbd 6078 f73c
00000300: 1155 00be f186 87bd 9673 80be ea7a 683d
00000310: 308e 0f3d bf3c a5be 2df8 d83c aa2b d9bd
00000320: 6ec1 cfbd 3a57 a0bd ed39 9e3d 89f5 97be
00000330: dad3 e7bd 2192 493d 0fb0 23be 404f 4dbe
00000340: 2b58 0abe 07b1 9d3d e83a 8a3d f550 033b
00000350: 71f5 913d 948b cabd ddb7 d3bd ea6a d1bd
00000360: 4647 a4bc f41a 593d 8618 053e 964c 823d
00000370: 0dcb 97be b850 75bd e4af 96bd 8a97 533d
00000380: e364 003d 136b 663d 53f8 7d3d bb5f bf3d
00000390: 720d cf3d 1d09 61bc dc31 823d 366d 913d
000003a0: c8f3 8f3b 9fc2 5dbc 4c0a 823d ce39 2cbe
000003b0: 6698 b23d 66ac 0e3d 853e d23d 2d0a 9e3d
000003c0: 0a8a 3dbd 4189 89be 16a8 d43d 4a86 f0bd
000003d0: a56d 013e dab0 47bd 8600 cb3d a718 593c
000003e0: e6cc 233b 6327 b8bd 3a2b a93d d5bd 28be
000003f0: be81 953d 3b7a ac3d 9bf4 3b3d 8ee9 4cbd
-0.16429566 -0.19229567 0.015423636 -0.10088085 0.08074244 0.022677405 -0.15633124 0.080669604
0.053367417 -0.18881951 0.023891648 -0.14820181 0.058109943 0.069578536 -0.20892084 -0.16642077
-0.26927462 0.13224708 0.06955079 0.090791285 -0.23134261 0.071939066 0.022924652 0.044649687
0.09972798 0.049406156 0.105939984 -0.09684535 -0.2668398 0.08290599 -0.139324 0.09000503
0.033816215 -0.1741455 0.04727422 0.16739677 0.070448734 0.05402479 -0.2893845 -0.2795046
0.03743356 -0.116762176 -0.123438075 -0.30011863 0.019441467 0.06731024 -0.060962647 0.111943685
0.05072067 0.08985698 0.05598126 0.05405311 0.065417446 0.09262697 -0.10648504 -0.124921076
0.11755467 0.06559917 0.06954738 0.006672701 -0.21181208 0.022480445 -0.14139341 0.08070609
0.06840519 -0.07156236 0.085730694 -0.19313003 0.057195462 0.032085676 0.038668033 -0.22688042
-0.1928711 -0.18959284 0.08798816 0.033254758 -0.16584475 0.07679576 0.13325773 0.07125122
-0.061431285 -0.17385393 0.09432165 0.12401658 0.072907634 0.058523577 0.14760159 0.08011153
0.10058497 0.09443085 0.070734926 0.06638037 0.018004501 -0.1940071 -0.20695314 0.0544714
-0.11344706 0.027518895 -0.0357057 -0.29010156 0.047518697 -0.16968152 -0.19179516 0.08593225
0.089850895 0.048809644 0.09290355 0.17148282 0.13566038 -0.18682195 0.1361395 0.057918653
-0.200568 0.033144027 0.062409982 -0.028050905 -0.21238473 0.08581374 0.05654391 0.102541305
0.045407366 0.12270841 0.15631357 0.13361964 -0.035734665 -0.10913553 -0.117305905 0.043442484
0.105301805 -0.005835897 -0.24610907 -0.17449059 0.034381475 0.12441334 -0.23154022 0.052330878
0.005871198 0.051199317 -0.28017154 0.011384776 -0.12373434 -0.035242658 -0.33003393 0.076960355
0.12728165 -0.17253424 0.074039176 0.0635188 -0.23000045 0.09096979 0.09816801 -0.11950035
0.11846893 -0.18511623 -0.16859286 0.17598054 0.05667356 0.028498305 -0.14001763 0.11652603
-0.2654259 -0.10855487 0.104806624 -0.16025294 0.09965303 0.04147418 -0.28546873 0.09334636
0.023774698 -0.014224667 -0.18941748 0.08405119 -0.10865531 0.051813364 -0.31555614 -0.16235498
-0.17846905 -0.31275183 -0.16600505 -0.12779449 -0.09693887 0.011654077 -0.10500116 0.09270049
-0.012507336 -0.093357325 0.1159399 0.103713356 -0.21894702 0.07883692 -0.061655562 0.030208766
-0.1253245 -0.06617535 -0.25088185 0.056757845 0.03504771 -0.32272908 0.026485527 -0.106040314
-0.10144316 -0.07829137 0.07725892 -0.29679516 -0.11319704 0.049211625 -0.1598513 -0.20049763
-0.13510196 0.07699781 0.06749517 0.0020037268 0.07126892 -0.09889904 -0.103378035 -0.1022547
-0.020053517 0.05300422 0.12997636 0.06362264 -0.29647103 -0.059891433 -0.07357767 0.05165819
0.031346213 0.056254458 0.0620044 0.09344431 0.10109986 -0.013735083 0.06357166 0.071009085
0.0043930747 -0.013535171 0.0634962 -0.16818926 0.08720474 0.03483238 0.10265831 0.077167846
-0.046274222 -0.2686253 0.10383622 -0.117443636 0.12639482 -0.048752643 0.09912209 0.0132505065
0.0024993955 -0.089918874 0.08260198 -0.16478665 0.07300137 0.08421751 0.04588757 -0.050027423

output.bias f4 [10]
00000000: 16a9 a83c 37b8 d63d 2941 a63d 0931 a5be
00000010: ba33 23be d1fa af3d e475 52be d61c e23d
00000020: 8bb9 963d da04 d13c
0.020588439 0.10484355 0.08117897 -0.32263973 -0.15937701 0.08592761 -0.20552784 0.11040656
0.07359608 0.025515009
